RNN/saved_models/vanilla_lstm_model_lr_0.0001_epoch_1_predlen_8.pt (torch_old, 147450 bytes, 8 tensors)

weight f4 [64, 2]
-0.44792613 -0.61374193 -0.55327195 0.50541854 0.06581007 0.62354875 -0.67415494 0.33654177
0.06583279 0.13204396 -0.49088156 0.38915795 0.24751016 -0.33375663 -0.0063713905 -0.5690509
-0.036547247 -0.6940712 0.04324545 0.2810426 -0.16799578 0.32230884 0.34035492 -0.11036167
-0.23503242 -0.28119025 0.40779266 -0.45061213 -0.022281026 -0.17946732 0.17750803 -0.014964266
0.49259573 0.65488994 0.5216894 -0.5012655 -0.422838 0.40050325 -0.13205415 0.52527463
-0.18892664 0.41146627 -0.29504433 0.22683981 0.30389366 -0.6549722 0.017027903 -0.11140811
-0.107464954 0.054480784 0.5479531 -0.41965142 0.07865547 0.115243405 -0.42118147 -0.6497737
-0.2814513 0.32329458 0.013148991 -0.7123813 -0.23183575 0.53120273 0.17911705 -0.015077321
-0.22890583 -0.058149353 0.4424804 -0.14258905 0.25866854 -0.53548783 0.34532046 -0.553388
-0.23276924 -0.41509676 0.6791889 0.6821733 0.63443565 0.28675434 0.13712038 -0.46921888
0.61967945 0.4774287 0.14303224 0.07523708 0.38400266 -0.32473826 0.23339152 0.6404822
-0.63375545 0.3279951 -0.60737985 0.4636376 0.19000632 -0.7089854 -0.45571843 -0.39814878
-0.47069675 0.68362474 -0.67139304 -0.20708941 -0.67768115 -0.27518895 -0.07005669 0.4442406
0.031397745 -0.22569342 0.6304231 0.12519291 0.062584 -0.4112296 0.57943743 0.6450641
-0.67326576 0.15862201 0.4139033 0.5610236 -0.17983593 0.3611203 0.16555631 0.6611886
-0.6279643 -0.099207714 0.0037722054 -0.3679947 0.0013296978 -0.46076372 -0.051573705 0.4263937
00000000: 9356 e5be 311e 1dbf 3ba3 0dbf 1c63 013f
00000010: 6ec7 863d e4a0 1f3f 6b95 2cbf 344f ac3e
00000020: 58d3 863d 8836 073e d454 fbbe b63f c73e
00000030: 4e73 7d3e 26e2 aabe 19c7 d0bb 52ad 11bf
00000040: 91b2 15bd a6ae 31bf 2422 313d d1e4 8f3e
00000050: 1607 2cbe aa05 a53e 0043 ae3e 4d05 e2bd
00000060: 57ac 70be 2bf8 8fbe 33ca d03e a2b6 e6be
00000070: b386 b6bc 48c6 37be aac4 353e ae2c 75bc
00000080: 8235 fc3e dea6 273f 708d 053f f052 00bf
00000090: 397e d8be c30e cd3e 3439 07be 6678 063f
000000a0: fc75 41be b5ab d23e 0d10 97be b248 683e
000000b0: f397 9b3e 42ac 27bf 1a7e 8b3c ef29 e4bd
000000c0: 9616 dcbd 3e27 5f3d a846 0c3f 8ddc d6be
000000d0: 1e16 a13d bc04 ec3d 19a5 d7be 9257 26bf
000000e0: 631a 90be de86 a53e de6e 573c 9f5e 36bf
000000f0: 5a66 6dbe e7fc 073f 766a 373e de06 77bc
00000100: 4a66 6abe 042e 6ebd ca8c e23e dd02 12be
00000110: 3470 843e bb15 09bf d8cd b03e d6aa 0dbf
00000120: 0f5b 6ebe 9087 d4be 53df 2d3f e9a2 2e3f
00000130: 606a 223f 77d1 923e 4969 0c3e 753d f0be
00000140: 50a3 1e3f 8971 f43e 0b77 123e e615 9a3d
00000150: ff9b c43e 1844 a6be 30fe 6e3e a4f6 233f
00000160: cc3d 22bf f9ee a73e 3f7d 1bbf e861 ed3e
00000170: 0491 423e 1180 35bf ed53 e9be 28da cbbe
00000180: 2aff f0be 0802 2f3f 6ae0 2bbf 3f0f 54be
00000190: 837c 2dbf 91e5 8cbe e279 8fbd 8173 e33e
000001a0: ec9a 003d 2d1c 67be 6963 213f 9232 003e
000001b0: 0a2c 803d b08c d2be 0356 143f ec22 253f
000001c0: 255b 2cbf cf6d 223e 22eb d33e 3e9f 0f3f
000001d0: e926 38be c3e4 b83e 9887 293e a843 293f
000001e0: 45c2 20bf 6a2d cbbd 1b37 773b cd69 bcbe
000001f0: 4149 ae3a 39e9 ebbe f33e 53bd 4650 da3e

bias f4 [64]
-0.025232842 0.4027337 0.55900913 -0.5311868 0.1724758 -0.61334664 -0.3843437 -0.24842623
0.021101238 0.38469988 0.43085098 0.034065273 -0.36115217 -0.45704675 -0.06422736 0.30371618
0.5254594 0.2496542 -0.21243037 -0.31637692 0.6123332 0.053182837 -0.71202886 0.47258314
-0.67013925 -0.52996624 0.118040584 -0.35966706 0.110843115 0.6298568 0.21006702 0.061112564
-0.0004498009 -0.59828097 0.6123364 -0.014485785 0.19300191 0.25253233 0.16485362 -0.4476029
-0.679688 -0.09207172 0.6021489 -0.62649167 0.44789046 -0.48592705 -0.4871891 0.22401015
-0.56147915 -0.32184115 0.598523 0.3615782 0.70749724 -0.47942296 0.41524372 0.2858288
0.038233332 -0.66695225 0.28358015 -0.19889793 -0.6021787 0.30212972 0.70147204 0.56137615
00000000: 1bb5 cebc 1d33 ce3e 391b 0f3f dcfb 07bf
00000010: 7f9d 303e 4904 1dbf b3c8 c4be 7263 7ebe
00000020: 81dc ac3c 62f7 c43e 8098 dc3e 0788 0b3d
00000030: f0e8 b8be 0802 eabe a289 83bd b080 9b3e
00000040: 8284 063f 5aa5 7f3e 5987 59be 28fc a1be
00000050: dec1 1c3f 3fd6 593d 8647 36bf 6bf6 f13e
00000060: 3f8e 2bbf deab 07bf 43bf f13d 4826 b8be
00000070: b701 e33d 4c3e 213f cf1b 573e 2b51 7a3d
00000080: 41d3 ebb9 f128 19bf 14c2 1c3f c955 6dbc
00000090: 4ba2 453e eb4b 813e 63cf 283e 352c e5be
000000a0: 0800 2ebf 1990 bcbd 6e26 1a3f c261 20bf
000000b0: e651 e53e 6ecb f8be da70 f9be eb62 653e
000000c0: 19bd 0fbf 5dc8 a4be ce38 193f c720 b93e
000000d0: 8a1e 353f ed76 f5be d39a d43e 2758 923e
000000e0: 8e9a 1c3d 62bd 2abf 6b31 913e e6ab 4bbe
000000f0: 6228 1abf bfb0 9a3e ac93 333f 59b6 0f3f

weight_ih f4 [256, 64]
-0.03074226 0.025120988 -0.0061045573 -0.059210375 0.025440553 -0.022787126 -0.12584466 -0.07384942
0.0060918326 0.009462735 0.096805304 0.11822758 0.06838799 -0.06524864 -0.12486911 0.12033585
-0.056715943 0.012297936 0.11116165 -0.12197141 0.010217264 0.10122325 0.04019995 -0.066146515
-0.030012034 -0.046305172 -0.080602966 0.07356865 0.076506026 0.043201678 0.084069796 0.08916372
-0.04312662 0.041531455 -0.00437153 -0.064521156 0.0066039595 -0.027459715 -0.090355195 0.007443736
-0.021291828 0.041485615 -0.013986447 0.04730026 0.0030335637 -0.020291341 0.11434711 0.03987171
0.06699019 -0.120120406 -0.09794883 -0.057965983 0.060613286 0.04228356 0.05853481 0.027900716
0.042858575 0.06405738 0.10273258 0.052891426 -0.11338851 0.03584564 0.054990146 -0.069540754
-0.03599628 -0.07890667 -0.035522263 0.025389 0.0675091 -0.036553398 -0.12810664 -0.041767653
0.030907955 0.088980824 -0.103044696 0.1292952 0.04397743 -0.12535575 0.035957254 0.0037123878
0.03290458 -0.068480544 0.110156305 0.10352036 -0.10630725 -0.007789302 0.043830514 0.04233429
0.04988054 0.017464591 0.09099279 0.003091199 0.08807111 0.041709267 -0.056203518 0.03011008
-0.015810937 -0.10339967 -0.070237316 -0.11303342 -0.012348705 0.02418032 0.1328896 -0.052889187
-0.05382212 -0.0898674 -0.045303866 -0.015578273 0.04522066 0.035354175 -0.03816038 -0.0038549034
-0.00055273686 0.054896478 0.06404087 -0.091517165 -0.06869771 0.10442423 0.0038582927 0.030872185
0.051016852 -0.11785251 -0.05790763 0.12884252 0.003779185 0.09318302 0.0016465401 0.043673348
0.05246425 -0.032327913 -0.10904386 0.05084719 0.082558185 0.06674406 0.05574845 -0.043047186
0.07954705 -0.075099766 -0.005959544 0.034676258 0.08166993 -0.03305596 -0.10863764 -0.05012562
-0.037542745 0.0144662 0.07327378 -0.028797083 -0.005864435 0.04251671 -0.08579379 -0.003841889
-0.014546333 -0.064685434 -0.07259022 0.062297035 -0.0005261786 -0.054264914 0.085697025 0.095366634
0.0617968 -0.07421308 0.064337894 0.018805686 -0.109676674 0.10517631 0.08456652 -0.12555213
0.08654654 -0.012528904 0.026318178 0.051917724 -0.043709565 -0.050928682 -0.117737584 0.03232223
0.004386042 0.013112971 -0.045584176 0.12664174 -0.0071589253 -0.074284896 -0.058986645 -0.06384222
-0.12584645 -0.013823765 0.01998043 0.11130929 0.06892229 0.013371408 -0.03266881 0.08863232
0.078886524 -0.044887204 -0.0059189284 0.011706736 0.006197688 -0.09613695 -0.006386227 0.06872171
-0.07895987 0.10344777 0.045368765 0.05240408 -0.094398014 0.07360166 -0.023365956 -0.10453999
-0.004099546 0.075671345 0.018961469 0.061881367 0.11942649 0.012938108 0.0015806174 0.07802729
0.032763176 0.029612683 -0.091160715 0.030604132 0.08124912 -0.04622963 0.03954248 -0.10108398
-0.058152802 -0.0031636192 0.109441556 -0.10712815 0.07644742 -0.028555488 0.10211766 -0.09048257
-0.031338494 0.105096094 0.094025716 0.004201444 -0.10193093 -0.10283982 -0.05856078 0.07384401
-0.01385443 0.08251042 0.04813267 0.010904053 0.10862009 -0.03434647 0.036065903 -0.025168791
-0.11591694 -0.013968475 -0.049481004 0.09546535 -0.09668294 0.046442732 0.07966277 -0.09017652
00000000: 31d7 fbbc 88ca cd3c bd08 c8bb 9486 72bd
00000010: b568 d03c 11ac babc 6cdd 00be 5d3e 97bd
00000020: ff9d c73b 9609 1b3c dc41 c63d 4d21 f23d
00000030: 010f 8c3d 14a1 85bd 60bb ffbd a472 f63d
00000040: fa4e 68bd 487d 493c b8a8 e33d 26cc f9bd
00000050: 5066 273c 234e cf3d b4a8 243d d377 87bd
00000060: ccdb f5bc 7eaa 3dbd 2b13 a5bd 29ab 963d
00000070: 31af 9c3d 3ef4 303d c92c ac3d 789b b63d
00000080: 8aa5 30bd e31c 2a3d 0d3f 8fbb ab23 84bd
00000090: 0766 d83b 32f3 e0bc 250c b9bd 95ea f33b
000000a0: 336c aebc d2ec 293d 6927 65bc ebbd 413d
000000b0: c1ce 463b 073a a6bc d12e ea3d 8550 233d
000000c0: 2732 893d b001 f6bd 6599 c8bd bd6d 6dbd
000000d0: a345 783d 8731 2d3d 32c2 6f3d 0b90 e43c
000000e0: 798c 2f3d 8430 833d 7565 d23d aea4 583d
000000f0: 3c38 e8bd e1d2 123d 593d 613d 626b 8ebd
00000100: d670 13bd d299 a1bd cb7f 11bd 98fc cf3c
00000110: 3642 8a3d 04b9 15bd 632e 03be 8f14 2bbd
00000120: ae32 fd3c 943b b63d 1909 d3bd f665 043e
00000130: ad21 343d 425d 00be ea47 133d 884b 733b
00000140: f4c6 063d 873f 8cbd a199 e13d 7c02 d43d
00000150: 9eb7 d9bd 673d ffbb a087 333d b866 2d3d
00000160: 8a4f 4c3d e711 8f3c 6e5a ba3d b795 4a3b
00000170: a05e b43d 56d7 2a3d a935 66bd 6aa9 f63c
00000180: f085 81bc 35c3 d3bd 95d8 8fbd 117e e7bd
00000190: 3952 4abc ce15 c63c 3614 083e 55a2 58bd
000001a0: 9574 5cbd 660c b8bd 8c90 39bd 033c 7fbc
000001b0: 4c39 393d 8acf 103d 0f4e 1cbd 8ca2 7cbb
000001c0: 8be5 10ba 21db 603d dc27 833d 5a6d bbbd
000001d0: 63b1 8cbd 5fdc d53d 69db 7c3b aae7 fc3c
000001e0: 0cf7 503d a85c f1bd 8d30 6dbd 4bef 033e
000001f0: 34ac 773b bdd6 be3d b8d0 d73a d3e2 323d
00000200: c1e4 563d 466a 04bd 6352 dfbd 2545 503d
00000210: 4414 a93d 1cb1 883d 7d58 643d 3f52 30bd
00000220: 90e9 a23d e8cd 99bd 4748 c3bb b108 0e3d
00000230: 9042 a73d b065 07bd 697d debd 8650 4dbd
00000240: 6cc6 19bd a403 6d3c 9010 963d dce7 ebbc
00000250: 722a c0bb 0026 2e3d a8b4 afbd 34c8 7bbb
00000260: be53 6ebc cc79 84bd 2eaa 94bd 2d2b 7f3d
00000270: 40ef 09ba e344 5ebd ec81 af3d 954f c33d
00000280: a41e 7d3d 07fd 97bd 96c3 833d 620e 9a3c
00000290: 2a9e e0bd ad66 d73d 3631 ad3d bd90 00be
000002a0: 503f b13d 0846 4dbc 3899 d73c aea7 543d
000002b0: cd08 33bd 989a 50bd 6720 f1bd 5164 043d
000002c0: c9b8 8f3b c9d7 563c 79b6 3abd 5fae 013e
000002d0: 6b95 eabb ae22 98bd fb9b 71bd b6bf 82bd
000002e0: e4dd 00be 137d 62bc 00ae a33c 20f6 e33d
000002f0: 2127 8d3d c013 5b3c bbcf 05bd dd84 b53d
00000300: 428f a13d a5db 37bd 92f3 c1bb 9ccd 3f3c
00000310: fa15 cb3b 73e3 c4bd 8e43 d1bb f8bd 8c3d
00000320: b6b5 a1bd 6ddc d33d 99d4 393d a9a5 563d
00000330: bf53 c1bd 78bc 963d f669 bfbc 1019 d6bd
00000340: 7c55 86bb 94f9 9a3d 1555 9b3c 5177 7d3d
00000350: e095 f43d 5cfa 533c b82c cf3a c6cc 9f3d
00000360: ae32 063d 4c96 f23c 78b2 babd 84b5 fa3c
00000370: f065 a63d 485b 3dbd 4cf7 213d 1e05 cfbd
00000380: a231 6ebd b954 4fbb e522 e03d 0166 dbbd
00000390: 7790 9c3d 33ed e9bc 1023 d13d ed4e b9bd
000003a0: cb5c 00bd 9f3c d73d 8e90 c03d 44ac 893b
000003b0: 2ac1 d0bd af9d d2bd 6edd 6fbd 873b 973d
000003c0: b1fd 62bc 39fb a83d c326 453d eaa6 323c
000003d0: 3674 de3d e2ae 0cbd d7b9 133d c82e cebc
000003e0: dc65 edbd 08dc 64bc 98ac 4abd 5683 c33d
000003f0: b501 c6bd bc3a 3e3d 3c26 a33d 78ae b8bd

weight_hh f4 [256, 64]
-0.047359396 0.04669835 0.012182232 -0.06511251 0.10433551 0.014777489 -0.014447559 -0.13437925
0.028009437 -0.11477151 0.08390202 -0.03861791 -0.06964473 0.08108925 0.017241457 -0.045853954
0.052411985 -0.019883307 0.0748411 0.07653132 -0.013736934 -0.07127588 -0.013925872 -0.08402641
0.088045426 0.078559995 -0.11543706 0.05549357 -0.050049063 0.09765725 0.028956434 0.05655831
-0.07707961 -0.098039344 -0.09811221 -0.03150902 -0.043422524 -0.019070694 -0.015118015 -0.011322057
0.05925756 -0.018582992 -0.024950676 -0.059927702 0.0015190089 0.09710924 -0.09516197 -0.042041387
0.120176956 0.04580337 0.010079894 0.00848937 -0.13359734 0.023750009 0.040247753 -0.024361681
-0.09248574 -0.12457307 0.023026036 0.09385581 -0.07820607 -0.11521486 -0.016802728 0.010947778
-0.019109044 -0.005108813 0.11505048 0.0072691985 -0.025862461 0.03463062 -0.015275144 -0.08716324
-0.037128992 -0.07923964 0.10166303 0.055673942 -0.069746725 -0.04473087 0.053311005 -0.004097176
0.047552455 -0.08526776 0.061866973 0.06984047 -0.022303466 0.050427206 0.010209532 0.06559593
-0.13439 -0.083253205 -0.09478887 0.042650882 0.045957517 -0.04415908 -0.03339941 -0.12208031
0.050348613 -0.11854331 -0.10953271 -5.6459165e-05 0.01931212 -0.030382503 -0.025668947 0.067068465
-0.059521127 -0.09083112 -0.095811784 -0.07755289 0.055925403 -0.027170312 -0.0893712 0.03762436
0.08899156 0.07618137 0.047090705 -0.111443885 -0.005664255 -0.012205311 0.13710612 -0.06087382
0.10254677 -0.0068188272 -0.012043902 0.07922388 -0.11590169 -0.10685701 -0.10489362 0.084355064
-0.025071368 -0.11000353 0.12043464 -0.108978756 -0.067933604 -0.043338314 -0.07529788 0.07454541
0.1273985 0.10692488 0.114552654 -0.11186372 -0.0900395 -0.11471558 0.12528828 -0.050515678
-0.117893875 -0.08522283 -0.0011550743 -0.043655097 0.012162863 -0.068872206 -0.06832148 -0.028800473
-0.05910573 -0.0871739 -0.06112976 0.034041032 0.13591543 0.0029026484 -0.005873888 0.05813755
-0.11806437 0.04943903 0.055555068 0.053216226 -0.087143935 0.096866384 0.12348332 0.030295122
-0.09077446 -0.0061446917 0.10424666 -0.016346592 0.121287696 0.118193276 -0.024368642 0.06388463
0.032830562 0.08835592 0.059322156 0.101798095 -0.10157105 0.0344334 -0.1198717 -0.050016496
0.054862283 -0.011667744 0.06903366 0.009561849 -0.043056145 -0.008035807 0.07863249 0.11033035
-0.0703825 -0.030385746 -0.07868538 -0.056799218 0.075468935 0.061766572 0.07444853 -0.13535817
0.09012804 -0.09812284 0.08013935 0.027494177 0.059587225 0.056619342 0.04868731 0.061074425
0.093574874 0.051829964 0.10232836 0.11158521 0.0032712412 -0.104361646 0.11159216 0.038049374
0.11069577 -0.09754053 -0.021656537 0.04315871 0.07973006 0.08363762 -0.11690606 0.108770944
-0.11004781 0.099920616 0.124749966 0.0073091974 -0.11217473 -0.008896352 -0.11556197 0.051323175
0.105130814 -0.114999235 0.119116336 0.017652713 0.11142143 0.059118602 -0.019493371 -0.083522
-0.019741796 -0.11325913 0.034762044 -0.01819648 0.03689114 -0.017961167 0.05994494 0.059607692
-0.1190662 -0.11858394 0.0959935 0.061345022 -0.080515645 -0.09007075 0.084757455 0.075351216
00000000: edfb 41bd c546 3f3d fc97 473c b559 85bd
00000010: dbad d53d 481d 723c 74b5 6cbc b79a 09be
00000020: 0c74 e53c 530d ebbd d2d4 ab3d d02d 1ebd
00000030: e5a1 8ebd 1f12 a63d f53d 8d3c 5bd1 3bbd
00000040: f3ad 563d 51e2 a2bc 4a46 993d 74bc 9c3d
00000050: e110 61bc 17f9 91bd 5729 64bc 0a16 acbd
00000060: 2951 b43d 10e4 a03d 446a ecbd 3a4d 633d
00000070: 3f00 4dbd 8600 c83d 0b36 ed3c b0a9 673d
00000080: eadb 9dbd dac8 c8bd 0eef c8bd 9a0f 01bd
00000090: d1db 31bd 253a 9cbc 8db1 77bc 2680 39bc
000000a0: 0eb8 723d 5c3b 98bc 5c65 ccbc c076 75bd
000000b0: 7b19 c73a 36e1 c63d 47e4 c2bd 9733 2cbd
000000c0: 561f f63d 519c 3b3d 2426 253c 0017 0b3c
000000d0: becd 08be 618f c23c d4da 243d 2692 c7bc
000000e0: 2a69 bdbd 2a20 ffbd 19a1 bc3c 7a37 c03d
000000f0: 812a a0bd c5f5 ebbd e0a5 89bc 4f5e 333c
00000100: 928a 9cbc d467 a7bb 969f eb3d 7532 ee3b
00000110: 83dd d3bc d6d8 0d3d 9944 7abc a482 b2bd
00000120: 9214 18bd 6448 a2bd b534 d03d 5c0a 643d
00000130: 5fd7 8ebd b737 37bd a45c 5a3d 9a41 86bb
00000140: 5dc6 423d dda0 aebd 3968 7d3d 8508 8f3d
00000150: c2b5 b6bc c28c 4e3d e245 273c 2957 863d
00000160: 889d 09be a880 aabd ab20 c2bd b1b2 2e3d
00000170: f33d 3c3d 27e0 34bd d2cd 08bd 3e05 fabd
00000180: 593a 4e3d d6c6 f2bd af52 e0bd 91ce 6cb8
00000190: 7334 9e3c bae4 f8bc af47 d2bc 315b 893d
000001a0: 6dcc 73bd ab05 babd f838 c4bd 0dd4 9ebd
000001b0: 0912 653d 4694 debc 3f08 b7bd 001c 1a3d
000001c0: 3541 b63d fa04 9c3d 2fe2 403d b13c e4bd
000001d0: 379b b9bb c9f8 47bc 8c65 0c3e d456 79bd
000001e0: 0a04 d23d 7870 dfbb c953 45bc 2140 a23d
000001f0: de5d edbd d9d7 dabd 77d2 d6bd 59c2 ac3d
00000200: 7862 cdbc 8849 e1bd 70a6 f63d 4130 dfbd
00000210: c620 8bbd 8483 31bd c635 9abd 44ab 983d
00000220: c174 023e 6efb da3d 959a ea3d ce18 e5bd
00000230: a166 b8bd 01f0 eabd 924b 003e 87e9 4ebd
00000240: 5872 f1bd 4f89 aebd dd65 97ba b0cf 32bd
00000250: bf46 473c df0c 8dbd 22ec 8bbd f8ee ebbc
00000260: da18 72bd 3b88 b2bd 3363 7abd 9c6e 0b3d
00000270: 6a2d 0b3e 5c3a 3e3b be79 c0bb a421 6e3d
00000280: bbcb f1bd 9580 4a3d b68d 633d 42f9 593d
00000290: 8578 b2bd e261 c63d d3e4 fc3d 7a2d f83c
000002a0: f6e7 b9bd 6959 c9bb 467f d53d 4ae9 85bc
000002b0: af65 f83d 510f f23d bfa0 c7bc f2d5 823d
000002c0: 5779 063d f3f3 b43d cafb 723d 857b d03d
000002d0: 7c04 d0bd 090a 0d3d 4b7f f5bd 19de 4cbd
000002e0: 46b7 603d 112a 3fbc 8561 8d3d 4da9 1c3c
000002f0: a45b 30bd 9ea8 03bc 120a a13d e1f4 e13d
00000300: b324 90bd 87eb f8bc cd25 a1bd 4ca6 68bd
00000310: 758f 9a3d f2fe 7c3d 7978 983d 559b 0abe
00000320: 0d95 b83d a1f4 c8bd 1920 a43d 783b e13c
00000330: bc11 743d afe9 673d 586c 473d 2d29 7a3d
00000340: 2fa4 bf3d a84b 543d 8891 d13d c986 e43d
00000350: 5262 563b 8fbb d5bd 6e8a e43d a9d9 1b3d
00000360: 77b4 e23d 54c3 c7bd 0d69 b1bc 30c7 303d
00000370: 8449 a33d 334a ab3d 726c efbd 4dc3 de3d
00000380: bf60 e1bd 2ea3 cc3d e97c ff3d fe81 ef3b
00000390: ddbb e5bd 01c2 11bc c1ab ecbd 4038 523d
000003a0: d34e d73d b884 ebbd 44f3 f33d 6c9c 903c
000003b0: eb30 e43d 5926 723d 90b0 9fbc 950d abbd
000003c0: 8cb9 a1bc 67f4 e7bd a562 0e3d c910 95bc
000003d0: 2a1b 173d 4c23 93bc d388 753d 3227 743d
000003e0: fbd8 f3bd 23dc f2bd 3d98 c43d eb44 7b3d
000003f0: 63e5 a4bd 0377 b8bd 5195 ad3d bd51 9a3d

bias_ih f4 [256]
0.07396873 -0.067142494 -0.09997432 -0.091442905 0.113896124 0.12795897 -0.10635993 -0.056513622
-0.0914044 -0.08306754 0.08222297 -0.110205375 0.110086106 -0.07195337 0.026659641 -0.037676968
-0.02478639 0.055972304 -0.008030499 -0.0801365 -0.10373548 -0.094418354 0.12668754 -0.0053255414
0.038883556 0.011151436 -0.083749615 0.12422993 -0.08469386 -0.07015447 0.03756574 -0.10527089
-0.03405508 0.037665434 -0.059585173 -0.05448721 0.04737461 0.051512282 0.07673197 0.06929309
-0.045967195 0.0453519 0.06471535 0.108157255 0.020408003 0.07021415 0.10969399 0.015883582
0.1178666 -0.108022064 0.024477987 0.03598277 -0.10911753 0.09957006 0.036345426 0.017249046
0.12840119 0.12833995 0.07298867 0.0045282594 0.035381444 -0.009937174 0.04803532 -0.100438334
-0.07188491 0.099058494 -0.10735885 0.025948785 -0.019349698 0.13394558 -0.061460946 0.034463882
0.13140622 -0.08900605 0.088632666 -0.073626205 0.13272564 -0.061028507 0.043830954 0.13091436
-0.09314809 0.078927 -0.004884351 0.023708243 0.024732394 -0.048299905 0.08483301 -0.09576188
0.07754777 0.089386865 0.1275726 0.10430832 -0.07162498 0.037448615 -0.09958612 0.04757987
0.11037542 -0.11286051 0.12159242 0.1444624 0.11161897 -0.0981894 0.010918398 -0.044672202
-0.05767613 0.06435672 0.06358598 0.07114174 -0.062835224 0.116424605 -0.07543109 0.12945217
-0.067091316 0.0037486097 0.004947657 0.13291799 0.11460583 -0.06743811 0.08759076 -0.009497923
0.08057671 -0.042638686 -0.11169342 -0.098063536 -0.021944048 0.12062531 -0.11653455 -0.040047348
-0.052450225 0.030798595 0.092937805 0.058830522 -0.0975436 -0.11300197 0.038854524 -0.11043065
0.09540066 -0.08536787 0.07546092 0.09873556 0.025513876 0.0024902013 0.12595001 -0.0520929
-0.12819389 -0.03880598 0.056043915 -0.015184862 0.085806735 -0.01280752 -0.07325928 0.031593636
-0.06695186 0.116481 -0.0028872616 -0.005923881 -0.038819924 0.01883163 -0.11686109 0.01459294
0.067487754 0.0065397792 -0.09847534 -0.06026908 -0.046423916 0.10174479 0.10961076 0.058140308
-0.0229704 -0.000992591 -0.004237844 0.051886417 0.05142017 0.012848406 -0.055416215 0.0837246
0.14010976 -0.062308498 -0.08366636 -0.039536994 -0.07762864 -0.06531331 0.069016546 -0.047418244
0.050603703 -0.003242819 0.0142590385 0.09543204 0.06780209 -0.068055294 0.046949264 0.0021373061
0.032014016 -0.0830518 0.078150675 0.018953642 0.0026784958 0.044105846 0.119445585 -0.10076788
0.10851142 0.03781868 0.007099722 0.0028287855 0.05771447 -0.097398706 0.08050303 -0.005234198
-0.062301926 0.028274607 0.044053376 -0.047865324 0.071966745 0.007964212 0.0450815 0.053983554
-0.022306016 0.070852265 -0.08456395 0.12125107 0.13154343 -0.026850376 -0.09057113 0.06299295
-0.0910647 0.05931578 -0.10320774 0.11104122 0.08888868 0.105761 0.040191386 0.07749352
0.047018107 0.04116164 0.08620674 0.13147981 0.076209724 0.12945189 0.08941635 0.0018902238
0.029191442 -0.057893544 -0.0019091959 0.09387711 -0.030899845 -0.055654097 0.03611715 -0.06559284
0.02940764 0.066662356 0.11747739 0.111943685 0.06804441 0.0849 -0.0781187 -0.010617691
00000000: eb7c 973d 0182 89bd 56bf ccbd 6b46 bbbd
00000010: 5f42 e93d ad07 033e 3cd3 d9bd d47a 67bd
00000020: 3b32 bbbd 501f aabd 8464 a83d 5bb3 e1bd
00000030: d374 e13d 4a5c 93bd 5265 da3c 2a53 1abd
00000040: d40c cbbc 3743 653d 5b92 03bc 9b1e a4bd
00000050: 4473 d4bd 695e c1bd 61ba 013e e181 aebb
00000060: 5d44 1f3d 83b4 363c eb84 abbd 436c fe3d
00000070: f973 adbd 26ad 8fbd 89de 193d 4498 d7bd
00000080: 577d 0bbd 1247 1a3d 950f 74bd fb2d 5fbd
00000090: e10b 423d 8bfe 523d a725 9d3d 89e9 8d3d
000000a0: 1948 3cbd eac2 393d 7b89 843d 8d81 dd3d
000000b0: af2e a73c 70cc 8f3d 3ea7 e03d 491e 823c
000000c0: 0b64 f13d ac3a ddbd 0f86 c83c ab62 133d
000000d0: 0379 dfbd 63eb cb3d f1de 143d df4d 8d3c
000000e0: 9a7b 033e 8c6b 033e 157b 953d cb61 943b
000000f0: 22ec 103d 87cf 22bc afc0 443d 9db2 cdbd
00000100: 6538 93bd 2edf ca3d f5de dbbd 8c92 d43c
00000110: 4283 9ebc 0829 093e 79be 7bbd 002a 0d3d
00000120: 5a8f 063e ce48 b6bd 0b85 b53d 56c9 96bd
00000130: 3be9 073e 07f9 79bd 1688 333d 6a0e 063e
00000140: 6dc4 bebd 7ba4 a13d e80c a0bb ca37 c23c
00000150: 979b ca3c 1fd6 45bd eebc ad3d ce1e c4bd
00000160: 5ed1 9e3d 7610 b73d 64a2 023e 9a9f d53d
00000170: 1eb0 92bd b863 193d cff3 cbbd 1ce3 423d
00000180: 820c e23d 6923 e7bd 7205 f93d f4ed 133e
00000190: 7d98 e43d 8617 c9bd 15e3 323c 33fa 36bd
000001a0: ce3d 6cbd 75cd 833d 5e39 823d c3b2 913d
000001b0: c1af 80bd 0670 ee3d 9e7b 9abd 1c8f 043e
000001c0: 2c67 89bd 3cab 753b f51f a23b a71b 083e
000001d0: 76b6 ea3d fe1c 8abd c962 b33d 2d9d 1bbc
000001e0: 6705 a53d e7a5 2ebd 85bf e4bd 89d5 c8bd
000001f0: 01c4 b3bc 670a f73d aba9 eebd b008 24bd
00000200: 0cd6 56bd 564d fc3c 2d56 be3d 46f8 703d
00000210: f0c4 c7bd 946d e7bd ec25 1f3d 7729 e2bd
00000220: 6c61 c33d 5ad5 aebd 418b 9a3d df35 ca3d
00000230: 7a02 d13c a532 233b 0af9 003e 5d5f 55bd
00000240: 4245 03be 05f3 1ebd 4e8e 653d edc9 78bc
00000250: 71bb af3d a2d6 51bc f608 96bd 5468 013d
00000260: 0f1e 89bd 978d ee3d 3638 3dbb 1e1d c2bb
00000270: a401 1fbd ca44 9a3c de54 efbd 3a17 6f3c
00000280: 0537 8a3d a54b d63b 70ad c9bd b6dc 76bd
00000290: 0127 3ebd 935f d03d 9b7b e03d 8824 6e3d
000002a0: 6c2c bcbc d419 82ba 9ddd 8abb da86 543d
000002b0: f59d 523d 1f82 523c 1dfc 62bd ce77 ab3d
000002c0: ef78 0f3e 3237 7fbd 4559 abbd 8bf1 21bd
000002d0: c4fb 9ebd fcc2 85bd 8c58 8d3d a239 42bd
000002e0: d445 4f3d 7a85 54bb be9e 693c e071 c33d
000002f0: d2db 8a3d 9360 8bbd df4d 403d 0c12 0c3b
00000300: 2121 033d 1017 aabd 760d a03d ab44 9b3c
00000310: b489 2f3b 55a8 343d e39f f43d 645f cebd
00000320: 3c3b de3d c3e7 1a3d c9a4 e83b 2563 393b
00000330: 0266 6c3d f978 c7bd c6de a43d a383 abbb
00000340: 4e30 7fbd 26a0 e73c 5071 343d 6e0e 44bd
00000350: 4d63 933d 547c 023c 61a7 383d dc1d 5d3d
00000360: 1bbb b6bc fe1a 913d dd2f adbd 7b52 f83d
00000370: 52b3 063e 52f5 dbbc 5b7d b9bd 7302 813d
00000380: 2180 babd 1af5 723d 945e d3bd 9469 e33d
00000390: 450b b63d 3999 d83d b99f 243d ecb4 9e3d
000003a0: 0f96 403d 1c99 283d 298d b03d a5a2 063e
000003b0: d813 9c3d 098f 043e eb1f b73d 63c1 f73a
000003c0: e422 ef3c c821 6dbd fc3d faba a442 c03d
000003d0: ac21 fdbc 8df5 63bd 94ef 133d 8a55 86bd
000003e0: 4be8 f03c 4686 883d fc97 f03d bb42 e53d
000003f0: de5a 8b3d 0de0 ad3d b2fc 9fbd d3f5 2dbc

bias_hh f4 [256]
0.12582129 0.118335076 0.120637685 0.107148446 -0.08396991 0.0648122 0.12144096 -0.05289249
-0.10877011 0.029032 -0.0070975195 -0.01786893 0.14971443 0.12817919 0.0005912528 -0.09237437
0.10441545 -0.06866969 0.08538294 -0.014187271 -0.04632398 -0.06474548 0.05718918 0.07665515
-0.00043553917 0.03515907 0.05200926 -0.026222207 -0.06170719 -0.034485202 0.014526239 0.07566831
0.13473247 -0.09328081 -0.039358612 -0.033468336 0.07444479 0.09287294 0.10787322 -0.08811503
-0.056890834 -0.050109886 0.081409596 -0.040318623 -0.12065904 -0.08635887 -0.01912809 0.042050608
0.07708504 0.071523204 -0.09068482 0.073771566 0.10502497 0.023824317 -0.10987407 0.11593472
0.057965565 0.066957094 0.085049026 0.06771254 -0.01014116 0.104223415 0.04994173 0.11137604
0.067097194 0.11365242 0.05825484 0.0676771 0.00011616233 0.11812117 0.055434875 -0.09485327
0.04035977 0.03943648 -0.014247289 0.0695626 0.12097883 -0.04101725 -0.015109173 0.0010959356
0.06137927 0.10741887 0.021701586 -0.0576416 -0.04699634 0.06934823 0.07496996 -0.06763187
0.12854739 -0.09364207 -0.0547326 0.09884539 0.037807148 0.0855042 0.014274403 -0.030136537
0.1113653 0.070316605 0.11316185 0.051811732 -0.07875704 0.056767385 0.065930225 0.041561835
-0.11244553 0.060650717 -0.06967159 -0.06528439 0.08777232 0.01065268 0.018199436 0.07483868
0.017746722 -0.07690771 0.01575392 0.052422665 -0.037797417 0.044167913 -0.019648362 -0.026781136
0.09994177 0.1333238 -0.08986584 0.13663591 0.007910237 -0.092512704 -0.07161683 0.033233702
-0.056753516 -0.051786657 -0.040672842 -0.056056328 0.028432896 -0.022564996 0.037948757 -0.09838312
0.054847494 -0.040323928 0.0022420334 -0.0334721 -0.023045402 -0.08275137 0.022027604 -0.08822932
-0.10464008 -0.08006876 -0.0076796934 -0.0830369 -0.082481556 0.04726547 -0.11078256 -0.12489678
-0.006965786 -0.028671013 0.017869173 0.07591138 -0.06499385 0.036705896 0.115857646 -0.12309416
0.09771768 -0.08603529 -0.07608777 0.051206253 -0.048630465 -0.04671166 -0.09694726 0.09881628
-0.055313684 0.04989618 -0.106391855 0.10383808 0.03811163 0.07055893 0.0019357131 -0.08121462
-0.0070862425 0.044366226 -0.07608362 0.006316728 -0.11743103 -0.1256075 -0.039506998 -0.08627126
0.0309858 -0.06487018 -0.053584382 -0.028031675 -0.020899622 0.096400775 0.025552621 0.08446718
-0.008317298 -0.010107128 0.0951294 0.059038922 -0.0063351537 0.14958017 0.03459309 0.02530509
0.014656573 0.07107114 -0.041289546 0.10014666 0.0015058299 -0.083995216 0.013122427 -0.03213253
-0.0151286805 0.13217084 -0.033975206 0.03868302 -0.07754411 -0.013475353 0.10442032 -0.042845123
5.2034702e-05 -0.09036205 0.018032176 0.09624448 -0.058488403 0.070566624 -0.010480242 0.06757447
-0.09077821 -3.300321e-05 -0.0005475548 0.055665214 -0.033949774 0.07831585 -0.0559855 0.110058054
0.021898165 0.09388285 -0.09300962 -0.086868756 -0.06971553 -0.011300421 0.047591154 -0.07871528
0.0060527707 0.06607853 0.12915716 0.06536118 0.100994565 0.10874483 0.04731855 -0.018736703
0.02218945 0.05402261 -0.043968096 -0.003039428 -0.06516217 -0.09564721 -0.105270505 0.062209416
00000000: 4cd7 003e a959 f23d e410 f73d a570 db3d
00000010: 6bf8 abbd 42bc 843d 0ab6 f83d cca5 58bd
00000020: ddc2 debd 84d4 ed3c 4f92 e8bb dd61 92bc
00000030: bd4e 193e 6841 033e 4efe 1a3a c62e bdbd
00000040: c4d7 d53d b2a2 8cbd 40dd ae3d ba71 68bc
00000050: 37be 3dbd 4799 84bd 343f 6a3d 60fd 9c3d
00000060: 1459 e4b9 f502 103d a907 553d f4cf d6bc
00000070: aec0 7cbd 5b40 0dbd 76ff 6d3c fdf7 9a3d
00000080: 4ff7 093e 020a bfbd 7f36 21bd 1816 09bd
00000090: 8376 983d 2b34 be3d a3ec dc3d a775 b4bd
000000a0: 5d06 69bd 0640 4dbd 13ba a63d 2425 25bd
000000b0: 161c f7bd ebdc b0bd 83b2 9cbc 423d 2c3d
000000c0: c3de 9d3d c27a 923d f7b8 b9bd 8c15 973d
000000d0: 5517 d73d 372b c33c a805 e1bd 2f6f ed3d
000000e0: 4d6d 6d3d cd20 893d 2f2e ae3d dfac 8a3d
000000f0: 1c27 26bc 1673 d53d b38f 4c3d 1f19 e43d
00000100: 416a 893d 9ac2 e83d a19c 6e3d 4b9a 8a3d
00000110: 2d9c f338 83e9 f13d ae0f 633d 6e42 c2bd
00000120: 4950 253d 2588 213d 766d 69bc d676 8e3d
00000130: c0c3 f73d b401 28bd 778c 77bc 7fa5 8f3a
00000140: d468 7b3d 6dfe db3d 86c7 b13c 9919 6cbd
00000150: 3c7f 40bd 7206 8e3d da89 993d 9482 8abd
00000160: eda1 033e 6ac7 bfbd 4a2f 60bd 746f ca3d
00000170: abdb 1a3d d31c af3d 30df 693c e6e0 f6bc
00000180: 7e13 e43d 2702 903d 66c1 e73d 8a38 543d
00000190: 5f4b a1bd eb84 683d 6d06 873d be3c 2a3d
000001a0: d849 e6bd e36c 783d fbaf 8ebd d2b3 85bd
000001b0: f9c1 b33d 9488 2e3c fc16 953c 0645 993d
000001c0: 9361 913c ca81 9dbd 5d0e 813c 26b9 563d
000001d0: 77d1 1abd 6ae9 343d 9af5 a0bc 1d64 dbbc
000001e0: 45ae cc3d 0986 083e 950b b8bd 49ea 0b3e
000001f0: f099 013c 4d77 bdbd d8ab 92bd 1020 083d
00000200: 6076 68bd 3f1e 54bd 9198 26bd 529b 65bd
00000210: 1bec e83c 3ada b8bc 2870 1b3d 177d c9bd
00000220: c4a7 603d b42a 25bd 14ef 123b 0a1a 09bd
00000230: b6c9 bcbc 8d79 a9bd 3c73 b43c 93b1 b4bd
00000240: 8a4d d6bd 17fb a3bd f0a5 fbbb 400f aabd
00000250: 17ec a8bd 7099 413d f8e1 e2bd e2c9 ffbd
00000260: 4041 e4bb 79df eabc 5f62 923c 6d77 9b3d
00000270: 7f1b 85bd ec58 163d c646 ed3d ca18 fcbd
00000280: 3520 c83d 4533 b0bd e8d3 9bbd a6bd 513d
00000290: bd30 47bd ba54 3fbd 498c c6bd 3160 ca3d
000002a0: 9a90 62bd f05f 4c3d f9e3 d9bd 0fa9 d43d
000002b0: f11a 1c3d 3381 903d c1b7 fd3a da53 a6bd
000002c0: b633 e8bb 5cb9 353d bbd1 9bbd 8efc ce3b
000002d0: ae7f f0bd 419f 00be 17d2 21bd fdae b0bd
000002e0: efd5 fd3c a8da 84bd 4c7b 5bbd afa2 e5bc
000002f0: af35 abbc c56d c53d bb53 d13c 21fd ac3d
00000300: 4745 08bc 5e98 25bc 34d3 c23d ccd2 713d
00000310: 1f97 cfbb 8b2b 193e 7cb1 0d3d 9f4c cf3c
00000320: 1f22 703c bf8d 913d 3a1f 29bd b119 cd3d
00000330: 445f c53a af05 acbd 73ff 563c 669d 03bd
00000340: 49de 77bc cb57 073e 9629 0bbd 1672 1e3d
00000350: 72cf 9ebd bac7 5cbc 52da d53d 5e7e 2fbd
00000360: d63f 5a38 bd0f b9bd 37b8 933c d31b c53d
00000370: 8991 6fbd 3c85 903d 52b5 2bbc 7c64 8a3d
00000380: ede9 b9bd ed6c 0ab8 c889 0fba 3501 643d
00000390: eb0e 0bbd 0f64 a03d 0d51 65bd 1e66 e13d
000003a0: c863 b33c a745 c03d d47b bebd 3fe8 b1bd
000003b0: 04c7 8ebd 6725 39bc f1ee 423d 7a35 a1bd
000003c0: 5256 c63b 2e54 873d c641 043e 15dc 853d
000003d0: 3dd6 ce3d 9cb5 de3d 19d1 413d b77d 99bc
000003e0: a6c6 b53c d046 5d3d e417 34bd 2431 47bb
000003f0: be73 85bd afe2 c3bd 1098 d7bd 4dcf 7e3d

weight f4 [2, 64]
-0.12128655 -0.09714037 0.100511804 0.11092254 0.05376488 -0.111132696 -0.07715189 -0.15072471
0.09252205 -0.067836635 -0.12235352 -0.021188403 0.048836365 -0.0073998324 0.060365375 0.08015026
-0.04009562 -0.13311034 -0.023561746 0.09659895 0.0765478 0.02782114 -0.14015962 -0.02956518
0.0037751917 0.10914572 -0.15462752 0.086378455 -0.083731085 -0.006873816 -0.049666937 -0.1331233
0.003407597 0.12347484 0.15326601 -0.006965329 -0.087902054 -0.12206691 0.049397107 -0.022380676
-0.00238766 -0.047879174 0.118084565 -0.083121605 0.14090486 0.1033139 -0.14027391 -0.061323605
0.13826962 0.13187596 0.10957472 -0.12767634 -0.10858059 -0.09086109 0.1315982 0.048360307
-0.037197147 -0.06817485 -0.08339352 -0.06399521 -0.11988157 0.051717445 0.07641916 0.07159736
-0.03783744 -0.025709065 0.1491756 0.14699991 0.14552982 0.0023196118 -0.12209716 -0.15555726
0.12547387 -0.11623294 -0.12592302 -0.10070927 0.03269546 0.0752406 0.04900819 -0.042675015
-0.055828184 0.018638063 -0.1056641 0.15531081 0.14853932 -0.08033188 -0.14546725 -0.08193729
0.056109756 0.077458695 0.021642433 0.021950083 -0.055077456 -0.105819725 0.0688881 -0.039782465
0.15624453 -0.045037698 -0.007655672 0.092567064 -0.03757651 0.058191326 0.112689614 -0.11678965
-0.12034717 -0.095728695 0.04303774 -0.03419314 0.02483885 0.12825371 -0.060128316 0.013174595
-0.02736344 0.022877023 -0.029556844 -0.013912464 0.054016214 -0.08156998 0.00011526908 0.08794242
-0.14338528 -0.07546505 0.0017847617 -0.07714968 0.0008872482 -0.0708455 -0.045057274 0.035942033
00000000: 1565 f8bd 88f1 c6bd 22d9 cd3d 5b2b e33d
00000010: 9038 5c3d 8a99 e3bd cf01 9ebd 9457 1abe
00000020: 337c bd3d efed 8abd 7b94 fabd 4d93 adbc
00000030: a408 483d 4b7a f2bb af41 773d d225 a43d
00000040: 4e3b 24bd 144e 08be 9004 c1bc acd5 c53d
00000050: 18c5 9c3d 29e9 e33c 0186 0fbe ad32 f2bc
00000060: 3569 773b cb87 df3d ad56 1ebe 30e7 b03d
00000070: 347b abbd bf3d e1bb 8f6f 4bbd 7951 08be
00000080: fe51 5f3b 60e0 fc3d c4f1 1c3e 6a3d e4bb
00000090: fe05 b4bd 37fe f9bd 9f54 4a3d ae57 b7bc
000000a0: 4a7a 1cbb f41c 44bd 52d6 f13d a93b aabd
000000b0: 5d49 103e 3d96 d33d f7a3 0fbe 762e 7bbd
000000c0: 8d96 0d3e 7e0a 073e b668 e03d 96bd 02be
000000d0: 805f debd 6115 babd aec1 063e 7515 463d
000000e0: 095c 18bd 419f 8bbd 39ca aabd ec0f 83bd
000000f0: 7884 f5bd acd5 533d a681 9c3d a3a1 923d
00000100: 6efb 1abd d19b d2bc 7dc1 183e 2587 163e
00000110: c505 153e a104 183b 130e fabd 674a 1fbe
00000120: 397c 003e 890b eebd f7f1 00be a940 cebd
00000130: adeb 053d be17 9a3d d0bc 483d ffcb 2ebd
00000140: 18ac 64bd daae 983c 6b66 d8bd cc09 1f3e
00000150: b11a 183e 0a85 a4bd 5ef5 14be bdce a7bd
00000160: 58d3 653d aaa2 9e3d 794b b13c a9d0 b33c
00000170: e698 61bd 03b8 d8bd 3415 8d3d f0f2 22bd
00000180: 91fe 1f3e 7379 38bd 6edc fabb cd93 bd3d
00000190: d4e9 19bd 075a 6e3d d0c9 e63d 692f efbd
000001a0: 9478 f6bd 680d c4bd 5748 303d 1b0e 0cbd
000001b0: d87a cb3c f154 033e 1c49 76bd 42da 573c
000001c0: 4b29 e0bc 9868 bb3c 3221 f2bc 1af1 63bc
000001d0: 1b40 5d3d 290e a7bd 9ebc f138 281b b43d
000001e0: 97d3 12be 6c8d 9abd aaee e93a a700 9ebd
000001f0: 3896 683a 7217 91bd fa8d 38bd f437 133d

bias f4 [2]
-0.08269086 0.109299906
00000000: d359 a9bd a1d8 df3d
