RNN/data/saved_models/vanilla_lstm_model_lr_0.0017_epoch_100_predlen_8_batchsize_5.pt (torch_old, 147450 bytes, 8 tensors)

weight f4 [64, 2]
000000 79 c4 0f be 80 2d 98 3e f3 98 4e bc 72 8d 8f 3b
       -0.14039792 0.29722214 -0.012609708 0.0043808753
000010 f0 4d 9c 3c 6c e7 7f 3c 9b 57 a0 3b 5a c3 4e bb
       0.019080132 0.01561914 0.004893256 -0.0031549544
000020 f1 9a 1e 3c a0 27 a0 3b b2 35 2b 3e b0 ac a8 bd
       0.009680496 0.004887536 0.16719702 -0.082360625
000030 a8 9f 0d 3c 09 01 d6 bb c6 d2 93 be 02 c2 e7 3c
       0.008644022 -0.006530885 -0.28871745 0.028290752
000040 30 bc d6 bb 0c 93 95 ba f6 22 72 3c 9c c7 8f 3c
       -0.0065531954 -0.0011411621 0.014778843 0.017551236
000050 cf 17 69 bd 45 d0 52 bc a9 11 a5 3d 2c f8 9c 3d
       -0.05690747 -0.012867038 0.08060009 0.076645225
000060 3c 36 20 be f7 bb 4c 3e 25 8d c7 3b 5c 2f f8 3b
       -0.15645689 0.19993578 0.006089824 0.007574005
000070 e6 63 d6 bd 45 37 5a 3e 65 42 08 3f b5 f4 f5 be
       -0.10468273 0.21310146 0.5322631 -0.4803826
000080 db 02 83 3b ea 2c 17 bc 02 f3 a9 3b 46 42 db bb
       0.003998143 -0.009227017 0.0051864395 -0.00669125
000090 2c 8b 47 bb c5 5a 60 bc 68 69 39 bb d4 73 92 bb
       -0.0030447943 -0.013693516 -0.0028291587 -0.004469374
0000a0 90 92 87 3b 7e fa 2c 3b c9 81 83 bd 5e 39 c8 bd
       0.0041373447 0.0026394422 -0.06421239 -0.09776567
0000b0 1d 46 98 be 94 ac f0 3d 5c a3 be 3d fc 2b f9 3c
       -0.29740992 0.11751667 0.09308502 0.030416481
0000c0 63 95 0a bc 15 04 81 bb 10 d6 09 3b 0c fd 1c bb
       -0.008458468 -0.003937254 0.0021032132 -0.0023954539
0000d0 bd 9c 10 3d cb d3 64 be 2a a4 3c 3c c6 6d dd ba
       0.035305727 -0.22346418 0.011513749 -0.0016893677
0000e0 1a 2c 87 3b 19 49 83 ba 99 16 58 3b c7 bb df bb
       0.0041251304 -0.0010016292 0.0032972454 -0.0068278047
0000f0 51 63 9c ba 01 3d e2 bb 7c 49 8a bd ac d8 df bd
       -0.0011931454 -0.006904245 -0.06752297 -0.10929999
000100 92 93 cb 39 0a 01 f5 bb 3c f4 81 ba eb 0c 06 bb
       0.00038829126 -0.0074769305 -0.0009914706 -0.0020454477
000110 65 90 94 bd d3 ac dd 3d ae b3 22 bc 82 6e a2 3b
       -0.072541036 0.10823979 -0.009930534 0.004957021
000120 d0 8e b9 bb aa 57 ab 3b 5c b0 e4 be ee 45 18 3d
       -0.0056627765 0.005228956 -0.44665802 0.037176065
000130 98 35 90 3d f3 87 fb 3d aa b5 87 3b d8 b6 0a 3c
       0.07041472 0.1228179 0.004141529 0.008466445
000140 af c4 33 be f4 7a 94 3d 6e 3a 0c 3c 88 82 10 3c
       -0.17555498 0.07250014 0.008558853 0.008820184
000150 22 45 49 bc 69 32 98 bb 6f ec 20 bf e4 57 c9 be
       -0.012284549 -0.0046446812 -0.6286077 -0.39324868
000160 a2 6b 40 3c 57 40 ca 3b 14 d4 8d 3a 50 93 1e 3c
       0.011744412 0.0061722207 0.001082065 0.009678677
000170 b6 c3 07 3c 51 e4 9d 3b dc e7 88 3b a8 ba 3d 3c
       0.008286407 0.004818477 0.0041780304 0.011580147
000180 9d 96 1d 3c 00 fa 17 bc 2d 1e 4f bc 04 7e 7f 3a
       0.009618429 -0.009275913 -0.012641472 0.0009746256
000190 a0 e6 f7 3e 73 29 86 3e cb 6b 0e 3c bd 49 63 bb
       0.4841814 0.26203498 0.008692692 -0.0034681403
0001a0 0b 09 29 be b2 62 f0 bd 29 d3 27 ba f0 2c 0c 3b
       -0.16507356 -0.11737575 -0.000640201 0.002138909
0001b0 fa 6b ef ba aa 15 89 bb da 9d 83 ba 07 11 39 3c
       -0.0018266432 -0.0041834908 -0.001004155 0.011295564
0001c0 4f cc f6 3e 25 21 cc be 97 3c b4 3a 0d ae 88 3b
       0.4820275 -0.39869037 0.0013750967 0.004171139
0001d0 77 19 25 bc f7 60 e0 bb 7a bd f2 be 34 7e fa 3e
       -0.010076872 -0.0068474966 -0.47410184 0.4892441
0001e0 40 c9 4f 37 61 73 60 3b ec ab be ba 5f b2 25 bb
       1.2385019e-05 0.0034248459 -0.0014547086 -0.002528332
0001f0 3c 4d c0 3a 9a 88 f8 bb be 2f 6f 3e 22 b4 21 be
       0.0014671455 -0.0075846436 0.23358056 -0.15791371

bias f4 [64]
000000 05 0a 23 bf a6 35 15 bc 7c d1 9f be 0d c0 1f bb
       -0.63687164 -0.009107029 -0.3121451 -0.0024375946
000010 b6 f9 0d 3a 2f 76 2f bf 56 96 8d 3c c6 47 56 3f
       0.0005415933 -0.6853971 0.0172836 0.8370327
000020 5b 2c 04 bc 38 a9 1a 3c 32 a6 1b 3f 93 7f 8d bf
       -0.008067216 0.009439759 0.6080047 -1.1054558
000030 7b 4a d6 bc 21 60 4b ba f2 4c bf be 6a 36 5c bf
       -0.026158562 -0.000775816 -0.37363392 -0.8602053
000040 a4 de ee 3b 67 8b 7e 3c fb 54 1d bc 32 e6 88 bb
       0.0072897244 0.015536166 -0.00960278 -0.004177832
000050 9c 6a 29 bb aa 8d 88 3f 85 33 6d 3f 76 6a 7a bf
       -0.0025850898 1.0668232 0.9265674 -0.97818696
000060 75 bd 82 bc e7 f6 c1 bb 97 f8 75 3f 1c 83 f9 3b
       -0.01595948 -0.0059193256 0.96082443 0.0076145064
000070 fe a4 1a 3c a2 54 4a bc a8 a3 14 3b e4 4b c2 3e
       0.009438751 -0.01234928 0.0022680555 0.37948525
000080 c2 65 10 bb c8 20 6d bc 09 2c 1e bc 16 1d cf bb
       -0.0022033309 -0.014473148 -0.0096540535 -0.006320606
000090 2e 8d 02 bb 08 b5 4e 3f a0 ad 93 bf 02 46 c6 3b
       -0.0019920575 0.8074498 -1.1537361 0.006050826
0000a0 53 f6 51 3f 1c 56 5a 3c 5d af a5 bc 94 cc 66 3e
       0.82016486 0.013326194 -0.020225221 0.22538978
0000b0 ac 1b 60 3c 38 a0 a3 3b b1 42 9d ba 16 7b 0f 3c
       0.0136784725 0.004993465 -0.0011998025 0.008757373
0000c0 54 30 94 3c 0c 3d cd bc ae a2 a3 be 7d 17 e3 3b
       0.01808945 -0.025053523 -0.31960052 0.0069302903
0000d0 26 19 3e 3e 95 78 d5 ba 92 68 2f bc 25 75 da 3b
       0.18564281 -0.0016286547 -0.010706084 0.0066667967
0000e0 3c 3d 70 bf dc 6b 09 3b 0c 52 34 ba 6d 3c 07 3f
       -0.93843436 0.002096883 -0.0006878681 0.5282658
0000f0 b9 fc 28 3c ad 3a 4b 3a 61 3c fd ba f6 4f 4e bf
       0.01031416 0.0007752579 -0.0019320362 -0.8059076

weight_ih f4 [256, 64]
000000 9b ec 2b 3e a1 82 2a be 17 e8 7f be d6 7b 7b 3d
       0.16789477 -0.16651393 -0.24990879 0.061397396
000010 b4 7d 03 bb c4 33 71 be 48 7b 24 be cf 79 86 be
       -0.0020063939 -0.23554903 -0.16062653 -0.26264808
000020 7f 55 2f bd cd 86 0a 3d cd b0 67 3e 11 4a 7e be
       -0.042806145 0.033819962 0.22626038 -0.24832942
000030 81 89 f2 3d dd 81 7b 3e ae 0b 64 3e bf e6 4d be
       0.11842633 0.24561258 0.2227008 -0.20107554
000040 83 a6 93 3e c5 82 17 3e 1d 0e 7a 3e 1c 12 36 be
       0.28837976 0.14795978 0.24419446 -0.17780346
000050 10 96 50 be 7f 00 64 3e 22 cd 63 3e af 1f ff bd
       -0.20369744 0.22265814 0.2224622 -0.12457215
000060 f1 5c 05 3e 8b 19 85 be d3 e3 97 bd 8d a6 d0 bc
       0.13023736 -0.2599605 -0.07416501 -0.025470043
000070 f1 6d 81 3d e8 9d 9b be fc 40 3a 3e a2 e5 ec be
       0.06319798 -0.3039391 0.18188852 -0.46268946
000080 68 67 16 be 7f b3 09 be 7f f4 38 3e d7 03 c6 bb
       -0.14687884 -0.13447379 0.18062018 -0.006042938
000090 db c7 1f be 58 84 a4 be 2a 72 25 bd 04 e9 ce be
       -0.15603583 -0.3213222 -0.04039208 -0.40412152
0000a0 e8 89 66 3e 00 93 11 3e d2 2f bc bc 73 81 4e bf
       0.22513545 0.14216232 -0.022972021 -0.80666274
0000b0 c9 b0 13 3e 9b e7 06 3f c4 03 0a be 6e af 7c 3d
       0.14422907 0.5269715 -0.13477999 0.06169074
0000c0 e0 60 8e 3e 5b cd 53 3e 4b de 3d 3f 96 53 87 be
       0.27808285 0.20683806 0.7416732 -0.26430959
0000d0 c8 a7 29 bf ea c2 49 3d 39 9a e1 bd ed 12 86 be
       -0.6627164 0.04925815 -0.11015744 -0.26186314
0000e0 65 55 8f be d6 87 45 be 02 1d 00 be 75 49 91 3e
       -0.27994838 -0.19290099 -0.12511066 0.28376356
0000f0 58 05 2c 3f 49 37 16 3e 95 40 05 3d 35 78 ca be
       0.67195654 0.14669527 0.032532293 -0.39544836
000100 e9 2d 4d be 54 ec 50 bc b1 78 94 be 33 34 c2 3c
       -0.20037045 -0.0127516575 -0.2899833 0.023706531
000110 ee 31 59 3d cb e5 92 bd b6 57 79 3c 49 9f b6 3d
       0.053026132 -0.07172736 0.015218666 0.089171
000120 23 09 87 bc e4 a6 9c 3b ee c9 52 3e 4e cb 14 bf
       -0.016483849 0.004780637 0.20584843 -0.5812272
000130 c1 9c 20 bd b8 62 61 ba 31 03 ba bd d1 76 28 be
       -0.039211992 -0.0008597779 -0.0908264 -0.16451575
000140 94 07 17 bd ac ce 0d 3c 31 58 38 bd 79 7c 47 bd
       -0.03687246 0.008655231 -0.04500598 -0.04870269
000150 f7 aa b2 3b 39 81 07 3f 26 9f 3a 3b df 4b aa be
       0.0054525095 0.52931553 0.0028476208 -0.3326101
000160 90 73 d4 3b ea b4 8d 3d 4a 2d 88 3e ea bc 00 3d
       0.0064835027 0.06919272 0.26597053 0.031430162
000170 27 68 47 3d d4 a9 c4 3d a0 ff 53 bd 76 67 16 3d
       0.04868331 0.09602705 -0.051757455 0.03671976
000180 49 8b 7d bd 69 b4 a3 3b 3f 28 cb bd d7 9e 19 3c
       -0.06190041 0.004995872 -0.09919786 0.009376249
000190 ad 91 43 bb 18 d1 b5 3d ce 1b 4b bf 07 4a d6 3c
       -0.0029841468 0.08877772 -0.793393 0.026158346
0001a0 73 21 c0 3d f4 b4 b3 3c 41 65 bf 3c d9 71 43 3e
       0.0938138 0.021936871 0.023363711 0.19086398
0001b0 c8 ef d0 bc e5 ab 4f 3c 13 c5 ef bc ae 57 95 3b
       -0.025504962 0.01267526 -0.029268777 0.0045575714
0001c0 a7 a3 7c ba 18 33 9d bb 93 e2 1f be ac 04 e8 bc
       -0.0009637423 -0.0047973506 -0.15613775 -0.02832254
0001d0 a0 d4 23 3c e7 78 a0 3c 52 7f 63 bb 55 23 2c bd
       0.009999424 0.0195889 -0.003471334 -0.042025883
0001e0 7c 06 5a be 61 63 95 bb 0f b7 b2 bc 44 c1 65 3c
       -0.21291536 -0.004558966 -0.021815805 0.014023129
0001f0 56 53 aa bd 75 97 da 3c 10 a5 c9 bc 04 0b ce bd
       -0.08316676 0.026683548 -0.02461484 -0.10060695
000200 ef de 7f 3d 03 47 07 3d d5 2f 8e be 72 9f dd bb
       0.062468465 0.033026706 -0.27770868 -0.006763392
000210 25 2f 96 bd 1d 99 a7 3d 2d c9 33 3b f1 c2 82 be
       -0.07333211 0.08183501 0.0027433143 -0.25539353
000220 b2 57 01 bd b1 35 e4 3b 06 a9 be 3d 78 35 5c be
       -0.031577773 0.0069644083 0.093095824 -0.21504772
000230 a4 85 c8 bd 0d 1e 67 3b ad 13 4e 3e eb e5 25 be
       -0.09791115 0.0035265714 0.20124693 -0.16200988
000240 9c d5 f9 3c d7 5e 28 bd f8 c6 3a bd 7f 43 8f bc
       0.030497365 -0.04110607 -0.045599908 -0.01748824
000250 fd 91 af 3d 8e 41 cb 3d d1 ef 6d bd ab 4f a8 bd
       0.08572767 0.09924613 -0.058090035 -0.082183205
000260 a0 86 46 3d 32 bf 45 be 49 d7 41 bd b1 2a 2c bd
       0.048468232 -0.19311216 -0.047324453 -0.0420329
000270 17 00 f0 3c 7b e0 85 bd f0 9b 54 bd fb 94 93 be
       0.029296918 -0.06536957 -0.051906526 -0.288246
000280 9e fb a3 bc b1 d4 44 3d aa 2c 80 3e 7b 09 e5 3b
       -0.020017441 0.0480544 0.25034076 0.0069896556
000290 08 b4 9f b9 b7 44 ca bd 7d 75 96 bc be bc d2 3d
       -0.00030460977 -0.098763876 -0.01836657 0.10289906
0002a0 2d 00 3a be 5c a7 17 3e 28 93 6e bb 87 3b 64 be
       -0.1816413 0.14809936 -0.003640363 -0.22288333
0002b0 c2 8b 07 bd c8 58 32 3e 4b 7f 0e 3d 29 80 8b 3c
       -0.033092268 0.1741668 0.034789365 0.017028885
0002c0 a9 9b ac bd a1 b4 b5 bd 9d f3 24 3e aa 72 e5 bb
       -0.08428127 -0.08872343 0.16108556 -0.0070021944
0002d0 dc af d4 be 5b a8 d8 bc f0 65 9f 3d df 50 a3 3c
       -0.4154042 -0.026447466 0.07783115 0.019936023
0002e0 e0 1a 23 bd 62 09 d3 3c d1 9e c9 bd 5e 0f 85 3e
       -0.039820552 0.02576131 -0.09844745 0.25988287
0002f0 fc c5 1e 3d 71 df fd bb 63 49 9a 3c 97 36 4e be
       0.03876303 -0.0077475836 0.018833822 -0.20138012
000300 86 bb 7a bc fd 0c d1 bc 80 6c 18 3e 39 b0 15 be
       -0.015303498 -0.025518889 0.1488514 -0.14618005
000310 3f 35 ca bd f0 31 d5 3d be 95 a2 bc 1a ac c8 bd
       -0.09873437 0.104099154 -0.019846793 -0.09798451
000320 30 1a fd bc af 36 2b be d6 d1 49 be 5f f0 c0 3e
       -0.030896276 -0.16720079 -0.19708952 0.3768339
000330 60 50 29 be df ee a2 bc 22 ae 23 be 30 b4 3f 3e
       -0.16534567 -0.019889293 -0.15984395 0.1872108
000340 26 ec f6 bd 7f 78 e7 bd 53 78 55 3a 45 4a c0 3d
       -0.120567605 -0.1130228 0.0008143235 0.09389166
000350 91 2b 1a be 6b e1 7e be 1a 0f 48 be cc 00 5b 3e
       -0.15055682 -0.24890678 -0.19537011 0.21387023
000360 fc d2 1d 3d 99 74 1e 3e 10 6f ef bc a1 3e 2f 3d
       0.03853129 0.15474166 -0.029227763 0.042784337
000370 42 7c d3 bc 16 b5 f3 3b 13 2b ed bc 2d 15 ff bc
       -0.025816087 0.0074373586 -0.028951203 -0.031138027
000380 8b 53 a5 bd 90 ab 84 bd 5f 74 38 be 49 6f de 3d
       -0.08072575 -0.064780354 -0.18013142 0.1086107
000390 9b 10 ff bc 06 dd 9c bd 0f f8 a8 3e e7 1d ac bd
       -0.031135848 -0.076593444 0.33001754 -0.08404141
0003a0 f3 34 41 be 1e 16 a6 bd 37 e0 30 3c db ac d5 3d
       -0.18867855 -0.08109687 0.0107956445 0.1043336
0003b0 ef 45 7e bd 31 98 ad bd 4c 4e a7 bd 77 e8 0d 3d
       -0.062078413 -0.08476294 -0.08169231 0.034645524
0003c0 1b 70 04 3c 3c 11 3d 3d c8 f0 de bd e8 81 a2 bd
       0.008083369 0.046159014 -0.10885769 -0.07934934
0003d0 d6 7f a3 bd 4d 8a c7 bd f7 b2 dd 3d ef 91 57 bd
       -0.07983367 -0.09743176 0.108251505 -0.052629407
0003e0 03 9c 16 3e fb 07 3b 3e e2 e7 82 3c 94 11 23 be
       0.14707951 0.18264763 0.015979711 -0.15924674
0003f0 80 99 da bd bc 1f b8 bc d0 b5 a7 3d d0 c4 48 3e
       -0.10673809 -0.02247607 0.08188975 0.19606328

weight_hh f4 [256, 64]
000000 88 00 9a be ff fb 6e 3e b1 a7 0c bf 32 08 9a 3d
       -0.3007853 0.23338316 -0.54943377 0.075210944
000010 d5 9e a3 3d 02 0b 50 bf d9 c5 a2 3f ef 4c 34 3f
       0.07989279 -0.81266797 1.2716628 0.7042989
000020 01 ba 66 3d 36 fb 1b 3f 88 c3 80 3e ae b7 03 be
       0.05632973 0.6093019 0.25149179 -0.12863037
000030 70 b2 96 3f 19 d6 80 3e 32 25 af be 82 66 a0 3f
       1.1773205 0.25163344 -0.34208065 1.2531283
000040 44 c4 0f be 71 25 22 bf 56 c2 a0 3e 1f 34 33 3e
       -0.14039713 -0.6333838 0.31398267 0.17500351
000050 ae d4 7f be aa 64 9d bc 76 3f 23 3d cd ed 1c 3f
       -0.24983475 -0.01921304 0.039855443 0.61300355
000060 5c 6f 8f be 00 cf 9f 3e 5c 60 23 bd 4d 06 8b 3e
       -0.28014648 0.31212616 -0.039886817 0.27153245
000070 1f f3 7a bd 3f 22 71 bd 23 38 80 3e d4 8b 25 bd
       -0.061267015 -0.05887055 0.2504283 -0.040416554
000080 ef 17 02 3e 8d bb 02 3f f8 29 62 3f e9 08 39 be
       0.12704442 0.5106743 0.8834529 -0.18069805
000090 fe 64 a6 3d a9 b2 de be 48 60 27 3e 1a 5d 60 3e
       0.081247315 -0.43495682 0.16345322 0.21910515
0000a0 06 a9 66 3f 0f 6c 5f 3e 7f de 0b bf e1 e0 44 bd
       0.9010166 0.21818565 -0.5463638 -0.048066024
0000b0 1b 81 aa 3e a3 1e 10 bf ae eb 3b bc 48 a8 83 3f
       0.33301625 -0.5629675 -0.011469765 1.028573
0000c0 73 f0 23 bf 9a a4 bb 3e fa 2f 46 be 67 58 cc 3d
       -0.6403877 0.3664902 -0.19354239 0.09977799
0000d0 d5 39 85 3f f6 4a d7 be d9 55 48 bf 35 24 05 3f
       1.0408274 -0.42049378 -0.78255993 0.5200837
0000e0 a3 dc 94 3d 9b 14 bf 3d 57 c2 2c 3d 01 12 5f 3f
       0.072686456 0.09330102 0.042177524 0.87136847
0000f0 1a fd 53 3e 51 80 9c 3e 3f b3 07 3f 4a 8e 54 3f
       0.2070202 0.30566648 0.5300788 0.83029616
000100 71 b1 06 3e 74 35 7d 3f 91 e3 30 bf d3 44 ca 3e
       0.13153626 0.9890969 -0.6909724 0.39505634
000110 c8 0f 0d 3f 03 8c 1e 3f dd 9c 63 3e bd c7 be 3e
       0.55102205 0.6193239 0.22227807 0.37261763
000120 c3 da 5f 3f 0f 89 86 bd 45 79 81 bf a0 71 58 3e
       0.8744318 -0.065691106 -1.0115134 0.21137094
000130 a0 e5 c9 bc 77 b7 33 3e ef c4 93 3e 57 8b 80 3e
       -0.024645627 0.17550455 0.28861186 0.25106308
000140 ce 3a cd be 80 6f 97 3f df 08 b0 be f1 d2 8a 3e
       -0.40083927 1.1830902 -0.34381768 0.2711406
000150 af 2f 3b be 02 b8 0b c0 17 24 a1 3d 59 51 2e 3f
       -0.18279909 -2.183106 0.07868212 0.68092877
000160 06 d0 75 be d0 39 b4 be 35 88 29 bf 57 b4 d7 3e
       -0.24005136 -0.35200357 -0.6622346 0.42129776
000170 48 b8 aa bf 96 d1 78 be ee bd 94 3e 9b a8 73 be
       -1.3337488 -0.242987 0.29051155 -0.23794787
000180 a7 ab 44 be 38 08 21 bd 42 3b 39 bf 7a 67 26 3d
       -0.19206105 -0.03931448 -0.72356045 0.040626027
000190 20 62 19 3e c9 d9 76 be c6 04 83 be ad 4e 0f be
       0.14978838 -0.24106516 -0.2558958 -0.13994856
0001a0 d6 a7 a8 bd 1b f1 fb be bf cb 9a 3d 34 07 ec 3e
       -0.08235137 -0.49207386 0.07558393 0.46099246
0001b0 ef 1d 28 3e 4e 09 d5 3d 9a 27 ca 3d aa c4 14 be
       0.16417669 0.10402165 0.09870835 -0.14528146
0001c0 02 35 b2 3e db 41 fc be d1 d8 5d bd 15 e3 8c be
       0.34806067 -0.49268994 -0.05416185 -0.27517
0001d0 85 51 bc be 6c 12 8b 3e 53 1d f1 bd 1a a1 a5 be
       -0.36780944 0.27162492 -0.11773171 -0.32349473
0001e0 8a 36 b9 3e fe 42 1b 3f 5e 1c ac 3e e4 6d 2a bf
       0.36174423 0.60649097 0.33615392 -0.6657393
0001f0 0d e3 68 be eb aa cf 3e d5 1e 10 3f f3 34 4d be
       -0.22742863 0.40560088 0.56297046 -0.2003973
000200 01 16 8a bd 6a 56 0e c0 8c 0e 50 bf 05 89 ba bd
       -0.06742478 -2.2240243 -0.81272197 -0.09108166
000210 17 00 7d bd e7 8a bc 3e 10 83 8c bd ca 6e 69 3d
       -0.061767664 0.36824724 -0.06860936 0.056990422
000220 82 cd 6f be 94 c8 55 be 67 62 5e bf 2f 4b 0b be
       -0.23418239 -0.20877296 -0.868689 -0.13602899
000230 1d 5a d7 3d 24 3d a9 be da a9 d6 3d c9 b3 8b bb
       0.105152346 -0.3305446 0.10481615 -0.0042633754
000240 37 3e 3b 3d 1d 2a 25 be a8 ab e0 be 3e 57 d8 3d
       0.04571363 -0.16129346 -0.43880963 0.10563515
000250 de 57 50 bf a5 f5 26 bf d5 07 00 3d 66 97 06 bd
       -0.81384075 -0.65218574 0.03125747 -0.03285923
000260 4a 1c 8f bd 13 44 fd 3c a9 b5 96 bd 4e 1b 2a 3e
       -0.069878176 0.03091625 -0.07358868 0.16611978
000270 ba a2 44 3f 79 a1 b4 bb a8 31 42 be a5 33 1a be
       0.768108 -0.005512413 -0.18964255 -0.15058763
000280 e9 05 14 3e d6 29 f6 be 1a d7 03 bf 88 d9 44 bd
       0.1445538 -0.48078793 -0.51500094 -0.048059016
000290 63 14 a0 3d 9f 0a aa 3e cf 7f 27 be d8 ee 0d be
       0.078163885 0.33211228 -0.16357349 -0.13860643
0002a0 93 5f 97 3e 5f 06 2d be 07 4b 54 3e 5b c1 62 3e
       0.29565105 -0.16896962 0.20731746 0.22144072
0002b0 50 4b 23 be 23 76 4f bf 75 f2 fb bd 5f 7a 2f 3e
       -0.15946698 -0.8103964 -0.123021044 0.17136525
0002c0 8f 1b d5 3d ce a4 26 bf 2c 1f dd bd 25 46 9d 3e
       0.10405647 -0.6509522 -0.10796961 0.3071758
0002d0 b2 c1 fa bd c2 48 17 bf 7f 09 3b 3f 93 2f 34 be
       -0.12243976 -0.59095395 0.73061365 -0.17596273
0002e0 aa 47 10 3e 32 a3 0c 3d 01 46 ce bc b2 3e 9f c0
       0.14089838 0.034335323 -0.025179865 -4.976403
0002f0 ec 3c ad 3e 8c 36 76 be c4 0a 24 3d 7b 40 8b 3d
       0.33835542 -0.24044245 0.04004933 0.06799408
000300 9e 6f 14 3e f9 03 d7 3d 9d c8 09 be 9c f8 47 bf
       0.14495704 0.104988046 -0.13455434 -0.7811372
000310 ab 46 29 3f 98 d3 f9 bf 8f 02 ef ba cd e5 93 be
       0.66123456 -1.9517698 -0.0018235015 -0.28886262
000320 ae 1f c4 bf 10 40 3b 3f 83 2e b2 3d 1a f8 92 bd
       -1.5322168 0.73144627 0.08700278 -0.07176228
000330 9a 4b 9e 3e 62 a2 bd 3e ef b0 81 bf ef e5 ca be
       0.30917054 0.3703795 -1.0132121 -0.3962855
000340 31 e9 e4 3e c4 e8 ca be 35 4f 98 3e 57 7b c1 be
       0.4470916 -0.3963071 0.2974793 -0.37789413
000350 57 e2 bc 3c 8e 38 aa 3e 0b 1f a8 be 3d b5 25 3f
       0.023057146 0.33246273 -0.32836184 0.6472967
000360 0a bc 35 bd 95 5f bb 3e dd 76 20 be d9 32 37 bf
       -0.04436878 0.3659636 -0.15670343 -0.7156196
000370 d6 00 43 3f 88 d9 73 3e ff 68 f6 3d b9 d4 4b bd
       0.7617315 0.2381345 0.12031745 -0.049763415
000380 9e 72 3a 3f bb fe cd be 2d ed d5 3e 04 cd 62 bf
       0.7283114 -0.40233406 0.41782513 -0.8859408
000390 06 32 f2 3b d7 29 eb bd 05 49 02 3e 4c d5 03 bf
       0.007391217 -0.1148259 0.12723167 -0.5149734
0003a0 c4 97 68 3e 3f 4b 05 3e 8d 70 c2 be 88 63 0a 3f
       0.22714144 0.13016985 -0.37976494 0.5405812
0003b0 c4 75 dd 3f 34 a7 0a bd 3a be 8e bf 07 29 b5 be
       1.7301564 -0.033850864 -1.1151803 -0.35382864
0003c0 38 a7 eb 3c 1f 4b 72 be e2 47 ef be 7b 3c 09 3e
       0.02876626 -0.23661469 -0.4673453 0.13401978
0003d0 6e b4 1b 3e a0 48 ca bc c3 ef 09 3f 6f 3d ac be
       0.15205547 -0.024692833 0.5388147 -0.3364062
0003e0 76 21 3c bf 4b d4 5a 3f 81 7e 85 be 1e a3 86 3f
       -0.7348856 0.85480183 -0.26073077 1.051853
0003f0 35 f5 b3 be 34 39 d7 3c b9 17 29 be 25 d2 91 3d
       -0.35148016 0.026272394 -0.16512956 0.0712016

bias_ih f4 [256]
000000 2d c4 07 3f d1 38 94 3e 3e 6e ff 3e a9 d3 87 be
       0.53033715 0.28949597 0.49888796 -0.2652867
000010 23 d8 8e 3e 83 45 05 bf a8 e5 6a be 9c 8f 72 be
       0.27899274 -0.5205919 -0.2293917 -0.23687595
000020 39 1a 54 3d 0f 9e c9 3e 41 02 3f 3d 8c fa 36 bf
       0.05178282 0.39378402 0.04663301 -0.71476054
000030 b7 78 26 bf 2b bb c4 bc cf 21 23 3f dd 9d 37 be
       -0.65027946 -0.02401503 0.6372346 -0.17931314
000040 c5 51 ad 3d 76 f2 cc be 11 fc a4 be 58 16 51 be
       0.08462862 -0.40028733 -0.3222356 -0.2041868
000050 c9 37 a6 3c 88 36 93 bd ee 35 14 3f 13 bc e5 3e
       0.020290272 -0.071881354 0.5789479 0.44870052
000060 a1 a1 56 3f 22 0d 10 bf 80 57 05 be df 5b 6d 3e
       0.83840376 -0.5627004 -0.1302166 0.23179577
000070 33 da 1e 3c 00 21 c1 be 93 47 eb 3e 6b 20 bd 3d
       0.009695577 -0.3772049 0.45953044 0.09234699
000080 5b 4b 10 bf bb aa 8d be 93 e6 23 bf eb 50 96 be
       -0.56364983 -0.2766932 -0.64023703 -0.2935861
000090 a8 5f ef be cd 90 fa 3d 7b 0b c2 be 02 ad 2c be
       -0.46752667 0.1223465 -0.37899384 -0.16862872
0000a0 88 1e a7 bd f3 a0 11 3f ca a5 c7 be 03 1d 09 be
       -0.0816012 0.56886214 -0.38993675 -0.13389973
0000b0 6e 09 e5 3e ff c5 cd 3e 72 8a 47 3e 30 d9 37 be
       0.44733757 0.40190122 0.19486406 -0.17953944
0000c0 fb e9 e1 3e 6f 7d 1a 3f 0b 6b 0c 3f 03 6d 3b 3e
       0.44123825 0.60347646 0.54850835 0.18303303
0000d0 c7 a3 7f 3f 59 76 74 bd 64 5f 5c be d3 73 27 3f
       0.9985928 -0.059683178 -0.21520764 0.6541111
0000e0 f6 31 41 3d 35 7c 20 bf ca 4c 93 be 15 5d 4e 3e
       0.047166787 -0.62689525 -0.28769523 0.20152695
0000f0 64 f8 1d bf c8 35 35 bf 99 ba e8 bd f0 57 b7 3e
       -0.6170714 -0.7078519 -0.11363716 0.35809278
000100 8b a5 84 3e 31 8d 28 3f da af 36 3f 36 09 dd 3e
       0.2590755 0.6584044 0.7136208 0.4317109
000110 73 31 0c bf 09 d1 ae 3e a1 38 95 3e 75 28 fe 3d
       -0.54762954 0.34143856 0.29144767 0.1241006
000120 4b 45 54 be df 72 74 3e 91 e0 85 be 09 b8 bb 3e
       -0.20729558 0.23871945 -0.26147893 0.36663845
000130 c0 46 64 3f e9 45 d8 3e b7 9b b6 be 06 92 4b 3e
       0.89170456 0.42240837 -0.35665676 0.19879922
000140 68 fe 63 3e 1e fa c5 bd b9 8c 65 3e 0d 69 46 3f
       0.22265017 -0.09666847 0.22416963 0.77504045
000150 4f 7a 00 bf 9a 7f e2 3d a9 56 bd 3e 2d 57 cd bd
       -0.5018663 0.11059494 0.3698018 -0.10026393
000160 dd 65 32 3d 7f 87 08 3d 3a e5 d5 3d d0 5c 8a be
       0.043554176 0.033332344 0.10444112 -0.27023935
000170 42 86 b9 3d 89 76 66 3e 69 d1 30 3e fc c4 f4 3e
       0.09058811 0.22506155 0.17267384 0.47806537
000180 a6 88 55 3e 7a 30 83 3d 2a 44 ac bd 36 44 97 be
       0.20852908 0.064057305 -0.08411439 -0.29544228
000190 d6 34 c9 3e 1f 1f 86 be df 2e 33 3d 54 36 7b 3e
       0.39298123 -0.2619562 0.04374587 0.24532443
0001a0 7c 67 be 3d 90 d8 f3 3e 28 91 61 3f 5a 96 da 3e
       0.09297082 0.47626162 0.88112116 0.42692834
0001b0 8e df 1f 3e 46 7e 8c 3e 28 32 12 3f 5b 51 6e 3e
       0.15612623 0.2744009 0.5710778 0.23273222
0001c0 bc be 05 3f 85 a6 24 3e 0a 12 c8 3d 57 e9 fe 3d
       0.5224416 0.16079147 0.09769066 0.1244685
0001d0 31 75 32 3e 3d 00 1a 3e d2 7f 0d bf d0 bb 9a be
       0.17427517 0.15039153 -0.55273163 -0.30221415
0001e0 1b 0a af 3d 6c 24 25 bf 9f b3 1a 3e ee 67 7a 3f
       0.08546849 -0.645087 0.15107583 0.97814834
0001f0 92 0b 64 be 7f ba 1b 3e 5e ee e9 3e 93 b5 d4 3e
       -0.22270039 0.15207861 0.45689672 0.4154478
000200 e6 a8 6b 3e a2 8b 5f 3e 09 cb 80 be dc b5 1a be
       0.23013648 0.2183061 -0.25154904 -0.15108436
000210 cd 32 45 be f3 71 94 3e c6 ee 1e be 62 ed 81 3d
       -0.1925766 0.28993186 -0.15520772 0.06344105
000220 f6 b7 5b be 39 85 6c 3f 0c 7f 3e 3f dd e2 b0 3e
       -0.21456894 0.9239078 0.7441261 0.34548083
000230 cb d2 01 3f b6 6d a3 be b0 4f d8 bb 63 83 dd 3b
       0.5071227 -0.3191964 -0.0066012964 0.0067600473
000240 20 cd f1 3e ce 9d d4 be 2a 15 fc 3e 4e 68 ac be
       0.4722681 -0.41526645 0.49234897 -0.33673328
000250 aa b4 0d be 47 03 3a bf ef f1 3b be a6 2d c9 3d
       -0.13838449 -0.7266125 -0.18354009 0.0982316
000260 16 7e 3f 3e 95 9b fe be 23 92 70 be ff e1 be bc
       0.18700442 -0.49728075 -0.23493247 -0.023301123
000270 42 ab 00 be fe 40 8e bd 89 af 55 be 98 4a 34 3f
       -0.1256533 -0.0694599 -0.20867743 0.7042632
000280 d5 77 65 be 7c 8a df 3e cb d4 e9 be 07 c2 a1 bd
       -0.22408994 0.43660343 -0.4567016 -0.07898336
000290 a5 cf 49 be 9b 7c a1 3d d3 77 80 3e 25 ae 55 3f
       -0.19708116 0.07885095 0.2509142 0.8346885
0002a0 51 40 a5 3c 4b ab 4b 3f e8 c6 8c 3e 32 e4 d0 be
       0.02017227 0.7955825 0.27495503 -0.407991
0002b0 d3 c9 05 bf d9 75 0a 3c 13 92 5d 3e 0d f1 56 be
       -0.52261084 0.008450949 0.21637754 -0.20990391
0002c0 5c 2e dc bc 28 0f 60 3f 07 91 00 3f 7c 79 b3 bd
       -0.026877575 0.87523127 0.50221294 -0.08763406
0002d0 74 68 7e 3f 8b b0 37 bf e3 f7 6c be d4 c0 c6 3e
       0.9937813 -0.7175376 -0.23141436 0.3881899
0002e0 dd 7a 1d 3e ed 59 a4 be cd a6 76 be f7 1a 8e bc
       0.153789 -0.32099858 -0.24087067 -0.017346842
0002f0 13 b8 a1 be de a5 81 3e 7b b3 ee be 04 92 92 3e
       -0.3158575 0.2532186 -0.46621308 0.28627026
000300 42 da 05 3f ed 47 4b 3f a2 4f 8e 3e e7 22 38 3f
       0.5228616 0.79406625 0.2779513 0.71928257
000310 75 b1 9c 3f 59 d5 45 3f 58 48 6e 3e ec a7 99 bc
       1.2241656 0.7727867 0.23269784 -0.01875683
000320 17 d0 75 3e 10 29 1b 3f 75 5c 6a 3e 46 33 ae 3e
       0.24005161 0.6060953 0.22886832 0.34023494
000330 ec f0 e3 3e d3 46 a5 3e 07 09 22 3f 22 cc 52 3f
       0.44519746 0.32280597 0.63295025 0.8234273
000340 4a de c7 bd 73 e0 a9 3f 96 7e f0 3d 10 23 0b 3f
       -0.09759195 1.3271621 0.11742894 0.54350376
000350 92 37 8f 3e d8 86 82 3f 26 e4 32 3e 59 a9 42 3f
       0.27972084 1.0197401 0.17469844 0.76039654
000360 7b 7f d9 3e 20 89 a9 be 58 da 73 bd 32 d8 ab 3e
       0.42480072 -0.3311243 -0.0595344 0.3356338
000370 81 67 5c be 01 b7 9c 3f 8c 7c e4 3e 5e 71 9e 3e
       -0.21523859 1.2243348 0.44626272 0.30945867
000380 68 bd 5d 3e 2c db 62 be bc af 13 3d 37 cd 09 3e
       0.21654284 -0.2215392 0.036056265 0.1345719
000390 70 c2 25 3f 81 17 79 bd 13 2a 06 be 0e d4 cf 3e
       0.64749813 -0.06081343 -0.13101988 0.40591472
0003a0 25 ca b8 be 17 fb f3 3e d6 a8 78 3e f2 78 5c 3f
       -0.36091724 0.47652504 0.24283156 0.8612205
0003b0 01 13 c8 3e f6 e0 9b 3e 03 e1 17 3f c1 ac d1 3e
       0.39077 0.3044507 0.59327716 0.40952113
0003c0 f3 e8 49 3e 85 dd c0 3e c0 54 96 bd c4 ea cb 3e
       0.1971777 0.37669006 -0.073403835 0.3982755
0003d0 24 16 ee 3e d6 bc 28 3e c4 09 84 be 55 1e d2 3e
       0.46501267 0.16478285 -0.257887 0.41038767
0003e0 3e 55 43 3e 57 01 12 be f2 5f db 3e 9a 42 09 3d
       0.19075486 -0.14258324 0.42846638 0.03351078
0003f0 bb 84 70 3d 40 82 fb 3e 06 eb 56 bc ff c4 c7 3d
       0.05872033 0.4912281 -0.013117557 0.09754371

bias_hh f4 [256]
000000 01 68 ea 3e 47 28 63 3e 5b fd bd 3e d5 70 0c be
       0.45782474 0.22183333 0.37107357 -0.13714917
000010 ca cc 6b 3e 77 a9 08 bf 74 2e a2 be d2 4f 68 be
       0.2302734 -0.5338358 -0.31676066 -0.22686699
000020 dd e8 0e 3e 54 5a 83 3e 98 58 2e be 46 f2 36 bf
       0.13956018 0.25654852 -0.17025983 -0.7146343
000030 f7 7d 13 bf 31 0f 12 bd 69 67 0c 3f c7 02 16 be
       -0.5761408 -0.03565902 0.5484529 -0.14649497
000040 ee a9 07 3e a8 10 51 be 2f 2e 50 be ab 4f 92 be
       0.13248417 -0.2041651 -0.20330118 -0.28576407
000050 67 5c ee bd cb 68 21 bc d6 38 02 3f 45 17 9b 3e
       -0.11638718 -0.009851645 0.50867975 0.3029119
000060 7d a4 6e 3f fa 44 05 bf 5a cb 9c be 31 87 6c 3e
       0.9321974 -0.52058375 -0.30623895 0.23098446
000070 10 c9 82 bd 88 ed 87 be d9 df b8 3e 97 4b 95 3d
       -0.06386006 -0.2654841 0.36108282 0.07289808
000080 a1 3b 34 bf 4b b5 87 be cb a4 22 bf dc 9a 7c be
       -0.70403486 -0.26505503 -0.63532704 -0.24668449
000090 92 60 c1 be 65 b8 e6 3d 94 ab 6a be b0 b5 4c be
       -0.3776899 0.11265639 -0.22917014 -0.19991183
0000a0 ca db 92 bd 39 66 0a 3f cc f2 e0 be 82 cf 34 be
       -0.07170828 0.5406223 -0.4393524 -0.17657283
0000b0 55 2b 00 3f ab d0 d7 3e 70 70 61 3e aa 9a 82 be
       0.5006612 0.4215139 0.22015548 -0.25508624
0000c0 29 88 91 3e 49 83 16 3f dc a9 b9 3e 5f 68 db 3d
       0.28424194 0.58794075 0.36262405 0.107132666
0000d0 a1 e4 5c 3f a6 ae 8e 3a 21 e1 d4 bd 41 c4 18 3f
       0.8628636 0.001088579 -0.103945024 0.5967446
0000e0 9f b7 18 be 45 57 20 bf 75 c5 63 be de 04 bd 3c
       -0.14913796 -0.6263316 -0.22243293 0.02307361
0000f0 16 7e 2f bf 8a 26 4b bf bf 14 65 be b5 cd ec 3e
       -0.68551767 -0.7935568 -0.22371195 0.46250692
000100 51 db 32 3e 55 86 45 3f ea ee 31 3f f4 67 0a 3f
       0.17466475 0.771581 0.6950518 0.5406487
000110 c1 10 09 bf 41 32 99 3e b3 6e 03 3f 81 c5 51 bd
       -0.5354119 0.29921153 0.5134079 -0.051213745
000120 03 c5 8e bd 03 7f 94 3e 73 93 56 be a9 c8 b6 3e
       -0.06971171 0.29003152 -0.20954685 0.35699967
000130 c6 b5 66 3f 85 e0 b6 3e 57 1b ae be 04 45 3d 3e
       0.90121114 0.3571817 -0.34005234 0.18483359
000140 cf 1b b0 3d b4 e5 29 be e1 9e 73 3e 3f a4 54 3f
       0.08599054 -0.16591531 0.23791076 0.8306312
000150 d0 57 a4 be 30 d8 f0 3d d9 2b b1 3e e3 64 61 bd
       -0.32098246 0.117599845 0.34603766 -0.055027854
000160 69 b9 de 3d 4f 54 db 3c bc 4d 0d 3e b5 5d 52 be
       0.10875208 0.0267736 0.13799185 -0.20543559
000170 38 1d 85 3d 55 4b 54 3e 51 c6 bf 3e 2e ac ef 3e
       0.06499714 0.20731862 0.3745599 0.4681105
000180 ad a1 9f 3e 00 63 03 3c 83 5d b6 ba 60 2c 8f be
       0.31178036 0.008019209 -0.0013913367 -0.27963543
000190 a4 18 16 3f 1a 7f 0c be 8b 96 e8 bd 9b 7f 92 3e
       0.5863135 -0.1372036 -0.11356839 0.2861298
0001a0 4d 0e ba 3c 29 bd ee 3e 5e 8d 30 3f 42 80 a9 3e
       0.022711897 0.46628693 0.6896571 0.33105665
0001b0 b9 08 94 3e b4 0d 85 3e 21 92 02 3f 41 93 0d 3e
       0.28912905 0.25987017 0.51004225 0.13825704
0001c0 60 10 e5 3e 49 57 49 3e 3e 82 7a 3e 95 96 a4 3d
       0.44739056 0.19662203 0.24463746 0.08036534
0001d0 8d 95 2b 3e f9 05 90 3e 02 85 b7 be 0e 33 78 be
       0.16756268 0.28129557 -0.35843664 -0.24238226
0001e0 e6 ee 64 3e ea 03 e8 be 2d 90 df 3d 50 07 84 3f
       0.22356758 -0.45315486 0.10916171 1.0314732
0001f0 ee a3 92 be 44 de 93 bd 4a 49 ea 3e ef cf 9b 3e
       -0.28640693 -0.07220128 0.4575904 0.30432078
000200 f9 7f a7 3e f1 bb 84 bb 33 0d 35 be e4 6f 27 be
       0.32714823 -0.0040507247 -0.17680816 -0.16351277
000210 c9 61 57 be 12 d1 51 3e 50 4e 1e be fa a0 b0 3d
       -0.21033396 0.2048991 -0.15459561 0.08624454
000220 84 48 82 be 05 7a 74 3f 7c df 22 3f c1 d9 be 3e
       -0.2544595 0.9549869 0.6362226 0.37275508
000230 21 56 b7 3e da 9c da be 47 8e 8a bd 02 d9 3a 3d
       0.358079 -0.42697793 -0.067654185 0.04561711
000240 c8 3f a6 3e 78 87 f5 be 37 43 14 3f 28 0e bb be
       0.32470536 -0.47954917 0.5791506 -0.36534238
000250 6b 22 92 bd 53 c4 26 bf a1 c9 36 be 3b 5f 46 bc
       -0.07135471 -0.65143317 -0.17850353 -0.012107666
000260 53 21 85 3d 25 2d cf be a9 2f 52 be 60 1f 2a be
       0.06500497 -0.4046413 -0.20525993 -0.16613531
000270 68 9b a2 bd 63 2f 7c be 76 0d 8d be 60 59 61 3f
       -0.07939798 -0.24627452 -0.27549332 0.88027
000280 e9 14 98 be c0 69 be 3e 87 66 dd be bc 9b 20 3d
       -0.29703453 0.37190056 -0.43242285 0.03921102
000290 c1 ed f9 bd c2 6d 00 3c 15 f0 02 3e 9f e2 4e 3f
       -0.12203551 0.007838668 0.12786897 0.80814546
0002a0 5f 96 e7 bb f7 40 57 3f f5 b7 7f 3e e8 a9 8a be
       -0.007067486 0.84083503 0.24972518 -0.27082753
0002b0 68 df 37 bf fb 39 56 3d fb be 00 3e 5b 8b 32 be
       -0.71825266 0.05230139 0.12572853 -0.17435972
0002c0 b9 48 34 be d5 5f 8b 3f 70 23 0b 3f 87 43 81 bd
       -0.17605866 1.0888621 0.5435095 -0.06311708
0002d0 34 6e 53 3f 99 a7 2c bf 62 de ae be df 74 0e 3f
       0.8259003 -0.67443234 -0.3415404 0.5564708
0002e0 6e c6 43 3e bf f2 17 be 0f e0 63 be 95 d3 37 bd
       0.19118664 -0.14838694 -0.2225344 -0.044879515
0002f0 c9 30 a2 be 29 87 b8 3e 39 9a b8 be 06 51 13 3e
       -0.31677845 0.3604062 -0.36055163 0.14386377
000300 69 a4 a0 3e 95 93 30 3f c2 8d c7 3d c7 b3 34 3f
       0.31375435 0.6897519 0.09743835 0.7058682
000310 47 20 7d 3f 07 99 50 3f 9c 6c ce 3d 71 a2 cf bd
       0.98877376 0.814835 0.10079309 -0.10138405
000320 c1 3d aa 3e c8 95 12 3f 50 c7 e2 3d b0 49 50 3e
       0.3325024 0.572598 0.11073172 0.2034061
000330 d2 9c a6 3e 4a 81 f6 3e 91 9d 43 3f 60 e7 67 3f
       0.3254152 0.48145515 0.764123 0.90587425
000340 06 90 b4 bd 72 1d b4 3f 56 02 5b 3e b4 58 24 3f
       -0.08816533 1.4071486 0.2138761 0.6419785
000350 3d f6 37 3e 8d a9 75 3f dd 2d b0 3e 2f e4 5e 3f
       0.17965026 0.9596184 0.3440999 0.8706693
000360 a3 f5 f8 3e 46 f3 ab be bd eb 21 3c 7a fd ca 3e
       0.48624906 -0.3358404 0.009882865 0.39646512
000370 37 a0 18 be ff 68 aa 3f 08 0d e9 3e d8 fa 91 3e
       -0.14904867 1.3313292 0.45517755 0.2851169
000380 f4 81 7e 3e 75 7b ed bd a0 2b aa 3d a7 ec 9f 3b
       0.2485426 -0.11595813 0.08309102 0.004880506
000390 36 f1 1c 3f 9b f2 46 be 27 3e 38 bd 00 2d f3 3e
       0.6130556 -0.19428484 -0.044981148 0.4749527
0003a0 25 ce f1 be b1 ef 18 3f 88 e5 0e 3e 34 be 33 3f
       -0.47227588 0.5974074 0.13954747 0.702121
0003b0 fb 87 e2 3e 82 fe a0 3e 01 48 50 3f 21 6e c1 3e
       0.4424437 0.31444174 0.8135987 0.37779334
0003c0 8b 9e 72 3e 2d 9e eb 3e ae 96 f0 bd 90 e9 8c 3e
       0.23693292 0.46019116 -0.1174749 0.27521944
0003d0 fe 86 ab 3e d1 fb 8e 3e 12 f6 63 be 92 d0 80 3e
       0.33501428 0.27926496 -0.22261837 0.25159127
0003e0 10 9b 8c 3c e4 78 d7 bc 06 8f e9 3e b7 5e c7 bd
       0.017163783 -0.026302762 0.4561693 -0.09734862
0003f0 da 70 e2 bd a3 4d ca 3e af 1b 80 bc 48 36 fd 3c
       -0.11056681 0.39512357 -0.0156382 0.030909672

weight f4 [2, 64]
000000 01 79 49 3d 7c ae c5 3e 42 10 86 bd e5 4d 48 be
       0.049187664 0.38609684 -0.0654607 -0.19560964
000010 b9 1b 5a 3e d8 7d 8b 3e 65 83 0f be 79 8a 03 3f
       0.21299638 0.2724445 -0.14014967 0.5138317
000020 3e 1d d5 3e f7 26 79 bf 20 fe 39 3c 4a 91 2c 3e
       0.41623873 -0.9732508 0.011352092 0.16852298
000030 75 cb 49 3e 44 70 8b be 79 f8 aa 3e cc 36 27 be
       0.19706519 -0.2723409 0.33392695 -0.16329497
000040 c3 41 78 3e e5 75 6d 3f 4f 9b f8 3d 95 c9 30 3f
       0.24243836 0.9275802 0.12138998 0.6905759
000050 d7 a5 33 3f c6 07 be bf 18 1c c9 3e 79 e6 27 be
       0.70174927 -1.4846122 0.39279246 -0.16396512
000060 c0 06 07 3d 0e 57 01 bf 08 b9 18 bf bc 35 a8 3e
       0.03296542 -0.5052346 -0.59657335 0.32853496
000070 66 ac b5 bf 2e 59 92 be b3 cf 8d be 9d f4 d1 be
       -1.4193237 -0.28583664 -0.27697524 -0.41006938
000080 26 0b 87 be 3b 73 a7 3e 5c 9e 22 be ed 5e b1 3e
       -0.26375693 0.327051 -0.15880722 0.34642735
000090 75 30 3d be c6 7e d0 3e 42 0a 57 3e c3 0e 1e bc
       -0.18475516 0.4072172 0.21000007 -0.009647074
0000a0 d7 93 9a 3e b0 9e 67 3e 68 92 87 be 90 6d 82 3e
       0.30190918 0.22619128 -0.26478887 0.25474215
0000b0 17 b3 be be 17 e5 b4 be 57 83 2f be 46 90 32 be
       -0.3724601 -0.35331032 -0.17139946 -0.17437848
0000c0 16 6e 21 be 59 df 95 3e 45 4d 7f 3e 15 fc 98 3e
       -0.1576465 0.29271963 0.2493182 0.29879823
0000d0 87 0e 04 be f1 a8 a7 3e 3c 07 23 bf 08 7a 93 bc
       -0.12896167 0.3274608 -0.63682914 -0.018002525
0000e0 c3 e9 a0 3e 62 5a 6f 3f 53 b3 41 be b6 95 92 3e
       0.31428346 0.9349729 -0.18916063 0.28629845
0000f0 73 87 78 be 63 40 39 3f 3a c6 87 be 1b 9b 4f 3e
       -0.2427042 0.7236387 -0.26518422 0.20274012
000100 cb 7b 96 bd 66 27 18 3e 9e bb 0a bf c6 59 bc 3e
       -0.073478304 0.1485878 -0.5419253 0.36787242
000110 3f 9c ae 3e 31 e8 c7 be 18 0e d5 be 9e 98 a3 bd
       0.3410358 -0.39044335 -0.41612315 -0.07988094
000120 4c f5 54 be ab 08 54 bf b1 0d ad be 02 97 bd 3e
       -0.20796698 -0.82825726 -0.33799508 0.37029272
000130 6a f5 ca 3e ee 6d 56 3f 95 8b 1a be 03 7a da be
       0.3964036 0.8376149 -0.15092309 -0.42671213
000140 7e 3d df 3e a8 28 39 3e f3 25 00 3f 3e 35 9a be
       0.43601602 0.18081915 0.50057906 -0.30118746
000150 6f 26 c3 3e 5e 5c 13 3f 14 0c 71 bd e5 4b 03 3f
       0.3811526 0.57562816 -0.05884941 0.5128768
000160 c2 01 91 be 5d 05 ec bd 60 47 71 3e 83 c1 24 bd
       -0.28321654 -0.115244605 0.23562384 -0.04022361
000170 55 62 bc 3d 88 08 4a bf 56 5a ba be 38 f9 a9 3e
       0.09198443 -0.7891927 -0.36397046 0.3319795
000180 81 c0 1d be 8e 6a 20 3e 5b c3 c7 be d1 ed 88 bd
       -0.15405466 0.15665647 -0.39016232 -0.06685985
000190 86 d2 0c bf 76 a8 b4 3d 47 af d7 3e d0 32 f6 3e
       -0.55008733 0.08821194 0.42125914 0.48085642
0001a0 9c 0d c4 3e b0 e5 d1 3e b9 06 e5 be 90 c2 c2 3f
       0.38291633 0.4099555 -0.4473169 1.5215626
0001b0 33 8a 04 3f e8 da 5a be 88 d5 f1 be ac 0a 2b bf
       0.51773375 -0.21372569 -0.47233224 -0.6681316
0001c0 ec f4 b1 3c e9 e4 02 3d 8f 2f 14 3f 58 d4 1d 3f
       0.021723233 0.031956587 0.5788507 0.61652136
0001d0 3a 69 c2 bd e1 57 3d 3f c5 39 07 3d 0a ca 31 be
       -0.094927266 0.7396222 0.033014078 -0.17362228
0001e0 85 77 eb 3d b8 aa be be 3b 4b e4 be 92 e1 a6 3f
       0.11497406 -0.37239623 -0.44588646 1.3037589
0001f0 99 e0 01 bf 6d c0 d9 3d bf 29 5c 3e bb ee db 3e
       -0.50733334 0.106324054 0.215003 0.42955574

bias f4 [2]
000000 dd a9 e4 3d 49 de b4 3d
       0.11165211 0.0883146
