scripts/models/sgan-models/eth_12_model.pt (torch_old, 70311 bytes, 18 tensors)

encoder.encoder.weight_ih_l0 f4 [128, 16]
0	0xbcc89c7f	-0.024488686
1	0xbe536900	-0.20645523
2	0x3d5f11fd	0.054460514
3	0x3df0767f	0.11741351
4	0xbe15a838	-0.14614952
5	0xbdc41e6f	-0.09576117
6	0x3d625b25	0.055262703
7	0x3ddc9a1b	0.10771581
8	0x3d31f732	0.043448634
9	0x3e0cc862	0.13748315
10	0xbe352615	-0.17690308
11	0x3d50e1c8	0.05099657
12	0x3e2f0ec6	0.1709548
13	0x3dcf1654	0.101116806
14	0x3e20576e	0.15658352
15	0x3c2e0edc	0.01062366
16	0x3da4a2da	0.08038874
17	0xbd45c3eb	-0.048282545
18	0xbd0f4b0b	-0.034983676
19	0xbe02c088	-0.12768757
20	0x3dbaba0e	0.09117518
21	0xbd263399	-0.04057655
22	0x3e2c9d04	0.16856772
23	0xbe22c848	-0.15896714
24	0x3c324d89	0.010882744
25	0x3d305135	0.043046195
26	0xbd92e6f5	-0.07172958
27	0xbcce4cbd	-0.025183076
28	0x3e3d820a	0.18506637
29	0x3cb80b0c	0.022466205
30	0x3e22d0a6	0.15899906
31	0xbd398543	-0.045293104
32	0xbbde655c	-0.0067869853
33	0xbe3f8f0e	-0.18706915
34	0xbcd11c63	-0.025526231
35	0x3c674f4c	0.014118027
36	0xbc1b0277	-0.009461037
37	0xbcc3e668	-0.023913577
38	0xbda6b577	-0.081400804
39	0xbc89cda4	-0.01682169
40	0x3c870511	0.016481908
41	0xbd755412	-0.05989463
42	0x3d88c9b5	0.066790976
43	0x3e0678fc	0.1313209
44	0xbc3fa182	-0.011696221
45	0x3ddbf4b0	0.1074003
46	0x3e3a0856	0.18167242
47	0x3ca37956	0.019955318
48	0x3d1da4e2	0.038487323
49	0xbe19649b	-0.14979784
50	0xbe3c57e6	-0.18392906
51	0x3e28eb36	0.16495976
52	0xbe1d36a5	-0.15352876
53	0x3e38acaa	0.18034616
54	0x3dfb4d56	0.1227061
55	0xbd940378	-0.07227224
56	0x3dee1935	0.116259016
57	0x3e348d33	0.17631988
58	0x3d88976b	0.06669506
59	0xbdd92d8f	-0.10604393
60	0x3e251cd6	0.16124281
61	0xbdd7f2d2	-0.10544361
62	0x3e0fec5d	0.14055009
63	0xbba08cc5	-0.0048995935
64	0xbe58c414	-0.21168548
65	0x3c7ec74f	0.015550449
66	0x3e0233a2	0.12715009
67	0xbd8fe4fa	-0.07026096
68	0xbe40fdc6	-0.18846807
69	0xbdd967c9	-0.106154986
70	0x3c7f7091	0.015590803
71	0xbceaaf51	-0.02864805
72	0xbda3f3a5	-0.08005456
73	0x3e551d73	0.20812015
74	0x3e2c6fc4	0.1683951
75	0xbdff8a3f	-0.1247754
76	0xbd73af2d	-0.059493233
77	0xbcf9cb25	-0.030492375
78	0xbe16a8e4	-0.14712864
79	0xbd6d1b57	-0.0578874
80	0xbe62be8a	-0.22142997
81	0xbe440da7	-0.19145833
82	0x3de6113f	0.11233758
83	0x3d950c98	0.07277793
84	0xbd266bb6	-0.040630065
85	0xbda46be9	-0.08028395
86	0x3e16a30b	0.14710633
87	0xbe270c0b	-0.16313188
88	0xbdf416bc	-0.11918399
89	0x3ca2acb1	0.019857736
90	0x3e277cf9	0.16356267
91	0xbdb994bd	-0.09061573
92	0xbc933afd	-0.017972464
93	0x3c67c2fb	0.014145608
94	0x3e36cbd1	0.17851187
95	0xbd0ffc1d	-0.035152543
96	0xbd3c1055	-0.045914013
97	0x3cfbb24f	0.030724673
98	0x3dc8e523	0.09809329
99	0x3d5b00d6	0.053467594
100	0xbde2a010	-0.11065686
101	0xbdce14c1	-0.10062552
102	0xbc36d465	-0.011159037
103	0xbe37e499	-0.17958297
104	0x3dfd215c	0.123598784
105	0xbe1eaeea	-0.15496412
106	0xbdb7f1ba	-0.089816526
107	0x3e17eece	0.1483719
108	0x3da10132	0.07861556
109	0x3c808a29	0.01569088
110	0xbc3b618b	-0.01143683
111	0x3e109ddb	0.14122717
112	0xbdde4f3d	-0.10854957
113	0xbd46d538	-0.048543185
114	0xbdd7c9b0	-0.10536516
115	0x3b7c9ff7	0.0038547495
116	0xbd308d61	-0.04310358
117	0x3dad5c97	0.08464926
118	0x3e4f316c	0.20233697
119	0x3e2c8f64	0.16851574
120	0xbe0fb759	-0.14034785
121	0xbdc0d740	-0.09416056
122	0x3e1b3883	0.15158276
123	0xbd6fbb11	-0.05852801
124	0x3cce843c	0.025209539
125	0x3cdd84b9	0.027040826
126	0x3df5b3af	0.119971626
127	0x3e3ffd63	0.18749003
128	0xbd965057	-0.07339542
129	0xbe3e42a0	-0.18580103
130	0xbdcaf8b6	-0.09910719
131	0xbcb191e3	-0.02167601
132	0xbe07177c	-0.13192552
133	0xbd8d8fdb	-0.06912204
134	0x3d52db13	0.051478457
135	0x3c323b37	0.010878376
136	0xbc97bdb1	-0.01852307
137	0x3dc52bb6	0.09627478
138	0x3dc1aecc	0.09457168
139	0x3e22a1e7	0.15882073
140	0x3e399c0d	0.18125935
141	0x3ddf89cb	0.10914954
142	0xbccc0cfb	-0.024908533
143	0x3d8f8be2	0.070091024
144	0x3daa3283	0.083104156
145	0xbd71d2f0	-0.059039056
146	0x3d8faea0	0.07015729
147	0xbe0060ff	-0.12537001
148	0xbe2cea80	-0.1688633
149	0x3da73286	0.081639335
150	0x3e25bd49	0.16185488
151	0xbe45b58f	-0.1930754
152	0xbde5d85d	-0.11222909
153	0x3d907b88	0.07054812
154	0x3dbacfc5	0.0912166
155	0x3decad41	0.11556483
156	0xbdbf311d	-0.093355395
157	0x3e15d11f	0.14630555
158	0xbcfb2d4d	-0.03066125
159	0x3dae2d46	0.08504729
160	0x3de44106	0.11145215
161	0xbdb1b629	-0.086773224
162	0xbd7b273d	-0.061316717
163	0xbd1f74fd	-0.038929928
164	0x3dd641e5	0.10461787
165	0x3cc192b7	0.02362953
166	0xbc8ad635	-0.016947845
167	0xbd87f601	-0.066387184
168	0xbe507c24	-0.20359856
169	0xbdf2949f	-0.118447535
170	0x3d48ecc0	0.049053907
171	0x3cabd88b	0.02097728
172	0xbd96a655	-0.07355944
173	0x3d95284d	0.072830774
174	0x3d9c5a0b	0.07634362
175	0xbccb489b	-0.024814894
176	0xbc9dd590	-0.019266874
177	0x3e09cee8	0.13457835
178	0x3e147c09	0.1450044
179	0x3b2b36d5	0.0026125212
180	0xbe285528	-0.16438735
181	0x3cacfc7f	0.021116493
182	0x3e30cff9	0.17266835
183	0xbe15039f	-0.14552163
184	0xbdf5945f	-0.1199119
185	0x3dcefcdd	0.101068236
186	0x3cd25b2f	0.025678245
187	0xbc0e8557	-0.008698783
188	0xbd877e48	-0.06615883
189	0xbe0f0334	-0.13966066
190	0x3d196fb9	0.037460063
191	0xbcfe4818	-0.031040236
192	0x3d20df27	0.039275315
193	0xbe1ff766	-0.15621719
194	0x3d56979d	0.052390683
195	0xbdefe271	-0.11713112
196	0xbcbcd8f3	-0.023052668
197	0x3db8612e	0.090029106
198	0xbda3fa86	-0.08006768
199	0x3c8a9c69	0.016920285
200	0xbe014da8	-0.1262728
201	0xbdb9d0af	-0.09073006
202	0x3dd42140	0.103579044
203	0x3e05dd38	0.1307267
204	0xbd937a95	-0.07201115
205	0x3da2f399	0.07956619
206	0x3d060b13	0.032725405
207	0xbe0fa763	-0.14028697
208	0xbd455e93	-0.048185896
209	0xbddeb5d0	-0.10874522
210	0xbb5cfa49	-0.0033718518
211	0x3e222d80	0.1583767
212	0xbe0708d5	-0.13186963
213	0x3ac8496f	0.0015280674
214	0x3d1bd83c	0.038048014
215	0xbd9a5938	-0.075365484
216	0xbe08ac96	-0.13347086
217	0x3c296734	0.010339547
218	0xbd0dd92a	-0.034630932
219	0xba816016	-0.0009870555
220	0x3cd66b17	0.026174111
221	0x3e2efda5	0.17088945
222	0x3aba105f	0.0014195553
223	0x3e52cde6	0.20586357
224	0xbca08b31	-0.019597622
225	0x3e070c93	0.1318839
226	0x3dae7534	0.085184485
227	0xbd908aa0	-0.070576906
228	0x3dbc6826	0.09199552
229	0x3e4fef65	0.20306166
230	0x3e47263f	0.19448183
231	0xbe4877e5	-0.19576986
232	0xbe263b14	-0.16233474
233	0x3e0014ac	0.12507886
234	0xbdfef0e1	-0.12448288
235	0xbd9285e3	-0.07154443
236	0x3d65a99c	0.056069955
237	0xbda5949c	-0.080849856
238	0x3e108bc0	0.1411581
239	0x3ce2f737	0.027705772
240	0x3cfc7ded	0.030821765
241	0xbe1edcb0	-0.15513873
242	0xbc3ded1e	-0.011592178
243	0xbe0225f0	-0.12709785
244	0xbe511679	-0.20418729
245	0xbbb77ce7	-0.0055996063
246	0xbdc42d43	-0.095789455
247	0xbe52e058	-0.20593393
248	0xbaa4a571	-0.0012561512
249	0xbe1bace9	-0.15202679
250	0xbc8668ee	-0.016407456
251	0xbc0bfca4	-0.008544121
252	0xbdfc6b65	-0.123251714
253	0xbe354e7c	-0.1770572
254	0x3dd2fa40	0.10301638
255	0xbca82ad7	-0.02052824

encoder.encoder.weight_hh_l0 f4 [128, 32]
0	0xbe10606f	-0.14099286
1	0x3dcb3516	0.09922235
2	0xbdd208f1	-0.10255612
3	0xbdafd308	-0.08585173
4	0x3db48f14	0.088163525
5	0xbe5f71cb	-0.21820752
6	0xbe0c40b5	-0.13696559
7	0xbde782ea	-0.11304267
8	0x3cc80418	0.024416015
9	0x3dc23cc9	0.0948425
10	0x3c76c71a	0.015062118
11	0xbdd32985	-0.103106536
12	0xbccfb960	-0.025356948
13	0x3e0dd673	0.13851337
14	0xbd8c600c	-0.06854257
15	0xbe2cc344	-0.16871363
16	0x3d712f8f	0.058883246
17	0x3ca0b930	0.019619554
18	0x3e4e7618	0.20162237
19	0xbd4d8820	-0.050178647
20	0x3df440f7	0.119264536
21	0xbccce5a1	-0.02501184
22	0x3ccf7e58	0.0253288
23	0x3ddb9b92	0.10723032
24	0x3d95537a	0.072913125
25	0xbd9e0d36	-0.077173635
26	0x3e4a9ea9	0.19787087
27	0xbdb84260	-0.08997035
28	0x3d90d0b5	0.07071058
29	0xbd4c9e1e	-0.04995548
30	0xbd8b3f6c	-0.06799206
31	0x3d3a196b	0.045434397
32	0x3dadbd9e	0.08483432
33	0x3e043f02	0.1291466
34	0x3e2df51d	0.16988035
35	0x3d309918	0.04311475
36	0xbdf9e1fb	-0.122013055
37	0x3e020a48	0.12699234
38	0x3dcf7e09	0.10131461
39	0xbd55a598	-0.052159876
40	0xbda610e9	-0.08108694
41	0x3df3bfa3	0.11901786
42	0xbd8d2b2b	-0.06892999
43	0x3cacaf6f	0.021079747
44	0x3c8a03af	0.01684746
45	0x3d9ef152	0.07760872
46	0xbdd902a3	-0.10596206
47	0xbe032094	-0.12805396
48	0xbe5a9d12	-0.2134898
49	0xbe3fc9e5	-0.1872936
50	0xbd5a3814	-0.053276137
51	0xbdcb6d96	-0.09933011
52	0xbdc42c78	-0.09578794
53	0x3df5a9f4	0.119953066
54	0x3d19529f	0.03743231
55	0x3d8a7cc5	0.06762079
56	0x3dbd9e42	0.09258701
57	0x3decd9e4	0.11564997
58	0x3e0e72fc	0.1391105
59	0x3e102669	0.14077152
60	0x3e04f0d2	0.1298249
61	0x3e29c838	0.16580284
62	0xbdfa6c2a	-0.12227662
63	0xbdcda72f	-0.10041653
64	0xbdb1fa2a	-0.08690293
65	0xbd2910fe	-0.04127597
66	0x3cf88214	0.030335464
67	0x3de30444	0.11084798
68	0x3e157739	0.14596261
69	0xbe2c4236	-0.16822132
70	0x3d41e185	0.047334213
71	0xbdf92240	-0.12164736
72	0x3e0c23e3	0.13685565
73	0x3d054ce0	0.032544017
74	0xbdbc4fcc	-0.091949075
75	0x3d72c029	0.05926529
76	0xbdf0f815	-0.11766068
77	0x3df9c6fb	0.12196156
78	0x3e3ac32f	0.18238519
79	0x3df84312	0.12122168
80	0x3e114ad3	0.141887
81	0xbde50059	-0.11181707
82	0x3e4586d5	0.19289716
83	0xbdfd8e14	-0.12380615
84	0x3ce2dea3	0.027694052
85	0xbac95de4	-0.0015363065
86	0xbdf9f690	-0.12205231
87	0xbdfa0c19	-0.12209339
88	0xbcec5e8d	-0.02885368
89	0xbc70b553	-0.014691669
90	0x3d9c47fd	0.07630918
91	0xbd981f00	-0.07427788
92	0xbdde40bf	-0.10852193
93	0xbe33e5b6	-0.17568097
94	0x3d2c81cd	0.042115975
95	0xbca54ff2	-0.020179722
96	0xbd025776	-0.03182169
97	0xbe2c1e23	-0.16808371
98	0x3e6f5f12	0.2337611
99	0xbe3ccb69	-0.1843697
100	0x3d3cf752	0.0461343
101	0x3dfd546e	0.12369619
102	0xbe787d02	-0.24266437
103	0xbe44376c	-0.19161767
104	0x3d59de9f	0.053190824
105	0xbdf980f3	-0.12182798
106	0x3e0fc84a	0.14041248
107	0xbce7c477	-0.028291924
108	0xbe11ee02	-0.14250949
109	0x3d330b41	0.043711904
110	0x3e026733	0.1273468
111	0xbe657082	-0.224062
112	0xbdf676e3	-0.120343946
113	0xbd611a90	-0.054956973
114	0x3e1b6b25	0.15177591
115	0x3e2721a0	0.1632142
116	0xbdbacd1f	-0.09121155
117	0x3cf78cfe	0.030218598
118	0x3d9c8911	0.07643331
119	0x3d9f3c51	0.07775176
120	0xbe39d425	-0.18147333
121	0xbdcf74a2	-0.10129668
122	0x3a334456	0.0006838491
123	0x3da3698a	0.07979114
124	0x3e1ede20	0.15514421
125	0x3df8bc37	0.12145274
126	0x3e33edc8	0.17571175
127	0x3e0a502f	0.1350715
128	0xbc1ab745	-0.009443109
129	0x3e32200b	0.17395036
130	0x3e02b8b0	0.12765765
131	0xbd32cfb1	-0.0436551
132	0x3bae8d73	0.0053269207
133	0xbe220cab	-0.15825145
134	0xbd9e5b02	-0.07732202
135	0x3be7ed56	0.007077853
136	0xbdc53537	-0.096292906
137	0xbddb945a	-0.10721655
138	0xba960323	-0.0011445027
139	0xbe445802	-0.19174197
140	0xbe6a2935	-0.22867282
141	0xbca83895	-0.020534793
142	0x3d8cd0ae	0.0687574
143	0xbd763ed9	-0.06011853
144	0x3ddaabc6	0.106772944
145	0x3d24a655	0.04019769
146	0xbc55e930	-0.0130560845
147	0xbd812109	-0.06305129
148	0xbe3a10f5	-0.18170531
149	0xbde4b3f2	-0.11167134
150	0x3de6f8dc	0.11277935
151	0x3c9ade20	0.018904746
152	0xbdcc4f38	-0.09976047
153	0xbe0403be	-0.12892053
154	0xbd90426f	-0.07043921
155	0xbd4a548e	-0.049397044
156	0xbd86260d	-0.06550226
157	0x3dc7779d	0.09739611
158	0x3d34217b	0.043977242
159	0x3e3b53eb	0.18293731
160	0x3dcb5a42	0.09929325
161	0x3e184389	0.14869513
162	0xbd53225a	-0.051546432
163	0x3c29f903	0.01037431
164	0xbdb5a07d	-0.08868501
165	0x3d3bcc02	0.045848854
166	0xbe31423a	-0.1731042
167	0xbe1b86ab	-0.1518809
168	0x3b7930ff	0.0038023589
169	0x3d60d5a7	0.054891255
170	0xbc884111	-0.016632589
171	0xbd242316	-0.040072523
172	0xbdc9de58	-0.09856862
173	0xbd4789e4	-0.048715487
174	0x3abacdab	0.0014251968
175	0xbe707d0a	-0.23485199
176	0xbd96f9ed	-0.07371888
177	0xbd6aa047	-0.05728176
178	0x3e5f136f	0.21784757
179	0xbc9aff69	-0.018920617
180	0xbe2c6739	-0.16836251
181	0x3cce49ce	0.025181677
182	0x3e185631	0.1487663
183	0x3de9ff05	0.11425594
184	0x3e4e657e	0.20155904
185	0xbdb38ecb	-0.0876747
186	0xbddf300a	-0.108978346
187	0x3d8c0c5e	0.06838296
188	0x3d76fafc	0.06029795
189	0x3dc0bb4c	0.09410724
190	0x3c191e83	0.0093456535
191	0x3e6711b2	0.22565344
192	0x3e1e8299	0.15479507
193	0x3c3dd158	0.011585556
194	0x3da77111	0.081758626
195	0x3de6087a	0.112320855
196	0xbe09bb1b	-0.13450281
197	0x3d284292	0.04107911
198	0xbe1c37fa	-0.15255728
199	0x3bccefff	0.0062541957
200	0x3ce5e8b2	0.02806506
201	0xbdb5fa36	-0.088856146
202	0xbd748809	-0.059700046
203	0xbe4aaeaa	-0.19793192
204	0xbe0a40b5	-0.13501246
205	0xbc579bac	-0.013159674
206	0x3e112ed3	0.14178018
207	0xbe2036e6	-0.15645942
208	0xbdbe5959	-0.092943855
209	0x3dd28fbd	0.10281322
210	0xbdd8052b	-0.10547861
211	0x3e1b684a	0.15176502
212	0xbe1c004f	-0.15234493
213	0xbc2443fc	-0.010025974
214	0xbe0879b7	-0.1332768
215	0x3a9f6228	0.001215999
216	0x3e2f321c	0.17108959
217	0x3dc622de	0.09674619
218	0xbc2514e7	-0.010075784
219	0xbe5065f7	-0.20351397
220	0xbb8365ab	-0.0040099225
221	0x3d201dbb	0.039090853
222	0x3e669218	0.22516668
223	0xbc94fdc3	-0.01818741
224	0x3d9efb6c	0.07762799
225	0x3d9a748b	0.0754176
226	0x3db6ae5b	0.089199744
227	0xbd372de8	-0.044721514
228	0xbdbd3239	-0.09238095
229	0xbdf517cb	-0.11967429
230	0xbe2e0314	-0.16993362
231	0xbd3f5a8f	-0.046717223
232	0x3ddc16df	0.1074655
233	0xbe0b75c7	-0.13619147
234	0x3c87a5f4	0.016558625
235	0xbe692abb	-0.22770207
236	0x3e0fd23f	0.14045046
237	0x3e322050	0.17395139
238	0x3e37c372	0.1794565
239	0xbd1aa54d	-0.0377553
240	0xbe20614a	-0.15662113
241	0x3cd90f34	0.026496507
242	0x3e5ba0b6	0.21448025
243	0xbd8affc7	-0.06787067
244	0x3dea4c36	0.11440317
245	0x3e4fc26c	0.2028901
246	0xbc1ed5a3	-0.00969449
247	0x3e3c3d4c	0.18382758
248	0x3d013a2f	0.03154963
249	0xbe6901e4	-0.22754627
250	0xbdbce8da	-0.092241004
251	0xbd0c25ed	-0.034215856
252	0x3db28eb6	0.08718626
253	0xbe2d2a2c	-0.16910619
254	0xbbaae4fe	-0.0052152863
255	0xbdd32910	-0.103105664

encoder.encoder.bias_ih_l0 f4 [128]
0	0x3e4f4785	0.20242126
1	0x3c73c37e	0.014878152
2	0x3d997733	0.074934386
3	0xbd5d6c87	-0.054058578
4	0x3e47fda6	0.19530353
5	0x3e5d65de	0.2162089
6	0x3d9004a7	0.07032137
7	0x3db783a6	0.08960657
8	0x3e1e462e	0.15456459
9	0xbd3c64a7	-0.045994427
10	0x3e364976	0.1780146
11	0x3cd9e8f6	0.026600342
12	0x3d81c668	0.06336671
13	0x3e688a52	0.22709015
14	0xbd424e65	-0.047438044
15	0xbd2f6346	-0.042819284
16	0x3d95b31c	0.07309553
17	0x3deab426	0.11460142
18	0x3e04d4ed	0.1297185
19	0xbbaaf999	-0.0052177426
20	0x3e2f2fe8	0.17108119
21	0xbdd8158b	-0.10550984
22	0xbe146373	-0.14491062
23	0x3d90a6d5	0.07063071
24	0x3d8d5c83	0.06902411
25	0x3c83deae	0.016097393
26	0x3d587eff	0.052855488
27	0xbe022cd2	-0.1271241
28	0x3d89231a	0.06696148
29	0x3dfbc442	0.122932926
30	0xbd69578b	-0.056968253
31	0xbde1a0e0	-0.110170126
32	0xbd50a262	-0.05093611
33	0x3d427328	0.047473103
34	0x3d4c0d60	0.049817443
35	0xbc781fc6	-0.015144294
36	0x3e1b72ad	0.15180464
37	0xbd50aca6	-0.0509459
38	0x3da658be	0.08122395
39	0x3dfd9762	0.123823896
40	0x3e21c8b1	0.15799214
41	0xbd618610	-0.055059493
42	0xbc01d24e	-0.007923676
43	0xbd59228f	-0.053011473
44	0x3e0b193e	0.13583848
45	0xbc635970	-0.013876304
46	0x3e29ad02	0.16569903
47	0x3dc6bdc9	0.097041674
48	0x3e45a546	0.19301328
49	0xbd358c5e	-0.044323318
50	0xbde094a0	-0.10965848
51	0xbd0ed047	-0.034866598
52	0x3e20b5ff	0.15694426
53	0xbda116b7	-0.07865661
54	0x3e0ebc02	0.13938907
55	0xbe081835	-0.13290484
56	0xbd7c4de6	-0.061597727
57	0xbdbaac13	-0.09114852
58	0x3d88adc2	0.06673767
59	0xbdc77c20	-0.09740472
60	0xbd7cab6c	-0.06168692
61	0xbe3168fb	-0.17325203
62	0xbb353dcf	-0.002765525
63	0xbd750a53	-0.0598243
64	0x3df26802	0.11836244
65	0xbda227e0	-0.07917762
66	0x3e2780db	0.16357748
67	0x3c1db34b	0.009625266
68	0xbd70a149	-0.058747564
69	0xbd306e65	-0.04307403
70	0x3d16b4ff	0.036793705
71	0xbe3ab334	-0.18232423
72	0x3dc40f2d	0.09573207
73	0x3c95dfa5	0.018295119
74	0xbdca02ac	-0.09863791
75	0x3d5bbfcd	0.053649712
76	0xbe2c59a4	-0.1683107
77	0x3e58d5c3	0.21175294
78	0xbdf6d800	-0.120529175
79	0xbe2e0a81	-0.16996194
80	0xbd799099	-0.060928915
81	0xbd0421cb	-0.03225879
82	0x3dce4fe6	0.10073833
83	0x3e1fd25f	0.15607594
84	0xbd773cd3	-0.06036074
85	0x3e4b4b85	0.19853027
86	0xbd0817a4	-0.03322567
87	0x3cc113ed	0.023569072
88	0x3e3b5446	0.18293867
89	0xbe0f5618	-0.13997686
90	0x3e1cd5c8	0.15315926
91	0xbe2b0495	-0.16700967
92	0xbd3c6644	-0.045995966
93	0x3e003d1a	0.12523308
94	0x3da24d15	0.079248585
95	0x3d5f5c8a	0.05453161
96	0xbdccaa80	-0.09993458
97	0x3e51d784	0.20492369
98	0xbdbc9b02	-0.09209253
99	0x3c389d66	0.011267995
100	0xbd83a922	-0.06428744
101	0x3b060008	0.0020446796
102	0x3e1196fe	0.14217755
103	0x3e11e766	0.14248428
104	0x3d3d0c49	0.046154294
105	0x3dfde025	0.12396268
106	0x3e3b81f2	0.18311289
107	0x3ddcce4e	0.10781537
108	0x3c8164db	0.015795162
109	0x3e59b47e	0.21260259
110	0x3e50570a	0.20345703
111	0xbd3c51f9	-0.045976613
112	0xbd934cca	-0.07192381
113	0x3e44dba9	0.19224419
114	0xbcd0d9ea	-0.025494535
115	0x3e1ea36e	0.15492031
116	0xbded7d1f	-0.115961306
117	0x3d8da55c	0.069163054
118	0xbd25b3b3	-0.040454578
119	0x3e10c2d5	0.14136823
120	0x3d6deac0	0.058085203
121	0x3e3d5498	0.18489301
122	0xbde9e6a3	-0.114209436
123	0x3e1ec1c9	0.1550361
124	0xbde7ac5b	-0.11312171
125	0x3cef8071	0.02923605
126	0xbd4c8eac	-0.04994075
127	0x3e304c5d	0.1721663

encoder.encoder.bias_hh_l0 f4 [128]
0	0x3db82062	0.089905515
1	0x3d932b43	0.07185986
2	0xbd65fae5	-0.056147475
3	0x3dd3c7bc	0.10340831
4	0x3e1848e5	0.14871557
5	0xbda4ed60	-0.08053088
6	0x3e1fee7e	0.15618321
7	0xbe0e3dbd	-0.13890739
8	0x3d80b472	0.06284417
9	0x3e1d7525	0.15376718
10	0x3e28abe3	0.1647182
11	0x3dd48c7f	0.1037836
12	0xbd0558c1	-0.032555345
13	0x3df0d59a	0.11759491
14	0xbda9000b	-0.08251961
15	0x3d752a65	0.059854884
16	0xbc98cb71	-0.018651696
17	0x3d9b75a3	0.07590797
18	0x3dde345e	0.10849832
19	0x3e2a70ea	0.16644636
20	0x3d09b791	0.03362233
21	0x3dc0bb16	0.09410684
22	0x3dfd1d1f	0.1235907
23	0x3e175a02	0.14780429
24	0xbda80759	-0.082045265
25	0xbdf8dc6f	-0.12151419
26	0x3bfd188e	0.0077238744
27	0xbe1b701e	-0.15179488
28	0x3e1897fd	0.14901729
29	0xbce78063	-0.028259462
30	0xbc5a05af	-0.013307019
31	0x3e2dd637	0.16976248
32	0x3d411a01	0.04714394
33	0xbdfcdfa1	-0.12347341
34	0x3db07fa6	0.08618097
35	0x3d721043	0.05909754
36	0xbd01a07f	-0.0316472
37	0x3e046d3c	0.12932295
38	0x3dad5e48	0.08465248
39	0xbc86591d	-0.016399914
40	0xbdcb5c19	-0.099296756
41	0x3e362d0d	0.17790623
42	0xbb4740ec	-0.0030403687
43	0x3e4118f8	0.18857181
44	0x3d5bacd3	0.053631615
45	0x3c93d933	0.018047905
46	0x3e0a9d22	0.13536504
47	0x3bbb29af	0.005711756
48	0xbd231bc4	-0.0398214
49	0xbd4de627	-0.05026832
50	0x3de3c52f	0.11121594
51	0x3d89bd64	0.067255765
52	0x3cf4e1ae	0.029892769
53	0x3dac5c94	0.084160954
54	0x3e263f9e	0.16235206
55	0xbda781ef	-0.0817908
56	0x3e1eedf3	0.15520458
57	0xbe166fea	-0.1469113
58	0x3cd3b75b	0.025844267
59	0xbb9d09ce	-0.0047924286
60	0x3e2786c8	0.16360009
61	0xbdc23ea4	-0.09484604
62	0xbc9f6e24	-0.019461699
63	0x3df5ab80	0.11995602
64	0xbcd756cb	-0.026286503
65	0x3dfb9489	0.1228419
66	0xbe021702	-0.1270409
67	0xbb94ba10	-0.004538782
68	0xbd579615	-0.052633364
69	0xbd56756f	-0.052358087
70	0xbe45fbb6	-0.19334301
71	0xbe1ade5c	-0.15123886
72	0x3d162ba0	0.036662698
73	0x3e1059a9	0.14096703
74	0xbe2bb66c	-0.16768807
75	0xbd723102	-0.05912877
76	0xbcdeee03	-0.027213102
77	0x3d2dcf69	0.04243413
78	0x3e43d153	0.1912282
79	0x3da9efdd	0.082977034
80	0xbe601e9b	-0.21886675
81	0xbda89e92	-0.0823337
82	0x3e5694aa	0.20955148
83	0x3e00196c	0.12509698
84	0xbdc150dd	-0.094392516
85	0x3da63503	0.0811558
86	0xbe1ebd70	-0.15501952
87	0xbc9b15a4	-0.018931217
88	0x3d21d5d8	0.039510578
89	0xbdabcfd0	-0.083892465
90	0x3d911045	0.07083181
91	0xbe026877	-0.12735163
92	0xbd10ab80	-0.035319805
93	0xbd93efd5	-0.07223479
94	0xbcd53533	-0.026026344
95	0xbde9d55e	-0.1141765
96	0x3e32d3a3	0.17463546
97	0x3e5c1ecf	0.21496128
98	0x3d7f322e	0.062303714
99	0x3e35f558	0.17769372
100	0x3db4d524	0.08829716
101	0xbcb97aac	-0.022641502
102	0x3c4994ee	0.012303574
103	0x3e4d0305	0.20020683
104	0x3bfb3454	0.00766615
105	0x3e492df6	0.19646439
106	0x3d27035e	0.040774696
107	0x3dcf72cb	0.10129317
108	0x3e324d38	0.17412269
109	0x3e2e7fd2	0.17040947
110	0x3e006f0b	0.1254236
111	0x3be831d6	0.007086019
112	0x3d1d0239	0.038332198
113	0x3c4b6f6c	0.012416702
114	0xbcce1de5	-0.02516074
115	0x3d9c9dd5	0.076472916
116	0xbdc2eb7b	-0.095175706
117	0x3d8ce06e	0.06878744
118	0x3daed761	0.08537174
119	0xbdb2ba72	-0.08726968
120	0xbd11bad7	-0.035578575
121	0x3e166b18	0.1468929
122	0x3e0f32c2	0.13984206
123	0xbd9ae481	-0.07563115
124	0xbd88ba22	-0.06676127
125	0xbe17c0e5	-0.14819677
126	0xbdb33b33	-0.08751526
127	0x3df4b635	0.11948816

encoder.spatial_embedding.weight f4 [16, 2]
0	0x3dab8b53	0.08376183
1	0x3f8722e8	1.0557528
2	0x3e92addf	0.28648278
3	0xbfd0ac85	-1.6302649
4	0x3f1e5b60	0.6185818
5	0xc01581f4	-2.3360567
6	0x3ef31872	0.47479588
7	0x3ff41d03	1.9071354
8	0x3f01351e	0.50471675
9	0x3fe7c809	1.8107921
10	0x3f97557f	1.1822966
11	0x3f81d78a	1.0143902
12	0xbe71419e	-0.23560187
13	0x3fadffd1	1.3593694
14	0xbec5f9ee	-0.38667244
15	0x3ef4c503	0.47806558
16	0x3e59de4e	0.21276209
17	0x3faf8b77	1.3714436
18	0xbfc5c6b1	-1.5451261
19	0x3f36d326	0.71415937
20	0xbf6ef5d9	-0.93343884
21	0xbe873705	-0.26409164
22	0x3e0efc7d	0.13963504
23	0x3f96ec78	1.1790915
24	0xbf430a84	-0.7618792
25	0x3eada8e7	0.33917925
26	0x3ea31b56	0.31856793
27	0x3f83101d	1.0239292
28	0x3eea865a	0.45805627
29	0xbf09503d	-0.5363806
30	0xbe08a0f5	-0.1334265
31	0x3e8f2343	0.2795659

encoder.spatial_embedding.bias f4 [16]
0	0xbec2a17d	-0.3801383
1	0xbea1b5d1	-0.31584027
2	0xbf0afcbc	-0.5429189
3	0xbe716b51	-0.23576094
4	0xbecb46d3	-0.39702472
5	0x3f23e26c	0.6401737
6	0x3f1bd0bf	0.60865396
7	0xbed846ad	-0.4224142
8	0xbf106189	-0.56398827
9	0x3eb19e92	0.34691292
10	0xbdb09156	-0.08621471
11	0xbd8d223a	-0.06891294
12	0x3f0508d3	0.5196659
13	0x3d06a0a3	0.03286804
14	0x3e8d7c30	0.2763381
15	0x3edac4c5	0.42728248

decoder.decoder.weight_ih_l0 f4 [128, 16]
0	0xbdcd73df	-0.10031866
1	0xbdb8cc6c	-0.090233654
2	0xbd520dcb	-0.051282685
3	0x3d599138	0.053117007
4	0xbd9947bb	-0.074843846
5	0x3de4e751	0.111769326
6	0xbdd24387	-0.10266786
7	0x3cce3c1e	0.02517515
8	0xbd99e4fb	-0.07514378
9	0xbc585635	-0.013204147
10	0xbc1548a7	-0.00911156
11	0xbdfd869c	-0.1237919
12	0xbd37404f	-0.044739064
13	0x3df2d79f	0.11857533
14	0x3d0a683c	0.033790812
15	0x3dbaa6ad	0.09113822
16	0xbd28ba1b	-0.04119311
17	0x3d9c0d6e	0.07619749
18	0x3e04ab35	0.12955935
19	0xbd8164d1	-0.06318057
20	0x3e329a46	0.17441663
21	0x3d63f776	0.05565592
22	0x3e463007	0.19354258
23	0xbd1f521f	-0.038896676
24	0x3e0aa9c2	0.1354132
25	0x3e052b78	0.13004863
26	0xbe093c00	-0.13401794
27	0x3e362b42	0.17789939
28	0xbe15d93c	-0.1463365
29	0x3c4ea710	0.012613073
30	0x3d329415	0.043598253
31	0x3de1caa4	0.11024979
32	0xbdf1c5ac	-0.11805281
33	0x3d318868	0.043342978
34	0xbdbfd3e8	-0.0936659
35	0x3e27d664	0.16390377
36	0x3de7bfbf	0.113158695
37	0xbd3896e4	-0.045065776
38	0xbd4396fd	-0.047751416
39	0xbdec41b5	-0.1153597
40	0xbe2c9cbb	-0.16856663
41	0xbc50a2c6	-0.012734121
42	0xbc81af76	-0.015830737
43	0xbdcc30f6	-0.09970276
44	0x3dfa2974	0.12214938
45	0xbbc9f702	-0.006163479
46	0x3d9fdffe	0.07806395
47	0xbdcda6cf	-0.10041582
48	0x3e18ef5a	0.14935055
49	0xbcef49ea	-0.02921005
50	0xbdbd1859	-0.092331596
51	0xbde085d5	-0.109630264
52	0x3e0e26ff	0.13882063
53	0xbdd48a9f	-0.103780024
54	0x3dd73cba	0.105096295
55	0xbc19c0b6	-0.009384325
56	0xbc060d42	-0.008181872
57	0x3e07ea80	0.13273048
58	0xbd0f6e9e	-0.035017602
59	0x3d3e4d51	0.046460453
60	0x3defef8d	0.117156126
61	0xbdf6e45c	-0.12055275
62	0xbd9a70d5	-0.07541052
63	0x3ccaead0	0.02477017
64	0xbdc8fdc9	-0.09814031
65	0xbdc85718	-0.09782237
66	0xbe1d4410	-0.15357995
67	0xbde9d6c7	-0.11417919
68	0x3dabf26b	0.08395847
69	0xbe4793b7	-0.19489942
70	0xbc24e276	-0.010063758
71	0x3de3bc1f	0.111198656
72	0x3dc93009	0.09823615
73	0xbe0f5ad0	-0.13999486
74	0x3e199833	0.14999466
75	0x3db91fa2	0.090392366
76	0x3c1f9ad4	0.009741504
77	0xbddd2d71	-0.10799683
78	0x3da3bfda	0.07995577
79	0x3d5cf6e0	0.053946376
80	0x3daba901	0.08381844
81	0x3d7e6fc0	0.06211829
82	0x3ced037b	0.028932324
83	0x3e532432	0.20619276
84	0x3df48322	0.11939074
85	0xbdedc419	-0.11609668
86	0xbd5ecfc1	-0.05439735
87	0xbdd06b8b	-0.10176762
88	0xbe145412	-0.14485195
89	0x3e093f6d	0.13403101
90	0xbe13d924	-0.14438301
91	0x3e050bfd	0.12992854
92	0x3e0d22a3	0.13782744
93	0xbccd5bbe	-0.02506816
94	0x3ca50273	0.02014277
95	0x3e0027ec	0.12515229
96	0xbd2a1e7f	-0.04153299
97	0x3d39b7c4	0.04534127
98	0xbe14b9c9	-0.14523996
99	0xbe0534e7	-0.13008462
100	0x3d1afefa	0.03784082
101	0xbcb935a7	-0.022608591
102	0x3dd8bcd9	0.10582895
103	0xbd8b7b21	-0.06810594
104	0xbdfeac71	-0.12435234
105	0xbdca7ca0	-0.098870516
106	0xbd279cce	-0.040921025
107	0xbe2c9a6c	-0.16855782
108	0xbb7068d4	-0.0036683576
109	0x3c9b665a	0.018969703
110	0x3e2570cc	0.1615631
111	0x3e2bf24f	0.16791652
112	0x3d9a1f76	0.07525532
113	0x3da84bfd	0.082176186
114	0x3e2ae50e	0.1668894
115	0xbe0491e4	-0.12946278
116	0x3e121f90	0.14269853
117	0x3d439021	0.047744874
118	0xbe12b5c6	-0.14327154
119	0x3ce0020f	0.027344732
120	0x3cff316b	0.031151494
121	0x3d1ce410	0.038303435
122	0xbe02141f	-0.12702988
123	0x3e3b004c	0.18261832
124	0xbdafa44d	-0.0857626
125	0x3d46c29b	0.048525434
126	0x3e3d7a9a	0.185038
127	0x3d8413aa	0.06449063
128	0xbd220679	-0.039556954
129	0x3c6d8f59	0.014499509
130	0x3e01353a	0.1261796
131	0xbd501a86	-0.050806545
132	0xbde99386	-0.11405091
133	0x3c94bf2a	0.01815756
134	0x3db7d404	0.08975986
135	0x3b832525	0.0040022307
136	0x3e3b6767	0.18301164
137	0xbdeca9f7	-0.11555856
138	0x3e121c48	0.14268601
139	0xbd6d4188	-0.057923824
140	0xbda2857a	-0.07935615
141	0x3e013d5f	0.12621067
142	0x3d8d7554	0.06907144
143	0x3e080243	0.13282113
144	0x3e1c2e47	0.15252028
145	0x3dfea43c	0.12433669
146	0x3cce12dd	0.02515548
147	0x3c1ecbeb	0.0096921725
148	0x3d54ecfd	0.051983822
149	0x3d3ebc71	0.04656643
150	0x3e259bc1	0.16172697
151	0xbd963307	-0.073339514
152	0x3dc3b2a1	0.09555555
153	0xbdcae405	-0.099067725
154	0xbdbde8be	-0.09272908
155	0xbdef31ec	-0.11679444
156	0xbc7ac4d6	-0.015305718
157	0xbe125cb2	-0.14293173
158	0x3d0f1892	0.03493554
159	0x3d1f445c	0.038883552
160	0xbdbdb53c	-0.09263083
161	0x3c483a7a	0.012220973
162	0xbd85239f	-0.06500935
163	0xbc2ceeab	-0.01055495
164	0x3dbad586	0.091227576
165	0x3e03effa	0.12884513
166	0xbe2d6b77	-0.16935526
167	0x3dbf2f06	0.09335141
168	0x3db97446	0.090553805
169	0xbd9bdff9	-0.07611079
170	0x3d8f1123	0.069856904
171	0xbde7ca14	-0.1131784
172	0xbe3aed1c	-0.18254513
173	0x3cee9bc1	0.029127004
174	0x3d19d12e	0.037553005
175	0x3dc95021	0.098297365
176	0xbcac69ab	-0.02104648
177	0xbe334c94	-0.17509681
178	0x3e20e4d5	0.15712292
179	0x3e3772e6	0.17914924
180	0xbc9cc3f6	-0.01913641
181	0x3c1efcad	0.009703797
182	0xbdeed83e	-0.11662339
183	0xbe152181	-0.14563562
184	0x3e416f0f	0.18890022
185	0xbd96441f	-0.07337212
186	0xbe25583e	-0.16146943
187	0xbcec5597	-0.028849406
188	0xbcc8a67d	-0.02449345
189	0xbdee2042	-0.116272464
190	0xbe0c343d	-0.13691802
191	0x3e39b895	0.18136819
192	0x3d90244d	0.07038174
193	0x3e2338ec	0.15939683
194	0xbcdda1c1	-0.02705467
195	0x3bc7eb33	0.006101036
196	0x3c9a81da	0.018860746
197	0x3e03465b	0.12819807
198	0x3e027791	0.12740923
199	0x3e202f02	0.15642932
200	0x3d283498	0.041065782
201	0x3e0882ac	0.13331097
202	0xbe438c41	-0.19096471
203	0xbd883e53	-0.066525124
204	0xbca96900	-0.02067995
205	0xbe2374cc	-0.15962523
206	0xbd3d79a8	-0.0462586
207	0xbc9e5d41	-0.019331576
208	0x3d2994f8	0.041401833
209	0x3e071ce5	0.13194616
210	0xbe2798df	-0.1636691
211	0x3e1c1ed5	0.15246136
212	0x3e00202b	0.12512271
213	0x3db22bc9	0.086997576
214	0x3e3647cd	0.17800827
215	0x3da95794	0.08268657
216	0x3cfa04b0	0.030519813
217	0xbe1a8285	-0.15088852
218	0xbd9ffbda	-0.07811709
219	0x3c831252	0.015999947
220	0xbe06bc25	-0.13157709
221	0xbd97a1ad	-0.07403884
222	0x3cee91ea	0.029122312
223	0xbe2f118d	-0.17096539
224	0x3dde752a	0.10862191
225	0x3dcc7189	0.099825926
226	0xbc7b4527	-0.015336311
227	0xbd84c99b	-0.06483766
228	0x3e36d15d	0.17853303
229	0xbe392ad8	-0.1808275
230	0x3e398d18	0.18120229
231	0xbd49a176	-0.049226247
232	0x3e2d752a	0.16939226
233	0x3c933441	0.017969253
234	0x3d69d974	0.057092145
235	0xbdf86001	-0.12127686
236	0x3e1bb0b4	0.15204126
237	0x3d211960	0.03933084
238	0x3e293e6d	0.1652772
239	0x3db67c44	0.089104205
240	0xbdd0c78f	-0.10194313
241	0x3bc1652f	0.0059019546
242	0x3d0eb6bc	0.034842238
243	0x3e13fd9e	0.14452216
244	0x3e09cf6f	0.13458036
245	0xbdf45999	-0.11931152
246	0x3cf8dec1	0.030379655
247	0xba83506c	-0.0010018474
248	0x3d9f944c	0.07791957
249	0x3db1027a	0.086430505
250	0x3de44a14	0.11146942
251	0x3d8378fa	0.06419559
252	0x3946cb84	0.00018958567
253	0xbdb23e1b	-0.08703252
254	0x3df38846	0.118912265
255	0xbd1fe750	-0.039038956

decoder.decoder.weight_hh_l0 f4 [128, 32]
0	0x3de59d83	0.112116836
1	0x3df41700	0.119184494
2	0xbdfe610c	-0.12420854
3	0x3daed47a	0.085366204
4	0xbdce33ed	-0.10068498
5	0x3dcfab75	0.10140125
6	0x3ded3857	0.115830116
7	0xbde4e28c	-0.11176023
8	0x3e44384d	0.19162102
9	0xbcc2aba5	-0.023763487
10	0xbd8dd573	-0.06925478
11	0x3d06f962	0.032952674
12	0xbddfd4bc	-0.10929248
13	0xbdaba972	-0.083819285
14	0x3deaf6f6	0.11472885
15	0x3d98fff3	0.074706934
16	0xbdc8fa33	-0.09813347
17	0xbdb9566f	-0.09049689
18	0x3d00d9ca	0.0314577
19	0xbdcc3b93	-0.099723004
20	0x3e130bd6	0.14359984
21	0x3d9c98ed	0.07646356
22	0x3e496ff2	0.1967161
23	0x3e26b589	0.16280188
24	0xbdcd8551	-0.10035194
25	0xbe3f01a1	-0.18652965
26	0x3d160af0	0.036631525
27	0xbe3a8d3b	-0.18217938
28	0xbe25044d	-0.16114922
29	0x3c169165	0.009189938
30	0xbdcb614b	-0.099306665
31	0x3db2f933	0.08738937
32	0xbdd1db54	-0.10246912
33	0xbe07438a	-0.13209358
34	0x3e0e2c36	0.13884053
35	0xbddf34fe	-0.10898779
36	0xbd61ba2a	-0.05510918
37	0xbe058d54	-0.13042194
38	0x3d861437	0.065468244
39	0x3e154ec7	0.14580832
40	0x3c018f71	0.007907734
41	0xbd5d8bf3	-0.054088544
42	0x3e743856	0.23849615
43	0xbe4c149a	-0.19929734
44	0x3e21028b	0.15723626
45	0x3e6e6e6b	0.23284309
46	0x3dbbaba6	0.09163599
47	0x3dd6076e	0.10450636
48	0x3e10fa4a	0.14157978
49	0x3ce7bf55	0.028289476
50	0xbdec9317	-0.11551493
51	0xbe24cc3e	-0.16093537
52	0xbd9e0280	-0.077153206
53	0x3bd4807e	0.006485044
54	0x3d0b16e5	0.03395738
55	0xbe206aba	-0.15665713
56	0x3cc8216a	0.024429996
57	0x3d24ddde	0.04025065
58	0xbd8af2c8	-0.06784588
59	0xbe0d145d	-0.13777299
60	0x3d310e2b	0.043226402
61	0xbd6139a9	-0.05498663
62	0xbe49a62b	-0.19692294
63	0xbe005ede	-0.12536189
64	0xbd17b931	-0.037041847
65	0x3c882a21	0.016621651
66	0xbd895a06	-0.06706624
67	0xbd9f1219	-0.07767124
68	0xbe00419a	-0.12525025
69	0xbd93e455	-0.07221285
70	0x3b266c75	0.0025394235
71	0xbe082178	-0.13294017
72	0x3da2bfe3	0.07946756
73	0x3e457e75	0.19286521
74	0xbcdb9305	-0.026803503
75	0xbe39cc69	-0.18144383
76	0xbdc2f5b0	-0.095195174
77	0x3b0664fd	0.002050697
78	0xbcae5efc	-0.021285526
79	0xbe41b9bd	-0.1891851
80	0x3e4e7e16	0.20165285
81	0x3e5a306e	0.21307537
82	0x3e10c477	0.14137445
83	0xbdf86cdd	-0.12130139
84	0x3e0d13d3	0.13777094
85	0x3c1fddda	0.009757483
86	0x3e1b3662	0.15157464
87	0x3e10f8ac	0.14157361
88	0xbda97fe6	-0.08276348
89	0x3bce2678	0.006291207
90	0x3d297e91	0.04138047
91	0xbd85762a	-0.06516679
92	0x3d8fd820	0.070236444
93	0x3d5e6752	0.054297753
94	0xbd9fa59f	-0.077952616
95	0xbb072b77	-0.0020625272
96	0x3dcb4c5a	0.09926672
97	0xbe30f112	-0.17279461
98	0xbdf4dd7b	-0.119563065
99	0x3da10623	0.078624986
100	0xbe04692f	-0.1293075
101	0xbcd0d720	-0.025493205
102	0xbcc15a03	-0.023602491
103	0xbe003a4f	-0.12522243
104	0x3e00b977	0.12570749
105	0x3c8b0684	0.01697088
106	0x3df27627	0.11838942
107	0xbda60a1b	-0.08107396
108	0x3d81d8d6	0.06340186
109	0xbda3a186	-0.079897925
110	0x3e2aeb5d	0.16691346
111	0xbd571d24	-0.052518025
112	0x3e3deb89	0.18546881
113	0xbb84db68	-0.0040544756
114	0x3e24def4	0.16100675
115	0x3db56be5	0.0885847
116	0xbd99732a	-0.07492669
117	0xbd2e31e2	-0.04252804
118	0xbc5087d5	-0.012727697
119	0xbde20992	-0.11036982
120	0x3d803eb4	0.0626196
121	0x3e340f75	0.17584021
122	0x3e2cf0f3	0.1688879
123	0x3dbdfb89	0.09276492
124	0x3d231bc9	0.03982142
125	0xbe183ba6	-0.14866504
126	0xbc1c68e5	-0.009546493
127	0x3e3176a4	0.17330414
128	0x3df8649e	0.12128566
129	0xbe0e5e5c	-0.13903183
130	0x3e0bcd8f	0.13652633
131	0xbe351285	-0.17682846
132	0xbe342bd4	-0.17594844
133	0x3d4cfbf8	0.050044984
134	0x3e22ed6e	0.15910885
135	0x3e2adc7f	0.16685675
136	0xbd438096	-0.04773005
137	0xbd6fd80a	-0.05855564
138	0xbd4b278d	-0.049598265
139	0x3d93a79a	0.07209702
140	0x3d20b8c2	0.0392387
141	0xbbdf6048	-0.0068168975
142	0x3e30e949	0.17276491
143	0xbdd60b2a	-0.10451348
144	0xbe0274f6	-0.1273993
145	0x3dedcf3f	0.11611795
146	0x3d5bd8ff	0.05367374
147	0xbda95656	-0.082684204
148	0xbe035fd6	-0.12829527
149	0x3e29358b	0.16524331
150	0x3e299166	0.16559371
151	0x3dd52900	0.10408211
152	0xbe2267a3	-0.15859847
153	0xbddc197d	-0.10747049
154	0x3e2860df	0.16443203
155	0x3d8ae059	0.06781072
156	0xbcdd9f2c	-0.027053438
157	0x3ca77410	0.020441085
158	0xbe3dd5b3	-0.18538551
159	0x3d97c9a3	0.07411506
160	0xbd8475ba	-0.06467767
161	0xba13f744	-0.00056444504
162	0xbe0f61d1	-0.14002158
163	0xbd42d884	-0.047569767
164	0xbd2bcc33	-0.041942786
165	0xbe1c90a4	-0.15289551
166	0xbdff9e96	-0.1248142
167	0xbd2e1a54	-0.042505577
168	0xbd4303db	-0.0476111
169	0x3e0ef673	0.139612
170	0x3e78a6ff	0.24282454
171	0x3d412b78	0.047160596
172	0xbe332c67	-0.17497407
173	0x3e0f0a84	0.13968855
174	0xbb55e23b	-0.0032636065
175	0x3c05b287	0.00816024
176	0x3dc68b22	0.09694506
177	0x3e2c9a6c	0.16855782
178	0xbdc64aad	-0.09682212
179	0xbcaf9774	-0.021434523
180	0xbd9d9366	-0.0769413
181	0x3e130a9d	0.14359517
182	0xbd8cfdde	-0.06884359
183	0xbdd235b7	-0.102641515
184	0x3b426eaa	0.0029668012
185	0x3dcb03cb	0.09912833
186	0x3e260287	0.16211902
187	0x3d252d05	0.040326137
188	0xbde27f1d	-0.11059401
189	0x3e0d305a	0.13787976
190	0xbd677027	-0.05650344
191	0xbe13f65e	-0.1444945
192	0xbdf0576f	-0.11735427
193	0xbdb0e7e7	-0.08637982
194	0xbe2bf2fb	-0.16791908
195	0xbde9fa90	-0.11424744
196	0xbcf5da09	-0.030011194
197	0x3e26463d	0.16237731
198	0x3debea09	0.11519248
199	0xbe027d7e	-0.12743184
200	0x3d99aa72	0.07503213
201	0x3d47aaf3	0.048747014
202	0x3ddcce96	0.10781591
203	0xbdc08c10	-0.09401715
204	0xbe0c4a1c	-0.13700145
205	0xbd30b000	-0.043136597
206	0x3e1160ee	0.14197132
207	0x3d0e9b4f	0.034816083
208	0xbe02dffa	-0.12780753
209	0xbd10958f	-0.03529888
210	0xbdbd082d	-0.09230075
211	0x3dda69fb	0.106647454
212	0xbdbe67d9	-0.09297151
213	0xbd105dfc	-0.03524588
214	0xbda29904	-0.07939342
215	0x3c8bfc98	0.01708822
216	0x3dfc3a13	0.12315764
217	0x3dc25b6b	0.09490093
218	0xbd4c4014	-0.049865797
219	0xbdfef6b3	-0.12449398
220	0xbd81d96f	-0.063403
221	0x3dcb10d9	0.09915323
222	0xbc16fc83	-0.009215477
223	0xbce8cfa1	-0.028419318
224	0xbe12505e	-0.1428847
225	0xbd9730a1	-0.07382322
226	0xbd3c7ab5	-0.04601546
227	0x3dd73c4f	0.1050955
228	0xbd4e710f	-0.05040079
229	0xbcb4d25c	-0.022072963
230	0xbd5d3663	-0.054006945
231	0xbd5326d6	-0.05155071
232	0x3e253f17	0.16137348
233	0xbc5fd4d7	-0.013661585
234	0x3d35b22a	0.044359364
235	0xbe2d9ceb	-0.1695439
236	0xbd5eeb1d	-0.05442344
237	0x3d8d60ac	0.06903204
238	0x3e235327	0.15949689
239	0xbdf78853	-0.12086549
240	0xbd2a3ea1	-0.041563634
241	0x3e0afa1b	0.1357197
242	0x3e2e1413	0.16999845
243	0xbd437a31	-0.047723953
244	0xbd368c03	-0.04456712
245	0x3dca0b27	0.098654084
246	0x3dd43776	0.10362141
247	0xbd02683b	-0.031837683
248	0xbd100bbb	-0.035167437
249	0xbe30233d	-0.17200942
250	0x3cf54433	0.029939746
251	0x3c7075b4	0.0146765
252	0x3dbdcd05	0.0926762
253	0xbdd08823	-0.10182216
254	0xbdd70a4e	-0.10500012
255	0xbab04ae0	-0.0013450049

decoder.decoder.bias_ih_l0 f4 [128]
0	0xbbfb91d9	-0.0076772985
1	0x3e47b0d5	0.1950105
2	0x3da2cdbc	0.07949397
3	0x3e199ff5	0.15002425
4	0x3ac4b8c0	0.0015008673
5	0xbd74e5b3	-0.05978937
6	0xbcaf8508	-0.021425739
7	0xbd992782	-0.07478239
8	0xbdd6e315	-0.10492531
9	0xbda0478e	-0.07826148
10	0x3d9e7298	0.07736701
11	0x3d20a7db	0.03922258
12	0xbe1e55f1	-0.15462472
13	0x3d2df709	0.04247192
14	0x3e0223ce	0.12708971
15	0xbc002c9d	-0.007823137
16	0x3d4ae683	0.04953624
17	0xbcef4698	-0.029208466
18	0xbdc80159	-0.09765882
19	0xbc0f977a	-0.008764142
20	0xbd69c46b	-0.057072084
21	0x3e059123	0.13043647
22	0xbd5c1d4e	-0.053738885
23	0xbe0d9dae	-0.13829681
24	0xbe38c2f9	-0.18043126
25	0x3db0c56d	0.08631406
26	0xbe0ad43e	-0.13557526
27	0x3db93f22	0.09045245
28	0xbe1b4de5	-0.15166433
29	0x3e2e76d0	0.17037511
30	0x3e292209	0.1651689
31	0xbd91ae3f	-0.07113313
32	0xbcae0889	-0.021244304
33	0x3dab5db3	0.08367481
34	0x3c7b6129	0.015342989
35	0xbd0ca3cd	-0.0343359
36	0x3dfcb693	0.12339511
37	0x3e156df2	0.14592722
38	0x3def4818	0.11683673
39	0x3e08fdf2	0.13378122
40	0x3e1a5bda	0.15074101
41	0xbd4ee0da	-0.050507404
42	0xbd2c6ecd	-0.042097855
43	0xbe1d0901	-0.15335466
44	0x3dc18caf	0.094506614
45	0xbd7214ef	-0.059101995
46	0xbe06dfbe	-0.13171288
47	0x3e2357d0	0.15951467
48	0x3e27abc8	0.16374123
49	0xbdb55f10	-0.08856022
50	0xbe20abde	-0.15690562
51	0xbe0ec5aa	-0.1394259
52	0xbe0da86e	-0.13833782
53	0xbd903f7b	-0.07043358
54	0xbc93572d	-0.017985905
55	0x3bc12e73	0.0058954298
56	0x3db028f1	0.08601559
57	0x3dd2bac4	0.10289529
58	0xbdf0971b	-0.11747571
59	0xbdaedd78	-0.085383356
60	0xbd6700ea	-0.056397356
61	0xbd539ac3	-0.051661264
62	0x3d816267	0.06317597
63	0x3da38ccf	0.079858415
64	0x3dd0767a	0.101788476
65	0x3d89bf5a	0.067259505
66	0xbe066c77	-0.13127314
67	0x3e0ec52a	0.139424
68	0xbe1d387d	-0.1535358
69	0xbe2d456c	-0.16921014
70	0x3d9431f9	0.07236094
71	0x3e2810e0	0.16412687
72	0x3d83498a	0.06410511
73	0x3d266bbf	0.0406301
74	0x3d8e7b43	0.06957104
75	0xbd04b127	-0.03239551
76	0x3e1a0724	0.15041786
77	0xbe15afd3	-0.14617853
78	0xbda62689	-0.08112819
79	0x3e1a4221	0.15064289
80	0xbe2d4c79	-0.16923703
81	0xbd28e147	-0.041230466
82	0xbe35dd63	-0.17760234
83	0xbe1ec230	-0.15503764
84	0xbe14de2e	-0.1453788
85	0xbcb0b800	-0.021572113
86	0xbcb0e73d	-0.021594638
87	0x3d53b869	0.05168954
88	0xbd7e563e	-0.062093966
89	0x3dd62627	0.10456496
90	0x3e29e6da	0.16591969
91	0x3d335850	0.043785393
92	0xbd58c5e4	-0.0529231
93	0xbe22329d	-0.1583962
94	0x3de665ed	0.112499095
95	0x3db62983	0.088946365
96	0x3e1f9caa	0.15587106
97	0x3e44c257	0.1921476
98	0x3df9d4cc	0.12198791
99	0xbc9c62ef	-0.019090144
100	0x3da5f45b	0.08103248
101	0x3d20b5ac	0.039235756
102	0x3d9f59e9	0.07780821
103	0x3de54520	0.11194825
104	0x3e1c8cef	0.15288137
105	0xbd717c4b	-0.058956426
106	0xbdd5f373	-0.10446825
107	0x3b92cd5d	0.0044800476
108	0x3e1e9d1e	0.15489623
109	0x3c23e94c	0.010004353
110	0x3de72ef5	0.11288253
111	0x3c4c2d1c	0.012461927
112	0xbd77e612	-0.060522147
113	0x3e443b44	0.19163233
114	0xbd358409	-0.04431537
115	0x3e343cae	0.17601272
116	0xbdda0220	-0.106449366
117	0x3dd610bd	0.10452411
118	0xbe0e55c9	-0.13899912
119	0x3e14e79a	0.14541474
120	0x3da81dfd	0.08208845
121	0x3e407c13	0.1879733
122	0x3e05b9a3	0.13059096
123	0xbe1899aa	-0.14902368
124	0x3e15d6c9	0.14632715
125	0x3d9031da	0.070407584
126	0xbde445c1	-0.11146117
127	0x3c36823c	0.011139449

decoder.decoder.bias_hh_l0 f4 [128]
0	0xbe089cab	-0.13341014
1	0xbce8981d	-0.028392846
2	0xbd4b9ddb	-0.04971109
3	0x3d0a71e5	0.033800025
4	0x39a08134	0.00030613842
5	0x3b85e6b9	0.004086342
6	0xbd0bc080	-0.03411913
7	0xbbb62cd3	-0.0055595427
8	0xbc55b7f2	-0.013044344
9	0x3e2d0227	0.16895352
10	0xbe12e5e0	-0.14345503
11	0x3e3255aa	0.17415491
12	0x3e334336	0.17506108
13	0xbe0a9a08	-0.13535321
14	0xbd9899f3	-0.074512385
15	0x3d843d2d	0.06456981
16	0x3e1a9635	0.15096362
17	0x3da22201	0.07916642
18	0xbd2c6ee8	-0.042097956
19	0x3e36e13c	0.17859358
20	0x3def3ad9	0.11681146
21	0xbdcde210	-0.100528836
22	0xbe0f1704	-0.13973624
23	0xbe08744d	-0.13325615
24	0xbe32bd58	-0.17455041
25	0x3df13df3	0.11779394
26	0xbd1b0200	-0.037843704
27	0x3c760ae4	0.015017245
28	0x3dbca174	0.09210482
29	0x3e11d940	0.1424303
30	0xbdd61d38	-0.10454792
31	0xbe2206b5	-0.15822871
32	0x3e033496	0.12813029
33	0x3e3cd57b	0.18440811
34	0x3dade82a	0.084915474
35	0x3df6690d	0.120317556
36	0x3d6f8edb	0.058485847
37	0x3e1a0461	0.15040733
38	0x3e2ca6b4	0.16860467
39	0x3e16c1d5	0.14722379
40	0x3dea4bfd	0.11440275
41	0x3d583b7b	0.0527911
42	0xbcb4d7d4	-0.022075571
43	0x3e0502d8	0.12989366
44	0x3cfb2cc4	0.030660994
45	0xbe0004dc	-0.12501854
46	0xbc35e997	-0.011103055
47	0xbd23d4b2	-0.039997764
48	0xbd005be7	-0.031337645
49	0x3e1b9ad5	0.15195782
50	0x3dbb516e	0.09146391
51	0x3de87c45	0.113518275
52	0xbbb395aa	-0.005480488
53	0xbd7fb727	-0.062430527
54	0xbc84db9e	-0.016218003
55	0xbe04bbb4	-0.12962228
56	0xbda96803	-0.08271792
57	0x3e01173d	0.12606521
58	0x3dfc58dd	0.12321637
59	0x3ded77be	0.11595105
60	0x3dbfd04e	0.09365903
61	0xbdb0b1d3	-0.08627667
62	0x3d57ab44	0.052653566
63	0x3db0ddc5	0.08636049
64	0x3dd02683	0.101635955
65	0x3d95b4ac	0.07309851
66	0xbb87340b	-0.004126077
67	0x3d8ca52f	0.06867444
68	0xbe1e636b	-0.15467612
69	0x3e1b6288	0.15174305
70	0x3d8d0583	0.06885817
71	0xbd246f40	-0.04014516
72	0xbdbeece8	-0.0932253
73	0x3de0c06b	0.10974201
74	0xbdc38a15	-0.095478214
75	0xbe342481	-0.1759205
76	0x3dbdb8b3	0.09263744
77	0x3e261f6f	0.16222928
78	0x3dc01736	0.09379427
79	0xbd02972c	-0.03188245
80	0xbd764de4	-0.060132876
81	0xbe2e63ab	-0.17030208
82	0xbe3dde14	-0.18541747
83	0x3d38e262	0.04513777
84	0x3e10f47e	0.14155766
85	0x3e22ce58	0.15899026
86	0x3d819244	0.06326726
87	0x3dca1346	0.09866957
88	0xbe36323d	-0.17792602
89	0xbe2f5edf	-0.17126034
90	0x3c49b089	0.012310156
91	0x3d3c479f	0.04596674
92	0x3c37f166	0.0112269875
93	0xbda2de6f	-0.07952582
94	0xbe1111d9	-0.14166965
95	0x3d84d487	0.06485849
96	0x3e2108b3	0.15725975
97	0x3e430d24	0.19047982
98	0x3db9693f	0.09053277
99	0x3c17196d	0.009222371
100	0x3e321b20	0.1739316
101	0x3e46aace	0.19401094
102	0x3e24a697	0.16079174
103	0x3dd9a7d5	0.106277145
104	0xbdb9b2c5	-0.09067301
105	0xbda579bf	-0.08079862
106	0x3dcc0b5c	0.09963104
107	0x3db8ab16	0.09017007
108	0xbe0b5b49	-0.13609041
109	0xbde64541	-0.11243678
110	0xbda75ffc	-0.081726044
111	0xbdfb9763	-0.12284734
112	0xbe0dc6c0	-0.13845348
113	0x3d85054e	0.064951524
114	0x3e324f18	0.17412984
115	0xbd7fcf47	-0.062453534
116	0x3ccaf5fa	0.024775494
117	0xbad82033	-0.0016489088
118	0xbd5dbdb4	-0.054135993
119	0x3dda5d5d	0.10662339
120	0xbdc4bb5a	-0.09606047
121	0xbda40c66	-0.08010177
122	0x3e2d926e	0.1695039
123	0x3dca2f7a	0.09872337
124	0xbcc9e39d	-0.024644667
125	0x3e2e3f2b	0.17016284
126	0x3e334309	0.1750604
127	0xbdd4cfe1	-0.10391212

decoder.spatial_embedding.weight f4 [16, 2]
0	0xbef6201f	-0.4807138
1	0x3e00a851	0.12564208
2	0x3e34a7f6	0.17642197
3	0x3d571761	0.05251253
4	0x3d831539	0.06400532
5	0xbf2ba796	-0.6705259
6	0x3f94b3d3	1.1617378
7	0xbf8bc95c	-1.0920825
8	0xbfb93d00	-1.4471741
9	0x3e566fbb	0.2094106
10	0x3f5d209d	0.8637789
11	0x3f9acd43	1.2093891
12	0x3ea4de60	0.3220091
13	0xbfc48099	-1.5351745
14	0x3ef9bc08	0.4877627
15	0xbfb07c22	-1.3787882
16	0xbfa84153	-1.3144935
17	0xbf1d1cf9	-0.61372334
18	0xbf004bb1	-0.50115496
19	0x3f3cf59e	0.7381228
20	0xbfc67caf	-1.55068
21	0x3f4aeff8	0.79272413
22	0x3f5c8800	0.8614502
23	0xbde389f5	-0.111102976
24	0xbea111bc	-0.31458843
25	0xc0212031	-2.5175898
26	0xbe9849f2	-0.29743916
27	0x3f22585a	0.63416064
28	0xbf991133	-1.1958374
29	0x3c773b38	0.015089802
30	0xbf4f8e31	-0.8107634
31	0xbfa058e5	-1.2527128

decoder.spatial_embedding.bias f4 [16]
0	0x3dbc200f	0.09185802
1	0xbebf903c	-0.3741473
2	0x3ede4480	0.43411636
3	0x3e9ced19	0.3064964
4	0x3f0969cd	0.53677064
5	0xbc93874c	-0.01800885
6	0xbe93bf6f	-0.2885699
7	0xbf279234	-0.65457463
8	0x3cfd6925	0.030933926
9	0x3eb75b15	0.35811678
10	0x3e324286	0.17408189
11	0x3ed0c29c	0.40773475
12	0xbf062290	-0.5239649
13	0x3e9a814f	0.3017678
14	0x3d49c8e0	0.049263835
15	0x3e8b1a9b	0.27168736

decoder.hidden2pos.weight f4 [2, 32]
0	0xbe142a7b	-0.1446933
1	0xbdbcbf7a	-0.09216209
2	0xbec14331	-0.37746575
3	0xbd3eaf47	-0.046553876
4	0x3eaae8b7	0.33380672
5	0xbe899e40	-0.26878548
6	0xbeeee80e	-0.4666142
7	0xbc88e0e5	-0.0167088
8	0xbe1d726e	-0.15375683
9	0xbe5706fe	-0.20998761
10	0x3e8b5013	0.2720953
11	0xbaeba6c2	-0.0017978775
12	0x3e3f673f	0.18691729
13	0x3ebd4ca7	0.36972544
14	0xbe86801f	-0.26269624
15	0x3b8b8c3f	0.004258662
16	0xbdb6ed88	-0.08932024
17	0x3d24b675	0.040213067
18	0xbdd22297	-0.10260504
19	0xbdabd11f	-0.08389496
20	0x3e0e903c	0.13922209
21	0xbe8fefa2	-0.28112513
22	0xbeac83c2	-0.33694273
23	0x3d98a44b	0.074532114
24	0xbee26c21	-0.4422312
25	0xbca2121a	-0.019784022
26	0x3ea9864d	0.33110276
27	0xbe31d589	-0.17366613
28	0x3dec5f19	0.11541576
29	0x3e2f4e59	0.17119731
30	0x3db7a423	0.089668535
31	0xbd9c2fa3	-0.076262735
32	0x3c4a3117	0.0123408055
33	0x3e15dc4c	0.14634818
34	0xbd15ee40	-0.036604166
35	0x3f16a31b	0.5884263
36	0xbd96d224	-0.073643
37	0x3e032709	0.1280786
38	0x3e168258	0.1469816
39	0xbe2d8992	-0.1694701
40	0x3ec038fa	0.3754347
41	0x3ea680eb	0.32520232
42	0xbec62c8d	-0.38705865
43	0x3eace7a0	0.33770466
44	0xbec1016f	-0.37696406
45	0xbe0917a8	-0.1338793
46	0xbd8d0654	-0.068859726
47	0xbd24a871	-0.0401997
48	0x3e30219d	0.17200322
49	0xbb935988	-0.004496757
50	0x3e5cb1b6	0.21552166
51	0xbeabbe31	-0.33543542
52	0xbe24f0ec	-0.1610753
53	0xbdaac0ac	-0.083375305
54	0xbe2f0b2c	-0.17094105
55	0x3e5d47e4	0.21609455
56	0x3f1cefe1	0.61303526
57	0x3ad0f99c	0.001594353
58	0x3cc5dc5b	0.024152925
59	0x3e2f4080	0.17114449
60	0x3d85c3f6	0.06531517
61	0xbcc1a302	-0.023637298
62	0xbec28844	-0.37994587
63	0xbe57929b	-0.2105202

decoder.hidden2pos.bias f4 [2]
0	0x3e12964c	0.14315146
1	0x3caafec1	0.02087343
