scripts/models/sgan-models/eth_8_model.pt (torch_old, 70311 bytes, 18 tensors)

encoder.encoder.weight_ih_l0 f4 [128, 16]
0.062801346 -0.13004588 -0.0379515 -0.07051105 0.03184683 -0.11586173 0.0216331 0.1862247
0.032582693 -0.19301386 0.00579529 -0.2957277 0.11413701 0.17591393 0.13302179 -0.048573248
-0.07483149 -0.07848622 -0.14822721 -0.0823767 -0.0004725709 -0.06364785 0.111124344 -0.10355497
0.06676896 0.1546476 -0.0687827 0.05796868 -0.18170665 -0.0266171 -0.06680674 0.11021907
0.03489329 0.032017495 -0.0560673 0.09858473 0.04981769 -0.11283324 -0.07728066 0.19560204
0.08552345 -0.151871 0.038023047 0.035484742 0.008805934 0.14827631 -0.0797566 0.017146643
-0.12301302 -0.120932765 0.17961684 0.03867507 0.0010334598 -0.070422575 0.084680125 0.20474292
0.14109556 -0.19131234 0.013727369 -0.033873558 -0.18438627 -0.06920218 -0.1290816 0.0041428474
-0.08263901 -0.045653876 0.18356179 -0.05669104 -0.021355348 -0.14426494 0.05919803 -0.019863855
-0.07139712 0.14834343 -0.04266412 0.0034905996 -0.05124296 0.017912768 0.07818454 0.16395707
-0.04528937 0.038354754 -0.16111752 0.038723435 -0.11778922 -0.19273329 -0.01453461 0.19485363
0.14289041 0.064999014 0.054889705 0.08238916 -0.101566635 0.052619115 -0.10435183 0.015679125
0.0058529493 0.05353017 0.18312871 -0.18420564 0.13978666 0.10052332 0.08590384 0.025476536
0.12335185 0.052547306 -0.033716984 -0.038121335 -0.028618509 -0.11025832 0.032862034 0.03713497
-0.07019702 2.835746e-05 0.14209558 -0.042752143 0.07369039 -0.0879083 0.0006532403 -0.007859699
0.15971324 -0.13799228 0.05048412 0.10856794 -0.030703016 -0.10825267 -0.05929648 -0.09750749
0.008046856 0.13702108 0.07999106 -0.11965468 0.09724091 -0.038442787 -0.061275113 0.16654408
-0.16133851 -0.20086876 -0.005673698 -0.046247482 -0.14963509 0.11193936 0.049105737 0.009367315
-0.0073663276 0.1693416 0.05185515 -0.19990546 -0.08218548 -0.15089424 0.1567038 0.10041721
-0.06694561 -0.19576524 0.058121305 -0.10341823 -0.14358759 0.0796498 0.05490056 0.041475195
-0.12189737 0.2213264 0.027722966 -0.14990476 -0.02915272 -0.025207046 0.13748486 -0.06746391
0.19710536 0.11721668 0.20394179 0.11907545 -0.11932063 0.10384092 -0.048562516 -0.041477747
-0.029638642 0.050269466 -0.102952145 0.01679253 -0.13059415 0.14116487 -0.24070281 0.04799056
-0.05341552 -0.1384288 -0.047818393 -0.18768018 0.052029755 -0.14876013 -0.12151242 0.067854166
0.009503765 -0.090350844 0.0066958047 -0.12907153 -0.20881894 0.022891942 0.039060984 0.050437506
-0.16363648 0.085331954 0.23041645 0.027804205 0.11673236 -0.08857513 0.15684174 0.07768386
-0.08920328 0.08227495 0.06656325 -0.109458975 -0.0252817 -0.039594833 -0.18492723 -0.03142888
-0.105116986 0.021724977 0.056871902 -0.111478105 0.031540595 0.11618562 -0.02148248 -0.04356144
-0.1675601 0.061649505 -0.13786216 -0.10859613 -0.2504311 -0.047112208 -0.18339206 -0.07915117
0.051405013 -0.06580608 -0.070137724 -0.16262643 -0.04295794 0.20660852 0.03649441 -0.0025581773
0.14007932 0.042269286 -0.04329859 -0.039027546 0.18626656 0.03316927 -0.057068653 0.101555824
0.051221162 -0.14658391 -0.12926608 -0.024586959 -0.11649006 0.11671508 0.055056486 0.07826492
00000000: fe9d 803d bf2a 05be 0873 1bbd 1968 90bd
00000010: d271 023d ea48 edbd e637 b13c b0b1 3e3e
00000020: 6e75 053d 6da5 45be 6be6 bd3b 9f69 97be
00000030: aac0 e93d c822 343e dd36 083e bef4 46bd
00000040: 4141 99bd 62bd a0bd e0c8 17be 1eb5 a8bd
00000050: 64c3 f7b9 ce59 82bd 2995 e33d a114 d4bd
00000060: 2abe 883d f15b 1e3e f2dd 8cbd 9170 6d3d
00000070: 4f11 3abe 1b0c dabc f9d1 88bd 89ba e13d
00000080: 44ec 0e3d c724 033d d3a6 65bd cae6 c93d
00000090: a20d 4c3d 1d15 e7bd 5345 9ebd e74b 483e
000000a0: eb26 af3d 1284 1bbe 0ebe 1b3d 7358 113d
000000b0: c446 103c bfd5 173e 6e57 a3bd 1e77 8c3c
000000c0: 40ee fbbd 99ab f7bd 7aed 373e c069 1e3d
000000d0: 2875 873a b639 90bd c66c ad3d 21a8 513e
000000e0: 5b7b 103e 62e7 43be c2e8 603c 00bf 0abd
000000f0: c1cf 3cbe dfb9 8dbd f82d 04be b9c0 873b
00000100: a43e a9bd 8fff 3abd 9ff7 3b3e dd34 68bd
00000110: 69f1 aebc 30ba 13be a279 723d 86b9 a2bc
00000120: a738 92bd 57e7 173e 93c0 2ebd 8bc2 643b
00000130: 23e4 51bd ccbd 923c 371f a03d 5de4 273e
00000140: 5981 39bd e019 1d3d fefb 24be 779c 1e3d
00000150: 793b f1bd e05b 45be 9322 6ebc b687 473e
00000160: dd51 123e 341e 853d 07d4 603d a6bb a83d
00000170: 2b02 d0bd 2487 573d 6ab6 d5bd 8271 803c
00000180: 19ca bf3b 7442 5b3d 1886 3b3e 67a0 3cbe
00000190: 3c24 0f3e 2cdf cd3d 5aee af3d 2bb4 d03c
000001a0: e59f fc3d d83b 573d d21a 0abd 1e25 1cbd
000001b0: 5d71 eabc 1dcf e1bd 579a 063d d71a 183d
000001c0: 75c3 8fbd 2fe1 ed37 8181 113e df1c 2fbd
000001d0: fdea 963d 4409 b4bd 373e 2b3a f8c5 00bc
000001e0: de8b 233e d94d 0dbe 70c8 4e3d de58 de3d
000001f0: e484 fbbc 93b3 ddbd dee0 72bd 02b2 c7bd
00000200: f6d6 033c 414f 0c3e 5ad2 a33d 830d f5bd
00000210: 3e26 c73d 2f76 1dbd 9dfb 7abd 888a 2a3e
00000220: ec35 25be 8ab0 4dbe 6eea b9bb 006e 3dbd
00000230: f139 19be 7740 e53d 1923 493d 5e79 193c
00000240: 3c61 f1bb e267 2d3e 1166 543d 04b4 4cbe
00000250: dc50 a8bd 0584 1abe f676 203e 8aa7 cd3d
00000260: c81a 89bd af76 48be 9b10 6e3d f0cc d3bd
00000270: a008 13be 6f1f a33d 69df 603d e5e1 293d
00000280: 54a5 f9bd 63a3 623e 461b e33c a280 19be
00000290: afd1 eebc 027f cebc d5c8 0c3e 852a 8abd
000002a0: fdd5 493e 4c0f f03d 1ed6 503e d4dd f33d
000002b0: 605e f4bd 8caa d43d 7de9 46bd 92e4 29bd
000002c0: bdcc f2bc 5be7 4d3d 93d8 d2bd 7d90 893c
000002d0: 79ba 05be 868d 103e cc7a 76be c091 443d
000002e0: 3bca 5abd 48c0 0dbe 38dd 43bd 3c2f 40be
000002f0: 271d 553d 9354 18be 81db f8bd 20f7 8a3d
00000300: aeb5 1b3c dd09 b9bd 7b68 db3b 542b 04be
00000310: a2d4 55be e287 bb3c 69fe 1f3d 8f97 4e3d
00000320: 5290 27be 85c2 ae3d 4af2 6b3e a5c5 e33c
00000330: 6011 ef3d e166 b5bd 1f9b 203e b718 9f3d
00000340: 36b0 b6bd c57f a83d 5052 883d 072c e0bd
00000350: 911b cfbc 312e 22bd 905d 3dbe 92bb 00bd
00000360: 9347 d7bd 94f8 b13c 83f2 683d a24e e4bd
00000370: b630 013d baf2 ed3d 07fc afbc 7b6d 32bd
00000380: e094 2bbe 3184 7c3d bd2b 0dbe a667 debd
00000390: 8138 80be bbf8 40bd 21cb 3bbe 021a a2bd
000003a0: 108e 523d 57c5 86bd 5ea4 8fbd 8b87 26be
000003b0: aaf4 2fbd 2f91 533e 2a7b 153d 18a7 27bb
000003c0: f470 0f3e 8f22 2d3d dd59 31bd 59db 1fbd
000003d0: a9bc 3e3e 80dc 073d d2c0 69bd 80fc cf3d
000003e0: 48cd 513d 181a 16be 545e 04be 976a c9bc
000003f0: 5792 eebd 5108 ef3d e982 613d 5c49 a03d

encoder.encoder.weight_hh_l0 f4 [128, 32]
-0.033432566 -0.034477353 0.06430871 -0.07370707 -0.012785409 -0.089107625 -0.13148317 -0.21789964
-0.19777131 0.004712872 -0.091942824 0.04653322 0.24999991 0.15325485 -0.05370055 0.012927476
-0.0017585317 0.12753949 -0.010997464 -0.12962727 0.020749023 0.06048123 0.06415404 -0.13595216
-0.091294095 -0.10975946 0.11847686 0.09299279 -0.004789557 0.04330323 -0.08447121 0.0387972
-0.019667795 0.12661736 -0.15039709 -0.08756008 -0.10873771 0.016426323 0.006407954 -0.047000043
-0.070111044 -0.19913757 0.1479499 -0.108715646 -0.012290587 0.057680845 0.030929275 -0.12685373
0.15017278 0.10032484 -0.17512012 -0.1136651 -0.21370798 0.13721907 -0.17629343 0.15720741
0.13029543 0.044350784 0.11094745 -0.122228526 0.20765391 -0.13863194 0.1011042 -0.16549289
0.18545209 0.02231731 -0.080983646 -0.16130666 -0.18044291 -0.12443644 0.2147804 0.15075026
0.0859857 0.12869857 -0.052665792 -0.050861694 -0.12352272 -0.11967641 0.14814393 -0.047320373
0.09404081 0.10589119 -0.044415023 -0.01881203 -0.094327286 -0.062224448 -0.0007762265 0.041137896
-0.01099204 -0.16712527 0.0810632 -0.15845652 0.12261336 -0.019846912 -0.18818358 -0.17226067
-0.05254794 0.008549171 -0.163956 -0.07510282 0.15845577 0.17525807 0.0625872 -0.120409794
0.10498288 -0.0017775813 0.016394304 -0.047900885 -0.10900631 -0.14057931 0.17240827 -0.19054462
0.1416818 0.048567954 -0.1462918 -0.1173938 -0.18974355 0.13553484 0.06313479 0.11435854
0.16132319 -0.10085392 -0.10498537 0.121243045 -0.039677728 -0.078865044 0.02786264 -0.05243143
0.034244403 -0.06616133 -0.006938996 0.06711457 -0.00020659497 -0.23591611 0.13472065 -0.18113747
-0.07859584 -0.065926336 0.0833776 0.053433463 0.19647603 -0.1311027 0.029718371 0.10199487
0.09569299 -0.040123194 -0.020740956 0.07120281 -0.18122488 -0.06335001 0.15273811 0.0391207
0.031510215 -0.11998688 0.1292245 0.09041832 0.10622303 -0.023507189 -0.012987029 0.027809553
-0.109036505 -0.19914459 -0.18772496 0.22377259 -0.00714693 0.06286198 0.03251494 -0.19087802
0.09776183 0.0674594 -0.002557066 -0.27236953 0.18428467 -0.027424319 0.082084924 0.05974937
-0.2839864 0.15080848 0.048317727 -0.09375352 -0.04958862 0.03195923 -0.1021889 0.033381537
-0.092255875 -0.049412515 0.018665476 -0.122228436 -0.07575525 0.13355023 -0.0064282534 0.03164123
0.05104284 -0.13218458 -0.061238263 -0.009011356 0.18783394 0.13008922 -0.06444961 -0.056703392
0.09609496 -0.01898282 0.23197308 -0.04902667 0.06270893 -0.054730397 0.20911296 -0.024424
-0.17290036 0.26668906 -0.010944448 -0.14888474 -0.10670772 0.07110636 -0.0050855055 -0.10416855
0.18332121 -0.15938036 -0.09331213 -0.25595725 0.19600429 -0.080419615 -0.14732774 0.088747755
0.05333016 -0.108174175 -0.038342368 0.0807185 -0.15192957 -0.033289135 0.016636126 0.056895696
0.12228873 0.026430542 0.14800063 0.14347787 0.05456913 -0.1748018 -0.13525252 -0.071939565
0.084879704 -0.01353509 -0.17559473 -0.18832465 -0.12801477 0.042143054 -0.16467692 -0.09442747
-0.15704438 -0.156798 0.022882074 -0.027301034 0.016378669 0.051246196 0.0607847 0.02494137
00000000: 96f0 08bd 2038 0dbd 49b4 833d bbf3 96bd
00000010: e479 51bc 0f7e b6bd 86a3 06be 1521 5fbe
00000020: 9084 4abe 706e 9a3b 854c bcbd 9e99 3e3d
00000030: faff 7f3e d7ee 1c3e 1cf5 5bbd c4cd 533c
00000040: 887e e6ba b699 023e b52e 34bc 03bd 04be
00000050: dbf9 a93c 2bbb 773d 3163 833d 0b37 0bbe
00000060: 66f8 babd 91c9 e0bd ffa3 f23d 0173 be3d
00000070: b7f1 9cbb ba5e 313d 3eff acbd d0e9 1e3d
00000080: 5b1e a1bc fba7 013e b201 1abe b352 b3bd
00000090: e0b1 debd 7f90 863c d0f9 d13b 1e83 40bd
000000a0: 6196 8fbd b8ea 4bbe 2e80 173e 4fa6 debd
000000b0: 755e 49bc c042 6c3d 645f fd3c f2e5 01be
000000c0: e5c6 193e 1c77 cd3d b052 33be 3fc9 e8bd
000000d0: 44d6 5abe 2883 0c3e 4486 34be fbfa 203e
000000e0: 2a6c 053e 2ba9 353d 6b38 e33d f352 fabd
000000f0: 3aa3 543e 88f5 0dbe b80f cf3d f876 29be
00000100: 27e7 3d3e cbd2 b63c c1da a5bd 932d 25be
00000110: 07c6 38be 88d8 febd 65ef 5b3e 475e 1a3e
00000120: 4519 b03d 8fc9 033e 16b8 57bd 5a54 50bd
00000130: 7bf9 fcbd e818 f5bd 0bb3 173e 02d3 41bd
00000140: 7898 c03d 7bdd d83d 87ec 35bd b01b 9abc
00000150: aa2e c1bd 10df 7ebd ae7b 4bba 3680 283d
00000160: f517 34bc e322 2bbe 7704 a63d 6d42 22be
00000170: b71c fb3d fe95 a2bc 32b3 40be 1a65 30be
00000180: 823c 57bd d211 0c3c 15e4 27be 82cf 99bd
00000190: 3b42 223e da76 333e b82d 803d 6999 f6bd
000001a0: 4401 d73d bbfd e8ba 594d 863c b833 44bd
000001b0: b33e dfbd 06f4 0fbe cb8b 303e 211e 43be
000001c0: 0915 113e 31ef 463d 85cd 15be 296c f0bd
000001d0: 224c 42be a5c9 0a3e d04c 813d cf34 ea3d
000001e0: e831 253e 808c cebd 9202 d7bd 464e f83d
000001f0: 1d85 22bd ff83 a1bd 3140 e43c 57c2 56bd
00000200: dc43 0c3d 977f 87bd 8460 e3bb 5d73 893d
00000210: 6aa1 58b9 fe93 71be 36f4 093e 1a7c 39be
00000220: dbf6 a0bd 6304 87bd e0c1 aa3d 0cdd 5a3d
00000230: 0331 493e c93f 06be f173 f33c b0e2 d03d
00000240: b0fa c33d 3858 24bd f0e8 a9bc c7d2 913d
00000250: 0493 39be a6bd 81bd 6167 1c3e 073d 203d
00000260: db10 013d aebb f5bd 6d53 043e 3d2d b93d
00000270: 768b d93d 2692 c0bc 8cc7 54bc dcd0 e33c
00000280: 884e dfbd 8fec 4bbe f93a 40be a424 653e
00000290: cb30 eabb c8bd 803d 632e 053d 8775 43be
000002a0: 5b37 c83d 2728 8a3d 7394 27bb 0574 8bbe
000002b0: 1fb5 3c3e f7a8 e0bc 241c a83d c1bb 743d
000002c0: aa66 91be 8a6d 1a3e cfe8 453d d801 c0bd
000002d0: 701d 4bbd aee7 023d 6a48 d1bd 14bb 083d
000002e0: a6f0 bcbd c764 4abd 57e8 983c e752 fabd
000002f0: 9225 9bbd 64c1 083e 19a4 d2bb 3c9a 013d
00000300: 4c12 513d 655b 07be f9d4 7abd 5ea4 13bc
00000310: 8a57 403e 1c36 053e 28fe 83bd d141 68bd
00000320: 6fcd c43d dc81 9bbc 5a8a 6d3e 31d0 48bd
00000330: 8a6d 803d fb2c 60bd b521 563e d714 c8bc
00000340: cb0c 31be 788b 883e 5850 33bc 3e75 18be
00000350: 9489 dabd 36a0 913d 50a4 a6bb 5256 d5bd
00000360: 8eb8 3b3e 9b34 23be 6e1a bfbd d40c 83be
00000370: 59b5 483e 0ab3 a4bd 15dd 16be 62c1 b53d
00000380: ba70 5a3d 6c8a ddbd e30c 1dbd be4f a53d
00000390: 6d93 1bbe 305a 08bd 7c48 883c 760b 693d
000003a0: 8472 fa3d dd84 d83c 7a8d 173e ddeb 123e
000003b0: e183 5f3d 3eff 32be a37f 0abe 0d55 93bd
000003c0: 69d5 ad3d 48c2 5dbc 1bcf 33be 2dd8 40be
000003d0: 4e16 03be 329e 2c3d 11a1 28be 3063 c1bd
000003e0: 3ed0 20be a88f 20be 3073 bb3c 6ba6 dfbc
000003f0: 8f2c 863c 88e7 513d 61f9 783d d851 cc3c

encoder.encoder.bias_ih_l0 f4 [128]
-0.035912737 0.2126899 0.083717324 0.06745006 0.113587566 0.12269361 0.17976363 -0.13591154
0.12613592 -0.01107117 -0.13100289 -0.12560254 0.18768887 0.19263141 0.01183836 0.15242949
0.013681142 -0.01146284 0.08660064 -0.069169424 0.21501838 0.013632636 0.18110524 0.08989494
0.18129194 -0.029346619 -0.07153935 0.13893734 -0.097104736 -0.06612166 0.034563452 -0.04303807
0.068881735 0.14973977 -0.1257979 0.02719064 -0.0810794 0.05225681 0.09938228 -0.15050088
-0.18887416 -0.11573766 -0.07141414 -0.039806675 -0.14462748 0.10585483 -0.07388076 0.041670177
0.02876048 -0.079226114 0.050557107 -0.12118324 0.22316341 0.099058285 0.0028933876 -0.049464382
-0.13558935 0.011296575 -0.05142657 -0.038800735 -0.033905275 -0.11720441 0.17346828 0.17790686
-0.16479787 0.027377538 -0.119937085 -0.09377783 0.11574464 0.0355414 -0.002564608 0.021430794
-0.124756984 -0.16379485 0.15458643 -0.07996932 0.08959406 0.10569528 -0.1546696 -0.049926892
0.08630859 -0.12369926 -0.06252466 -0.054744083 -0.047904182 0.071023405 -0.11093055 -0.016012615
0.028741859 -0.13856366 -0.009512677 0.12856303 0.12736021 -0.06240265 -0.011201053 -0.1334464
0.22745505 -0.069539875 -0.13609406 0.14800324 0.047649417 0.1526756 -0.017651927 0.110112734
0.016993536 -0.004152385 0.14552131 0.18588994 0.16591863 -0.039232798 0.12818946 0.028018175
0.23402554 0.018200958 -0.09356287 -0.02252323 -0.08191893 0.06279216 0.22138198 0.05930201
-0.073588535 -0.12887326 -0.02580307 -0.036541615 0.12266915 -0.06944575 0.157534 -0.01644357
00000000: 3c19 13bd 62cb 593e fd73 ab3d 4223 8a3d
00000010: 99a0 e83d ca46 fb3d f513 383e 652c 0bbe
00000020: c629 013e da63 35bc 9f25 06be f49d 00be
00000030: 8331 403e 2b41 453e aef5 413c 7a16 1c3e
00000040: de26 603c a3ce 3bbc ad5b b13d b3a8 8dbd
00000050: c72d 5c3e 6b5b 5f3c a773 393e d71a b83d
00000060: 98a4 393e 5268 f0bc 3983 92bd 9745 0e3e
00000070: d9de c6bd cb6a 87bd 6892 0d3d b048 30bd
00000080: de11 8d3d 6255 193e 2ad1 00be e8be de3c
00000090: f50c a6bd 3d0b 563d f088 cb3d e71c 1abe
000000a0: 3a68 41be de07 edbd 9441 92bd 530c 23bd
000000b0: 3a19 14be 6bca d83d cc4e 97bd 59ae 2a3d
000000c0: 199b eb3c 4d41 a2bd f814 4f3d eb2e f8bd
000000d0: f384 643e 12df ca3d fd9e 3d3b 2a9b 4abd
000000e0: efd7 0abe 4515 393c aba4 52bd 85ed 1ebd
000000f0: 42e0 0abd de08 f0bd aba1 313e 372d 363e
00000100: c6c0 28be dc46 e03c 93a1 f5bd 970e c0bd
00000110: 870b ed3d dc93 113d fb12 28bb a28f af3c
00000120: 9780 ffbd d6b9 27be e84b 1e3e f4c6 a3bd
00000130: 177d b73d c476 d83d b561 1ebe 2480 4cbd
00000140: 8fc2 b03d 0a56 fdbd ee0c 80bd 553b 60bd
00000150: 2d37 44bd b874 913d 8e2f e3bd e32c 83bc
00000160: 0c74 eb3c a2e3 0dbe 0fdb 1bbc 07a6 033e
00000170: b76a 023e ec99 7fbd 9f84 37bc 2ca6 08be
00000180: fae9 683e ec6a 8ebd 3e5c 0bbe 298e 173e
00000190: 092c 433d fe56 1c3e c69a 90bc c982 e13d
000001a0: 0736 8b3c bb10 88bb 8a03 153e ef59 3e3e
000001b0: 93e6 293e 92b2 20bd 1944 033e 5f86 e53c
000001c0: 64a4 6f3e 2d1a 953c e49d bfbd a382 b8bc
000001d0: 1dc5 a7bd 2d99 803d f5b1 623e aae6 723d
000001e0: 96b5 96bd 5af7 03be f660 d3bc a9ac 15bd
000001f0: f739 fb3d 9339 8ebd 9850 213e aab4 86bc

encoder.encoder.bias_hh_l0 f4 [128]
-0.08692591 0.10648745 -0.109119944 -0.052373197 -0.14433156 0.059247453 0.2208044 -0.055268917
0.02691902 0.0010691589 -0.105919905 0.011143654 -0.08255206 0.119116 0.09187237 0.043999117
0.098461546 -0.06982893 0.057612818 0.102709435 0.17840096 0.15517984 0.17041098 0.09996574
0.03903055 0.17437491 -0.00947434 -0.020590385 0.13892116 -0.08336704 -0.10759372 0.061789487
0.023670163 -0.058657296 0.18046351 -0.110662416 0.04840664 -0.057239182 -0.22133395 0.008033821
-0.014204349 0.014280719 -0.09739867 -0.13382821 -0.06845126 0.08738188 -0.119170696 -0.12636986
-0.14009975 0.050832644 -0.013269143 0.028929474 0.12531571 0.12735191 0.08451832 -0.14893724
-0.042342305 0.024397159 0.1695452 0.1140029 -0.110045455 0.037936043 0.021051517 0.004870797
-0.039355993 -0.15566517 -0.047327094 0.17933884 -0.03588109 0.007231185 -0.042323325 -0.08280782
-0.024087504 0.043385815 0.11966552 -0.09059689 0.18350196 -0.030562613 0.08110906 -0.17083699
-0.07773026 0.10094095 -0.12626247 0.07667609 -0.035704244 0.14043054 -0.039012257 0.14545888
-0.14900678 -0.15024178 -0.047148492 -0.14857553 0.03764804 -0.11048298 -0.122478254 -0.051548637
0.14260307 0.07336808 -0.01159684 0.06536536 -0.08693388 0.08886044 0.08700196 0.17401126
0.09276355 -0.073056355 0.017427739 0.045811474 0.12901013 0.0862186 -0.10005477 -0.11989426
0.07932799 0.18714805 -0.07918514 0.17941435 -0.09409386 0.09778226 0.12130889 0.10647003
0.08284701 -0.11573492 0.010662076 0.008729469 0.020098507 -0.120119736 -0.04837944 -0.09374057
00000000: 3606 b2bd 1816 da3d 477a dfbd 4785 56bd
00000010: a7cb 13be 75ad 723d 8c1a 623e a961 62bd
00000020: 4785 dc3c 0523 8c3a 89ec d8bd df93 363c
00000030: 0e11 a9bd 17f3 f33d 9527 bc3d 6b38 343d
00000040: 35a6 c93d 7802 8fbd 6bfb 6b3d 5359 d23d
00000050: beae 363e 77e7 1e3e 3780 2e3e d7ba cc3d
00000060: 7fde 1f3d 568f 323e 433a 1bbc 2bad a8bc
00000070: 5941 0e3e 57bc aabd 195a dcbd f916 7d3d
00000080: eee7 c13c a242 70bd 6dcb 383e faa2 e2bd
00000090: 0a46 463d a273 6abd 5ea5 62be 4aa0 033c
000000a0: 5cb9 68bc adf9 693c f478 c7bd 430a 09be
000000b0: 2d30 8cbd 45f5 b23d c40f f4bd 1a67 01be
000000c0: 4f76 0fbe e435 503d d266 59bc 81fd ec3c
000000d0: c352 003e 8a68 023e f117 ad3d 0183 18be
000000e0: 206f 2dbd 8ddc c73c 429d 2d3e 5a7a e93d
000000f0: 835f e1bd d362 1b3d 3b74 ac3c 359b 9f3b
00000100: c033 21bd b166 1fbe 0eda 41bd 9aa4 373e
00000110: 0df8 12bd 94f3 ec3b 395b 2dbd 2597 a9bd
00000120: 2853 c5bc 53b5 313d 3213 f53d dd8a b9bd
00000130: f0e7 3b3e 725e fabc 821c a63d e4ef 2ebe
00000140: 0b31 9fbd 21ba ce3d f34a 01be 5b08 9d3d
00000150: 9d3e 12bd 06cd 0f3e 51cb 1fbd 2cf3 143e
00000160: 3c95 18be fbd8 19be c71e 41bd 2f24 18be
00000170: d534 1a3d e744 e2bd e1d5 fabd aa24 53bd
00000180: 8a06 123e 0142 963d ac00 3ebc 46de 853d
00000190: 640a b2bd 76fc b53d 152e b23d 0230 323e
000001a0: d1fa bd3d 929e 95bd 9ec4 8e3c d0a4 3b3d
000001b0: 3b1b 043e 6193 b03d 84e9 ccbd 1f8b f5bd
000001c0: b776 a23d bda3 3f3e d22b a2bd 65b8 373e
000001d0: 48b4 c0bd 1142 c83d cc70 f83d f60c da3d
000001e0: b1ab a93d 6e06 edbd fdaf 2e3c 0c06 0f3c
000001f0: a0a5 a43c 5601 f6bd 8529 46bd 0efb bfbd

encoder.spatial_embedding.weight f4 [16, 2]
-0.3630732 1.1603351 1.0444543 1.6976831 -0.538286 0.67239034 0.35425788 -0.042681135
-2.4735308 0.12270166 -0.9773364 -0.31161228 -0.07076318 2.1877794 0.4340073 1.2643857
0.23583098 0.46119708 1.7614506 1.1782117 1.6641396 -2.6524372 1.1193641 1.7607313
-2.0045474 -0.009916075 0.30886227 1.1078387 0.22985123 0.84896183 0.37730482 0.35414678
00000000: bbe4 b9be dc85 943f aeb0 853f ae4d d93f
00000010: 1ccd 09bf c621 2c3f 4a61 b53e 6ad2 2ebd
00000020: 544e 1ec0 024b fb3d b832 7abf a58b 9fbe
00000030: 49ec 90bd 9404 0c40 3436 de3e 64d7 a13f
00000040: ad7d 713e 0622 ec3e 3777 e13f a4cf 963f
00000050: 8702 d53f 88c1 29c0 5347 8f3f a55f e13f
00000060: 814a 00c0 0877 22bc 3223 9e3e a9cd 8d3f
00000070: 1f5e 6b3e 9055 593f 192e c13e ba52 b53e

encoder.spatial_embedding.bias f4 [16]
0.31413534 0.5844117 0.20374644 -0.43040904 -0.25990066 -0.4260022 0.33434242 0.5202484
0.12982954 -0.5837488 0.06832944 -0.5080299 -0.06887364 0.7204367 0.51014555 0.7249296
00000000: 59d6 a03e 019c 153f e8a2 503e 935e dcbe
00000010: b311 85be f61c dabe ee2e ab3e 002f 053f
00000020: 09f2 043e 9070 15bf 4ef0 8b3d 3f0e 02bf
00000030: 9f0d 8dbd 8a6e 383f e698 023f fc94 393f

decoder.decoder.weight_ih_l0 f4 [128, 16]
0.04261935 0.041607574 -0.29332158 0.03054121 0.2181469 -0.10349182 -0.2788971 -0.23142576
0.017633636 0.20089182 -0.11396612 -0.06816309 0.12597403 -0.22236492 -0.08332139 -0.03694799
0.09715829 0.11768045 -0.083950385 -0.09531535 -0.014566083 -0.16002119 -0.10441058 -0.096633926
0.054555632 0.17577624 0.1410151 -0.059921537 -0.091174185 -0.14566508 0.109226875 -0.09050626
-0.12013537 0.09458022 -0.057510793 -0.15395041 -0.016580878 -0.12577991 -0.043243416 -0.14247414
-0.15837441 -0.10079231 -0.049542136 0.054581102 0.12946169 -0.05103891 0.0055746622 0.08889774
0.094974615 -0.118421845 0.15050565 0.11103402 -0.032288257 0.1671587 0.14017053 0.096448034
0.020069 0.09686834 -0.10097268 0.0033943376 -0.087596625 0.0842078 -0.02939069 -0.030680338
0.034312073 0.04673995 -0.07612876 -0.054457035 -0.10358752 -0.11196263 -0.08854227 -0.17933588
-0.062537596 -0.1588208 -0.12353884 -0.102978 -0.13303816 -0.019269587 -0.035650883 -0.08492525
-0.13897705 -0.012052045 0.12984194 -0.14764942 0.160243 -0.111133054 0.18510327 -0.12447514
-0.117628895 -0.1523499 0.12719052 0.14205813 0.17212415 -0.20119742 -0.121392824 -0.0058084596
0.021775775 -0.15202136 -0.0713752 0.10532968 0.024106381 0.09484584 0.07109424 -0.028618306
0.10040879 0.11309514 0.14818642 0.16747002 -0.058285523 -0.008764245 0.07685375 0.03243566
0.009135554 0.15348403 0.1207535 0.13870682 -0.061951175 0.100363575 -0.12038371 -0.15475489
-0.121769026 0.04266257 -0.013466711 -0.0069208643 0.061312463 0.08048918 -0.013471822 0.008050761
-0.2052583 0.04193049 0.09302084 0.09547101 -0.038063187 -0.17929776 0.17050205 -0.1894915
0.07704079 0.083731174 -0.09205526 -0.117292434 0.19095607 0.09496225 -0.043070275 -0.06601732
-0.064538546 -0.084729135 0.0047389297 -0.1416151 -0.0260155 0.16310257 0.11247907 -0.061914284
-0.05894431 0.0015919501 0.16365702 0.054272402 0.023909168 -0.09986012 -0.035556525 0.02358512
0.13585116 0.048525773 0.11647619 -0.11169644 0.03487429 0.05836179 -0.031583983 0.039489463
-0.0014172503 -0.1378284 -0.019988103 0.13216254 -0.14844753 -0.02000977 0.05131099 0.07040891
0.16337527 -0.027115783 0.03969065 0.09629924 0.0373718 -0.03310049 -0.08623726 0.041805964
0.15961671 -0.1315009 0.0683252 0.020078773 0.08649812 0.12294305 -0.08119537 -0.12363488
0.026735924 -0.09917994 0.15159778 -0.11024803 0.058409933 -0.16044961 -0.11826617 0.05038257
-0.06007544 -0.1218983 -0.05122668 -0.016217737 0.09607233 -0.19529358 -0.15536162 0.12899339
-0.048715666 -0.098930836 0.14321482 0.011473926 0.13298777 0.06472819 0.08767422 -0.027780537
0.0038917586 0.016752627 0.008573507 0.18019468 0.08541323 0.07563415 0.13371545 -0.12402376
-0.0732048 0.13770507 -0.17542706 -0.1242888 0.13474628 0.069419876 0.149409 -0.16717073
0.13386387 0.057133134 0.03458478 -0.045368418 0.11375286 -0.006557241 0.15210773 -0.1305457
0.11402143 0.15495464 0.06976742 0.21184483 0.05776856 -0.10663806 0.22646861 0.19725172
0.0959321 0.08302239 -0.11601774 -0.08883775 0.09738768 0.17693084 -0.06566121 0.19735502
00000000: a191 2e3d b46c 2a3d 3f2e 96be 8f31 fa3c
00000010: e761 5f3e 85f3 d3bd 9acb 8ebe e0fa 6cbe
00000020: 6a74 903c 96b6 4d3e 1267 e9bd 1799 8bbd
00000030: 56ff 003e a1b3 63be 68a4 aabd c756 17bd
00000040: edfa c63d 7302 f13d 2eee abbd b234 c3bd
00000050: 95a6 6ebc 98dc 23be 37d5 d5bd 02e8 c5bd
00000060: ba75 5f3d b0fe 333e 4366 103e 4970 75bd
00000070: 88b9 babd 3a29 15be 57b2 df3d 595b b9bd
00000080: 8809 f6bd 46b3 c13d 7090 6bbd 2da5 1dbe
00000090: 9fd4 87bc 73cc 00be 0220 31bd bee4 11be
000000a0: e72c 22be 336c cebd b2ec 4abd 6f90 5f3d
000000b0: 9b91 043e 2d0e 51bd a8ab b63b 0510 b63d
000000c0: 0d82 c23d 2787 f2bd 271e 1a3e ce65 e33d
000000d0: b140 04bd a62b 2b3e dd88 0f3e 8c86 c53d
000000e0: be67 a43c e962 c63d c4ca cebd 8973 5e3b
000000f0: dc65 b3bd 2475 ac3d bfc4 f0bc 5555 fbbc
00000100: d18a 0c3d 6472 3f3d 65e9 9bbd 570e 5fbd
00000110: b225 d4bd aa4c e5bd a655 b5bd d3a3 37be
00000120: b613 80bd eba1 22be ee01 fdbd 21e6 d2bd
00000130: 283b 08be 41db 9dbc a906 12bd 4aed adbd
00000140: 0050 0ebe f175 45bc 49f5 043e 6931 17be
00000150: be16 243e ba99 e3bd b68b 3d3e d2ec febd
00000160: 6be7 f0bd 9d01 1cbe 3b3e 023e b077 113e
00000170: 5041 303e b206 4ebe cd9c f8bd e454 bebb
00000180: 1c63 b23c 7dab 1bbe 292d 92bd 16b7 d73d
00000190: bf7a c53c 893e c23d db99 913d f070 eabc
000001a0: 20a3 cd3d 6d9e e73d 2ebe 173e 437d 2b3e
000001b0: cdbc 6ebd e897 0fbc 8065 9d3d 41db 043d
000001c0: 4aad 153c eb2a 1d3e 9c4d f73d 2909 0e3e
000001d0: 84c0 7dbd 6b8b cd3d bc8b f6bd 1178 1ebe
000001e0: 0a62 f9bd f2be 2e3d 7ba3 5cbc 6bc8 e2bb
000001f0: c722 7b3d 83d7 a43d ebb8 5cbc 57e7 033c
00000200: 3b2f 52be 4ebf 2b3d b681 be3d 4e86 c33d
00000210: 25e8 1bbd d599 37be 1798 2e3e 0f0a 42be
00000220: 90c7 9d3d 407b ab3d 7887 bcbd 0437 f0bd
00000230: fd89 433e 917b c23d 756a 30bd 1734 87bd
00000240: c92c 84bd 7886 adbd 0649 9b3b 8c03 11be
00000250: 751e d5bc 5c04 273e 6d5b e63d d599 7dbd
00000260: 976f 71bd fba8 d03a b595 273e bd4c 5e3d
00000270: 29dd c33c 7683 ccbd b8a3 11bd 9535 c13c
00000280: 911c 0b3e f6c2 463d 128b ee3d 1ac1 e4bd
00000290: 58d8 0e3d c60c 6f3d 355e 01bd b4bf 213d
000002a0: 07c3 b9ba e322 0dbe 17be a3bc 9e55 073e
000002b0: a102 18be 87eb a3bc 792b 523d 8c32 903d
000002c0: d94b 273e eb21 debc aa92 223d 8938 c53d
000002d0: 2c13 193d 6194 07bd 299d b0bd bb3c 2b3d
000002e0: 9072 233e 2ca8 06be 15ee 8b3d 3d7c a43c
000002f0: ed25 b13d 91c9 fb3d c249 a6bd 4934 fdbd
00000300: 4c05 db3c da1e cbbd 733c 1b3e b8c9 e1bd
00000310: 413f 6f3d e74c 24be 8935 f2bd f45d 4e3d
00000320: aa11 76bd d1a5 f9bd 11d3 51bd 0fdb 84bc
00000330: 92c1 c43d 0afb 47be 1e17 1fbe d816 043e
00000340: 148a 47bd 409c cabd e8a6 123e 22fd 3b3c
00000350: f22d 083e 3790 843d 8b8e b33d 0294 e3bc
00000360: e00c 7f3b ce3c 893c e577 0c3c f484 383e
00000370: 22ed ae3d 14e6 9a3d b4ec 083e 2b00 febd
00000380: 66ec 95bd 8f02 0d3e 27a3 33be 208b febd
00000390: eefa 093e 022c 8e3d acfe 183e ce2e 2bbe
000003a0: 9c13 093e 6f04 6a3d c5a8 0d3d 3cd4 39bd
000003b0: 42f7 e83d 20de d6bb 21c2 1b3e c6ad 05be
000003c0: 1184 e93d 6eac 1e3e 39e2 8e3d daed 583e
000003d0: ba9e 6c3d 0e65 dabd 63e7 673e 5bfc 493e
000003e0: 0d78 c43d a507 aa3d b59a edbd 91f0 b5bd
000003f0: 3173 c73d 5c2d 353e 6279 86bd 6f17 4a3e

decoder.decoder.weight_hh_l0 f4 [128, 32]
-0.26124498 -0.012194267 0.005875055 -0.047924146 0.20865774 0.102821104 0.106020615 0.077215225
-0.021163901 -0.078007154 0.0014016064 -0.0912186 -0.043996923 -0.11815466 0.1820229 -0.05048347
0.16476573 0.09239084 0.18037923 -0.25746927 -0.26498696 0.054468397 -0.008570025 0.09338878
0.1827868 -0.0046235886 -0.04980025 -0.012244752 -0.046511076 -0.07368565 -0.059122838 -0.09859245
-0.08842977 0.23385602 0.0199746 -0.047262937 -0.13795528 0.028705787 -0.09312797 0.11580733
0.14958413 0.13148502 0.0032983841 0.04283838 0.08131421 0.17792076 -0.048879206 -0.09277971
0.21279927 0.04217461 -0.0798055 -0.13810985 0.16059868 0.09829122 0.05996871 -0.08151177
-0.11083129 0.11461028 0.021412544 0.044469286 0.11440105 -0.050743923 -0.14183447 0.16229384
0.09172712 -0.121869445 -0.1144657 0.12865259 -0.016506096 -0.13470228 0.009698574 -0.04966882
-0.09050978 0.166846 0.020115955 0.096446946 0.15775655 -0.03719991 0.002647897 0.11783419
0.17166288 -0.025518833 0.042357028 -0.1133318 0.06380998 -0.17251469 0.08434152 -0.015185121
0.00477286 0.008833596 0.15093392 -0.1521642 -0.085176945 -0.10756445 0.040245682 0.073322885
0.095036484 -0.006213441 -0.02933794 0.19106843 -0.12195482 0.06755695 -0.082029335 0.12186807
0.18688177 0.124257155 0.09154252 -0.17528939 0.08982754 0.16201591 0.110387005 -0.12057006
-0.087849356 -0.08944209 0.06338716 -0.0741573 -0.1586329 0.16499442 0.2012873 0.060500164
0.01899096 0.0661936 0.06528554 0.011550589 -0.101297036 -0.17776549 0.19011286 0.03922129
-0.08995169 0.099362604 0.0076125837 0.005197991 -0.041243676 -0.09134446 -0.21241368 -0.11939198
-0.19905484 0.15262756 0.08067349 -0.05647944 -0.118810974 0.05467886 -0.17540896 0.1293468
-0.060786504 0.15149234 0.007289496 0.1707264 0.16507182 0.047413357 -0.098962024 -0.062374536
-0.011069129 0.07269226 0.10464045 0.05354114 0.074227944 0.09882011 -0.18071473 0.14691849
0.056383118 0.16779596 -0.05677294 -0.017052747 0.014988496 -0.17374375 0.096463226 0.15022154
-0.15160592 0.18706697 -0.01162678 0.040534377 -0.0025100948 0.001994194 -0.18638195 -0.08418647
-0.14623071 -0.07423138 0.035710912 -0.052052125 0.12561435 -0.0224044 -0.11069012 -0.0023309542
0.070299625 0.044101704 -0.1398765 -0.07016282 0.032264203 0.14194916 0.078071095 -0.13455532
-0.13959646 -0.12144171 0.08032079 0.033446893 0.022557802 -0.09099228 -0.046508275 0.061802987
-0.0585319 0.0013495386 0.04341634 0.13445339 0.10884219 -0.16696012 -0.12047824 -0.07135376
-0.115758345 0.08865664 0.10702475 0.086944066 0.026351845 0.047020473 -0.17215301 -0.028417172
0.070843816 0.15659478 -0.070212804 -0.18278079 0.094476625 -0.17457955 0.042462815 0.03684792
0.0063059307 0.1775648 0.1562945 -0.0037363002 0.12573701 -0.12126207 0.14417799 -0.10603115
0.1995089 -0.049357835 -0.10664152 -0.014919992 -0.1631051 -0.13638522 0.100150645 -0.04665723
-0.025953487 0.14054197 -0.06872619 -0.0968285 0.024941746 0.11343617 -0.097147875 -0.03733813
0.15032616 -0.1866409 0.12894708 -0.10577829 0.050435793 -0.003504418 0.070481375 0.16932215
00000000: e7c1 85be 76ca 47bc 8983 c03b 1c4c 44bd
00000010: 60aa 553e df93 d23d 5621 d93d 0423 9e3d
00000020: eb5f adbc 37c2 9fbd 1bb6 b73a d1d0 babd
00000030: 1e36 34bd 12fb f1bd 3664 3a3e c1c7 4ebd
00000040: 59b8 283e 6937 bd3d 55b5 383e 03d3 83be
00000050: 5fac 87be 411a 5f3d 4a69 0cbc 9e42 bf3d
00000060: 772c 3b3e 7981 97bb 59fb 4bbd 369e 48bc
00000070: 6682 3ebd 81e8 96bd ca2a 72bd d7ea c9bd
00000080: ab1a b5bd f477 6f3e c6a1 a33c c896 41bd
00000090: 2644 0dbe 6628 eb3c e1b9 bebd 652c ed3d
000000a0: 952c 193e 02a4 063e b429 583b 4c77 2f3d
000000b0: 1188 a63d dc30 363e 9035 48bd 4a03 bebd
000000c0: 0de8 593e 49bf 2c3d 1171 a3bd ab6c 0dbe
000000d0: fb73 243e e84c c93d c0a1 753d a5ef a6bd
000000e0: 84fb e2bd cbb8 ea3d 5c69 af3c 6d25 363d
000000f0: 194b ea3d dcd8 4fbd 0e3d 11be 5b30 263e
00000100: 6edb bb3d b096 f9bd fe6c eabd 81bd 033e
00000110: cb37 87bc 65ef 09be c5e6 1e3c 8871 4bbd
00000120: 315d b9bd aed9 2a3e 37ca a43c fa85 c53d
00000130: ef8a 213e ef5e 18bd 5788 2d3b 0d53 f13d
00000140: 65c8 2f3e df0c d1bc 907e 2d3d 811a e8bd
00000150: cfae 823d b1a7 30be 3fbb ac3d 04cb 78bc
00000160: a765 9c3b c9ba 103c 6c8e 1a3e efd0 1bbe
00000170: 4071 aebd c04a dcbd a8d8 243d 4f2a 963d
00000180: 7da2 c23d 1f9a cbbb 1f56 f0bc 71a7 433e
00000190: 73c3 f9bd 4c5b 8a3d fffe a7bd f795 f93d
000001a0: ef5d 3f3e 897a fe3d a57a bb3d 107f 33be
000001b0: 80f7 b73d 80e7 253e 9512 e23d 70ed f6bd
000001c0: 5dea b3bd 6a2d b7bd 21d1 813d c8df 97bd
000001d0: aa70 22be 4cf4 283e 421e 4e3e 05cf 773d
000001e0: ee92 9b3c 8390 873d 6db4 853d af3e 3d3c
000001f0: d274 cfbd 2808 36be f2ac 423e 81a6 203d
00000200: 9738 b8bd 9f7e cb3d fb72 f93b e953 aa3b
00000210: 21ef 28bd ce12 bbbd f982 59be c883 f4bd
00000220: 08d5 4bbe 664a 1c3e 2538 a53d fc56 67bd
00000230: 2b53 f3bd f1f6 5f3d 689e 33be 7d73 043e
00000240: 45fb 78bd cf20 1b3e b9dc ee3b e7d2 2e3e
00000250: 9608 293e 8234 423d 9aac cabd 717c 7fbd
00000260: 4b5b 35bc aedf 943d bb4d d63d f44d 5b3d
00000270: d204 983d 3362 ca3d 480d 39be cd71 163e
00000280: fcf1 663d b4d2 2b3e be8a 68bd 34b2 8bbc
00000290: 4f92 753c e2e9 31be 838e c53d add3 193e
000002a0: 953e 1bbe 7c8e 3f3e 407e 3ebc 6007 263d
000002b0: 6780 24bb 06b1 023b e9da 3ebe f569 acbd
000002c0: 81bd 15be 9f06 98bd 9b45 123d 9c34 55bd
000002d0: 0ca1 003e 6f89 b7bc 80b1 e2bd ecc2 18bb
000002e0: 40f9 8f3d fda3 343d c93b 0fbe 86b1 8fbd
000002f0: 7827 043d 1f5b 113e bde3 9f3d dfc8 09be
00000300: 60f2 0ebe 6eb6 f8bd 3a7f a43d 9cff 083d
00000310: 24cb b83c 295a babd 767f 3ebd 2125 7d3d
00000320: 25bf 6fbd 00e3 b03a 55d5 313d 26ae 093e
00000330: a7e8 de3d 98f7 2abe 4cbd f6bd ec21 92bd
00000340: b612 edbd 9d91 b53d cb2f db3d bb0f b23d
00000350: d3df d73c 8a98 403d e148 30be 21cb e8bc
00000360: 9016 913d 625a 203e bbcb 8fbd e32a 3bbe
00000370: f67c c13d fbc4 32be 7ded 2d3d d8ed 163d
00000380: fba1 ce3b 8cd3 353e aa0b 203e b7dc 74bb
00000390: 34c1 003e 4058 f8bd 65a3 133e dc26 d9bd
000003a0: 104c 4c3e 712b 4abd df66 dabd fb72 74bc
000003b0: 0605 27be 91a8 0bbe c81b cd3d a71b 3fbd
000003c0: 689c d4bc 3cea 0f3e 51c0 8cbd 054e c6bd
000003d0: a252 cc3c 3951 e83d 77f5 c6bd deef 18bd
000003e0: 1aef 193e cb1e 3fbe b40a 043e 4aa2 d8bd
000003f0: c395 4e3d 61aa 65bb 8a58 903d c962 2d3e

decoder.decoder.bias_ih_l0 f4 [128]
-0.16244468 -0.02051794 0.07703833 -0.13895677 0.15122065 -0.098438576 0.14048572 -0.02230304
0.010033287 -0.045229293 0.010687061 -0.15487655 0.023121892 -0.10355554 0.16403712 0.025065422
0.11277488 -0.022697775 -0.13602665 0.047934182 -0.026640737 0.04050268 0.11995799 0.14131008
0.18563081 -0.10827577 0.0570785 0.13183087 0.047995236 -0.1433095 -0.014825821 -0.055939533
0.05483894 -0.13744877 -0.08944162 0.20813625 0.047895156 -0.13082457 -0.06240102 -0.116029546
-0.067158915 -0.07886411 -0.13880947 0.049488343 0.10272751 0.00095942756 -0.013127722 0.11115387
-0.03781945 0.12004536 -0.035057932 0.06676339 -0.053126637 -0.12067449 0.025309615 0.11826785
0.1682245 0.08699275 -0.11595944 0.007149867 -0.060062118 0.011101326 -0.10010942 0.14966968
-0.1494484 0.123292744 -0.060173318 -0.058468323 0.13069504 0.006569105 0.04254329 -0.0041936967
0.114149846 0.08472639 0.04927184 -0.10438575 0.14085995 -0.01269668 0.16629173 0.005661229
-0.07442508 0.04368494 0.049472712 0.028604932 -0.16082557 -0.12233062 -0.10935002 0.019415334
-0.020967985 0.16419174 -0.06786415 0.06457613 0.12386777 0.111614436 -0.07361696 -0.111576095
-0.04985736 -0.0036768531 -0.033070214 0.053902626 -0.017644009 0.12590007 0.16123419 0.10542574
0.0011506682 0.09534576 0.12221436 -0.11540082 -0.09387006 -0.02643744 -0.0025839098 0.18494971
0.13530979 -0.010306431 -0.12705529 0.03539013 0.015907213 0.06305402 -0.110561304 -0.06362637
-0.11558489 0.08160061 -0.00041767326 0.096932225 0.00062629353 0.11018593 0.14839314 0.029925875
00000000: e657 26be 3d15 a8bc 46c6 9d3d af4a 0ebe
00000010: 96d9 1a3e 2a9a c9bd 7ddb 0f3e ddb4 b6bc
00000020: a862 243c 5a42 39bd c818 2f3c f597 1ebe
00000030: 1f6a bd3c ed14 d4bd 59f9 273e 0056 cd3c
00000040: 84f6 e63d aff0 b9bc 924a 0bbe a256 443d
00000050: ad3d dabc 23e6 253d 89ac f53d 97b3 103e
00000060: 0116 3e3e b0bf ddbd 25cb 693d acfe 063e
00000070: a796 443d babf 12be 00e8 72bc da20 65bd
00000080: cc9e 603d 5fbf 0cbe 2b2d b7bd ab21 553e
00000090: b62d 443d e0f6 05be 3698 7fbd e6a0 edbd
000000a0: 9d8a 89bd 8283 a1bd 1224 0ebe 4ab4 4a3d
000000b0: cd62 d23d 1882 7b3a a815 57bc a4a4 e33d
000000c0: 91e8 1abd 57da f53d e898 0fbd 3fbb 883d
000000d0: 519b 59bd 3024 f7bd 1c56 cf3c 6a36 f23d
000000e0: 0b43 2c3e 4129 b23d 257c edbd 6e49 ea3b
000000f0: b203 76bd 56e2 353c 2b06 cdbd 0243 193e
00000100: 0009 19be e880 fc3d 4c78 76bd 7b7c 6fbd
00000110: ecd4 053e a641 d73b df41 2e3d 476b 89bb
00000120: 65c7 e93d 0885 ad3d 45d1 493d 32c8 d5bd
00000130: 973d 103e bc05 50bc 6148 2a3e d581 b93b
00000140: 2d6c 98bd fbee 323d e6a3 4a3d e454 ea3c
00000150: 75af 24be 7a88 fabd e7f2 dfbd e80c 9f3c
00000160: 0dc5 abbc e121 283e 5cfc 8abd 7d40 843d
00000170: 63ae fd3d 1c96 e43d 7dc4 96bd 0282 e4bd
00000180: 3b37 4cbd 5cf7 70bb a274 07bd 00c9 5c3d
00000190: 2b8a 90bc f3eb 003e 931a 253e 73e9 d73d
000001a0: 05d2 963a a344 c33d 864b fa3d 4457 ecbd
000001b0: f23e c0bd 5593 d8bc d056 29bb 7563 3d3e
000001c0: a68e 0a3e 4edc 28bc c81a 02be 3ef5 103d
000001d0: d84f 823c 7722 813d f76d e2bd 8b4e 82bd
000001e0: c5b7 ecbd 381e a73d 28fb dab9 6784 c63d
000001f0: d92d 243a 29a9 e13d 5ff4 173e 1c27 f53c

decoder.decoder.bias_hh_l0 f4 [128]
-0.097926736 0.05123776 0.1423455 -0.029679365 0.16168338 0.011316923 -0.0869903 -0.078810625
-0.018065333 0.065352574 0.05926759 -0.029706288 0.123261 0.07668042 0.16112868 0.046728507
-0.003533704 0.007196564 0.066612326 -0.0684185 0.025666984 -0.14999549 -0.020134872 -0.07076282
0.068540394 -0.032744024 -0.14876947 -0.10131521 0.032581493 -0.12176222 0.15634768 -0.13073169
0.21008053 -0.072372496 0.0046944804 -0.122437954 0.16407281 0.16070354 -0.14950456 -0.038261592
-0.06710685 -0.1316021 -0.0076297983 -0.1603613 0.033649117 0.11338051 -0.17222358 0.14749333
-0.11868866 -0.15422553 -0.006967596 0.055596393 -0.1705474 -0.09469641 0.14143284 -0.054704867
0.042504787 0.07884236 -0.10200466 -0.0423678 -0.07100902 -0.17386298 -0.045042634 -0.0015932166
-0.068818435 0.13214679 0.07914101 0.10930877 -0.16948338 -0.052620787 0.16643883 -0.10758777
0.1553218 0.11839194 0.051432617 0.10600038 0.090326026 -0.112713724 -0.07792174 0.048963822
0.12863474 0.15469125 0.07195981 -0.13637844 0.16489185 -0.12794112 -0.011778024 0.09442071
0.07450049 0.020106291 0.11571778 -0.13883114 0.13598935 -0.12140336 -0.14748073 -0.0019808596
0.06772958 0.027243853 0.026301231 0.13194738 -0.053094063 0.0773497 0.17759536 0.01946906
0.15796125 0.054359168 0.029289695 0.18115985 -0.122098684 0.12377052 0.0021822539 -0.024355868
-0.10958173 -0.0044849385 0.0022573299 0.09301575 0.08052772 -0.16326293 -0.04844993 0.00767492
0.06536699 0.16465868 0.063104376 0.10131485 0.1305632 0.029723229 -0.022553965 -0.017653765
00000000: d08d c8bd afde 513d 05c3 113e 2422 f3bc
00000010: 5490 253e 9e6a 393c f827 b2bd 7767 a1bd
00000020: c0fd 93bc 92d7 853d 93c2 723d 9a5a f3bc
00000030: 4370 fc3d a00a 9d3d ebfe 243e 6466 3f3d
00000040: b795 67bb 28d1 eb3b 0b6c 883d 001f 8cbd
00000050: 9143 d23c 6b98 19be e3f1 a4bc 19ec 90bd
00000060: e85e 8c3d 991e 06bd 0657 18be 597e cfbd
00000070: 2c74 053d 795e f9bd 9b19 203e 87de 05be
00000080: 5a1f 573e 0838 94bd 28d4 993b c0c0 fabd
00000090: b402 283e 788f 243e b917 19be 30b8 1cbd
000000a0: 516f 89bd b3c2 06be 6303 fabb c135 24be
000000b0: a8d3 093d 0a34 e83d 615b 30be 7e08 173e
000000c0: 0a13 f3bd 4ced 1dbe 6e50 e4bb 0bb9 633d
000000d0: faa3 2ebe 31f0 c1bd c5d3 103e 3612 60bd
000000e0: 8019 2e3d 1a78 a13d d2e7 d0bd dc89 2dbd
000000f0: 2d6d 91bd 2309 32be a07e 38bd 7ad3 d0ba
00000100: aef0 8cbd 7d51 073e af14 a23d 47dd df3d
00000110: 0d8d 2dbe e588 57bd f16e 2a3e fa56 dcbd
00000120: ae0c 1f3e 7977 f23d 02ab 523d ba16 d93d
00000130: dafc b83d 74d6 e6bd 6f95 9fbd 4a8e 483d
00000140: d3b8 033e 6267 1e3e aa5f 933d caa6 0bbe
00000150: 69d9 283e ff02 03be 9df8 40bc a55f c13d
00000160: b793 983d f3b5 a43c 72fd ec3d c029 0ebe
00000170: cb40 0b3e 53a2 f8bd 3005 17be 4fd1 01bb
00000180: ceb5 8a3d 802e df3c ae75 d73c 371d 073e
00000190: 2979 59bd 8569 9e3d 8fdb 353e 947d 9f3c
000001a0: 98c0 213e b8a7 5e3d f1f0 ef3c f881 393e
000001b0: e00e fabd 667b fd3d 2504 0f3b f585 c7bc
000001c0: 636c e0bd 64f6 92bb b6ef 133b 0b7f be3d
000001d0: b8eb a43d 662e 27be 6f73 46bd e57d fb3b
000001e0: 21df 853d 499c 283e de3c 813d 297e cf3d
000001f0: 5cb2 053e 217e f33c 18c3 b8bc a19e 90bc

decoder.spatial_embedding.weight f4 [16, 2]
-0.2242719 1.0182709 1.1387638 0.48469436 -1.1544348 2.1045496 -1.4356726 0.819076
1.033565 -1.3625147 -0.39091694 1.6026559 -2.1114843 -1.1329851 -1.7140825 0.7744071
-1.0137933 0.22470869 1.1403856 -0.54909587 -1.1161497 -0.17719153 0.5783155 0.5807651
-0.79756266 -1.2217548 -0.6963289 0.3677579 0.3668406 -0.40031546 -0.039674636 -2.5192401
00000000: 88a7 65be b356 823f 03c3 913f dc29 f83e
00000010: 85c4 93bf f1b0 0640 1fc4 b7bf f7ae 513f
00000020: dc4b 843f e266 aebf 4426 c8be d423 cd3f
00000030: 8f22 07c0 a805 91bf 0e67 dbbf 8b3f 463f
00000040: fbc3 81bf 091a 663e 28f8 913f 8c91 0cbf
00000050: fedd 8ebf b271 35be 7c0c 143f 06ad 143f
00000060: 112d 4cbf 7662 9cbf 9c42 32bf c34a bc3e
00000070: 88d2 bb3e 26f6 ccbe df81 22bd 3b3b 21c0

decoder.spatial_embedding.bias f4 [16]
0.08270887 0.55947644 0.05302119 -0.35659096 0.6542736 0.4762249 0.039621063 -0.36728835
-0.5763882 -0.05385357 -0.6527934 0.42641345 -0.09799072 -0.25659207 -0.5959125 0.68031335
00000000: 4563 a93d d939 0f3f bf2c 593d 1793 b6be
00000010: 7a7e 273f c0d3 f33e b249 223d 380d bcbe
00000020: 2d8e 13bf 9095 5cbd 781d 27bf dd52 da3e
00000030: 5caf c8bd 0960 83be b98d 18bf 0429 2e3f

decoder.hidden2pos.weight f4 [2, 32]
0.111574456 0.21010277 -0.3176132 -0.0646936 0.008223845 -0.05979171 0.02524465 -0.2870647
0.12624553 -0.08842586 0.11102313 -0.24333413 0.03174638 0.28325707 0.3504972 -0.25663215
-0.23764507 -0.3769072 -0.21096452 -0.14355327 -0.19728136 0.05506053 0.37438005 -0.024256695
0.066153705 0.28520808 0.14619692 0.056646686 -0.34881955 -0.43448934 -0.14807452 0.32284853
0.12593944 0.13579524 0.17451541 0.18542896 0.088147394 -0.34537637 -0.33211395 0.12132886
-0.20910123 0.43014032 -0.06270598 0.20818421 -0.02365073 0.78356117 0.015894972 0.024114981
-0.27119982 0.2992118 -0.23489738 -0.21962294 0.20445643 0.23027454 -0.09909073 0.05271199
-0.47373608 0.37360397 -0.4055297 0.19926088 -0.07879795 -0.033691827 -0.16809745 -0.24637762
00000000: 2681 e43d 2e25 573e 339e a2be 147e 84bd
00000010: 4ebd 063c 27e8 74bd decd ce3c 25fa 92be
00000020: 8246 013e 9e18 b5bd 1860 e33d 952c 79be
00000030: 7e08 023d 1207 913e 5e74 b33e 4a65 83be
00000040: 3b59 73be fbf9 c0be 1507 58be a1ff 12be
00000050: 2004 4abe 2687 613d beae bf3e fab5 c6bc
00000060: 987b 873d cb06 923e a5b4 153e 5b06 683d
00000070: 7a98 b2be 6375 debe d9a0 17be 674c a53e
00000080: 45f6 003e e80d 0b3e 2bb4 323e 17e1 3d3e
00000090: 9f86 b43d 2cd5 b0be d70a aabe 447b f83d
000000a0: a21e 56be 5a3b dc3e fe6b 80bd 3e2e 553e
000000b0: 2dbf c1bc 7797 483f 2c36 823c c88c c53c
000000c0: b4da 8abe 4a32 993e f088 70be d6e4 60be
000000d0: 075d 513e 17cd 6b3e 15f0 cabd 87e8 573d
000000e0: 898d f2be 0549 bf3e 97a1 cfbe 0b0b 4c3e
000000f0: d260 a1bd 7100 0abd bd21 2cbe 6a4a 7cbe

decoder.hidden2pos.bias f4 [2]
-0.16062701 0.13746774
00000000: 687b 24be 58c4 0c3e

mlp_decoder_context.0.weight f4 [64, 32]
-0.10416955 0.29324803 -0.4366975 -0.17120278 0.4175177 -0.12809117 -0.23251408 0.3802462
-0.1408928 -0.28609732 -0.49205756 0.21705826 -0.1373801 0.3437704 0.22574006 -0.25552934
0.22611025 -0.13751213 -0.13394833 0.30955836 0.11903627 0.38478392 -0.1941413 -0.23119676
0.21167612 0.028470185 -0.26304194 0.20010257 -0.46077085 0.12016823 0.41592035 -0.04824869
-0.011081437 -0.24968877 -0.44545308 -0.12892698 0.028292855 -0.045699585 -0.19050577 0.045833103
0.24640377 -0.28400594 -0.06459134 -0.056801077 0.28026456 -0.22091758 -0.16764922 0.04031735
-0.2101741 0.025581066 -0.24758881 0.01992687 0.28630906 -0.17994364 0.0035778142 0.36336967
-0.21366838 -0.17431292 0.08193118 -0.049553458 -0.20245847 -0.018203897 -0.34789163 -0.30004486
-0.15637258 0.0016104574 -0.08531546 0.29448077 0.072126634 -0.6305236 -0.6139814 -0.30036497
-0.30287802 0.16923214 0.19818929 -0.31741142 -0.18224111 0.13246757 0.06285229 -0.11420847
-0.29993382 0.17607902 0.2692825 0.1587586 -0.1829894 0.09963741 0.082316406 -0.04406304
-0.17059888 0.2327844 0.23812969 0.014323891 -0.7126152 0.37801114 0.0041289716 0.04490815
0.5121361 0.3947888 0.018736642 -0.5077507 0.26858225 0.12461991 0.2966263 -0.21246909
0.071254164 0.14709198 -0.2862184 -0.25036028 0.05846662 0.42822573 0.3503359 -0.12883891
0.20404746 0.06847756 -0.011273235 0.21715431 0.09517102 0.41039363 0.448547 -0.3102634
-0.18493591 0.0073107937 0.29256302 -0.13439772 0.18361713 0.010721666 0.10050324 -0.5089889
-0.036638934 -0.16212481 -0.33192712 0.122222595 0.13223264 0.67835134 -0.15888563 -0.1141527
-0.15211755 -0.13164103 0.24298592 0.18507141 -0.22082949 0.056995276 -0.09480099 0.20698963
0.07327987 -0.24190007 0.006247806 -0.04172548 0.28158885 -0.26457563 -0.38743582 -0.06316696
-0.31688225 0.17346485 -0.21848921 0.21338704 0.055945285 0.329593 -0.14508705 -0.10530201
-0.38127258 -0.4240404 -0.03246358 0.48782262 0.36129713 0.11338892 0.07907803 -0.10850253
-0.07441529 -0.17474322 -0.20541233 0.09109349 0.09221619 0.05454391 0.19490685 -0.3198202
-0.11317863 0.07836648 -0.110423654 0.07896401 -0.2084383 -0.30625644 0.2976016 -0.096174486
-0.39274466 -0.5282025 -0.2743335 -0.27839333 0.24761008 -0.3720481 -0.27460578 -0.20460269
-0.21137305 -0.10079093 0.12575991 -0.06098654 0.20196281 -0.16386187 -0.24388753 0.049058888
0.52833945 0.20462473 -0.08203757 0.07030654 0.17470783 -0.11912008 0.016433438 -0.15451866
-0.20131811 0.059344243 -0.17080219 -0.0136924945 -0.1923182 -0.024436757 -0.13944864 -0.22901551
-0.70346147 -0.15758605 0.17763601 -0.015885063 -0.3167019 -0.09257843 0.23453748 -0.13245267
-0.5315097 -0.3312913 0.79991806 0.20408584 0.17925178 -0.3253678 -0.073192045 -0.12964346
-0.1208587 -0.47092944 -0.1432723 -0.38040492 -0.033621352 0.18418449 -0.28336737 0.0853157
-0.21213776 0.43858996 -0.2570211 0.32165116 -0.005504159 -0.057302184 -0.061644785 -0.009022024
-0.01435999 -0.21749696 0.1509131 0.14632982 0.28799126 -0.08435044 -0.28879544 -0.4214917
00000000: d856 d5bd 9b24 963e d196 dfbe c84f 2fbe
00000010: e1c4 d53e 552a 03be 2c18 6ebe a1af c23e
00000020: 3446 10be 597b 92be f8ee fbbe 8544 5e3e
00000030: 5ead 0cbe ad02 b03e 6728 673e bed4 82be
00000040: 7289 673e fbcf 0cbe c029 09be 6f7e 9e3e
00000050: 4ac9 f33d 6602 c53e facc 46be d8be 6cbe
00000060: a0c1 583e 4e3a e93c 6fad 86be b0e7 4c3e
00000070: 28ea ebbe c31a f63d 83f3 d43e 6ba0 45bd
00000080: ea8e 35bc 6aae 7fbe 6d12 e4be 6f05 04be
00000090: 6bc6 e73c 7d2f 3bbd f213 43be 7ebb 3b3d
000000a0: 4551 7c3e 3a69 91be 7748 84bd 3fa8 68bd
000000b0: d67e 8f3e 3838 62be 3dac 2bbe ce23 253d
000000c0: e137 57be 628f d13c ec87 7dbe ad3d a33c
000000d0: 1a97 923e 2543 38be c379 6a3b 970b ba3e
000000e0: e2cb 5abe 167f 32be 89cb a73d 91f8 4abd
000000f0: 4651 4fbe 5720 95bc da1e b2be 7b9f 99be
00000100: 2220 20be fc15 d33a dfb9 aebd 2fc6 963e
00000110: 21b7 933d ff69 21bf e32d 1dbf 70c9 99be
00000120: d412 9bbe 314b 2d3e 22f2 4a3e c083 a2be
00000130: 6a9d 3abe 94a5 073e b4b8 803d 21e6 e9bd
00000140: ed90 99be 0f4e 343e 65df 893e 9d91 223e
00000150: 9361 3bbe b30e cc3d 8195 a83d 727b 34bd
00000160: 79b1 2ebe 095f 6e3e 45d8 733e c1ae 6a3c
00000170: f36d 36bf ad8a c13e 534c 873b 9cf1 373d
00000180: 5a1b 033f c221 ca3e 967d 993c f3fb 01bf
00000190: 9d83 893e b938 ff3d 67df 973e 7f91 59be
000001a0: b4ed 913d 489f 163e 388b 92be 392f 80be
000001b0: b27a 6f3d 6740 db3e 3a5f b33e 59ee 03be
000001c0: d1f1 503e f73d 8c3d 60b3 38bc b35d 5e3e
000001d0: 06e9 c23d 1d1f d23e f4a7 e53e d8da 9ebe
000001e0: d75f 3dbe 628f ef3b d2ca 953e 8e9f 09be
000001f0: 2106 3c3e eda9 2f3c a5d4 cd3d 194d 02bf
00000200: b512 16bd 0c04 26be 5af2 a9be d74f fa3d
00000210: fe67 073e 6fa8 2d3f eab2 22be e4c8 e9bd
00000220: b4c4 1bbe e8cc 06be 4dd1 783e 5c83 3d3e
00000230: 2021 62be e173 693d 0527 c2bd 17f5 533e
00000240: c213 963d a7b4 77be 65ba cc3b 56e8 2abd
00000250: 6a2c 903e 7576 87be fd5d c6be ae5d 81bd
00000260: 643e a2be c5a0 313e a3bb 5fbe 2282 5a3e
00000270: e226 653d 6ac0 a83e b391 14be 95a8 d7bd
00000280: 2936 c3be d31b d9be 88f8 04bd e3c3 f93e
00000290: f0fb b83e 7338 e83d aaf3 a13d 9336 debd
000002a0: 0b67 98bd e3ef 32be 9c57 52be 398f ba3d
000002b0: d8db bc3d 6f69 5f3d a995 473e 79bf a3be
000002c0: 33ca e7bd 9b7e a03d cc25 e2bd e2b7 a13d
000002d0: da70 55be a5cd 9cbe 3d5f 983e 21f7 c4bd
000002e0: d415 c9be 4738 07bf 7175 8cbe 9289 8ebe
000002f0: 7f8d 7d3e 177d bebe 2199 8cbe 5e83 51be
00000300: 2d72 58be 7a6b cebd 35c7 003e 06cd 79bd
00000310: 57cf 4e3e 68cb 27be a7bd 79be f9f1 483d
00000320: 4141 073f 2589 513e 5003 a8bd e0fc 8f3d
00000330: 9ce6 323e 3af5 f3bd 6b9f 863c 243a 1ebe
00000340: 5626 4ebe f312 733d c5e6 2ebe 7c56 60bc
00000350: 10ef 44be 982f c8bc a0cb 0ebe 0b83 6abe
00000360: 0d16 34bf 3d5e 21be 37e6 353e 6421 82bc
00000370: c026 a2be c399 bdbd 982a 703e aca1 07be
00000380: 0511 08bf 039f a9be 6ec7 4c3f e1fb 503e
00000390: c78d 373e 9c96 a6be b6e5 95bd 41c1 04be
000003a0: c484 f7bd aa1d f1be f9b5 12be 6fc4 c2be
000003b0: 8bb6 09bd dc9a 3c3e 8715 91be ffb9 ae3d
000003c0: a43a 59be dd8e e03e 4598 83be 76af a43e
000003d0: 3b5c b4bb b2b5 6abd 3e7f 7cbd 1dd1 13bc
000003e0: 2a46 6bbc 86b7 5ebe f788 1a3e 7cd7 153e
000003f0: 9773 933e ecbf acbd ffdc 93be c3cd d7be

mlp_decoder_context.0.bias f4 [64]
-0.17653438 0.06836563 -0.1498025 -0.030739702 -0.084158845 0.050569974 0.054717716 -0.036368817
-0.13065429 0.1940355 0.08100849 -0.047223672 -0.056425735 -0.13379097 -0.04565463 0.07538283
-0.14868315 0.08850493 -0.14041646 -0.08393329 -0.12689565 0.054302547 0.16689321 0.013857918
0.06979941 -0.018971516 0.0327373 0.027108502 0.006017161 0.00057606853 0.16014123 0.1277023
-0.043243967 -0.12670143 0.18409567 -0.17756855 0.11947023 -0.08912973 -0.060094114 -0.15197204
0.12348637 -0.053284187 -0.16425271 -0.08584537 0.09008447 -0.13644487 -0.07593362 0.10670721
0.14816041 0.11708861 -0.0027120218 -0.09156874 -0.039810214 0.16843382 0.10836343 0.11303538
0.07468343 0.15708746 0.13920903 0.21003167 0.07488083 0.17907858 0.08681976 -0.119861
00000000: 6ec5 34be 4803 8c3d d465 19be d4d1 fbbc
00000010: 795b acbd 7622 4f3d af1f 603d 78f7 14bd
00000020: 3dca 05be 3eb1 463e c7e7 a53d 9c6d 41bd
00000030: ac1e 67bd 8000 09be 5900 3bbd 5062 9a3d
00000040: 6540 18be 1342 b53d 55c9 0fbe 37e5 abbd
00000050: eff0 01be 596c 5e3d 0ee6 2a3e 520c 633c
00000060: fef2 8e3d 276a 9bbc 8c17 063d a612 de3c
00000070: 9b2b c53b 4e03 173a 10fc 233e 64c4 023e
00000080: 9620 31bd 05be 01be 9383 3c3e 88d4 35be
00000090: cfac f43d a689 b6bd 3f25 76bd 8f9e 1bbe
000000a0: 6ce6 fc3d 8540 5abd dd31 28be b3cf afbd
000000b0: 357e b83d 34b8 0bbe 1683 9bbd 4f89 da3d
000000c0: 5db7 173e 27cc ef3d 2dbc 31bb 6488 bbbd
000000d0: 0910 23bd ea79 2c3e a5ed dd3d 187f e73d
000000e0: a0f3 983d 89db 203e d08c 0e3e 8b12 573e
000000f0: 1f5b 993d 6060 373e 8fce b13d af79 f5bd
