scripts/models/sgan-models/hotel_12_model.pt (torch_old, 70313 bytes, 18 tensors)

encoder.encoder.weight_ih_l0 f4 [128, 16]
0.16807738 -0.021312615 -0.21604827 0.008195058 -0.025081078 -0.09551592 0.22345446 -0.20329463
0.016158413 0.0060907924 0.026787762 -0.06835149 -0.08703121 0.1193618 0.020500587 0.15798402
-0.078925535 0.104214005 -0.012235743 -0.01014634 0.07209222 0.0018785245 -0.10336117 -0.07896755
0.21915671 -0.08234438 0.018310392 -0.10778974 0.06916912 0.16981584 0.13247652 -0.10237202
0.18596971 -0.047271423 0.10718093 -0.09674502 -0.12855396 0.001419284 0.25315604 -0.16220103
0.11944578 -0.19850804 0.14930059 -0.042819962 0.030854562 0.21435396 0.07328463 -0.0072245672
-0.045547992 -0.027046468 -0.08046733 -0.059325233 0.13178293 -0.08708685 -0.12273682 -0.13269216
-0.0059819017 -0.120282546 0.133883 0.02595587 0.035904523 0.14721616 0.12583336 0.046287987
0.07986663 -0.056846593 0.0052729645 -0.06667605 0.03342521 0.09598719 0.21501756 -0.19979805
0.16139832 -0.12270424 0.037593693 0.08958458 0.17354323 -0.025990417 0.11104582 -0.13529372
-0.03225948 0.18441235 -0.1302979 -0.19458488 -0.0721645 -0.2232313 0.1482929 -0.17886041
0.20946991 -0.24996273 -0.094190955 -0.14755696 0.0995369 -0.14664334 -0.12465132 0.04682234
0.112967096 0.06629295 0.06592039 -0.1950244 -0.07547347 -0.11599233 0.2553787 0.0022159405
-0.10264855 -0.016943367 0.033080444 -0.07275451 -0.09454769 -0.13264948 -0.0027160733 -0.008691201
0.05354235 0.024373773 0.013382872 0.13513906 -0.0007724638 -0.01291601 0.16423942 0.16289185
0.0531953 0.12951037 0.18173388 0.03975244 0.0019805299 0.053326484 -0.00866201 0.15398817
-0.08755895 -0.071315765 0.015280814 -0.08695609 -0.052122746 -0.18524177 0.009711076 -0.022617947
0.20628749 -0.039801586 0.07684728 -0.10644269 0.0027268957 -0.09246131 -0.023366578 0.0645687
0.08075058 0.032151032 0.10836708 -0.028616251 0.057202592 0.082808085 0.11911634 -0.15580393
0.027683862 0.156413 0.053951204 -0.035529166 0.0074822013 0.031892277 -0.089783214 0.023819076
0.19881798 -0.14723915 -0.022650788 0.011337737 0.028553993 0.023799537 -0.081612766 0.020359255
0.13458154 0.082543015 0.110844165 -0.13181867 -0.15587136 0.027684221 -0.09074139 0.09531077
-0.061111894 -0.024056543 0.12897894 0.1273048 -0.012430803 0.07460964 0.07428993 -0.012547494
-0.030475928 0.071382605 0.13135727 -0.16887552 -0.09433237 0.110021375 -0.11293434 0.14944108
0.111545 -0.0022948165 -0.1075884 -0.18366016 -0.05858067 -0.0054210704 -0.11631198 -0.20278028
0.028039351 0.1393712 0.014514935 -0.061876193 -0.08360903 -0.14433014 0.0005443239 -0.16676281
0.16772212 -0.13842273 0.020830246 -0.0121769495 -0.13346395 0.008926826 -0.007610605 0.014472135
0.17981233 0.09628566 0.07497816 -0.1278951 -0.048002563 0.15153186 0.09879018 0.09930371
0.16117942 0.14560786 -0.009095936 0.03870286 -0.17474888 -0.07950198 -0.10094717 0.029026557
-0.09178631 0.03184224 -0.03138239 0.1629356 0.068689406 0.10051078 0.14431365 -0.0851033
0.060234465 0.08157057 -0.056188792 -0.0041804556 0.009176086 -0.08597119 -0.0051677185 0.11004973
0.02797107 0.007814401 0.015292565 0.0394701 -0.06912616 -0.15633935 0.058925036 0.04171204
00000000: 7a1c 2c3e cb97 aebc c23b 5dbe 9144 063c
00000010: d576 cdbc da9d c3bd 3fd1 643e 782c 50be
00000020: a65e 843c 4595 c73b 0272 db3c defb 8bbd
00000030: 6b3d b2bd f673 f43d d9f0 a73c 90c6 213e
00000040: b6a3 a1bd 276e d53d 6d78 48bc d63c 26bc
00000050: 16a5 933d d338 f63a 05af d3bd bdb9 a1bd
00000060: 9e6a 603e 2ca4 a8bd adff 953c dec0 dcbd
00000070: 8aa8 8d3d 34e4 2d3e eda7 073e 6ca8 d1bd
00000080: d86e 3e3e ae9f 41bd ad81 db3d 4122 c6bd
00000090: a6a3 03be 4507 ba3a ab9d 813e 0718 26be
000000a0: fd9f f43d b145 4bbe 41e2 183e fc63 2fbd
000000b0: b5c2 fc3c 9b7f 5b3e 4116 963d 10bc ecbb
000000c0: 8890 3abd 8e90 ddbc 0ecc a4bd 04ff 72bd
000000d0: 1bf2 063e 975a b2bd 715d fbbd 74e0 07be
000000e0: d403 c4bb b256 f6bd a018 093e 68a1 d43c
000000f0: 9f10 133d d5bf 163e 76da 003e 7998 3d3d
00000100: 1e91 a33d f9d7 68bd d5c8 ac3b 748d 88bd
00000110: dfe8 083d ef94 c43d 902d 5c3e dc97 4cbe
00000120: 9a45 253e 5c4c fbbd d8fb 193d 1f78 b73d
00000130: 51b5 313e dbe9 d4bc fe6b e33d 708a 0abe
00000140: 8422 04bd 97d6 3c3e d06c 05be 4241 47be
00000150: fbca 93bd bf96 64be 18da 173e 2f27 37be
00000160: 487f 563e 3bf6 7fbe 30e7 c0bd 2c19 17be
00000170: 01da cb3d ac29 16be 3149 ffbd c8c8 3f3d
00000180: 4b5b e73d 99c4 873d 4501 873d 7ab4 47be
00000190: d691 9abd 638d edbd ffc0 823e 5039 113b
000001a0: 6739 d2bd d1cc 8abc 5c7f 073d 5100 95bd
000001b0: 38a2 c1bd 44d5 07be 2600 32bb 8a65 0ebc
000001c0: 394f 5b3d 82ab c73c d543 5b3c e561 0a3e
000001d0: 2b7f 4aba ac9d 53bc 612e 283e 1fcd 263e
000001e0: 51e3 593d 5e9e 043e 7218 3a3e 74d3 223d
000001f0: c7cb 013b df6c 5a3d 1aeb 0dbc 13af 1d3e
00000200: 1b52 b3bd 000e 92bd 615c 7a3c 0916 b2bd
00000210: a97e 55bd 05b0 3dbe 341b 1f3c 4649 b9bc
00000220: 073d 533e fd06 23bd 1b62 9d3d a0fe d9bd
00000230: b8b5 323b 5b5c bdbd 446b bfbc 983c 843d
00000240: 8f60 a53d cdb0 033d 8fef dd3d a16c eabc
00000250: 444d 6a3d 4997 a93d 45f3 f33d 118b 1fbe
00000260: 44c9 e23c bb2a 203e f0fb 5c3d 0887 11bd
00000270: 412d f53b 7aa1 023d 43e0 b7bd 3920 c33c
00000280: f196 4b3e dcc5 16be 258e b9bc eac1 393c
00000290: 10ea e93c 3ff7 c23c 9824 a7bd 74c8 a63c
000002a0: becf 093e 500c a93d 4402 e33d 79fb 06be
000002b0: be9c 1fbe 05ca e23c 9fd6 b9bd 4b32 c33d
000002c0: 7750 7abd 3a12 c5bc 0e13 043e 315c 023e
000002d0: 91aa 4bbc f0cc 983d 5225 983d 0194 4dbc
000002e0: a7a8 f9bc 0b31 923d 8582 063e b4ed 2cbe
000002f0: 5431 c1bd e352 e13d 1f4a e7bd 1507 193e
00000300: b471 e43d a264 16bb 4f57 dcbd 6911 3cbe
00000310: 49f2 6fbd 3ca3 b1bb fa34 eebd a2a5 4fbe
00000320: c8b2 e53c 53b7 0e3e 0dd0 6d3c e471 7dbd
00000330: 363b abbd 48cb 13be f5b0 0e3a dfc3 2abe
00000340: 59bf 2b3e b0be 0dbe 31a4 aa3c d481 47bc
00000350: c6aa 08be d241 123c 6262 f9bb 891c 6d3c
00000360: b920 383e 6b31 c53d 268e 993d eff6 02be
00000370: 569e 44bd 2b2b 1b3e 8252 ca3d be5f cb3d
00000380: 380c 253e 3a1a 153e 1f07 15bc e486 1e3d
00000390: 5ff1 32be efd1 a2bd 64bd cebd 1ac9 ed3c
000003a0: 76fa bbbd 026d 023d d28a 00bd 97d8 263e
000003b0: 08ad 8c3d 99d8 cd3d f5c6 133e a44a aebd
000003c0: 6ab8 763d 790e a73d 3826 66bd 34fc 88bb
000003d0: 4b57 163c aa11 b0bd f755 a9bb c161 e13d
000003e0: 9623 e53c f907 003c ab8d 7a3c 66ab 213d
000003f0: 0492 8dbd 6c17 20be 615b 713d 3eda 2a3d

encoder.encoder.weight_hh_l0 f4 [128, 32]
0.008752641 -0.0094178375 -0.051413257 -0.019643793 -0.056094985 -0.2208295 -0.17757891 0.04180602
-0.13895874 -0.17469831 0.02379716 0.07211646 0.048182346 0.0797389 0.112488836 -0.25806162
0.03395319 -0.20331332 -0.16319552 0.1510015 0.088388346 0.1844601 -0.21974455 -0.042912968
0.097803906 0.12083023 -0.205525 -0.06559568 -0.12576441 -0.016266253 0.25654238 0.16929795
-0.14563799 0.098408096 -0.19375487 -0.10234122 -0.12318088 0.07146142 -0.21125285 -0.045821257
-0.033687342 0.05809021 -0.14693284 -0.15170437 -0.09507834 -0.1821941 0.014492215 -0.15006031
-0.14817187 0.17820248 -0.046335008 -0.031851795 0.111819334 0.13287753 -0.2059117 0.12414692
-0.011888987 0.2162174 0.10807324 -0.1748219 -0.16191852 0.11955927 0.06546425 0.024662256
0.042807564 -0.09544522 -0.2393099 -0.1595778 0.014034889 -0.07319394 -0.06944107 0.104557894
-0.01534727 -0.18772066 0.03412192 0.07979458 0.10200751 0.0058008996 0.0030469033 -0.092322096
0.052417826 -0.05079136 0.038116194 -0.07841911 -0.12563294 -0.12301278 -0.059980858 0.2173538
-0.0377996 -0.11957183 -0.15011331 -0.124692254 -0.18854012 -0.105798475 0.055779044 -0.079064965
0.10760958 0.10413356 -0.20290683 -0.008219121 0.037133705 0.07096041 -0.12423424 0.11515096
0.10893619 -0.0033294545 0.14498028 -0.038080573 -0.06351311 0.007706197 -0.10035507 -0.16086107
0.04875311 0.13945742 0.0041463263 0.2227071 0.08336911 -0.13251159 0.07709913 0.22701006
-0.21741498 0.17711279 -0.013197685 -0.2519942 -0.030251758 0.036461044 -0.18745314 -0.1260523
-0.15849102 -0.023837326 0.012861326 -0.0076100808 0.12518622 0.021700786 -0.009593793 -0.09451044
0.25171557 0.0830511 -0.17019004 -0.0020876809 0.02182154 -0.062747024 -0.1393258 0.12485079
-0.06001165 -0.14572375 -0.087335445 0.20825784 0.050960403 0.019657781 0.13372841 0.0821653
-0.19476123 0.046542697 -0.06619833 -0.08646628 0.01489389 0.13560571 -0.08783447 -0.050342064
-0.17469099 -0.11253103 -0.17885226 -0.0489446 0.06270076 -0.15523212 0.061968893 -0.024686692
0.08725497 -0.16719456 0.045811146 -0.12094527 -0.0578674 -0.057601567 -0.085655525 0.0074023595
0.07931844 -0.048309743 -0.11086942 0.11539511 0.13700406 -0.14520046 -0.18646447 0.24943143
0.02718733 0.14226452 -0.16342178 -0.15897562 -0.11494273 -0.008855163 -0.1815508 -0.10509302
0.1148769 -0.14770922 0.06639579 0.022386191 0.09753226 -0.13079664 -0.11443429 0.18574515
-0.12345438 0.121198244 0.051671732 -0.14765903 -0.055571508 0.13387756 0.14684224 -0.095653586
-0.045489304 -0.10885104 -0.16354415 0.23146588 -0.07862594 -0.16899803 -0.069991186 0.18046845
-0.06747417 -0.13817097 0.07083385 -0.12646908 -0.23292497 0.15600687 0.1540728 0.20018661
0.069739334 -0.2333024 0.04943369 0.114527434 -0.04601287 0.054251306 -0.080099955 -0.07018356
0.11744876 0.08635177 0.08271494 -0.12440931 0.050447986 0.14689755 0.06066274 -0.1295215
-0.1794841 -0.0959177 -0.0630879 -0.048889827 0.015582313 -0.12815706 0.027319888 0.110681884
-0.12401436 -0.01597912 -0.044967424 -0.061958868 0.12362642 0.1798191 0.0694125 -0.10473362
00000000: 3d67 0f3c 464d 1abc b596 52bd 05ec a0bc
00000010: dbc3 65bd 2121 62be 3fd7 35be ca3c 2b3d
00000020: 334b 0ebe 1de4 32be 43f2 c23c cbb1 933d
00000030: da5a 453d 264e a33d 8c60 e63d a720 84be
00000040: 8012 0b3d 5e31 50be ba1c 27be 23a0 1a3e
00000050: f304 b53d 1ce3 3c3e b704 61be 82c5 2fbd
00000060: 6a4d c83d d775 f73d 2575 52be 0757 86bd
00000070: 63c8 00be ce40 85bc 8659 833e 715c 2d3e
00000080: 2022 15be 2f8a c93d ad67 46be 4698 d1bd
00000090: 4246 fcbd 5d5a 923d ab52 58be 12af 3bbd
000000a0: bdfb 09bd 00f0 6d3d 9075 16be 6458 1bbe
000000b0: 6fb8 c2bd 1791 3abe c170 6d3c 69a9 19be
000000c0: 5eba 17be b67a 363e c7c9 3dbd 0777 02bd
000000d0: 8901 e53d 0c11 083e 84da 52be be40 fe3d
000000e0: 07ca 42bc 1868 5d3e 8155 dd3d 8304 33be
000000f0: f8cd 25be 7edb f43d 1f12 863d 8008 ca3c
00000100: fc56 2f3d c978 c3bd a80d 75be 5d68 23be
00000110: 97f2 653c b4e6 95bd 1f37 8ebd 7322 d63d
00000120: 1e73 7bbc d839 40be 6dc3 0b3d 576b a33d
00000130: 50e9 d03d 7915 be3b 8eae 473b 5e13 bdbd
00000140: 13b4 563d 9a0a 50bd ba1f 1c3d 339a a0bd
00000150: eca5 00be 20ee fbbd 7dae 75bd ff91 5e3e
00000160: c1d3 1abd 13e2 f4bd 4eb7 19be a75e ffbd
00000170: a910 41be dfac d8bd 9178 643d d0ec a1bd
00000180: 6962 dc3d fa43 d53d cfc6 4fbe 7ea9 06bc
00000190: 8319 183d b153 913d 856e febd 44d4 eb3d
000001a0: f019 df3d fa32 5abb b675 143e 60fa 1bbd
000001b0: 2913 82bd 4484 fc3b f586 cdbd c4b8 24be
000001c0: 57b1 473d edcd 0e3e e8dd 873b 540d 643e
000001d0: 6dbd aa3d 1eb1 07be 26e6 9d3d 5375 683e
000001e0: 08a2 5ebe 0e5d 353e 1a3b 58bc 6205 81be
000001f0: 89d2 f7bc 2d58 153d b7f3 3fbe db13 01be
00000200: 784b 22be 7f46 c3bc 50b8 523c fc5d f9bb
00000210: d130 003e d9c5 b13c 492f 1dbc b18e c1bd
00000220: dde0 803e b216 aa3d 4c46 2ebe 79d1 08bb
00000230: 16c3 b23c 8381 80bd 6cab 0ebe c5b1 ff3d
00000240: c7ce 75bd 9b38 15be eddc b2bd 8b41 553e
00000250: dbbb 503d 5b09 a13c 1af0 083e 4846 a83d
00000260: 7d6f 47be 8ea3 3e3d fd92 87bd 3c15 b1bd
00000270: 8105 743c 39dc 0a3e 8fe2 b3bd 7b33 4ebd
00000280: 32e2 32be ab76 e6bd 0c25 37be 227a 48bd
00000290: 4269 803d 2bf5 1ebe 18d3 7d3d bf3b cabc
000002a0: bcb2 b23d 0d35 2bbe 78a4 3b3d 27b2 f7bd
000002b0: 5e06 6dbd 9fef 6bbd 2a6c afbd 7e8f f23b
000002c0: b571 a23d 70e0 45bd 820f e3bd 4554 ec3d
000002d0: cb4a 0c3e 6eaf 14be 8bf0 3ebe f46a 7f3e
000002e0: f7b7 de3c caad 113e 0a58 27be 81ca 22be
000002f0: 1867 ebbd 3f15 11bc 74e8 39be 023b d7bd
00000300: 9544 eb3d 1641 17be 84fa 873d 3f63 b73c
00000310: febe c73d 8eef 05be 865c eabd fa33 3e3e
00000320: a6d5 fcbd c936 f83d bda5 533d ee33 17be
00000330: f39e 63bd 3317 093e d05d 163e 07e6 c3bd
00000340: fe52 3abd 4bed debd 1e78 27be 6405 6d3e
00000350: a306 a1bd d20d 2dbe 8a57 8fbd b9cc 383e
00000360: e62f 8abd b17c 0dbe 5611 913d 1c81 01be
00000370: e283 6ebe 44c0 1f3e 43c5 1d3e b8fd 4c3e
00000380: 7fd3 8e3d d3e6 6ebe fb7a 4a3d 5c8d ea3d
00000390: fe77 3cbd 9e36 5e3d 720b a4bd 66bc 8fbd
000003a0: fa88 f03d 32d9 b03d 7366 a93d 4fca febd
000003b0: 8ca2 4e3d 506c 163e 7e79 783d 49a1 04be
000003c0: aeca 37be 8070 c4bd 3b34 81bd b340 48bd
000003d0: f54c 7f3c 9b3b 03be f5cd df3c 2fad e23d
000003e0: 3efb fdbd a5e6 82bc c32f 38bd 95c8 7dbd
000003f0: d92f fd3d 8022 383e 2428 8e3d 957e d6bd

encoder.encoder.bias_ih_l0 f4 [128]
-0.10767943 0.16460262 0.23773316 -0.058843687 -0.06835583 0.050957132 -0.06267701 0.04247803
0.06031598 0.14253427 0.16536318 0.010460516 0.15585993 -0.121709764 0.073606566 -0.04726246
0.15174535 0.12503754 0.16764872 0.18035288 0.22173402 0.2019309 0.091504544 -0.081739716
0.053176552 0.009582372 0.20894174 0.1470958 -0.06948124 -0.076070584 0.059624888 0.18734746
0.15207689 0.14626983 -0.04080026 0.19912063 -0.0983878 0.050503325 0.15773572 0.039520413
-0.0083896415 -0.115297794 0.15628685 0.112397864 0.056785155 0.13163161 -0.090786174 -0.11213396
0.057651896 0.14555037 0.06469717 -0.025508286 -0.04521558 -0.16039291 -0.09276678 0.08080983
0.20790413 0.18127987 0.19423357 -0.095906146 0.25273857 0.10847626 -0.030309713 -0.19663402
0.010535002 0.029164268 -0.03355854 -0.21764001 0.11255982 0.09861055 0.07871706 0.0303867
0.11397589 0.024362504 0.0032577578 0.077564344 0.024315283 0.050380696 0.007355161 -0.18548028
-0.04359433 -0.03580393 -0.16232868 0.1784151 -0.058847584 -0.10307119 -0.19456382 0.1560649
-0.20921582 -0.018792821 -0.06581687 -0.1656635 -0.23967132 0.17128283 0.14619172 0.1587583
0.029688297 0.18243787 0.1408101 0.09195037 0.14801566 -0.01219756 -0.05035208 -0.1346672
0.14088887 0.18594861 -0.011801377 0.072381295 0.030979164 -0.14825872 0.16641493 0.10632858
0.065513276 -0.074054 0.10936047 -0.028925883 0.027910005 -0.015576048 0.2651738 -0.07151276
0.11547038 0.21203765 0.04829739 0.13304488 0.15423328 0.12091233 -0.05104357 0.19984984
00000000: 0887 dcbd 978d 283e 5270 733e 1406 71bd
00000010: 24fe 8bbd 6db8 503d ce5c 80bd 71fd 2d3d
00000020: e40d 773d 81f4 113e f754 293e 9662 2b3c
00000030: bf99 1f3e f842 f9bd 0abf 963d 4896 41bd
00000040: 2263 1b3e d709 003e 1bac 2b3e 6dae 383e
00000050: 3e0e 633e f9c6 4e3e bc66 bb3d 2767 a7bd
00000060: a8cf 593d 62ff 1c3c d3f4 553e 48a0 163e
00000070: 2e4c 8ebd e5ca 9bbd 3a39 743d 03d8 3f3e
00000080: 0bba 1b3e c2c7 153e 2c1e 27bd 47e6 4b3e
00000090: 8b7f c9bd 93dc 4e3d 7985 213e 28e0 213d
000000a0: b574 09bc 4021 ecbd a909 203e da30 e63d
000000b0: 8d97 683d 70ca 063e 1aee b9bd 7da6 e5bd
000000c0: 6524 6c3d 280b 153e f37f 843d c1f6 d0bc
000000d0: f933 39bd 0a3e 24be 82fc bdbd a07f a53d
000000e0: d2e4 543e 6ea1 393e 2ae5 463e 716a c4bd
000000f0: f366 813e cd28 de3d 134c f8bc 6e5a 49be
00000100: 009b 2c3c e7e9 ee3c ae74 09bd 06dd 5ebe
00000110: c385 e63d 54f4 c93d 6936 a13d 87ed f83c
00000120: 316c e93d e093 c73c 1b80 553b 0eda 9e3d
00000130: d830 c73c fd5b 4e3d 9003 f13b 8bee 3dbe
00000140: f88f 32bd 24a7 12bd 7d39 26be 73b2 363e
00000150: 2a0a 71bd fd16 d3bd bd3b 47be 7acf 1f3e
00000160: ac3c 56be 67f3 99bc ffca 86bd b1a3 29be
00000170: 666c 75be c464 2f3e 48b3 153e 8991 223e
00000180: df34 f33c fed0 3a3e 8630 103e 7a50 bc3d
00000190: 6b91 173e 46d8 47bc fc3d 4ebd 33e6 09be
000001a0: 2c45 103e 5069 3e3e 905a 41bc a53c 943d
000001b0: 04c8 fd3c 22d1 17be ad68 2a3e ccc2 d93d
000001c0: d32b 863d a0a9 97bd 62f8 df3d f9f5 ecbc
000001d0: 86a3 e43c ae32 7fbc dcc4 873e 4875 92bd
000001e0: bc7b ec3d 6620 593e 7cd3 453d eb3c 083e
000001f0: 54ef 1d3e e2a0 f73d 1013 51bd 70a5 4c3e

encoder.encoder.bias_hh_l0 f4 [128]
-0.07641978 -0.005053507 0.23846638 -0.06967287 -0.1113334 0.12692031 -0.08289345 0.16046262
0.022177994 0.04838772 0.23022734 0.09007667 0.15926704 0.09060261 -0.02705726 -0.1158061
0.18262888 -0.079176255 0.1560407 -0.030924456 0.0625372 0.03455868 0.24759375 0.061943818
0.025889289 0.06754036 0.103890546 -0.14054327 0.078950115 -0.0025020577 -0.06402048 0.15418506
0.10593081 0.14087611 -0.035955098 0.0033977726 0.020832995 0.12467702 -0.061042823 0.11864521
0.00024800183 -0.014849886 -0.065465264 -0.031014333 0.1155877 -0.11166628 0.07961394 -0.04106663
0.17037432 0.17780165 0.094216645 0.084283136 0.050198477 -0.009283245 0.1793259 -0.12089042
-0.027401159 0.09624626 0.14800799 0.17206486 0.027038282 -0.08447014 0.15567468 -0.1374811
-0.04307876 0.08760543 -0.19416566 0.08813581 0.01972885 -0.04652414 -0.13749504 0.13785553
-0.10548964 -0.1348888 -0.14956956 0.08887289 0.13912785 -0.13575011 0.13051534 0.053027395
-0.021765796 0.085796006 -0.16180764 0.2148381 -0.1677463 -0.07559996 -0.16790424 -0.078388646
-0.24964297 0.15461598 0.021758223 -0.120224856 -0.14601555 0.10442108 0.016624043 0.056755163
0.13087021 -0.053947017 0.19698848 0.13809043 0.11133477 -0.058307603 0.13346395 -0.14580774
0.17494197 -0.1375216 -0.029385412 0.056383632 0.028160607 -0.0013971005 0.11051889 -0.071876675
0.074184045 0.17411028 -0.07716 0.16721761 0.06467879 -0.08665901 0.2097146 0.12753187
-0.039147507 0.2674338 0.21774593 0.060415458 0.2272716 0.0968125 0.14129713 0.2044971
00000000: f981 9cbd e497 a5bb 8830 743e a6b0 8ebd
00000010: c402 e4bd 66f7 013e 0bc4 a9bd 5050 243e
00000020: a0ae b53c 3432 463d b7c0 6b3e 1e7a b83d
00000030: e616 233e dc8d b93d 30a7 ddbc c02b edbd
00000040: 1103 3b3e 2927 a2bd 22c9 1f3e 4955 fdbc
00000050: 8113 803d 678d 0d3d 3789 7d3e cdb8 7d3d
00000060: c615 d43c 9a52 8a3d 91c4 d43d 93ea 0fbe
00000070: 99b0 a13d 90f9 23bb 2b1d 83bd b0e2 1d3e
00000080: 41f2 d83d d441 103e a745 13bd 2aad 5e3b
00000090: f5a9 aa3c aa56 ff3d 0a08 7abd 43fc f23d
000000a0: 3e06 8239 f04c 73bc a712 86bd c511 febc
000000b0: 3eb9 ec3d 4ab1 e4bd a20c a33d 7c35 28bd
000000c0: 9b76 2e3e a311 363e a8f4 c03d a39c ac3d
000000d0: eb9c 4d3d c018 18bc 35a1 373e 6695 f7bd
000000e0: 6578 e0bc c21c c53d 688f 173e c531 303e
000000f0: 637f dd3c aefe acbd 2f69 1f3e d8c7 0cbe
00000100: 5b73 30bd 7a6a b33d 5dd3 46be 8c80 b43d
00000110: 669e a13c 1990 3ebd 80cb 0cbe 002a 0d3e
00000120: f40a d8bd 4a20 0abe c328 19be fd02 b63d
00000130: 8877 0e3e 1402 0bbe d0a5 053e 4133 593d
00000140: 2f4e b2bc d1b5 af3d e7b0 25be 85fe 5b3e
00000150: b0c5 2bbe 27d4 9abd 17ef 2bbe 3a8a a0bd
00000160: 68a2 7fbe a753 1e3e 4d3e b23c 7338 f6bd
00000170: 1a85 15be b8da d53d 252f 883c 1a78 683d
00000180: d702 063e 8cf7 5cbd 59b7 493e 9467 0d3e
00000190: 7c03 e43d f4d3 6ebd c6aa 083e a04e 15be
000001a0: fd23 333e 76d2 0cbe adb9 f0bc 86f2 663d
000001b0: 13b1 e63c ea1e b7ba ba57 e23d 1434 93bd
000001c0: ceed 973d f749 323e 1006 9ebd 183b 2b3e
000001d0: 5076 843d 477a b1bd 6dbf 563e b797 023e
000001e0: 2359 20bd 15ed 883e caf8 5e3e 3376 773d
000001f0: e3b9 683e a245 c63d 32b0 103e b067 513e

encoder.spatial_embedding.weight f4 [16, 2]
-0.7519466 -0.50869477 -0.7908802 0.6060294 1.0347052 0.7548284 -0.009309903 -0.59963334
1.845634 0.6715678 0.69729966 0.8504701 -0.7939318 0.6852144 0.48761174 -0.40960097
0.47629192 -1.1258672 0.309909 0.19656366 -0.9246199 0.18854053 -1.6995647 0.5331752
-1.0973365 0.5039867 1.6022733 1.4878372 -1.1913483 -0.4424883 -1.3989059 -0.8704035
00000000: 937f 40bf d239 02bf 2077 4abf be24 1b3f
00000010: 3871 843f 6f3c 413f 9088 18bc 9281 19bf
00000020: bc3d ec3f deeb 2b3f 3b82 323f 69b8 593f
00000030: 1d3f 4bbf 366a 2f3f 3fa8 f93e 38b7 d1be
00000040: 89dc f33e 6b1c 90bf 64ac 9e3e fc47 493e
00000050: e4b3 6cbf c510 413e 568b d9bf 2b7e 083f
00000060: 8675 8cbf 4605 013f 4b17 cd3f 7371 be3f
00000070: 1a7e 98bf d48d e2be 590f b3bf c4d2 5ebf

encoder.spatial_embedding.bias f4 [16]
0.4764478 -0.15616015 -0.121896714 -0.08129811 -0.036244612 -0.6083975 0.51503485 -0.32395494
0.65184695 -0.36690113 -0.13649853 -0.08778448 -0.020184392 0.34097543 -0.08947372 0.39644596
00000000: f7f0 f33e 72e8 1fbe fca4 f9bd a07f a6bd
00000010: 3b75 14bd f0bf 1bbf 53d9 033f 6cdd a5be
00000020: 71df 263f 77da bbbe 45c6 0bbe 59c8 b3bd
00000030: bd59 a5bc 5594 ae3e ff3d b7bd f7fa ca3e

decoder.decoder.weight_ih_l0 f4 [128, 16]
0.15592544 -0.1769334 0.06130642 0.1471982 -0.09010768 0.081337035 0.10158069 0.021411678
-0.0145506915 0.17588641 0.14683884 -0.14112332 0.041487724 -0.120358974 -0.13156015 -0.12077619
0.080052964 -0.035468753 -0.08526203 0.15610225 -0.05019722 0.1146577 0.17769164 -0.1359624
0.11903434 -0.12728024 0.10979018 0.008082146 -0.11306396 -0.023908658 0.15849765 -0.070353284
0.10365871 0.017892791 -0.10672144 -0.026001774 0.024510136 -0.0131213 -0.05636141 -0.1191087
0.07805362 0.014053527 -0.08073856 -0.08865058 0.15681635 -0.09896321 -0.019774329 0.039554834
0.0032514741 -0.13625476 0.123674326 0.04243104 0.038450155 0.021764506 -0.13485822 -0.05206092
-0.10183521 -0.06761648 0.031692788 -0.043151107 -0.15880495 0.08349987 -0.15402053 -0.14769506
0.21281518 -0.0040355944 -0.012440488 0.14606822 -0.0016570067 0.100624576 -0.10963026 0.19849516
-0.090015225 -0.025037268 -0.07313823 0.08329088 -0.19223127 0.20763251 0.116063096 0.15072018
-0.13524967 -0.05699255 0.040213134 0.039367497 0.051416077 -0.12604621 0.16983263 -0.07381033
0.020763725 -0.060201414 0.021802653 -0.014849807 0.09621083 0.015652448 0.027911436 -0.103424706
-0.15386659 -0.086947076 -0.025600726 -0.07390831 0.04172803 0.019160355 -0.0750011 0.052368317
0.035897054 0.121522635 -0.1517266 -0.13410416 0.053305294 0.20862035 -0.17520867 -0.049172394
0.085244685 -0.04321431 -0.05093977 -0.027721873 0.15728815 0.16294807 -0.030079467 -0.057085782
-0.056602094 0.15877756 -0.036388993 0.18181713 0.06479527 0.109428264 -0.10197532 -0.16255291
-0.12222409 -0.027080651 0.091384865 -0.0852822 -0.15052979 0.052013572 0.060574815 0.07954826
-0.09457986 0.07857864 0.008976242 -0.14382255 -0.08336228 0.18757796 0.16961788 -0.0073176473
0.1496094 -0.020987906 -0.088437244 0.07332657 -0.09205501 0.20512538 -0.10146438 0.07504134
-0.18953612 -0.05113801 -0.06434998 0.02054402 0.097509824 -0.031969067 0.026713492 0.1480858
0.10457615 0.035631564 0.13809177 0.14852652 -0.06151003 -0.04927947 -0.10404591 -0.09128607
-0.06418192 0.16252287 -0.09513597 0.15618925 0.05207115 -0.1628824 0.038507536 0.10043457
0.086783275 0.18973756 0.012557375 0.09931365 0.09454019 -0.16039383 0.07087902 -0.04441679
-0.14620557 -0.12485855 0.016930802 -0.18669923 -0.070362024 0.07024842 -0.0052921204 0.100741535
0.068903774 0.10931509 -0.16843736 0.022207918 0.148387 0.0020642031 0.12447509 0.060509335
0.108194426 0.032068763 0.077440135 -0.12588142 -0.16412893 -0.07845 0.09422005 -0.100255586
0.20398226 -0.03883901 -0.11040094 0.122755684 0.11881291 0.13948089 -0.018271033 -0.035969008
0.05357593 0.12541014 -0.070281155 0.1329665 0.045557998 -0.18829489 0.13888256 0.19371109
-0.04233714 -0.07846199 -0.052247867 0.030526461 0.043647766 -0.18930528 0.14065577 -0.19547114
0.10618711 0.16981862 -0.12093744 -0.19445698 0.08530886 0.09099117 0.07388271 -0.06818261
0.1002741 0.073605865 0.05394401 -0.10557926 -0.065365694 0.043573476 0.0029630514 -0.048139744
-0.028662581 0.0047379895 -0.14165597 0.023190407 -0.007118085 -0.09823347 -0.073249176 0.1184898
00000000: ebaa 1f3e 072e 35be 711c 7b3d 20bb 163e
00000010: 608a b8bd 0894 a63d 8909 d03d 8b67 af3c
00000020: 0666 6ebc 911b 343e ec5c 163e a282 10be
00000030: 08ef 293d c47e f6bd b4b7 06be 8259 f7bd
00000040: cff2 a33d af47 11bd dc9d aebd 45d9 1f3e
00000050: 9a9b 4dbd a8d1 ea3d ccf4 353e ba39 0bbe
00000060: 47c8 f33d c055 02be add9 e03d fa6a 043c
00000070: 148e e7bd 17dc c3bc 354d 223e 6215 90bd
00000080: 054b d43d e793 923c c590 dabd ac01 d5bc
00000090: 7bc9 c83c b9fa 56bc 39db 66bd 43ef f3bd
000000a0: 94da 9f3d c440 663c 425a a5bd 6f8e b5bd
000000b0: 7794 203e 39ad cabd c6fd a1bc 4004 223d
000000c0: af16 553b 5e86 0bbe f748 fd3d 2ccc 2d3d
000000d0: e97d 1d3d 7a4b b23c 4618 0abe d53d 55bd
000000e0: fb8e d0bd 827a 8abd 4cd0 013d 37bf 30bd
000000f0: c49d 22be fb01 ab3d 8fb7 1dbe 603d 17be
00000100: 39ec 593e 053d 84bb 30d3 4bbc e892 153e
00000110: eb2f d9ba 4214 ce3d d485 e0bd 5142 4b3e
00000120: e759 b8bd f51a cdbc 7fc9 95bd 6994 aa3d
00000130: 46d8 44be 9e9d 543e 7db2 ed3d 6456 1a3e
00000140: e47e 0abe 0571 69bd 87b6 243d d03f 213d
00000150: aa99 523d 4212 01be 9be8 2d3e df29 97bd
00000160: b018 aa3c c295 76bd 7a9b b23c 9b4c 73bc
00000170: 2f0a c53d 9039 803c 86a6 e43c 55d0 d3bd
00000180: 348f 1dbe 4f11 b2bd 9db8 d1bc 3d5d 97bd
00000190: 03eb 2a3d 2df6 9c3c 2d9a 99bd 2980 563d
000001a0: ca08 133d dce0 f83d 385e 1bbe 9a52 09be
000001b0: a756 5a3d 93a0 553e e769 33be fe68 49bd
000001c0: c494 ae3d 7d01 31bd 38a6 50bd fb18 e3bc
000001d0: 2510 213e dcdb 263e 3769 f6bc c8d2 69bd
000001e0: 99d7 67bd 9696 223e a00c 15bd 452e 3a3e
000001f0: 62b3 843d ed1b e03d 70d8 d0bd 4574 26be
00000200: a050 fabd 3ed8 ddbc fd27 bb3d 6fa8 aebd
00000210: 7b24 1abe 2f0c 553d 4c1d 783d 33ea a23d
00000220: 16b3 c1bd d7ed a03d 1611 133c 3846 13be
00000230: d8b9 aabd 7014 403e 4fb0 2d3e e0c8 efbb
00000240: 3533 193e d4ee abbc 961e b5bd 3e2c 963d
00000250: 5687 bcbd 630c 523e 8fcc cfbd 46af 993d
00000260: c215 42be 1776 51bd ecc9 83bd ef4b a83c
00000270: 3bb3 c73d fff1 02bd 41d6 da3c cea3 173e
00000280: 052c d63d 67f2 113d ee67 0d3e 5617 183e
00000290: f1f1 7bbd 45d9 49bd 0616 d5bd 31f4 babd
000002a0: cf71 83bd 656c 263e a6d6 c2bd 13f0 1f3e
000002b0: 8f48 553d a5ca 26be 14ba 1d3d a4b0 cd3d
000002c0: 6ebb b13d 904a 423e 73bd 4d3c f464 cb3d
000002d0: 4a9e c13d 483e 24be 0529 913d 61ee 35bd
000002e0: eab6 15be d7b5 ffbd 77b2 8a3c 152e 3fbe
000002f0: f719 90bd 67de 8f3d 8669 adbb 9451 ce3d
00000300: 6c1d 8d3d 97e0 df3d d87a 2cbe 61ed b53c
00000310: c3f2 173e 9547 073b ccec fe3d a3d8 773d
00000320: 0a95 dd3d 895a 033d ef98 9e3d 0fe7 00be
00000330: 6a11 28be 65aa a0bd 71f6 c03d cd52 cdbd
00000340: bae0 503e a715 1fbd e319 e2bd 5567 fb3d
00000350: 2f54 f33d 14d4 0e3e 22ad 95bc 3d54 13bd
00000360: 6f72 5b3d 846b 003e 91ef 8fbd 5f28 083e
00000370: 069b 3a3d 60d0 40be 3b37 0e3e 335c 463e
00000380: b569 2dbd aeb0 a0bd dc01 56bd a112 fa3c
00000390: 00c8 323d 3ed9 41be 1108 103e 9629 48be
000003a0: a178 d93d efe4 2d3e 0cae f7bd bb1f 47be
000003b0: 69b6 ae3d 9459 ba3d d14f 973d 53a3 8bbd
000003c0: 825c cd3d acbe 963d 65f4 5c3d f039 d8bd
000003d0: 73de 85bd 1a7a 323d c12f 423b 2e2e 45bd
000003e0: cacd eabc 2341 9b3b 430e 11be cff9 bd3c
000003f0: d33e e9bb a12e c9bd aa03 96bd c8aa f23d

decoder.decoder.weight_hh_l0 f4 [128, 32]
-0.17177618 -0.014050614 -0.13774031 0.03414211 -0.014410303 0.058932226 -0.13028303 -0.17664668
-0.13753527 0.008812237 0.15573978 -0.14656955 0.11808356 0.05820671 0.13211296 0.113196
-0.14817832 0.008009552 0.15077883 0.043573834 -0.06957772 0.016425561 0.17074883 -0.10129752
-0.10430936 -0.15095645 -0.20309082 0.15238996 0.008342312 0.045130882 0.1033522 0.037939444
-0.05491525 0.1389459 0.13741075 0.17433792 0.13918321 -0.1089849 -0.04270745 -0.1390053
-0.018015536 0.17183603 0.16598651 0.21854116 0.12069864 -0.020009343 0.10109603 -0.009641071
0.09561981 0.0062642954 0.16266537 0.017136974 -0.12685737 -0.12175908 -0.014748653 0.18485223
0.0072381306 -0.032526992 0.116071194 -0.12696214 -0.10452998 0.04914056 0.17292354 0.024708722
-0.059369095 0.18935296 -0.12164773 -0.14737184 -0.0037240407 0.04155078 -0.13879079 -0.1629047
0.17447841 -0.032706816 0.13937156 -0.07783242 -0.064046815 0.027927434 0.18975425 0.12554277
-0.023062382 -0.035276007 0.025426514 0.016523566 -0.15636723 0.17593017 -0.042122185 -0.16268769
-0.04627287 0.13005324 0.17841631 -0.019368988 0.14532655 -0.12264087 -0.13699023 0.10145929
0.0141304415 -0.0816645 -0.082204655 0.055253297 -0.16364719 0.025266405 -0.21762452 -0.21901211
-0.027009195 0.040189184 0.08649966 -0.09336363 -0.05025758 -0.18273394 0.14348689 -0.16818182
0.14715531 0.07499238 0.028416406 0.0070834733 -0.071109824 -0.08648388 -0.060851283 0.04555791
0.10397124 -0.14874755 -0.14567366 0.19527866 0.17134821 0.0012547171 0.07110223 -0.1748787
-0.027872603 -0.026974618 0.24894843 0.014729556 -0.2302053 0.06951767 -0.09597794 -0.09246853
-0.015218761 0.22136717 0.075675555 -0.03386818 -0.13027197 -0.12542722 -0.064562514 -0.090109676
0.16869728 0.21379289 -0.20600913 0.0182027 0.20268594 -0.008884785 -0.108732976 0.16030641
-0.0058184746 -0.029123193 -0.021223346 0.09725338 0.13173257 0.122719236 0.12913862 -0.25695693
-0.064662635 -0.09951205 0.15071514 0.12698826 -0.050959166 -0.02825091 0.1730001 0.19443461
-0.042857833 -0.011714671 0.05539708 -0.054921765 0.17070197 0.12232958 -0.049659204 0.1669692
0.021446574 0.19658661 0.022306547 -0.015697675 0.07399934 0.14975765 0.17176989 -0.1382637
-0.027731976 -0.114515804 -0.22717857 -0.022868035 -0.09978489 0.0012320495 0.048123542 0.16445862
0.110045284 -0.2081829 0.087091506 0.053684004 -0.054867305 -0.011355795 -0.10890384 -0.115156315
-0.18498315 0.13909024 -0.24083845 0.15279725 -0.08159525 -0.0836192 -0.14437862 -0.016616158
0.039523087 0.10850322 0.031370733 0.18281199 -0.06197021 -0.0052073733 0.060749352 0.13697748
0.16666953 0.20982991 0.13939255 0.10223857 -0.20055337 0.15979718 -0.14346339 -0.080976464
-0.11168562 -0.02051443 -0.040124696 -0.10982499 0.046713427 0.10946642 0.059363235 -0.010320252
-0.021322574 -0.09491609 -0.0006811783 -0.08921958 -0.12513873 0.024466068 0.03199482 0.017356867
-0.16423447 0.07812244 -0.011806402 -0.004811043 -0.063511655 -0.07392599 0.22154997 -0.20726418
0.05456948 0.13278346 0.12128371 0.12744294 -0.022552015 0.08111089 -0.052970245 0.15517087
00000000: 18e6 2fbe 8c34 66bc cc0b 0dbe 99d8 0b3d
00000010: 3119 6cbc eb62 713d ea68 05be dee2 34be
00000020: 0cd6 0cbe 3361 103c 407a 1f3e 5416 16be
00000030: cbd5 f13d 296a 6e3d 9f48 073e 4ed3 e73d
00000040: 0fbc 17be 7f3a 033c c465 1a3e 7a7a 323d
00000050: c37e 8ebd e68e 863c c8d8 2e3e 1375 cfbd
00000060: 25a0 d5bd 5494 1abe 0af7 4fbe 1d0c 1c3e
00000070: 31ae 083c 29db 383d 51aa d33d 6466 1b3d
00000080: d0ee 60bd d647 0e3e 67b5 0c3e a485 323e
00000090: 0b86 0e3e 7a33 dfbd 02ee 2ebd 6857 0ebe
000000a0: 5195 93bc c9f5 2f3e 5ef8 293e 41c9 5f3e
000000b0: d930 f73d a2ea a3bc 6f0b cf3d 95f5 1dbc
000000c0: 52d4 c33d b844 cd3b c091 263e d762 8c3c
000000d0: e6e6 01be d35c f9bd 56a4 71bc e749 3d3e
000000e0: d72d ed3b 063b 05bd bcb6 ed3d 5d02 02be
000000f0: d013 d6bd 9d47 493d de12 313e f269 ca3c
00000100: 022d 73bd bee5 413e 7222 f9bd a5e8 16be
00000110: 090f 74bb 2731 2a3d 2c1f 0ebe 7dd0 26be
00000120: 78aa 323e 95f7 05bd 6bb7 0e3e 9b66 9fbd
00000130: fa2a 83bd 13c8 e43c f04e 423e 498e 003e
00000140: 52ed bcbc 937d 10bd 444b d03c 6e5c 873c
00000150: bb1e 20be 0a27 343e 5088 2cbd 9a97 26be
00000160: 9f88 3dbd ad2c 053e c4b2 363e b6ab 9ebc
00000170: 7cd0 143e 232b fbbd 2b47 0cbe e3c9 cf3d
00000180: 5e83 673c b83f a7bd ea5a a8bd 4851 623d
00000190: 2193 27be 7efb ce3c f6d8 5ebe b644 60be
000001a0: 6342 ddbc 6a9d 243d bc26 b13d 6e35 bfbd
000001b0: e4da 4dbd 9b1e 3bbe 3aee 123e db37 2cbe
000001c0: e2af 163e 9b95 993d 86c9 e83c 7b1c e83b
000001d0: 07a2 91bd 761e b1bd 323f 79bd ee9a 3a3d
000001e0: e0ee d43d 4751 18be 7a2b 15be 21f7 473e
000001f0: e875 2f3e 5275 a43a 0c9e 913d 6713 33be
00000200: 1655 e4bc e0f9 dcbc 56ec 7e3e 3c54 713c
00000210: f0ba 6bbe 485f 8e3d 1590 c4bd 2460 bdbd
00000220: 1c58 79bc 13ae 623e c9fb 9a3d 5cb9 0abd
00000230: 0466 05be fe6f 00be 5a39 84bd 6c8b b8bd
00000240: fbbe 2c3e 86ec 5a3e 0ff4 52be d41d 953c
00000250: e78c 4f3e 7d91 11bc 65af debd 5d27 243e
00000260: e7a8 bebb c393 eebc 95dc adbc c82c c73d
00000270: e7e4 063e 3954 fb3d ea3c 043e dc8f 83be
00000280: d86d 84bd f9cc cbbd 1255 1a3e 3609 023e
00000290: 8fba 50bd 746e e7bc f026 313e de19 473e
000002a0: b28b 2fbd e4ee 3fbc 0ce8 623d a5f5 60bd
000002b0: 7fcc 2e3e ee87 fa3d 7367 4bbd f9f9 2a3e
000002c0: bab0 af3c 004e 493e 38bc b63c 6998 80bc
000002d0: f78c 973d 125a 193e 72e4 2f3e 0095 0dbe
000002e0: 2b2e e3bc 4387 eabd 80a1 68be bf55 bbbc
000002f0: 055c ccbd b97c a13a 311d 453d d767 283e
00000300: 6c5f e13d e62d 55be 085d b23d c2e3 5b3d
00000310: 8abc 60bd a80d 3abc fa08 dfbd 13d7 ebbd
00000320: 396c 3dbe ac6d 0e3e 5b9e 76be e276 1c3e
00000330: 691b a7bd 8b40 abbd fdd7 13be 9c1e 88bc
00000340: f6e2 213d f036 de3d 997e 003d 1133 3b3e
00000350: 7ad4 7dbd 9da2 aabb 50d4 783d d343 0c3e
00000360: 6bab 2a3e a7dd 563e ecbc 0e3e 7562 d13d
00000370: dd5d 4dbe dfa1 233e 11e8 12be fdd6 a5bd
00000380: 6ebb e4bd e10d a8bc cb59 24bd edeb e0bd
00000390: 9456 3f3d ee2f e03d dd26 733d 4616 29bc
000003a0: aeac aebc 5e63 c2bd 1a91 32ba c1b8 b6bd
000003b0: 5e24 00be 106d c83c 000d 033d fd2f 8e3c
000003c0: 152d 28be a8fe 9f3d a46f 41bc f4a5 9dbb
000003d0: 6612 82bd 8266 97bd ffdd 623e 103d 54be
000003e0: 3f84 5f3d 63f8 073e 9863 f83d 6780 023e
000003f0: 01bf b8bc 771d a63d 54f7 58bd 1de5 1e3e

decoder.decoder.bias_ih_l0 f4 [128]
0.025321651 -0.13750644 -0.07817734 0.11406941 0.07713085 0.034951255 0.14866944 -0.07882072
0.01299587 -0.031031003 0.021751812 0.12115286 0.14045772 0.08889916 0.06362379 -0.1325017
0.11312803 -0.17412867 0.09487833 0.056912445 -0.1807233 0.019999923 -0.01585669 0.17035499
0.071769714 0.19588715 0.15849896 -0.14975873 -0.057982445 0.16367318 -0.009894722 -0.12389398
-0.096398555 0.14122273 0.16336343 0.19102453 0.041827932 0.0047910265 -0.122442774 -0.17442095
0.0044765403 -0.06537528 0.103500575 0.11402078 0.17246641 0.11047692 0.14719416 -0.16814713
0.11644861 -0.053980686 0.08709991 -0.020407235 -0.13909794 0.20278098 0.02901097 -0.076719575
-0.12696122 -0.11101807 0.18586695 -0.0009467267 -0.060978238 0.18887322 0.19820574 -0.040848397
-0.118038744 -0.03428316 -0.14970514 0.15155034 0.12348755 0.17002691 -0.15377638 -0.12899269
-0.13643138 -0.10272908 -0.08651169 0.050627746 -0.016446045 -0.019823395 0.0316131 0.1495145
0.106710486 -0.007562973 -0.118585005 0.14663447 0.15116748 0.011593789 0.045923736 0.15245385
-0.10024044 -0.14482963 -0.11940422 -0.077390686 -0.12735727 -0.13153023 -0.098112 0.10636526
0.07652995 0.07519523 -0.10038266 0.1362206 0.04235707 -0.08070876 0.02997956 -0.00776497
0.14825118 0.13504137 -0.058373354 0.059501458 0.079270884 -0.01873489 0.061858173 0.1162139
-0.14621791 -0.030078871 0.09706118 0.14878507 -0.09836181 0.13260897 0.15113312 0.14313835
-0.13372903 -0.110740066 0.13854373 -0.092754126 0.007055015 0.13929832 -0.088928714 0.031742726
00000000: 5a6f cf3c 7dce 0cbe 711b a0bd 399d e93d
00000010: c7f6 9d3d 0c29 0f3d cd3c 183e c26c a1bd
00000020: a1ec 543c bb34 febc db30 b23c fe1e f83d
00000030: 26d4 0f3e c310 b63d 314d 823d 87ae 07be
00000040: abaf e73d c94e 32be 924f c23d 061d 693d
00000050: 870f 39be e1d6 a33c e4e5 81bc 8a71 2e3e
00000060: 00fc 923d a496 483e 8d4d 223e 5a5a 19be
00000070: 007f 6dbd f199 273e 791d 22bc 21bc fdbd
00000080: 9b6c c5bd b19c 103e be48 273e ef9b 433e
00000090: c453 2b3d 0bfe 9c3b 47c3 fabd 689b 32be
000000a0: f1af 923b 7ae3 85bd 1cf8 d33d ba83 e93d
000000b0: 099b 303e b941 e23d 11ba 163e c32e 2cbe
000000c0: 9c7c ee3d da1a 5dbd 7061 b23d 132d a7bc
000000d0: b16f 0ebe d1a5 4f3e 6aa8 ed3c 271f 9dbd
000000e0: 1f02 02be 715d e3bd e853 3e3e c12d 78ba
000000f0: 51c4 79bd fb67 413e 72f6 4a3e a650 27bd
00000100: 4cbe f1bd 806c 0cbd 4e4c 19be 0330 1b3e
00000110: 0ae7 fc3d 891b 2e3e 8e77 1dbe a916 04be
00000120: abb4 0bbe a063 d2bd 0a2d b1bd 0a5f 4f3d
00000130: dbb9 86bc ac64 a2bc bd7c 013d 541a 193e
00000140: 078b da3d d1d2 f7bb b2dc f2bd 5927 163e
00000150: a6cb 1a3e e0f3 3d3c 871a 3c3d dd1c 1c3e
00000160: dc4a cdbd 384e 14be 338a f4bd 027f 9ebd
00000170: f269 02be dcaf 06be f2ee c8bd 08d6 d93d
00000180: bcbb 9c3d f5ff 993d 6d95 cdbd 6a7d 0b3e
00000190: 9b7e 2d3d a24a a5bd b297 f53c 4a71 febb
000001a0: 28cf 173e 4948 0a3e e618 6fbd cdb7 733d
000001b0: c658 a23d e979 99bc ff5e 7d3d 8e01 ee3d
000001c0: 26ba 15be f767 f6bc 03c8 c63d 1d5b 183e
000001d0: eb71 c9bd a5ca 073e a4c2 1a3e dc92 123e
000001e0: 43f0 08be b0cb e2bd 68de 0d3e e0f5 bdbd
000001f0: c12d e73b 38a4 0e3e 4220 b6bd a904 023d

decoder.decoder.bias_hh_l0 f4 [128]
-0.14443177 0.0993884 -0.17603229 0.15800382 -0.10317924 0.116185576 0.12823948 0.1364015
0.033211045 0.16628511 0.100402385 -0.13332161 0.08709372 0.11157443 -0.08320884 0.074378505
0.032209937 0.098761015 0.0052415086 0.13896702 0.024275659 0.10398465 -0.070605084 -0.029784314
-0.032405835 -0.07703917 -0.15575212 0.09076974 -0.13046196 -0.005590696 0.17300768 0.11643737
0.010969221 -0.11124673 -0.057943616 -0.13844058 -0.10474085 0.1689448 0.16613044 -0.11280828
-0.051073495 0.0045759953 0.02572829 -0.061609186 0.079569615 0.16483574 0.09628266 -0.095250286
-0.14506021 0.025269642 0.13894486 -0.1652758 -0.14632505 -0.141238 -0.076801196 0.1526469
-0.018260436 -0.03782397 0.0106111 -0.071225606 -0.051957157 -0.047212146 0.07135966 -0.07324131
0.14741385 -0.12911248 0.093832836 0.07415838 -0.1091022 -0.09014761 -0.17320985 -0.13781057
0.116195254 0.039209507 -0.05934947 0.07502869 0.045215577 -0.1037838 -0.09874949 -0.03308269
0.15128084 -0.050823748 -0.08541381 -0.080655 -0.11632393 0.062346023 0.051558174 -0.056232534
0.1404739 0.06239234 0.07724578 0.15338787 0.16460505 0.099752285 -0.10563797 -0.074080095
-0.15340897 -0.07190522 0.008652107 0.19420874 -0.037376698 0.05212648 0.1843534 0.11739405
-0.07542989 0.209331 0.014484913 0.08539388 0.13952272 0.050712362 -0.032020338 0.07466742
0.1537957 -0.100720346 0.1590816 0.120261565 -0.13073246 0.12708001 0.027879892 -0.1005584
0.19071253 -0.110397615 0.007291572 0.022522693 0.059563234 0.141488 -0.035117593 -0.15867229
00000000: ece5 13be 258c cb3d cf41 34be c1cb 213e
00000010: a34f d3bd b4f2 ed3d 3651 033e d6ac 0b3e
00000020: 4e08 083d a546 2a3e c49f cd3d 7685 08be
00000030: 315e b23d 2281 e43d 6569 aabd c253 983d
00000040: 91ee 033d 3743 ca3d f6c0 ab3b 5f4d 0e3e
00000050: bfdd c63c e7f5 d43d 6699 90bd 3cfe f3bc
00000060: fbbb 04bd b6c6 9dbd 7c7d 1fbe 7ce5 b93d
00000070: d297 05be 2832 b7bb ed28 313e b776 ee3d
00000080: 3fb8 333c 53d5 e3bd 4956 6dbd 5ec3 0dbe
00000090: 5f82 d6bd deff 2c3e 191e 2a3e 0708 e7bd
000000a0: 7132 51bd 3bf2 953b 23c4 d23c ea59 7cbd
000000b0: 65f5 a23d b3ca 283e d82f c53d 9512 c3bd
000000c0: aa8a 14be 4802 cf3c 9047 0e3e 0f3e 29be
000000d0: 3cd6 15be b2a0 10be f249 9dbd 784f 1c3e
000000e0: e996 95bc 4fed 1abd 2eda 2d3c bbde 91bd
000000f0: 07d1 54bd 8661 41bd 0325 923d 8aff 95bd
00000100: a8f3 163e 1036 04be 6e2b c03d 59e0 973d
00000110: f970 dfbd 4f9f b8bd ec5d 31be 371e 0dbe
00000120: c7f7 ed3d 269a 203d 6e18 73bd a4a8 993d
00000130: f833 393d 9a8c d4bd 2c3d cabd b781 07bd
00000140: 5de9 1a3e 902c 50bd 70ed aebd 732e a5bd
00000150: 3e3b eebd 8b5e 7f3d aa2e 533d 1654 66bd
00000160: 64d8 0f3e 1c8f 7f3d 0933 9e3d b611 1d3e
00000170: 3a8e 283e ed4a cc3d b858 d8bd 4eb7 97bd
00000180: 3e17 1dbe 0b43 93bd 91c1 0d3c a8de 463e
00000190: 4f18 19bd 9382 553d 23c7 3c3e 4b6c f03d
000001a0: fc7a 9abd de5a 563e 2152 6d3c fde2 ae3d
000001b0: 0bdf 0e3e c4b7 4f3d c227 03bd 3beb 983d
000001c0: 9f7c 1d3e 7846 cebd 49e6 223e b24b f63d
000001d0: bbde 05be 4321 023e 5f64 e43c 90f1 cdbd
000001e0: 254a 433e 2518 e2bd 24ee ee3b 8381 b83c
000001f0: 94f8 733d 3be2 103e 77d7 0fbd fd7a 22be

decoder.spatial_embedding.weight f4 [16, 2]
0.6926066 -0.63633084 -1.0861726 -0.016919112 -0.6545048 -1.1177112 1.1895658 -1.0241287
0.15934804 2.6552715 0.7397176 0.09991985 -1.0258185 -0.04361786 1.2987164 -1.1342006
-0.3134106 -0.5536954 0.09901122 0.5505043 -0.21994984 -0.68199635 0.6253413 -0.53349394
0.50915766 3.2834687 -0.8215595 -1.568348 0.06578026 0.2651637 0.022780651 0.061324917
00000000: ab4e 313f 94e6 22bf b407 8bbf f399 8abc
00000010: a08d 27bf 2911 8fbf b143 983f a616 83bf
00000020: 222c 233e f8ef 2940 225e 3d3f c7a2 cc3d
00000030: 054e 83bf a4a8 32bd 573c a63f 7c2d 91bf
00000040: 5b77 a0be fbbe 0dbf 65c6 ca3d daed 0c3f
00000050: 883a 61be 5097 2ebf 5e16 203f 0f93 08bf
00000060: 2858 023f 5a24 5240 b951 52bf a1bf c8bf
00000070: cdb7 863d 89c3 873e 7d9e ba3c d62f 7b3d

decoder.spatial_embedding.bias f4 [16]
0.47259262 -0.21862952 -0.5046091 0.012411618 0.4495029 0.13458876 0.5112893 -0.38437247
-0.05754433 -0.47333315 0.5769504 0.3078556 -0.5073918 0.07074121 0.3004043 0.46483222
00000000: a9f7 f13e 6be0 5fbe 102e 01bf 195a 4b3c
00000010: 3e25 e63e a3d1 093e dbe3 023f 78cc c4be
00000020: 9ab3 6bbd b958 f2be 05b3 133f 409f 9d3e
00000030: 6ee4 01bf c4e0 903d 98ce 993e 7dfe ed3e

decoder.hidden2pos.weight f4 [2, 32]
-0.10521916 0.23758903 0.16546817 0.15242289 0.0111305 0.011549181 0.030045537 -0.14631346
0.3218374 -0.07198497 -0.3753286 -0.22402455 -0.21804918 0.11949495 0.45044595 0.13709395
-0.19579683 -0.10948054 -0.4012375 0.25239667 0.27609408 0.21433863 -0.24307011 -0.6027739
0.14743115 -0.112811424 -0.0947403 -0.448943 -0.2568122 0.2830376 0.11799313 -0.23656389
0.014138106 0.15778036 -0.0271366 -0.2557945 0.033723112 0.64320755 -0.014176896 -0.04327318
-0.0019228717 0.21781737 0.090269096 0.2985698 -0.33014113 -0.0940882 0.050963268 -0.022382593
-0.04918514 0.16777728 -0.15264069 0.016063264 -0.5679371 -0.16920678 0.14196004 0.18044397
-0.33150804 -0.14435782 -0.31699207 -0.054473657 -0.15558253 0.55051744 -0.093794785 -0.055081755
00000000: 257d d7bd 8a4a 733e 7d70 293e bf14 1c3e
00000010: b35c 363c c738 3d3c 0f22 f63c 32d3 15be
00000020: dfc7 a43e db6c 93bd 122b c0be b166 65be
00000030: 4948 5fbe c5b9 f43d daa0 e63e 5b62 0c3e
00000040: f77e 48be 5537 e0bd 006f cdbe 233a 813e
00000050: 345c 8d3e 967b 5b3e 5fe7 78be 644f 1abf
00000060: 31f8 163e ad09 e7bd 3407 c2bd dbdb e5be
00000070: e47c 83be 4eea 903e 62a6 f13d ce3d 72be
00000080: 84a3 673c 2d91 213e 934d debc 7ff7 82be
00000090: 3f21 0a3d 40a9 243f 3646 68bc 383f 31bd
000000a0: de08 fcba 840b 5f3e 01df b83d 24de 983e
000000b0: 4208 a9be 50b1 c0bd dcbe 503d b35b b7bc
000000c0: 5b76 49bd cfcd 2b3e d74d 1cbe 1b97 833c
000000d0: 5364 11bf 8b44 2dbe f95d 113e 4ec6 383e
000000e0: 6cbb a9be 89d2 13be c94c a2be c51f 5fbd
000000f0: 0751 1fbe b6ee 0c3f 7b17 c0bd 689d 61bd

decoder.hidden2pos.bias f4 [2]
0.11098855 -0.0033254744
00000000: f74d e33d 34f0 59bb

mlp_decoder_context.0.weight f4 [64, 32]
0.4156999 -0.12435554 0.067875355 -0.17192157 -0.3073927 0.1025434 0.0062839226 -0.19238788
-0.3639332 0.08514282 0.12212652 -0.020324225 -0.02523655 -0.08917155 0.25780278 0.23386538
0.017029421 -0.13938743 1.0837486 -0.050673027 -0.23184419 -0.04212238 0.084244795 0.18990389
0.16395631 0.032760903 0.07168973 0.013575655 0.14754632 0.27528837 0.28724146 -0.121793844
-0.20973606 0.0452805 -0.20866902 0.0011902527 0.08676099 -0.45547798 -0.8206199 0.5800182
-0.20360255 0.07959834 0.003726078 -0.2586302 0.5302674 -0.30972853 -0.07423322 -0.43813685
0.11801212 -0.26359946 -0.045028985 0.2443261 -0.0033660235 0.43913782 0.3751379 -0.12901118
0.69233364 0.29261926 -0.15649606 -0.12280239 -0.21433862 0.16822106 -0.042446457 0.6144244
0.3214468 -0.09290547 -0.080709666 -0.12279415 0.024486784 0.17599481 0.18440126 -0.010005812
0.021187201 0.051897656 -0.48560694 0.1302753 0.27652308 -0.13071895 -0.1412537 -0.12079917
-0.22534356 0.3621066 0.30047455 -0.19000953 -0.26175305 0.041944392 0.32367635 0.27799055
-0.034898777 -0.020604981 0.07796925 -0.15922917 -0.19020405 -0.090572685 0.09532304 -0.30332842
0.21926683 -0.32953784 0.034383807 -0.24434389 0.1573379 -0.28910998 0.20881093 0.32468927
-0.24380952 -0.04843387 -0.32549626 0.051923003 -0.30487615 -0.25032052 -0.12168777 -0.053018037
0.24934779 0.11302213 0.4353704 0.0704841 0.0064696204 -0.37084052 0.0062808306 -0.106676176
0.09167943 -0.008426158 0.2204803 0.11748325 0.34691232 -0.08034066 -0.18652028 -0.2172965
-0.11078707 0.35053846 -0.09541092 0.019069035 0.17517196 0.031917606 -0.0037523012 -0.16651884
0.2391262 -0.17641488 0.0026463126 0.52022415 0.2849827 0.14813109 -0.3522823 0.017197736
0.31632712 -0.11454964 0.058175586 -0.1807709 -0.30218977 0.09129346 -0.17223105 -0.19455223
0.13930526 0.17684567 -0.0083713485 -0.06780569 -0.021742653 -0.36681044 0.12034971 -0.56382436
-0.025235074 0.44109553 0.023467718 0.0064838897 0.21277809 -0.083936654 -0.19487566 -0.092711434
0.4296841 -0.1339483 -0.14045054 -0.05664221 0.082630254 0.033581883 0.16755736 0.25532266
-0.051404838 0.12653816 0.21484862 -0.0007811717 -0.047663633 -0.2811605 -0.4286808 -0.17964365
-0.03613706 0.25551587 0.14076087 -0.015703626 -0.016905177 -0.33974487 -0.37870353 0.3303473
-0.0048080925 -0.2072743 -0.0915497 -0.02369175 0.008582498 -0.11650259 -0.31463185 0.23493104
0.009611657 0.1731258 0.28777376 0.10669857 -0.12919635 -0.4238631 -0.1497994 -0.025679301
-0.12545918 0.06871443 -0.11055346 0.50374067 -0.031926952 -0.13047872 -0.20319012 0.41964236
-0.14511263 0.0076568522 -0.3250038 -0.002893105 -0.18495691 0.0736929 -0.028719544 -0.2852512
-0.17791526 0.34374845 0.4455722 -0.07138733 -0.17495033 -0.44855323 0.4221652 -0.07516681
-0.44766927 -0.30702558 -0.17551336 0.052019175 0.3306472 -0.10629526 0.37730393 0.4991164
0.17290735 0.36018428 -0.012646278 0.009056625 -0.07361004 -0.04111325 -0.13819459 -0.14331132
0.027024677 -0.14482428 0.3230094 0.29766586 0.4605706 -0.06829997 -0.24229778 -0.27484095
00000000: 9ed6 d43e 1eae febd 3c02 8b3d 350c 30be
00000010: 9362 9dbe 4602 d23d 5de9 cd3b 5401 45be
00000020: 7455 babe 5c5f ae3d 781d fa3d fd7e a6bc
00000030: e2bc cebc 939f b6bd bafe 833e 687a 6f3e
00000040: 4981 8b3c 94bb 0ebe 46b8 8a3f 858e 4fbd
00000050: 9068 6dbe 8488 2cbd 8988 ac3d 2a76 423e
00000060: 2ae4 273e 4c30 063d 11d2 923d 6d6c 5e3c
00000070: 6216 173e 99f2 8c3e 5011 933e 0d6f f9bd
00000080: 0dc5 56be 0c78 393d 55ad 55be 4102 9c3a
00000090: bfaf b13d 6934 e9be 2514 52bf 137c 143f
000000a0: 307d 50be 7404 a33d 3731 743b 2d6b 84be
000000b0: 9bbf 073f bd94 9ebe 9607 98bd 7953 e0be
000000c0: 57b0 f13d 82f6 86be 5070 38bd 9f30 7a3e
000000d0: 8198 5cbb acd6 e03e 1312 c03e 821b 04be
000000e0: c73c 313f 31d2 953e 8140 20be d27f fbbd
000000f0: 957b 5bbe 2442 2c3e 56dc 2dbd eb4a 1d3f
00000100: ad94 a43e 3945 bebd 1c4b a5bd 807b fbbd
00000110: 8298 c83c fc37 343e afd3 3c3e 6bef 23bc
00000120: c890 ad3c a392 543d 79a1 f8be e366 053e
00000130: 6f94 8d3e 30db 05be cfa4 10be 8e65 f7bd
00000140: 76c0 66be 0966 b93e cdd7 993e dc91 42be
00000150: 7f04 86be e2cd 2b3d e8b8 a53e c754 8e3e
00000160: 05f2 0ebd c7cb a8bc 58ae 9f3d f90c 23be
00000170: dac4 42be 2c7e b9bd ba38 c33d dd4d 9bbe
00000180: 7c87 603e 2fb9 a8be 09d6 0c3d 4935 7abe
00000190: 301d 213e 3906 94be 88d2 553e ac3d a63e
000001a0: 34a9 79be 9862 46bd 72a7 a6be 37ad 543d
000001b0: ba18 9cbe 032a 80be 7037 f9bd 7129 59bd
000001c0: 0755 7f3e 2678 e73d dee8 de3e f859 903d
000001d0: 1cff d33b cfde bdbe 6dcf cd3b 0a79 dabd
000001e0: 6dc2 bb3d de0d 0abc 96c5 613e 0f9b f03d
000001f0: 7e9e b13e a589 a4bd 2cff 3ebe f982 5ebe
00000200: 55e4 e2bd c779 b33e cd66 c3bd aa36 9c3c
00000210: 4760 333e 09bc 023d 2be9 75bb ea83 2abe
00000220: 80dd 743e 1aa6 34be c26d 2d3b 692d 053f
00000230: 41e9 913e adaf 173e 585e b4be 44e2 8c3c
00000240: a1f5 a13e 0099 eabd 8649 6e3d 021c 39be
00000250: 9eb8 9abe 11f8 ba3d 565d 30be b338 47be
00000260: 0aa6 0e3e 0817 353e fb27 09bc b6dd 8abd
00000270: a61d b2bc 94ce bbbe e979 f63d cb56 10bf
00000280: c9b9 cebc 46d7 e13e 5f3f c03c cf76 d43b
00000290: 80e2 593e fbe6 abbd 7c8d 47be 7edf bdbd
000002a0: 8eff db3e be29 09be 44d2 0fbe a901 68bd
000002b0: 0d3a a93d 288d 093d 2894 2b3e a7b9 823e
000002c0: e18d 52bd 3893 013e 4701 5c3e 8cc7 4cba
000002d0: f13a 43bd 45f4 8fbe 0d7c dbbe 81f4 37be
000002e0: 7404 14bd fad2 823e 9e23 103e e4a4 80bc
000002f0: ba7c 8abc 0af3 adbe 6ee5 c1be 4823 a93e
00000300: 348d 9dbb b73f 54be 697e bbbd 3315 c2bc
00000310: 9b9d 0c3c e998 eebd 6d17 a1be c391 703e
00000320: 367a 1d3c e447 313e 1557 933e c884 da3d
00000330: 0c4c 04be 9604 d9be 0465 19be 665d d2bc
00000340: 5f78 00be 27ba 8c3d da69 e2bd 26f5 003f
00000350: d6c5 02bd 379c 05be 1211 50be 5ddb d63e
00000360: 6898 14be 55e6 fa3b e666 a6be 3f9a 3dbb
00000370: 5865 3dbe 4eec 963d 4045 ebbc 720c 92be
00000380: 6b2f 36be ccff af3e 0a22 e43e 8533 92bd
00000390: 2e26 33be c5a8 e5be 0926 d83e 0ef1 99bd
000003a0: e834 e5be 7532 9dbe c6b9 33be 0f12 553d
000003b0: 974a a93e 54b1 d9bd fb2d c13e 2f8c ff3e
000003c0: a00e 313e 136a b83e 5632 4fbc 3d62 143c
000003d0: dcc0 96bd 5e66 28bd e282 0dbe 34c0 12be
000003e0: db62 dd3c d14c 14be 7d61 a53e a967 983e
000003f0: e9cf eb3e dbe0 8bbd e91c 78be f4b7 8cbe

mlp_decoder_context.0.bias f4 [64]
0.11035766 0.16981295 -0.11249912 0.1615125 0.082382366 0.082618736 -0.002955501 0.16811326
-0.18544734 0.16860078 -0.033602245 -0.004633702 0.08034973 -0.12810609 -0.04795163 -0.12629533
-0.017414229 -0.022063008 -0.142499 -0.11648679 0.15066391 -0.014994305 0.052540656 -0.013466765
-0.03307778 0.22240958 0.09342141 -0.16731952 0.042978577 0.05900107 -0.027578486 -0.16033776
0.11636522 0.19602582 -0.090400055 -0.04012995 0.008832095 -0.12999761 -0.030516045 -0.06699341
0.007564307 0.05522057 -0.12916596 0.13439588 -0.062329683 -0.04600265 0.17741275 0.020021461
-0.018343411 -0.10332329 -0.05250382 -0.09200946 0.07294729 -0.036261927 -0.02504139 -0.08884263
0.061838105 -0.04814286 -0.08841317 -0.14972205 -0.106500424 0.0495637 0.13381949 0.0007208448
00000000: 3203 e23d 72e3 2d3e f065 e6bd 8863 253e
00000010: 16b8 a83d 0334 a93d 14b1 41bb e225 2c3e
00000020: e8e5 3dbe afa5 2c3e 82a2 09bd 4fd6 97bb
00000030: 668e a43d 3e2e 03be ee68 44bd 9053 01be
00000040: 49a8 8ebc 7bbd b4bc 42eb 11be a090 eebd
00000050: a447 1a3e acaa 75bc df34 573d b5a3 5cbc
00000060: 917c 07bd 56bf 633e b953 bf3d cf55 2bbe
00000070: 4e0a 303d 1bab 713d 47ec e1bc 952f 24be
00000080: e350 ee3d feba 483e aa23 b9bd 4d5f 24bd
00000090: 7eb4 103c 181e 05be c9fc f9bc d733 89bd
000000a0: 02de f73b f72e 623d 1544 04be 139f 093e
000000b0: 694d 7fbd 466d 3cbd b0ab 353e 0c04 a43c
000000c0: ec44 96bc 299b d3bd 3f0e 57bd 756f bcbd
000000d0: 6465 953d 6387 14bd 9a23 cdbc 20f3 b5bd
000000e0: f449 7d3d 7331 45bd f711 b5bd bd50 19be
000000f0: e51c dabd 4e03 4b3d fa07 093e 13f7 3c3a
