scripts/models/sgan-models/hotel_8_model.pt (torch_old, 70313 bytes, 18 tensors)

encoder.encoder.weight_ih_l0 f4 [128, 16]
0	0xbe0b6ef3	-0.13616543
1	0xbcba66c4	-0.02275408
2	0xbe070fc9	-0.13189615
3	0xbd917163	-0.07101705
4	0x3d2789c9	0.040902887
5	0x3d52f577	0.051503625
6	0x3db51ab0	0.08842981
7	0x3da150f2	0.07876767
8	0x3d24605e	0.040130965
9	0x3e4315db	0.19051306
10	0x3d6f9c9f	0.058498975
11	0xbbf2c22d	-0.0074084015
12	0x3c93927a	0.018014181
13	0xbd86c517	-0.06580561
14	0x3ce6c262	0.02816886
15	0xbcd4a51a	-0.025957633
16	0x3ddfe044	0.10931447
17	0x3d4871e6	0.048936747
18	0xbde4cdec	-0.11172089
19	0x3db7fd48	0.089838564
20	0xbc03aef8	-0.008037321
21	0xbd9d13c4	-0.076697856
22	0x3dd564d3	0.10419621
23	0x3d01034a	0.031497277
24	0x3e07f114	0.13275558
25	0x3ddd350d	0.10801134
26	0xbe282bd4	-0.16422969
27	0xbe09237a	-0.1339244
28	0xbd6d0a70	-0.057871282
29	0x3e0a517b	0.13507645
30	0xbdaca0b4	-0.08429089
31	0xbde918c4	-0.11381677
32	0xbddf1406	-0.10892491
33	0x3cbb92c8	0.02289714
34	0x3d0b6e91	0.03404099
35	0xbe05537d	-0.1302013
36	0xbd9dd118	-0.07705897
37	0x3dfa312d	0.12216411
38	0xbd86bf2b	-0.06579431
39	0x3d946d49	0.07247407
40	0x3dd5b936	0.10435717
41	0xbd1ff3d7	-0.039050903
42	0x3c299e7a	0.010352725
43	0x3da29f3a	0.07940526
44	0xbe15acf0	-0.14616752
45	0x3d1f84e5	0.038945097
46	0x3d8e0fb4	0.06936589
47	0x3dfe040c	0.12403116
48	0x3df96708	0.12177855
49	0xbdadf3ba	-0.08493753
50	0x3ca506c2	0.020144824
51	0x3d87649f	0.06610989
52	0x3d6d09d3	0.057870697
53	0x3c9026fa	0.01759671
54	0xbe1d3f76	-0.1535624
55	0x3b8a6cbc	0.004224388
56	0xbad81e0c	-0.0016488447
57	0x3e0b81e8	0.13623774
58	0xbd52946d	-0.05141108
59	0xbd7b30c1	-0.061325792
60	0xbd87ff92	-0.06640543
61	0x3e3f4746	0.18679532
62	0xbe160baf	-0.14652894
63	0x3e1b5e0d	0.15172596
64	0xbaf1f715	-0.0018460477
65	0x3c289b47	0.010290927
66	0xbdb49929	-0.088182755
67	0xbe4f3778	-0.20236003
68	0xbdcb785f	-0.09935068
69	0x3dca5faf	0.098815314
70	0xb9da46a6	-0.00041632837
71	0x3d186825	0.037208695
72	0xbded25b3	-0.11579456
73	0xbd87965e	-0.06620477
74	0x3d113639	0.0354521
75	0x3e16a7b7	0.14712416
76	0x3db577fc	0.08860776
77	0xbd611a5e	-0.054956786
78	0x3e147ffb	0.14501946
79	0xbd7a6be0	-0.061138034
80	0x3d7965ee	0.060888223
81	0xbe464273	-0.19361286
82	0x3e12ae67	0.14324342
83	0xbd901de1	-0.07036949
84	0xbe0088f2	-0.1255224
85	0x3cf2b6db	0.029628208
86	0xbd657885	-0.05602314
87	0xbd8c9250	-0.068638444
88	0xbd492d7f	-0.049115654
89	0x3d7b1a03	0.061304104
90	0x3dd206c3	0.10255196
91	0x3e400869	0.18753208
92	0xbd9feb13	-0.07808509
93	0x3cf2c7b9	0.02963625
94	0x3c51a7c6	0.012796348
95	0x3e5d4b49	0.2161075
96	0x3e1f7033	0.15570144
97	0x3e0dd9d5	0.13852628
98	0x3d63746b	0.055530947
99	0xbe4bff59	-0.19921626
100	0x3d878748	0.066176
101	0xbdd89749	-0.1057573
102	0xbcb13fda	-0.021636892
103	0x3cb8dc99	0.022566127
104	0x3e2aee8d	0.16692562
105	0x3de0f138	0.10983509
106	0xbe34f986	-0.1767331
107	0x3e0ffddf	0.14061688
108	0xbdfbd54e	-0.12296544
109	0x3e0b37ef	0.13595556
110	0x3e00cb3e	0.1257753
111	0xbcdb5f47	-0.02677883
112	0xbe347441	-0.17622472
113	0xbe3103d7	-0.17286621
114	0x3da041c2	0.07825042
115	0xbc43f9ef	-0.011961444
116	0x3d9c2541	0.07624293
117	0x3e1ccbd0	0.15312123
118	0xbd665bae	-0.056239776
119	0xbbc6204f	-0.006046332
120	0xbe0860da	-0.13318196
121	0x3cd62d69	0.0261447
122	0xbe0376de	-0.12838313
123	0x3ca0d079	0.019630658
124	0x3d4cb6d5	0.04997905
125	0x3cf1607b	0.02946495
126	0x3e05c7b1	0.13064457
127	0xbd0817b6	-0.033225738
128	0xbd32d298	-0.04365787
129	0x3d4b2a4e	0.04960089
130	0x3dc66453	0.09687104
131	0xbcfb5f18	-0.030684993
132	0x3debaef0	0.11507976
133	0x3e3bb8d6	0.18332228
134	0x3d8bc880	0.06825352
135	0x3d308fbb	0.043105822
136	0xbdf21617	-0.118206196
137	0xbe1b630b	-0.151745
138	0xbe011ee9	-0.12609448
139	0xbded1e3e	-0.11578034
140	0xbddce151	-0.10785163
141	0xbe02a2cb	-0.12757413
142	0xbe04abff	-0.12956236
143	0x3d6b26e2	0.05741013
144	0x3da4c224	0.08044842
145	0x3e043d8e	0.12914106
146	0xbe23c7b7	-0.15994154
147	0xbdaac563	-0.0833843
148	0x3e22bd35	0.15892489
149	0xbd8a4608	-0.06751639
150	0xbde72417	-0.112861805
151	0xbdd547e1	-0.104141004
152	0x3d188d56	0.037244163
153	0x3be5236d	0.0069927485
154	0x3cb15875	0.021648625
155	0xbda2dcb6	-0.079522535
156	0x3dac6856	0.08418338
157	0xbe01c446	-0.12672529
158	0x3d00801b	0.03137217
159	0xbe234290	-0.1594336
160	0x3e254adf	0.16141842
161	0xbd3a39e9	-0.045465384
162	0x3c77985e	0.015112011
163	0xbe142f7a	-0.14471236
164	0x3df3a897	0.1189739
165	0xbcd60f02	-0.026130203
166	0xbe3050c1	-0.17218305
167	0x3d7d5a86	0.061853908
168	0x3e5196e6	0.2046772
169	0x3e286957	0.16446434
170	0x3dab0733	0.083509825
171	0x3dc7ecfd	0.09761999
172	0xbe259387	-0.16169558
173	0x3d7814f1	0.060566846
174	0x3c375cae	0.01119153
175	0xbda07610	-0.07835019
176	0x3d962185	0.07330612
177	0xbc03492d	-0.008013052
178	0x3e09b1bd	0.13446708
179	0xbe029aca	-0.1275436
180	0x3d9ec056	0.07751529
181	0xbdebf146	-0.11520629
182	0xba2e8144	-0.00066568353
183	0xbdd61105	-0.10452465
184	0xbdef364e	-0.1168028
185	0xbd087efa	-0.03332422
186	0x3e52a60a	0.20571151
187	0xbca71d50	-0.02039972
188	0x3cf01b24	0.029309817
189	0x3b0f2b35	0.0021845822
190	0x3de9f5d7	0.11423843
191	0xbe1ddac2	-0.1541548
192	0x3d1a20d7	0.037628975
193	0xbdd89560	-0.10575366
194	0x3e0d21ef	0.13782476
195	0x3cf06b86	0.029348146
196	0xbdc3a408	-0.09552771
197	0xbc1619f2	-0.009161459
198	0x3d66ee73	0.056379747
199	0xbbd8cd44	-0.0066162664
200	0x3e2a33c1	0.16621305
201	0x3d8be742	0.06831218
202	0x3dcf3022	0.101166025
203	0x3c1148fd	0.008867499
204	0xbdb9c474	-0.090706736
205	0x3e39200b	0.1807863
206	0x3d106968	0.035256773
207	0x3d9c722c	0.07638964
208	0x3da83922	0.08214022
209	0xbe494e7a	-0.19658843
210	0xbd9777f0	-0.07395923
211	0x3d1fd779	0.03902385
212	0x3cddd072	0.027076934
213	0xbdfc453c	-0.12317893
214	0xbe1c8e3f	-0.15288638
215	0xbe08353a	-0.13301554
216	0x3e0729a8	0.13199484
217	0xbcfe3b91	-0.031034263
218	0xbb1d6409	-0.0024015924
219	0x3e00aee0	0.1256671
220	0x3d818dc6	0.06325869
221	0x3e6d8a8a	0.2319738
222	0xbe1d9de0	-0.15392256
223	0xbe11ab1b	-0.14225428
224	0xbdacd78c	-0.0843955
225	0x3db4a23c	0.08820006
226	0xbdb07a41	-0.08617068
227	0xbd14bccf	-0.036312874
228	0xbe0212b3	-0.12702446
229	0x3e00d18a	0.12579933
230	0xbd53e3e4	-0.051731005
231	0x3e091432	0.1338661
232	0xbda461eb	-0.08026489
233	0x3cbdf852	0.023189697
234	0xbdd3f335	-0.103491224
235	0x3df13128	0.11776954
236	0x3e016837	0.12637411
237	0x3c55001b	0.013000513
238	0xbddc82e5	-0.10767154
239	0x3d05787f	0.032585617
240	0xbdee00e2	-0.11621262
241	0xbe21703c	-0.1576547
242	0xbd48e8cf	-0.04905015
243	0x3db74d7d	0.089503266
244	0x3e0a995f	0.13535069
245	0x3cf0dca7	0.02940209
246	0x3dd4f5ed	0.10398469
247	0xbe1d449c	-0.15358204
248	0x3d726337	0.05917665
249	0x3e232c99	0.15934981
250	0xbb63a0d0	-0.0034733303
251	0x3e0f5fd6	0.14001402
252	0xbd5b33e9	-0.053516302
253	0x3d98c50d	0.074594595
254	0xbd0b6ad1	-0.034037415
255	0xbd4edd19	-0.050503824

encoder.encoder.weight_hh_l0 f4 [128, 32]
0	0xbd924a00	-0.07143021
1	0xbe0f48a6	-0.13992557
2	0x3e3e07a0	0.18557596
3	0x3cfc953b	0.030832877
4	0xbd4dee53	-0.05027611
5	0xbca2c4d5	-0.019869247
6	0xbd99a0c4	-0.07501367
7	0xbe2256ee	-0.15853474
8	0x3d8a5f92	0.0675651
9	0xbdd60743	-0.10450604
10	0x3d38ab1d	0.04508506
11	0x3d7539d9	0.05986962
12	0xbc7ae787	-0.0153139895
13	0xbd39ec7b	-0.04539154
14	0xbdd72824	-0.10505703
15	0xbd81f0f8	-0.06344789
16	0xbda39c7b	-0.07988831
17	0x3dc2465f	0.094860785
18	0x3d3d9125	0.046281
19	0x3dfc196f	0.123095386
20	0xbd8e7730	-0.06956327
21	0xbdb1b3ec	-0.086768955
22	0xbd4d4863	-0.05011786
23	0x3ac7e75b	0.0015251444
24	0xbce1537c	-0.027505629
25	0x3d359ea5	0.04434075
26	0xbdb2d357	-0.08731716
27	0xbe4b0e9a	-0.19829789
28	0xbd1305e1	-0.03589428
29	0x3e4b6ce6	0.1986576
30	0x3d3226b8	0.043493956
31	0xbdc0a79a	-0.094069675
32	0xbdbe6178	-0.092959344
33	0xbdb8b64f	-0.090191476
34	0x3c023528	0.007947244
35	0x3d84fffe	0.06494139
36	0xbde68d23	-0.112573884
37	0xbe6553e1	-0.22395279
38	0xbe21dbdc	-0.15806526
39	0xbe681d0d	-0.22667332
40	0x3d52c6b3	0.051459026
41	0x3d6ca21b	0.057771783
42	0xbd48928f	-0.048967894
43	0x3d922166	0.071352765
44	0xbc852d6d	-0.016257012
45	0x3e36ad98	0.17839658
46	0x3dd076f2	0.10178937
47	0x3e65928d	0.22419186
48	0xbde3cf0a	-0.11123474
49	0x3d6220ff	0.05520725
50	0x3e1638d3	0.14670114
51	0x3e4689a7	0.19388448
52	0xbe11be5e	-0.14232776
53	0xbd83a79a	-0.06428452
54	0x3d2f18d2	0.04274828
55	0xbe55a584	-0.2086392
56	0xbdeb2fb6	-0.114837095
57	0xbd41b1b1	-0.0472886
58	0x3e1ec8c2	0.1550627
59	0x3df8f218	0.12155551
60	0x3daebfce	0.085326776
61	0x3de13584	0.109965354
62	0xbe16cbeb	-0.14726226
63	0x3e3ebee1	0.18627502
64	0x3daadc3f	0.0834279
65	0xbca3f2d9	-0.02001326
66	0xbde20a9a	-0.11037178
67	0xbe253484	-0.16133314
68	0xbd296de1	-0.041364554
69	0xbd2d26d3	-0.042273354
70	0xbcda9529	-0.026682453
71	0xbcede606	-0.029040348
72	0x3e20c332	0.15699461
73	0xbd9e6a33	-0.077351
74	0xbdf1fa45	-0.11815313
75	0xbd100a92	-0.03516633
76	0x3c2f9949	0.010717698
77	0x3dcacdc3	0.09902527
78	0xbdea925d	-0.11453698
79	0x3d18abb8	0.03727314
80	0xbd9bd873	-0.07609644
81	0xbd6b0592	-0.05737836
82	0x3e202b30	0.15641475
83	0x3c5d4f38	0.013507657
84	0x3d6021d0	0.054719746
85	0x3cee2aac	0.029073082
86	0xbda8d8c6	-0.08244471
87	0x3db998ae	0.090623245
88	0xbdce1e2e	-0.1006435
89	0x3e02b754	0.12765247
90	0x3d835342	0.064123645
91	0x3dc3775c	0.0954425
92	0xbce83123	-0.028343743
93	0xbdbdf6bf	-0.09275579
94	0xbd954219	-0.07287998
95	0x3e1cbcb8	0.15306365
96	0xbca3a744	-0.01997722
97	0xbcc334bd	-0.023828859
98	0x3e125a8d	0.14292355
99	0x3b2a40cf	0.002597857
100	0xbd3b98fb	-0.04580019
101	0xbd82d809	-0.06388862
102	0xbe0a3f9d	-0.13500829
103	0x3dd69b19	0.10478801
104	0xbc370fba	-0.011173183
105	0x3c77aad5	0.015116413
106	0x3cc969df	0.024586616
107	0xbd486e7b	-0.048933487
108	0xbb95703d	-0.004560499
109	0xbe192b4a	-0.1495792
110	0xbd7d06d1	-0.06177408
111	0x3e06f11a	0.1317791
112	0xbe96ac0b	-0.29428133
113	0xbd323363	-0.043506037
114	0xbe2f9fdc	-0.17150825
115	0x3de7cc89	0.11318309
116	0x3e1dc0ff	0.15405653
117	0x3c5eafc6	0.013591712
118	0xbdefa178	-0.117007196
119	0xbcfc9d9b	-0.03083687
120	0xbd9adf32	-0.075621024
121	0xbccf7712	-0.025325332
122	0xbe2b7f3e	-0.16747758
123	0xbc392135	-0.011299421
124	0xbde121cc	-0.10992774
125	0xbb1beea4	-0.0023793364
126	0x3d27bd11	0.040951792
127	0xbdffaad6	-0.12483756
128	0x3ab991ba	0.001415781
129	0x3e1a5600	0.15071869
130	0x3cb74b2f	0.022374718
131	0xbdc3b5ad	-0.09556136
132	0xbb962972	-0.0045825774
133	0x3cd03d6c	0.025419913
134	0x3df36aa0	0.118855715
135	0x3e0c04a4	0.13673645
136	0x3e2c5582	0.16829494
137	0x3cbe65f8	0.023241982
138	0x3c72ec09	0.014826783
139	0x3d3e6b0b	0.046488803
140	0x3e158aa6	0.14603671
141	0x3e24c39d	0.16090246
142	0x3d897126	0.067110345
143	0xbc58dd86	-0.013236409
144	0x3def15bc	0.116740674
145	0x3c44fb59	0.012022817
146	0xbe022c2f	-0.12712167
147	0x3e2d7774	0.16940099
148	0xbe50f81e	-0.20407149
149	0xbc358b21	-0.011080534
150	0x3e36ca01	0.17850496
151	0xbe3f8351	-0.18702437
152	0x3e012a10	0.12613702
153	0xbe2e6e39	-0.17034234
154	0x3dfa3c6c	0.12218556
155	0xbd8f79a3	-0.07005622
156	0x3e45ff81	0.19335748
157	0x3db878e6	0.090074345
158	0xbe04cb79	-0.12968244
159	0x3e2d463e	0.16921327
160	0xbe291a0a	-0.1651384
161	0x3dc7bcd3	0.09752812
162	0xbe0d5aa9	-0.13804115
163	0x3df01485	0.11722664
164	0x3c8c1ed5	0.017104546
165	0xbd18f7f1	-0.03734583
166	0xbe1db930	-0.15402675
167	0x3d9b29b1	0.075763114
168	0xbe1bb29d	-0.15204854
169	0x3dcf0fa0	0.10110402
170	0x3d99bc47	0.07506614
171	0x3de5dc14	0.11223617
172	0x3de86437	0.113472395
173	0x3e150d26	0.14555797
174	0xbd4f4952	-0.050607033
175	0x3d2f809c	0.04284726
176	0x3e0a9912	0.13534954
177	0xbe13e8f0	-0.14444327
178	0x3d666e76	0.056257688
179	0x3e1299ce	0.14316484
180	0x3dd1d1fc	0.102451295
181	0x3dacb319	0.08432598
182	0xbdb863ba	-0.09003396
183	0x3e12047d	0.14259525
184	0x3b38290a	0.0028100633
185	0x3e3dd6b8	0.1853894
186	0xbe17ce8e	-0.14824888
187	0x3dd1d1d8	0.10245103
188	0xbd4f0f12	-0.05055148
189	0x3e2451fa	0.16046897
190	0xbe269c62	-0.16270593
191	0xbd8dea13	-0.06929412
192	0x3d8e5f37	0.069517545
193	0xbdf86155	-0.121279396
194	0x3db73786	0.08946137
195	0xbd4ea700	-0.050452232
196	0xbd684946	-0.056710504
197	0xbe301d6b	-0.17198722
198	0x3d457c1b	0.04821406
199	0x3aa0e760	0.0012275986
200	0xbcd6b63b	-0.026209941
201	0x3e762186	0.24036226
202	0x3d2d8909	0.042367015
203	0x3db69567	0.08915215
204	0xbca88803	-0.020572668
205	0x3e220552	0.15822342
206	0x3e3855fc	0.1800155
207	0x3e3405f1	0.17580391
208	0x3e084b50	0.1330998
209	0x3de53f97	0.111937694
210	0xbdd619ac	-0.10454115
211	0xbc0c9e8c	-0.008582722
212	0xbd776e40	-0.060407877
213	0xbe21e4f0	-0.15809989
214	0xbd7e7ee3	-0.062132727
215	0xbe2fd9ec	-0.17172974
216	0x3dafb66c	0.08579716
217	0x3d6b1dd8	0.057401508
218	0xbdacefde	-0.084441885
219	0xbe5e17ca	-0.21688762
220	0xbc3f41bd	-0.011673388
221	0xbd40878b	-0.047004264
222	0x3e0ca953	0.13736467
223	0xbe09abf4	-0.13444501
224	0xbdfe5238	-0.12418026
225	0x3e29abd3	0.16569452
226	0xbcc6585b	-0.024212053
227	0xbda8ccd5	-0.082421936
228	0xbd36800f	-0.04455572
229	0xbde731ec	-0.11288819
230	0x3de65645	0.11246923
231	0x3da1f410	0.07907879
232	0x3e03f054	0.12884647
233	0x3dd47e45	0.103756465
234	0x3d6fc8c9	0.058541093
235	0x3d6c4048	0.05767849
236	0x3d3cbe3a	0.04607985
237	0x3e0c9774	0.1372965
238	0x3d800721	0.0625136
239	0xbdf0ec96	-0.11763875
240	0xba1d3ddb	-0.0005998292
241	0xbe19b1ea	-0.15009275
242	0x3e0eec12	0.13957241
243	0x3bbe37a0	0.005804971
244	0x3d32e055	0.04367097
245	0xbe179925	-0.14804514
246	0xbc7e60dd	-0.015526024
247	0xbdcddf9f	-0.10052418
248	0xbd30ad22	-0.043133862
249	0x3e05b9b5	0.13059123
250	0x3d1d6cb2	0.038433738
251	0x3e1793a5	0.14802416
252	0xbd510d11	-0.05103785
253	0x3df341de	0.118777975
254	0xbe2a0e10	-0.16606927
255	0xbd237316	-0.039904676

encoder.encoder.bias_ih_l0 f4 [128]
0	0xbcff1d45	-0.031141886
1	0xbdc33ca4	-0.09533051
2	0xbda60d2e	-0.081079826
3	0x3d9e03ec	0.07715592
4	0x3e0f80d5	0.1401399
5	0xbd9d8041	-0.07690478
6	0x3dba8098	0.091065586
7	0x3cd8e636	0.02647696
8	0x3e124b19	0.1428646
9	0xbd339ce5	-0.0438508
10	0xbc4d2fa4	-0.012523565
11	0xbe01c359	-0.12672175
12	0xbdd418df	-0.10356306
13	0xbcfe5a86	-0.031049024
14	0x3d049f19	0.03237829
15	0x3d534580	0.051579952
16	0xbdf5c59e	-0.12000583
17	0x3ced2750	0.02894941
18	0x3da83e71	0.08215035
19	0x3daa9a57	0.08330219
20	0x3e1693da	0.14704838
21	0x3e3ce9aa	0.18448511
22	0x3e43b17e	0.19110677
23	0x3e3bc6ce	0.18337557
24	0x3db41d1c	0.08794615
25	0xbd5b0744	-0.053473726
26	0x3e4cb323	0.1999021
27	0x3d965420	0.07340264
28	0x3e1bed13	0.15227155
29	0xbe03a534	-0.12855989
30	0x3d8b3636	0.06797449
31	0x3d2e3939	0.04253504
32	0xbe0965e3	-0.13417773
33	0xbbb7cbba	-0.005609003
34	0x3d412401	0.047153477
35	0xbe065363	-0.13117747
36	0xbe08104c	-0.13287467
37	0x3d60c9b8	0.054879874
38	0x3e08dc12	0.133652
39	0xbe149e2d	-0.14513464
40	0x3c9d58cf	0.019207386
41	0xbd9cd4cc	-0.07657775
42	0xbe1d04e2	-0.15333894
43	0xbe2acd87	-0.16679965
44	0x3e256b7f	0.16154288
45	0x3e17e149	0.14832033
46	0x3db30a85	0.08742241
47	0x3da77659	0.0817687
48	0x3e0a40cb	0.13501279
49	0xbe670689	-0.22561087
50	0xbdcdb2c2	-0.10043861
51	0x3cb4d24d	0.022072935
52	0x3c535062	0.012897583
53	0xbd38f7e8	-0.045158297
54	0x3e08dae3	0.13364749
55	0x3ce7dfd8	0.02830498
56	0xbcc990c4	-0.024605162
57	0xbdddb03b	-0.10824629
58	0xbe0738e5	-0.13205297
59	0x3d1e4bc2	0.038646467
60	0x3e479450	0.1949017
61	0x3d539401	0.05165482
62	0xbe32b203	-0.17450719
63	0xba8096a9	-0.0009810525
64	0xbdf16053	-0.117859505
65	0xbdde7f78	-0.108641565
66	0x3e47523c	0.19464964
67	0xbe297f65	-0.16552503
68	0xbdd49718	-0.10380381
69	0x3d901c6e	0.070366725
70	0xbd437e05	-0.047727603
71	0x3d9c4f3c	0.076323
72	0xbd868df9	-0.06570048
73	0xbde3b656	-0.11118762
74	0x3e358a4e	0.1772854
75	0x3e294e08	0.16533673
76	0x3e129258	0.14313638
77	0x3ccb46bb	0.024814
78	0x3def6267	0.11688691
79	0xbd70e0c1	-0.058808092
80	0x3e017a5f	0.12644337
81	0x3e054bd8	0.13017213
82	0x3da2a6c8	0.07941967
83	0x3d95f6b1	0.07322443
84	0xbbe7cc51	-0.007073917
85	0xbdd241a2	-0.10266425
86	0x3bbd1726	0.005770582
87	0xbd5b852b	-0.053593796
88	0x3e013449	0.12617601
89	0xbc1c8be7	-0.00955484
90	0xbd7163fd	-0.058933247
91	0xbd6b3dcf	-0.057431992
92	0xbda796cf	-0.08183061
93	0x3e1a164a	0.15047565
94	0xbdb1af43	-0.08676007
95	0x3e190041	0.14941503
96	0x3da71dc4	0.08159974
97	0x3e2a8cf9	0.1665534
98	0x3d3f31da	0.0466784
99	0x3d281221	0.041032914
100	0x3ddfcd0c	0.109277815
101	0x3e2f0004	0.1708985
102	0x3dc63e04	0.09679797
103	0xbd33c8a4	-0.043892518
104	0xbdd9098c	-0.10597524
105	0x3c9503ea	0.018190343
106	0xbd9b3e2a	-0.07580216
107	0x3d927b5c	0.07152435
108	0x3d36a66e	0.044592313
109	0x3e13cfe1	0.14434768
110	0x3d43c597	0.04779586
111	0x3e13b756	0.14425406
112	0x3e050400	0.12989807
113	0xbe0fec51	-0.14054991
114	0x3cc4b2d7	0.024011059
115	0xbcfa6a4f	-0.03056827
116	0x3e013c13	0.12620573
117	0x3dd44b87	0.10365968
118	0x3cb18aae	0.021672573
119	0xbe078089	-0.13232626
120	0x3d8cd6fb	0.06876942
121	0xbd28fa4e	-0.041254334
122	0x3db4cdd4	0.08828321
123	0xba9638d4	-0.0011461028
124	0x3e628ebd	0.22124763
125	0x3da76e6d	0.08175359
126	0x3e313027	0.17303525
127	0xbda56c9b	-0.080773555

encoder.encoder.bias_hh_l0 f4 [128]
0	0x3b644315	0.0034830023
1	0x3e458e1b	0.1929249
2	0x3d240b34	0.040049747
3	0x3e0a5385	0.13508423
4	0xbd0adb29	-0.033900414
5	0x3caf3cb5	0.021391252
6	0xbb8fc304	-0.0043872613
7	0xbe08a501	-0.13344194
8	0xbddce210	-0.107853055
9	0xbd895909	-0.06706435
10	0xbd5599c7	-0.052148607
11	0x3d6149a0	0.055001855
12	0xbcc0ecb1	-0.023550363
13	0x3e540a5b	0.20707075
14	0xbcbcc916	-0.023045104
15	0xbe2719da	-0.16318455
16	0x3d8edc78	0.06975645
17	0xbd6fdf98	-0.058562845
18	0xbd317b74	-0.043330625
19	0x3d7b70e6	0.061386965
20	0x3d5859f9	0.05282018
21	0x3e33f387	0.17573367
22	0xbdf0cae3	-0.117574476
23	0xbdb1cbf8	-0.08681482
24	0xbc64373d	-0.013929185
25	0x3d8843e7	0.06653576
26	0xbb545b07	-0.003240289
27	0x3db140c1	0.08654929
28	0x3c4009de	0.0117211025
29	0xbd21d31d	-0.039507974
30	0x3e3413c0	0.17585659
31	0x3e2ca555	0.16859944
32	0xbd30ddba	-0.043180205
33	0x3e252967	0.16129075
34	0x3c3db182	0.011577966
35	0xbd8862f7	-0.06659501
36	0x3d83f107	0.06442457
37	0xbd1fb874	-0.038994268
38	0xbd84a5eb	-0.06476959
39	0x3d7adf6a	0.06124822
40	0xbd802c46	-0.062584445
41	0xbc922b44	-0.017842896
42	0x3ca14130	0.019684404
43	0x3e2534ec	0.1613347
44	0x3dc31185	0.09524826
45	0xbd582ef1	-0.05277914
46	0x3ccb4893	0.02481488
47	0x3e0ff792	0.14059284
48	0x3dd45067	0.10366898
49	0xbcea0f50	-0.028571755
50	0x3d831a04	0.064014465
51	0xbdcd3469	-0.10019762
52	0x3da5656c	0.08075985
53	0xbdb0f83a	-0.086410955
54	0xbcc55bc4	-0.024091609
55	0x3cfb1ec8	0.030654326
56	0x3ce293c7	0.027658356
57	0x3d904a98	0.07045478
58	0x3d4c570a	0.049887694
59	0xbda09da5	-0.07842568
60	0xbdd4edab	-0.10396894
61	0x3e442e1e	0.19158217
62	0x3d796d3a	0.060895182
63	0x3d0fe154	0.035127
64	0xbe326c98	-0.17424238
65	0xbe3488ba	-0.17630282
66	0x3d217665	0.03941955
67	0xbdb93684	-0.09043601
68	0xbde8a70a	-0.11359985
69	0xbe133aec	-0.14377946
70	0xbd4e89f8	-0.050424546
71	0xbe0ddc1f	-0.13853501
72	0xbe0ab031	-0.13543774
73	0x3d70ccea	0.05878917
74	0x3e27e1f6	0.16394791
75	0xbe032fb1	-0.12811162
76	0x3e177d50	0.14793897
77	0x3dc1bc54	0.09459749
78	0x3d629af0	0.05532354
79	0x3d9dc957	0.07704418
80	0xbdc7d9aa	-0.09758313
81	0x3c3e1c8c	0.011603486
82	0x3dbd0652	0.09229721
83	0x3d8d5cf1	0.06902493
84	0x3c131114	0.00897624
85	0x3dd762d8	0.105169
86	0xbdba072e	-0.09083401
87	0x3dc32eb6	0.09530394
88	0x3dc5063e	0.09620331
89	0x3dac0f51	0.08401359
90	0xbe00e4e0	-0.12587309
91	0x3d632617	0.055456247
92	0x3e375aa5	0.17905672
93	0x3d044042	0.032287844
94	0x3d0ad2a2	0.03389228
95	0x3e1ba695	0.15200265
96	0x3bbec1c1	0.005821437
97	0xbd097275	-0.03355642
98	0x3e095be4	0.1341396
99	0xbbcdb24a	-0.006277357
100	0xbdb4e813	-0.08833327
101	0x3d81cbec	0.06337723
102	0xbbf4815b	-0.0074617094
103	0xbc06663b	-0.008203085
104	0x3e0c9c89	0.13731588
105	0x3dc0e136	0.094179556
106	0x3e1bb764	0.15206677
107	0x3e14f06b	0.14544837
108	0x3e4c1937	0.19931494
109	0x3df00fd0	0.11721766
110	0x3e49d597	0.19710384
111	0x3b694bef	0.0035598238
112	0x3de63371	0.112402804
113	0xbe2be4df	-0.16786526
114	0x3d4d1a1d	0.05007373
115	0xbd62493c	-0.055245623
116	0xbdb2bbb5	-0.087272085
117	0x3de6cf0c	0.1126996
118	0x3d8a25fa	0.06745525
119	0xbdd71510	-0.10502064
120	0xbcb01459	-0.021494078
121	0x3d67618d	0.056489516
122	0xbbfb096f	-0.0076610367
123	0xbcc83311	-0.024438413
124	0xbde88534	-0.113535315
125	0xbd5e1e49	-0.0542281
126	0x3e04746b	0.12935035
127	0xbc373fa2	-0.011184605

encoder.spatial_embedding.weight f4 [16, 2]
0	0x3f8696cc	1.051477
1	0xbf57227f	-0.8403701
2	0x3f8f8340	1.1211929
3	0xbf52bdcb	-0.8232085
4	0xbf6e4291	-0.9307032
5	0x40068f8e	2.102512
6	0x3f15bd6d	0.58492166
7	0xbf3f9a03	-0.7484438
8	0x3f4dd401	0.8040162
9	0xbdd7878b	-0.105239
10	0xbe8da165	-0.27662197
11	0xbf804af6	-1.0022876
12	0x3eb832a2	0.3597613
13	0xbff18a2b	-1.887029
14	0x3f889566	1.0670593
15	0xbf002864	-0.5006163
16	0x3fd5b8a7	1.6696976
17	0xbf11054c	-0.5664871
18	0x3e61dd9c	0.22057194
19	0x3f95eaef	1.1712321
20	0x3fbe91b3	1.4888214
21	0xbed79d22	-0.4211207
22	0xbfed1da2	-1.8524668
23	0xbeb68316	-0.35646886
24	0xbefd4757	-0.4946849
25	0xbf8b85b6	-1.090018
26	0xbe00c962	-0.12576821
27	0x3fa133db	1.259395
28	0xbf1a05a1	-0.6016484
29	0xbf44f047	-0.76929134
30	0xbfaac34c	-1.334085
31	0x3c0ce5fb	0.0085997535

encoder.spatial_embedding.bias f4 [16]
0	0x3ec0bd5e	0.37644476
1	0xbd8bda07	-0.06828695
2	0x3e84e42c	0.2595533
3	0xbf1f1c11	-0.621522
4	0x3f37ded3	0.7182438
5	0x3efc4de5	0.4927818
6	0xbe5ea0ea	-0.21741071
7	0x3e6c75ac	0.23091763
8	0x3f09a495	0.5376676
9	0x3ee7e634	0.4529282
10	0x3e2ada5f	0.16684864
11	0xbecc6ba4	-0.39925873
12	0x3e60c8f3	0.21951656
13	0x3ede7e59	0.4345577
14	0x3e2d9e58	0.16954935
15	0x3e39d67e	0.18148229

decoder.decoder.weight_ih_l0 f4 [128, 16]
0	0xbc6d19df	-0.0144715
1	0x3df75752	0.12077202
2	0x3d01bf82	0.031676777
3	0xbd6c684d	-0.057716656
4	0x3d93c1e2	0.072147146
5	0xbd258058	-0.0404056
6	0xbd58cf5f	-0.05293214
7	0xbde19d90	-0.11016381
8	0x3e086a65	0.13321836
9	0x3d9c0be7	0.07619458
10	0x3dfde746	0.123976275
11	0x3e256885	0.16153152
12	0xbd140c40	-0.036144495
13	0xbe2c2139	-0.16809548
14	0x3c8c00e6	0.017090272
15	0x3e178630	0.14797282
16	0xbd9e1f82	-0.077208534
17	0xbe80d033	-0.25158843
18	0xbe1a13c3	-0.15046601
19	0x3d28c49e	0.041203134
20	0xbe22789c	-0.15866321
21	0x3d2e2fd7	0.042526092
22	0xbe364328	-0.17799056
23	0x3d6b5d68	0.057462126
24	0x3e197d35	0.14989169
25	0xbdc26743	-0.09492352
26	0xbe0c55b4	-0.13704568
27	0xbd89c0b9	-0.06726212
28	0x3d6764a1	0.05649245
29	0x3e783df2	0.2424238
30	0x3dc867b8	0.09785408
31	0xbe158bd5	-0.14604123
32	0x3cc83d15	0.024443189
33	0xbc267b0c	-0.010161173
34	0xbe1c768b	-0.15279596
35	0x3df78705	0.120863
36	0x3d9abb6e	0.075552806
37	0x3e228c80	0.15873909
38	0xbe339017	-0.17535435
39	0xbddd1b74	-0.10796252
40	0x3e04bd53	0.12962846
41	0xbc10537f	-0.0088089695
42	0x3d947b5e	0.07250093
43	0xbd8406f1	-0.064466365
44	0xbd31052d	-0.043217827
45	0xbe22eb15	-0.15909989
46	0xbdfd3fa6	-0.123656556
47	0x3e361ad9	0.17783679
48	0xbdef1a88	-0.11674982
49	0xbe302e83	-0.17205243
50	0xbe197914	-0.14987594
51	0xbd84785d	-0.0646827
52	0xbd861a4f	-0.06547987
53	0xbdc8c398	-0.098029315
54	0xbcdaaef8	-0.02669476
55	0x3e2146f2	0.1574972
56	0x3c9bd1e5	0.019020984
57	0xbd2e868f	-0.042608794
58	0xbdc33e2d	-0.095333435
59	0x3e15a64b	0.14614217
60	0x3b8120e1	0.003940687
61	0x3d1a3d95	0.037656385
62	0xbcacaf88	-0.021079794
63	0x3de345ff	0.11097335
64	0xbd4e9c39	-0.050441954
65	0x3e27e912	0.16397503
66	0x3e36e81b	0.17861979
67	0xbd10d1de	-0.035356395
68	0xbdc0c537	-0.09412616
69	0xbdc39d89	-0.09551532
70	0x3cf714c0	0.030161262
71	0x3e298937	0.1655625
72	0x3e222b14	0.15836746
73	0xbe39d726	-0.18148479
74	0x3df32565	0.11872367
75	0x3e04ab31	0.1295593
76	0x3cc87ff8	0.024475083
77	0x3cb32758	0.021869346
78	0xbd9fbe89	-0.078000136
79	0xbe178c94	-0.1479972
80	0x3e13d95d	0.14438386
81	0xbdd43fc5	-0.103637256
82	0x3d113c73	0.03545804
83	0x3b91c4f8	0.0044485293
84	0x3e358c35	0.17729266
85	0xbdfa9c05	-0.122367896
86	0xbc146409	-0.009057053
87	0xbce012b7	-0.027352674
88	0xbddf8b18	-0.10915202
89	0x3a824926	0.0009940013
90	0x3d5e719d	0.05430757
91	0x3d026fd7	0.03184494
92	0x3e3a16a6	0.18172702
93	0x3e51e172	0.20496157
94	0x3ded3484	0.11582282
95	0xbc93551f	-0.017984925
96	0x3dab6b8c	0.08370122
97	0x3d8c8d54	0.06862894
98	0x3d8ea0fc	0.06964299
99	0xbdc77818	-0.09739703
100	0x3c8dad22	0.01729447
101	0xbd73b1f5	-0.059495885
102	0x3da8ad11	0.08236135
103	0x3d900cc3	0.07033684
104	0xbe20044c	-0.15626639
105	0x3b880b0d	0.004151708
106	0x3d4b5093	0.04963739
107	0x3d85e542	0.06537868
108	0x3d712d08	0.058880836
109	0x3e1b4380	0.15162468
110	0xbe1bc84b	-0.15213124
111	0xbdc36d98	-0.09542388
112	0x3df83ad3	0.12120595
113	0xbdbcde3a	-0.09222074
114	0x3db7c848	0.089737475
115	0xbc0a196e	-0.0084289145
116	0xbd8c03ec	-0.068366855
117	0xbc5a4178	-0.013321273
118	0xbe29a7a3	-0.16567855
119	0xbc1083ae	-0.008820457
120	0x3e110195	0.1416076
121	0x3da8c358	0.08240384
122	0x3e09b078	0.13446224
123	0x3e02e3db	0.12782232
124	0xbe416b6f	-0.18888639
125	0x3dc30ad5	0.095235504
126	0x3dce4a34	0.10072747
127	0xbd81f648	-0.063458025
128	0x3e0dbfba	0.13842669
129	0xbe16d5dd	-0.1473002
130	0x3e1eba36	0.15500721
131	0x3d53a509	0.05167106
132	0x3dd415ef	0.10355746
133	0x3df9b157	0.12192028
134	0xbccf7441	-0.025323989
135	0x3d2dbc79	0.04241607
136	0xbe2803c6	-0.1640769
137	0x3da5dd9a	0.08098908
138	0xbbd39fd2	-0.006458261
139	0xbc8f4644	-0.01748956
140	0xbcd467c8	-0.025928393
141	0xbd1aff28	-0.037840992
142	0xbe195e08	-0.14977276
143	0x3e3ba50f	0.18324684
144	0xbc932734	-0.01796303
145	0xbe000b21	-0.12504245
146	0x3daaccb0	0.08339822
147	0x3dd4f2cb	0.103978716
148	0x3e3cd72d	0.18441458
149	0xbde4108a	-0.11135967
150	0x3e1803c3	0.14845185
151	0x3e2bbd75	0.16771491
152	0x3e2018bb	0.15634434
153	0x3d24a8a7	0.040199902
154	0xbde90ebb	-0.11379763
155	0x3df605fd	0.12012861
156	0x3dd61d56	0.10454814
157	0x3cba1a30	0.022717565
158	0xbdb0e916	-0.086382076
159	0x3e06d1b3	0.13165931
160	0x3e061399	0.13093413
161	0xbe5710a1	-0.21002437
162	0xbd6b0508	-0.057377845
163	0x3c19d665	0.009389495
164	0x3e4dd90f	0.20102333
165	0xbd87a136	-0.066225454
166	0xbe2d2ffa	-0.16912833
167	0x3a3aaede	0.0007121394
168	0x3e3a9269	0.18219914
169	0x3c175b28	0.009238042
170	0x3c2d6925	0.01058415
171	0xbd855fa2	-0.06512381
172	0xbd0e1b86	-0.034694217
173	0x3e8926a5	0.26787296
174	0x3d865159	0.065584846
175	0x3d646a6a	0.055765547
176	0xbddb8b0c	-0.107198805
177	0xbd979aa7	-0.074025445
178	0xbe6b335b	-0.2296881
179	0x3e05ef67	0.13079606
180	0x3d2578cb	0.0403984
181	0xbde9bc2c	-0.11412844
182	0x3e09c5b7	0.13454328
183	0x3dfb610b	0.12274369
184	0xbd04d6a5	-0.032431263
185	0x3cb274d0	0.021784216
186	0x3d284fd6	0.041091762
187	0xbe03ad7d	-0.1285915
188	0x3d416893	0.04721887
189	0x3e156e09	0.14592756
190	0xbdc8ad67	-0.09798699
191	0x3d9fe86d	0.078080036
192	0xbe16243d	-0.14662261
193	0xbe1215ad	-0.14266081
194	0xbdfa4b52	-0.122213975
195	0x3cc75dd7	0.024336739
196	0xbe125784	-0.14291197
197	0xbdc70217	-0.097171955
198	0xbe0579ca	-0.1303474
199	0xbdc661f5	-0.096866526
200	0x3e0ba688	0.13637745
201	0x3d91a760	0.071120024
202	0x3e03a478	0.12855709
203	0xbd084c5d	-0.03327595
204	0xbd961c2a	-0.073295906
205	0xbe15227f	-0.1456394
206	0xbe2355b0	-0.15950656
207	0x3e064887	0.13113604
208	0xbceb23b0	-0.02870354
209	0x3ba0f49b	0.0049119717
210	0xbd8b42e7	-0.0679987
211	0xbe0c40da	-0.13696614
212	0xbd98967f	-0.0745058
213	0xbd3fee56	-0.046858154
214	0x3df78008	0.12084967
215	0x3e4ea59e	0.20180365
216	0x3dd46a60	0.10371852
217	0xbdc883d2	-0.09790768
218	0xbd90e848	-0.07075554
219	0xbdec05ac	-0.11524519
220	0x3ccab369	0.024743753
221	0x3e1206a3	0.14260344
222	0xbdd1c40d	-0.10242472
223	0x3def5604	0.11686328
224	0xbdf436ff	-0.11924552
225	0x3dd6a24c	0.104801744
226	0x3c66e34c	0.014092278
227	0x3da97a1c	0.08275244
228	0xbd8141d7	-0.06311386
229	0xbd443349	-0.04790047
230	0xbe0a05f8	-0.1347884
231	0x3dbd3055	0.09237734
232	0x3d0b7b0f	0.034052905
233	0x3e007b00	0.12546921
234	0xbdfbc489	-0.122933455
235	0xbdc0b0ce	-0.09408723
236	0x3ba51210	0.0050375536
237	0x3dd263a8	0.10272914
238	0x3e13cb4b	0.14433019
239	0x3e17a27b	0.14808075
240	0xbdc020cb	-0.09381255
241	0x3e7d38f5	0.24728759
242	0x3e087b30	0.13328242
243	0x3dcfe508	0.10151106
244	0xbd959048	-0.0730291
245	0xbdb04283	-0.08606436
246	0x3c05c73d	0.008165178
247	0x3d4c172b	0.049826782
248	0x3dc50d31	0.09621657
249	0xbe2d7a8d	-0.1694128
250	0xbe137282	-0.1439915
251	0x3ddb58f9	0.107103296
252	0x3dfe372d	0.12412868
253	0xbe2cef88	-0.16888249
254	0x3e01b712	0.12667492
255	0x3c45905b	0.012058343

decoder.decoder.weight_hh_l0 f4 [128, 32]
0	0xbdba5a80	-0.09099293
1	0x3e28d785	0.16488464
2	0x3db81a08	0.0898934
3	0x3e318938	0.17337501
4	0xbc93f921	-0.01806313
5	0xbd9ff33c	-0.07810065
6	0xbd9bcc7c	-0.07607362
7	0x3cceb436	0.025232416
8	0x3e436a79	0.19083585
9	0x3e035419	0.1282505
10	0xbe107420	-0.14106798
11	0x3d32f736	0.04369279
12	0x3dcf7821	0.10130335
13	0xbdbaa4ce	-0.09113465
14	0x3e38ea8f	0.18058227
15	0x3cd30e0f	0.02576354
16	0x3d522792	0.05130727
17	0x3e2186bc	0.15774053
18	0x3dc3dce9	0.0956362
19	0x3e02f494	0.12788612
20	0x3d4375e1	0.04771984
21	0x3e513745	0.2043124
22	0x3d530408	0.051517516
23	0x3e1ba7a7	0.15200673
24	0x3cc4232d	0.023942554
25	0x3e022ce9	0.12712444
26	0xbe1c1fe0	-0.15246534
27	0x3e16952c	0.14705342
28	0x3cb4214c	0.021988533
29	0x3e2b4f41	0.16729452
30	0x3dbdfa01	0.092762
31	0xbe0b18d3	-0.13583688
32	0xbdcb8990	-0.09938347
33	0x3e3fb547	0.18721496
34	0x3dd5ed73	0.104456805
35	0xbe1765e6	-0.14784965
36	0xbc0908a8	-0.00836388
37	0x3cf8264f	0.030291704
38	0xbb55b67c	-0.003260999
39	0x3d51f3a4	0.051257744
40	0x3e11bc08	0.14231884
41	0xbdf2a842	-0.11848499
42	0x3c03ca8b	0.0080438955
43	0x3d8e8a6c	0.069599956
44	0x3cf37aa7	0.029721571
45	0x3deb228c	0.11481199
46	0xbd96326e	-0.073338374
47	0xbcdb7d92	-0.026793275
48	0xbd92f0aa	-0.07174809
49	0xb94093ce	-0.00018365608
50	0x3e0fe1d7	0.14050995
51	0x3d77c6f1	0.06049246
52	0xbe052546	-0.130025
53	0xbdf78bf2	-0.12087239
54	0x3c0888f7	0.008333436
55	0x3d35d3de	0.044391505
56	0x3e1bf153	0.15228777
57	0x3e2ae651	0.16689421
58	0x3dcdfaf4	0.10057631
59	0x3d28a853	0.04117615
60	0x3df8bebc	0.12145755
61	0xbd92be44	-0.071651965
62	0xbdad7cce	-0.0847107
63	0x3c1d1008	0.009586342
64	0xbe3f5ad6	-0.18686995
65	0x3e28248c	0.16420192
66	0xbde73d2b	-0.11290964
67	0x3bb52a23	0.0055287047
68	0x3d8e209c	0.069398135
69	0xbdd46c9b	-0.10372277
70	0x3e1cbefc	0.1530723
71	0xbdc9ff34	-0.09863129
72	0x3d8023af	0.06256806
73	0xbe14b6a6	-0.145228
74	0x3dd13731	0.10215605
75	0x3e2bae0a	0.1676561
76	0x3daa3a48	0.083118975
77	0x3dc018aa	0.09379704
78	0x3d39aa17	0.045328226
79	0xbcabc597	-0.020968242
80	0xbdd037c6	-0.10166888
81	0xbc0dbf60	-0.008651584
82	0xbdd38fe9	-0.10330183
83	0x3c0279f7	0.007963649
84	0x3ce84edf	0.028357921
85	0x3e4d5dfb	0.20055382
86	0x3ca85ec0	0.020552993
87	0xbda8894a	-0.08229311
88	0xbe23b65c	-0.15987533
89	0x3e24c7dc	0.16091865
90	0xbe1b5d7e	-0.15172383
91	0xbe0dca5d	-0.13846727
92	0xbdd3145c	-0.103066176
93	0xbe3fec16	-0.18742403
94	0x3e217f93	0.15771322
95	0x3dfd720d	0.12375269
96	0xbe0b0b96	-0.13578638
97	0xbdf8e3ee	-0.12152849
98	0xbdd9e760	-0.106398344
99	0x3dad048e	0.08448134
100	0xbdc5d221	-0.096592195
101	0x3df375e7	0.118877225
102	0x3de48ca2	0.11159636
103	0x3e1591a4	0.14606339
104	0x3ddfcd55	0.10927836
105	0xbbf4e0b1	-0.0074730744
106	0xbd96fe74	-0.07372752
107	0xbe320860	-0.17386007
108	0x3dd0cb7d	0.10195062
109	0x3e234495	0.1594413
110	0xbd7b1c48	-0.061306268
111	0x3d01ac43	0.031658422
112	0x3d9f96d7	0.07792442
113	0x3e28bd4f	0.16478465
114	0x3dd2ad3e	0.102869496
115	0x3c855bd4	0.016279139
116	0xbd88e954	-0.06685129
117	0x3d456ab0	0.04819745
118	0x3deb843d	0.11499832
119	0xbdb7b654	-0.08970323
120	0xbe4e72ac	-0.20160931
121	0x3da5b758	0.08091611
122	0xbe1f322a	-0.1554648
123	0xbd3fe10b	-0.046845477
124	0x3da01809	0.07817084
125	0xbdba4d86	-0.09096818
126	0x3d9d1d88	0.07671648
127	0xbd1ba33e	-0.037997477
128	0x3e094d80	0.1340847
129	0x3e26b64d	0.1628048
130	0x3d58be6f	0.052915987
131	0x3d2d967e	0.04237985
132	0xbcd243e7	-0.025667144
133	0xbde19730	-0.11015165
134	0x3cca041e	0.024660166
135	0x3e338370	0.17530608
136	0x3d983aa8	0.07433063
137	0x3bc37a46	0.005965504
138	0x3d92da11	0.07170499
139	0x3d41e168	0.047334105
140	0x3d5a1f1a	0.053252317
141	0x3e4dd238	0.20099723
142	0xbd720f01	-0.05909634
143	0x3e3ec9d8	0.18631685
144	0x3d25b17b	0.04045246
145	0xbd3007d1	-0.042976204
146	0xbda7e4cc	-0.081979364
147	0xbbfcb07d	-0.0077114687
148	0x3e243355	0.16035207
149	0x3e62bba8	0.22141898
150	0x3d61bec1	0.055113558
151	0xbd56bbb2	-0.052425094
152	0xbe3200ab	-0.17383067
153	0x3db459b5	0.08806173
154	0xbcb3245e	-0.021867927
155	0x3dc609b2	0.09669818
156	0xbdc4bf1b	-0.09606763
157	0xbe40a248	-0.18811905
158	0xbe04a339	-0.1295289
159	0x3cc90c4a	0.024541993
160	0x3bdc2436	0.006718184
161	0x3e41c155	0.18921407
162	0xbd493037	-0.049118247
163	0xbd870682	-0.06593038
164	0x3dd5da57	0.10442036
165	0x3d7dbdb7	0.061948504
166	0xbe2e21ee	-0.1700513
167	0x3e15b553	0.14619951
168	0x3d396362	0.045260794
169	0x3dd4c9aa	0.10390027
170	0xbce5aad1	-0.028035553
171	0x3dc01dd7	0.093806915
172	0x3db4fc87	0.08837228
173	0x3e29000b	0.16503923
174	0xbdeccd1a	-0.115625575
175	0x3d976b64	0.0739353
176	0x3e37190d	0.1788065
177	0xbda6ca97	-0.0814411
178	0x3d5c9fa0	0.053863168
179	0xbd760ccb	-0.060070794
180	0xbddd08ce	-0.10792695
181	0x3be159cb	0.0068771592
182	0x3d0e67dd	0.03476702
183	0x3df1af23	0.11800983
184	0xbd1ff2ab	-0.039049786
185	0x3daeecb4	0.08541241
186	0x3e5b60b5	0.2142361
187	0x3d8596ec	0.06522927
188	0xbdb5096c	-0.08839688
189	0xbd1c68fc	-0.03818606
190	0x3ddd58fa	0.108079866
191	0xbdeb1e88	-0.11480433
192	0x3bcd18db	0.0062590665
193	0x3c655b01	0.013998748
194	0xbb86e2ae	-0.004116378
195	0x3e0a8865	0.13528593
196	0xbcfac04a	-0.030609269
197	0xbdfd0ff1	-0.12356556
198	0x3d20e16c	0.03927748
199	0xbdee65e6	-0.11640529
200	0x3e0b5834	0.13607866
201	0xbd1b90f0	-0.03798002
202	0xbe0e7b3a	-0.13914195
203	0xbda7443d	-0.08167312
204	0xbd42a1d5	-0.047517616
205	0xbe436ea0	-0.19085169
206	0x3db5bc2e	0.08873783
207	0x3d93f7d3	0.07225003
208	0xbdeae881	-0.11470128
209	0xbd569927	-0.05239215
210	0x3e27bfbc	0.16381735
211	0x3d848f70	0.06472671
212	0x3d466028	0.048431545
213	0x3d006db4	0.03135462
214	0x3dd90f65	0.105986394
215	0x3e0908de	0.13382289
216	0xbe1796df	-0.14803647
217	0x3bae4c86	0.005319181
218	0xbe373e9f	-0.17894982
219	0xbc44034f	-0.011963679
220	0x3e3669ca	0.17813793
221	0x3b3bb74b	0.0028643187
222	0xbd455dd7	-0.048185196
223	0x3dd5d2de	0.1044061
224	0xbd30ea50	-0.043192208
225	0x3e2c59a7	0.16831075
226	0x3d9a99bf	0.07548856
227	0xbc4b60d2	-0.0124132205
228	0x3d1fc00f	0.03900152
229	0x3d26cc42	0.04072214
230	0x3e601a39	0.21885003
231	0x3d51116d	0.05104201
232	0x3c8da653	0.017291224
233	0xbd3e24f4	-0.04642196
234	0x3e1e6f4a	0.15472141
235	0x3dff0548	0.12452179
236	0xbe0cbf0d	-0.13744755
237	0xbcd83145	-0.026390681
238	0xbd15f576	-0.036611043
239	0x3e1f0d24	0.15532357
240	0x3de0ffc4	0.109862834
241	0xbd2a8923	-0.04163469
242	0xbd4ca80e	-0.049964957
243	0x3d44041f	0.047855493
244	0xbd940182	-0.0722685
245	0xbd4ee20d	-0.050508548
246	0x3dc420c3	0.09576561
247	0xbdbe4472	-0.09290399
248	0x3e083ba0	0.13303995
249	0x3ca70731	0.020389171
250	0xbe0ddcba	-0.13853732
251	0x3de051d1	0.10953105
252	0xbdc06e2c	-0.093960136
253	0xbcb51b83	-0.022107845
254	0xbd9f9868	-0.07792741
255	0x3d0b3999	0.033990476

decoder.decoder.bias_ih_l0 f4 [128]
0	0xbc7a3574	-0.015271533
1	0xbcd3019a	-0.0257576
2	0x3d79d5dd	0.06099497
3	0xbd88cd64	-0.066798
4	0x3dca1bac	0.09868559
5	0x3b4fd28d	0.0031711191
6	0xbe1524de	-0.14564845
7	0xbd6be4fa	-0.057591416
8	0xbdf50db3	-0.119655035
9	0xbc883a8d	-0.016629482
10	0xbdb1f1e8	-0.08688718
11	0xbdb2de79	-0.087338395
12	0x3ceba420	0.028764784
13	0x3e5534ef	0.20820974
14	0x3e0735de	0.13204142
15	0xbd53ac9d	-0.05167829
16	0x3df93ad2	0.12169422
17	0x3de5ccfb	0.112207375
18	0x3e33734d	0.17524453
19	0xbdf83c8b	-0.12120923
20	0xbe09ff48	-0.13476288
21	0x3d20f6f2	0.039298005
22	0x3e005c42	0.12535194
23	0xbda70b79	-0.08156485
24	0xbe383a7c	-0.1799106
25	0xbda840fc	-0.0821552
26	0xbdf293cf	-0.118445985
27	0x3d44a2a0	0.048006654
28	0xbdc8e50c	-0.09809312
29	0xbcd71e90	-0.02625969
30	0xbd6e8b7b	-0.058238488
31	0xbe147838	-0.14498985
32	0x3cce8b7b	0.025212994
33	0xbdf9a7be	-0.121901974
34	0x3dec3ac3	0.115346454
35	0xbcc428f8	-0.023945317
36	0x3e24ed8c	0.16106242
37	0x3db5cf5f	0.088774435
38	0x3a23bb43	0.0006245861
39	0xbdc69a8b	-0.096974455
40	0xbda9825e	-0.08276819
41	0x3d24021f	0.040041085
42	0x3d359088	0.04432729
43	0x3dbd0b0a	0.09230621
44	0x3e13de03	0.1444016
45	0x3dcb73a2	0.099341646
46	0x3d92a9b8	0.071612775
47	0xbdc19955	-0.09453074
48	0x3cf0d7dc	0.029399805
49	0xbd203323	-0.039111268
50	0xbc329121	-0.010898859
51	0xbd91b9c0	-0.07115507
52	0xbd53341b	-0.051563364
53	0x3d8e9225	0.069614686
54	0xbd1f2069	-0.038849268
55	0xbdc056be	-0.09391545
56	0x3dd8afc9	0.10580403
57	0xbd1b2027	-0.03787246
58	0x3d51eb92	0.051250048
59	0xbb1aa5b4	-0.0023597302
60	0x3d7f61e5	0.06234922
61	0x3df0be8e	0.117550954
62	0x3c51943d	0.01279169
63	0xbd866582	-0.0656233
64	0x3e33fa63	0.17575984
65	0xbe0a3236	-0.13495716
66	0xbe00e522	-0.12587407
67	0xbcc99f69	-0.024612145
68	0x3cd623d3	0.02614013
69	0xbe2b1889	-0.16708578
70	0xbdce9f67	-0.10088997
71	0x3da67842	0.08128406
72	0xbe2a4502	-0.16627887
73	0x3cd28611	0.025698693
74	0x3d772e9d	0.06034719
75	0xbdd66b55	-0.10469691
76	0xbd81fbe9	-0.06346876
77	0x3e039a74	0.12851888
78	0xbe139714	-0.144131
79	0x3d4ce333	0.05002136
80	0x3d4253c8	0.04744318
81	0x3dcdf8e7	0.1005724
82	0x3dbab99d	0.09117434
83	0xbda140fb	-0.07873722
84	0x3da10206	0.07861714
85	0x3df6c5a3	0.12049415
86	0xbe15e0c7	-0.14636527
87	0x3d99ba48	0.075062335
88	0x387551e3	5.8488815e-05
89	0x3e10efb4	0.1415394
90	0x3da52d27	0.08065253
91	0xbe0c7a07	-0.13718425
92	0xbd80e2dd	-0.06293271
93	0x3e017f3c	0.12646192
94	0x3c878663	0.016543573
95	0x3d2acb6a	0.041697897
96	0xbd9683ad	-0.07349334
97	0x3dec4abe	0.115376934
98	0x3e06afe5	0.13153036
99	0xbc8947f0	-0.016757935
100	0xbde02e35	-0.10946313
101	0x3d2c4d8e	0.04206615
102	0x3df82ea8	0.12118274
103	0xbdbf6cd0	-0.09346926
104	0xbcf30928	-0.029667452
105	0xbe0093d9	-0.125564
106	0x3e03cfa8	0.12872183
107	0x3c55bc5c	0.013045397
108	0xbe4a319d	-0.19745488
109	0x3dab2d22	0.08358218
110	0x3ca5e19b	0.020249179
111	0xbd3e8c05	-0.04652025
112	0x3dd8a07f	0.10577487
113	0x3e2ce810	0.168854
114	0xbd129d20	-0.035794377
115	0x3ceff8bb	0.029293409
116	0xba3e5a5a	-0.0007261388
117	0xbb060663	-0.0020450584
118	0xbe33a379	-0.17542829
119	0x3d34ef6f	0.044173654
120	0x3dad4fae	0.08462463
121	0x3ca547e3	0.02017588
122	0x3c777228	0.015102901
123	0xbc26531d	-0.010151652
124	0x3d676ab8	0.05649826
125	0xbc33e3d2	-0.01097961
126	0xbe03297d	-0.12808795
127	0x3d997edd	0.074949004

decoder.decoder.bias_hh_l0 f4 [128]
0	0xbe097821	-0.13424732
1	0xbd80782a	-0.062729195
2	0xbc2f5262	-0.010700794
3	0xbc4d5d78	-0.012534492
4	0xbe1075b0	-0.14107394
5	0x3d4ea825	0.050453324
6	0xbda8a143	-0.08233883
7	0x3c9a0af9	0.01880406
8	0x3d8c4c03	0.068504356
9	0xbd0aa7b9	-0.03385136
10	0x3dffedef	0.12496554
11	0xbd81cc7f	-0.06337833
12	0xbe155463	-0.14582972
13	0x3e351b5f	0.17686222
14	0xbdce779e	-0.10081409
15	0x3dfb2751	0.122633584
16	0xbdfaef4e	-0.12252675
17	0x3d1a6920	0.03769791
18	0x3da33ca7	0.07970553
19	0x3cd2ece5	0.025747726
20	0xbd1b514c	-0.037919328
21	0xbe009e96	-0.12560496
22	0xbe493b65	-0.19651563
23	0xbe1e7add	-0.15476556
24	0x3d176b16	0.03696736
25	0x3dbe592f	0.09294354
26	0x3e45ca13	0.19315366
27	0x3e253f3e	0.16137406
28	0x3da80a94	0.082051426
29	0x3ceb617a	0.028733004
30	0xbe026e5d	-0.12737413
31	0x3e177cdd	0.14793725
32	0xbc82c342	-0.015962247
33	0x3e302c7b	0.17204468
34	0x3d2f0e78	0.042738408
35	0xbdabe73f	-0.08393716
36	0x3db5be7b	0.08874222
37	0x3e3dee06	0.1854783
38	0x3d633fa7	0.055480625
39	0x3e0857c8	0.13314736
40	0x3da69054	0.08132997
41	0xbb890fe9	-0.004182805
42	0x3d1022f7	0.035189595
43	0x3d1cbeeb	0.03826801
44	0xbe1d57a0	-0.15365458
45	0xbdb67e41	-0.089108
46	0x3dce4bf4	0.10073081
47	0xbdf14410	-0.1178056
48	0xbe141c87	-0.14464007
49	0xbdc149a9	-0.09437878
50	0xbd589a46	-0.0528815
51	0x3e0e841d	0.13917585
52	0xbd375642	-0.044759996
53	0x3e278df6	0.16362748
54	0xbdebe5da	-0.1151845
55	0xbdf8d38d	-0.12149725
56	0x3e14c82b	0.14529483
57	0x3ddaf7ae	0.106917724
58	0x3dc5b208	0.096530974
59	0x3c9763fb	0.018480292
60	0x3da0243b	0.078194104
61	0xbdacf030	-0.0844425
62	0x3e33b1d2	0.17548302
63	0xbdca6ce6	-0.09884052
64	0xbdea196d	-0.11430631
65	0x3e284e69	0.16436161
66	0x3e195393	0.14973287
67	0xbe307fba	-0.17236224
68	0xbdd34c40	-0.10317278
69	0x3e1427ea	0.14468351
70	0xbd14a7fd	-0.03629302
71	0xbc2aedc2	-0.010432662
72	0x3d449390	0.04799229
73	0x3e0d1649	0.13778032
74	0x3e011aa1	0.12607814
75	0xbdb54227	-0.08850508
76	0x3e09bd4b	0.13451116
77	0x3db13e11	0.08654416
78	0x3cfb196b	0.030651769
79	0x3dd4432d	0.10364375
80	0xbe234315	-0.15943559
81	0xbbdfd2c7	-0.0068305465
82	0xbc39bc7d	-0.011336443
83	0xbd366152	-0.044526406
84	0x3dc2142f	0.09476506
85	0xbd7e2ef1	-0.062056486
86	0x3e0517ed	0.12997408
87	0x3e3e0d3a	0.18559733
88	0xbe2681ff	-0.16260527
89	0x3bda2b73	0.0066580116
90	0xbd527c1f	-0.051387902
91	0x3d9d5b90	0.0768348
92	0xbd0296a5	-0.031881947
93	0xbd0e3c18	-0.03472528
94	0xbd2a8a7f	-0.041635986
95	0xbc1714fd	-0.009221313
96	0x3d862d95	0.06551663
97	0xbd6a0c7f	-0.057140823
98	0x3dfdb971	0.12388886
99	0x3e094cfd	0.13408275
100	0x3e4e687b	0.20157044
101	0x3c08bbcd	0.008345556
102	0x3e38f1ae	0.18060943
103	0x3d2746c2	0.040838964
104	0xbdafe013	-0.08587661
105	0x3e09f463	0.13472132
106	0x3da68f75	0.08132831
107	0xbdc20a1c	-0.094745845
108	0xbe1ad44e	-0.1512005
109	0x3e3dbfcd	0.18530197
110	0x3d7a60c8	0.061127454
111	0x3d2bc6db	0.04193769
112	0xbe1e19e9	-0.15439571
113	0x395c397f	0.00021002254
114	0xbe05b9f7	-0.13059221
115	0x3df9313f	0.12167596
116	0xbdb1de8a	-0.08685024
117	0xbda94cd5	-0.08266608
118	0xbcade019	-0.021225022
119	0xbdec1330	-0.11527097
120	0xbdea6384	-0.11444762
121	0x3ccdc18d	0.025116706
122	0x3d7e5f47	0.062102582
123	0x3df27a6c	0.11839756
124	0xbdd186b8	-0.10230774
125	0x3cf2b282	0.029626135
126	0x3dd11f15	0.102110066
127	0x3e4d890c	0.2007181

decoder.spatial_embedding.weight f4 [16, 2]
0	0x3fd614c2	1.6725085
1	0x3f277703	0.6541597
2	0x3e82949e	0.2550401
3	0x3f44d714	0.76890683
4	0x3d92aee3	0.07162263
5	0x4007a718	2.1195736
6	0xbf169b9c	-0.5883119
7	0x3f428da1	0.7599736
8	0x3f92f62f	1.1481379
9	0xbe52aff5	-0.20574935
10	0x3f6f2f98	0.93432
11	0x3f2d720c	0.67752147
12	0xbfa88def	-1.3168315
13	0x3f9a1e4a	1.2040493
14	0x3ea7930e	0.3272938
15	0x3e373e45	0.17894848
16	0x3f229538	0.6350894
17	0xbeeff86a	-0.46869212
18	0xbf869cef	-1.0516642
19	0xbf21b1af	-0.6316175
20	0x3e0f4251	0.13990141
21	0xbf3cb0ba	-0.73707163
22	0xbf2418fd	-0.6410063
23	0x3f7f82b6	0.99808824
24	0xc03c2366	-2.9396605
25	0x3f4a1e88	0.78952837
26	0xbe98cbd7	-0.29843017
27	0xbfe3281c	-1.7746615
28	0x3e28fd26	0.16502818
29	0x3f1dce25	0.61642677
30	0x3f30acf4	0.69013906
31	0xbea6d39a	-0.32583314

decoder.spatial_embedding.bias f4 [16]
0	0x3ec44621	0.38334754
1	0xbd9ac1ec	-0.07556519
2	0xbef61856	-0.48065442
3	0xbe0e80a4	-0.1391626
4	0x3f2b8d88	0.67012835
5	0x3f2f6f6a	0.6852938
6	0xbdff84d3	-0.12476506
7	0x3ee411d2	0.44544846
8	0x3f2154c4	0.6301997
9	0xbddb6f02	-0.107145324
10	0xbea29f9f	-0.31762406
11	0x3ea63c44	0.32467854
12	0x3e2331fd	0.15937038
13	0x3e6a3ad1	0.22873999
14	0xbf22b0ac	-0.6355083
15	0x3f28762c	0.65805316

decoder.hidden2pos.weight f4 [2, 32]
0	0xbe462ea0	-0.19353724
1	0xbe06e854	-0.13174564
2	0x3eb12f3f	0.34606358
3	0x3e308c6c	0.17241067
4	0x3e83969b	0.2570084
5	0xbe1dd0b8	-0.15411651
6	0x3e29523b	0.16535275
7	0xbe378b9b	-0.17924349
8	0x3ddea000	0.10870361
9	0xbe6a5bb6	-0.22886547
10	0xbd9bebc1	-0.07613326
11	0x3d9c6419	0.076362796
12	0xbe8f2b0c	-0.2796253
13	0x3e433cb4	0.19066125
14	0xbf22b808	-0.6356206
15	0xbdee0389	-0.11621768
16	0x3dac5c78	0.084160745
17	0x3df7ea24	0.12105206
18	0x3da81faf	0.08209168
19	0xbeb5a4c0	-0.35477257
20	0xbe51ba64	-0.20481259
21	0x3e4430b0	0.19159198
22	0x3c8df8b5	0.017330507
23	0xbef220d6	-0.47290677
24	0x3c87dae9	0.016583877
25	0xbe865a60	-0.26240826
26	0xbe5abe26	-0.21361598
27	0xbd4014db	-0.04689489
28	0x3c300f42	0.010745825
29	0x3d92d198	0.07168883
30	0x3c5b3961	0.013380379
31	0xbd98adaa	-0.07454999
32	0x3e086a0f	0.13321708
33	0xbe9fa0cb	-0.31177363
34	0xbe63c5d0	-0.22243428
35	0x3cefc1fb	0.029267302
36	0x3ddddb27	0.108328156
37	0x3e02d9ac	0.12778348
38	0x3e3b7501	0.18306352
39	0x3d971047	0.073761515
40	0x3c43fa4e	0.011961533
41	0xbe2e2438	-0.17006004
42	0xbdb4fadf	-0.08836912
43	0xbebce131	-0.36890557
44	0x3f089f61	0.5336819
45	0x3e5cbb65	0.2155586
46	0x3c2827b7	0.010263375
47	0x3e3f6d17	0.18693958
48	0xbe4bae0a	-0.1989061
49	0x3f36cebb	0.71409196
50	0xbe53fd2e	-0.20702049
51	0x3bc1679c	0.005902244
52	0xbea594b0	-0.32340002
53	0xbd810ee3	-0.063016675
54	0xbe18ee54	-0.14934665
55	0xbc9a2b45	-0.01881946
56	0xbebf4de7	-0.37364122
57	0x3d04913d	0.032365073
58	0xbe89e159	-0.2692974
59	0xbdf410d9	-0.11917276
60	0x3ec846e8	0.39116597
61	0x3cece9b6	0.028920036
62	0x3d16ab6a	0.036784567
63	0x3dd4684b	0.10371455

decoder.hidden2pos.bias f4 [2]
0	0xbda8f2e8	-0.08249456
1	0x3dca3cf5	0.09874908
