scripts/models/sgan-models/univ_12_model.pt (torch_old, 70284 bytes, 18 tensors)

encoder.encoder.weight_ih_l0 f4 [128, 16]
-0.09012512 -0.06612226 0.06526988 0.03693022 0.012276488 0.13497873 -0.061549738 -0.018396033
-0.008856086 -0.079907745 0.15349711 0.01207939 -0.23150185 -0.0011558601 0.047209892 0.11926565
0.055484474 -0.010465449 0.10455215 0.081860654 -0.026280273 -0.19659236 0.05689598 0.10300645
-0.084714234 -0.07205776 0.062157776 -0.08357021 0.092679754 -0.20526733 0.13539799 -0.14164297
0.11138306 0.053551827 0.14748366 -0.07783557 -0.10543492 -0.17477725 0.092071384 -0.094603755
-0.06546992 0.081387654 -0.0012836672 0.1384149 -0.08961521 -0.06873984 0.21020755 -0.008452986
0.074736126 -0.06411074 -0.1323073 0.12029086 -0.12154084 -0.12524076 0.004846784 0.19159503
-0.029521415 -0.108625986 -0.16124144 0.02110186 0.06512287 0.22736973 -0.078145824 0.18140464
-0.14050189 -0.14011364 0.070602275 -0.033111233 0.06048698 -0.092581995 0.24550626 -0.06480703
-0.024993785 0.18728246 -0.059486374 -0.029828273 0.2499458 -0.12349534 -0.0198013 0.0002486727
-0.13975865 -0.22525613 0.16625406 -0.14044264 -0.113923736 -0.059142806 0.06824741 -0.06816921
-0.036644056 0.15720515 0.16546872 -0.06698078 0.09686978 -0.11180223 0.22717805 0.14785933
-0.12503263 0.020975182 -0.1411796 0.046830714 0.07017885 0.113752574 0.049228776 -0.026464934
0.1141999 -0.08228974 0.0045337426 -0.0666562 0.13697408 0.025964662 0.18705958 0.10709199
0.1153369 0.018448459 0.11992234 -0.0058609 0.025072694 -0.07300592 0.22614141 -0.030590605
-0.116359584 -0.12465648 0.14649878 0.22158474 0.17255434 0.009610841 0.16457121 0.066290215
-0.14811169 0.032780275 0.085952446 0.03445892 0.0916598 -0.08440106 0.22449745 0.06690193
-0.050487656 -0.040041123 -0.12511083 0.06471564 0.051575698 -0.08512693 -0.024175309 -0.09922496
0.09644771 -0.20149346 -0.07778424 0.083943896 0.0030684585 0.022573322 0.19951129 0.17584781
0.0070876367 0.06182207 0.15384994 -0.07517253 -0.09124148 0.051012557 0.18164599 0.17066255
0.051231064 0.1360824 0.109087415 0.077271774 -0.042376112 0.06382353 0.091133416 0.16793169
0.02852634 -0.15780489 -0.0136285275 0.11222135 -0.026868554 0.022194449 0.06738112 -0.10495948
0.05222383 0.056705505 -0.045764264 -0.16909233 0.043508444 -0.016087504 0.073865846 -0.08932177
-0.08902095 -0.13224256 0.09569647 -0.08211299 0.015520753 0.041441157 -0.022897672 -0.08744681
-0.116789944 0.034836434 -0.05603216 0.04642944 0.15058783 -0.16552448 -0.13775782 0.16034675
0.0074047544 -0.13104331 0.1844862 0.16561435 -0.121172 0.0748808 0.08070444 0.035897937
0.027319161 0.0029394117 -0.0044317 0.04375603 0.18786028 -0.09361373 0.057034984 -0.23373953
-0.03224537 0.089994036 0.09134429 0.10223509 -0.20106652 -0.08344449 0.12636113 -0.034423072
0.18297412 0.021926384 0.04824977 -0.0703479 0.20702049 -0.23977913 0.16040969 0.05956755
-0.07138179 -0.17393814 0.08047013 0.14603037 0.029207325 -0.04912754 -0.14478269 -0.25607422
0.06618423 -0.14486934 -0.17710464 -0.052813195 0.054853406 -0.07172449 0.09421527 0.15155502
0.09747105 0.19346589 -0.06762876 -0.11047368 0.122449405 -0.08398183 -0.09315697 -0.07598324
00000000: 8593 b8bd 1c6b 87bd 37ac 853d 2444 173d
00000010: 5323 493c dd37 0a3e 941b 7cbd 47b3 96bc
00000020: 1e19 11bc aca6 a3bd 592e 1d3e a2e8 453c
00000030: d20e 6dbe 3b80 97ba 295f 413d 8d41 f43d
00000040: b043 633d 4677 2bbc 701f d63d 8fa6 a73d
00000050: ba49 d7bc 824f 49be c20b 693d 0cf5 d23d
00000060: a87e adbd 0593 93bd 2799 7e3d dc26 abbd
00000070: e2ce bd3d 9931 52be c5a5 0a3e db0a 11be
00000080: cd1c e43d 2959 5b3d f505 173e 4168 9fbd
00000090: 43ee d7bd cff8 32be ec8f bc3d 9dbf c1bd
000000a0: 1815 86bd 92ae a63d b940 a8ba a3bc 0d3e
000000b0: 2e88 b7bd 79c7 8cbd a640 573e 657e 0abc
000000c0: 410f 993d 7e4c 83bd 917b 07be 0e5b f63d
000000d0: 67ea f8bd 1d3f 00be c5d1 9e3b 7d31 443e
000000e0: e5d6 f1bc 4d77 debd 7a1c 25be cfdd ac3c
000000f0: 245f 853d 9cd3 683e eb0a a0bd 23c2 393e
00000100: badf 0fbe f379 0fbe ed97 903d a59f 07bd
00000110: 32c1 773d a19b bdbd fe65 7b3e 8cb9 84bd
00000120: c4bf ccbc f9c6 3f3e fca7 73bd 6c5a f4bc
00000130: cbf1 7f3e 20eb fcbd 5636 a2bc 4960 8239
00000140: e41c 0fbe 8ba9 66be 813e 2a3e 32d0 0fbe
00000150: d950 e9bd ba3f 72bd 4cc5 8b3d 4c9c 8bbd
00000160: 1418 16bd 63fa 203e a270 293e 382d 89bd
00000170: aa63 c63d 91f8 e4bd 5da1 683e 7068 173e
00000180: 8e08 00be 25d4 ab3c 6391 10be 90d1 3f3d
00000190: eeb9 8f3d 1cf7 e83d 1da4 493d fdcc d8bc
000001a0: a3e1 e93d 8687 a8bd ca8f 943b 0c83 88bd
000001b0: ef42 0c3e d8b3 d43c 8c8c 3f3e 0c53 db3d
000001c0: c135 ec3d 3921 973c d899 f53d cb0c c0bb
000001d0: 4065 cd3c 2184 95bd 9d91 673e 2699 fabc
000001e0: ef4d eebd e64b ffbd c703 163e 1ce7 623e
000001f0: 16b2 303e ca76 1d3c 5b85 283e 2ac3 873d
00000200: 97aa 17be 9c44 063d d607 b03d cc24 0d3d
00000210: 22b8 bb3d 77da acbd a9e2 653e e103 893d
00000220: 25cc 4ebd 2902 24bd 0e1d 00be a289 843d
00000230: 0a41 533d 0757 aebd 4c0b c6bc 7536 cbbd
00000240: 6186 c53d 4d54 4ebe 584d 9fbd c7ea ab3d
00000250: 3118 493b b0eb b83c b04c 4c3e 7311 343e
00000260: 683f e83b 2439 7d3d d78a 1d3e 0ef4 99bd
00000270: d0dc babd 8bf2 503d 6801 3a3e 2ac2 2e3e
00000280: aad7 513d 2f59 0b3e 3969 df3d aa40 9e3d
00000290: 9392 2dbd e9b5 823d 28a4 ba3d 49f6 2b3e
000002a0: 12b0 e93c 9b97 21be 304a 5fbc 4fd4 e53d
000002b0: 711b dcbc 22d1 b53c 1dff 893d fff4 d6bd
000002c0: a8e8 553d 0844 683d 4f73 3bbd 8a26 2dbe
000002d0: e935 323d f1c9 83bc fa46 973d 55ee b6bd
000002e0: 9e50 b6bd 986a 07be 83fc c33d db2a a8bd
000002f0: c24a 7e3c 34be 293d e693 bbbc 5017 b3bd
00000300: 912f efbd a6b0 0e3d fa81 65bd cc2c 3e3d
00000310: b233 1a3e 407f 29be 6310 0dbe f031 243e
00000320: 95a3 f23b 3830 06be f3e9 3c3e cf96 293e
00000330: 0729 f8bd 1b5b 993d 5f48 a53d b709 133d
00000340: 6fcc df3c 25a3 403b cb37 91bb 8639 333d
00000350: 725e 403e 8eb8 bfbd 849d 693d 6a59 6fbe
00000360: b913 04bd cb4e b83d b712 bb3d a260 d13d
00000370: 62e4 4dbe f2e4 aabd d064 013e 35ff 0cbd
00000380: 915d 3b3e f69e b33c 8da1 453d 8f12 90bd
00000390: 2efd 533e a988 75be 7042 243e 1afd 733d
000003a0: 9e30 92bd d71c 32be 86cd a43d fc88 153e
000003b0: 3344 ef3c f639 49bd ea41 14be 291c 83be
000003c0: 998b 873d a158 14be eb5a 35be a652 58bd
000003d0: f7ad 603d 4ae4 92bd eff3 c03d 3d31 1b3e
000003e0: e79e c73d ec1b 463e f380 8abd 0640 e2bd
000003f0: c1c6 fa3d aafe abbd 15c9 bebd 1a9d 9bbd

encoder.encoder.weight_hh_l0 f4 [128, 32]
-0.08986088 -0.1791411 -0.070167415 0.11607153 -0.026796855 0.20378943 -0.089675814 0.16441356
-0.08585582 0.11986398 -0.13238336 0.005137268 0.013904234 0.116318665 -0.20969276 -0.115893126
-0.2080551 -0.03126446 -0.036747817 -0.15524827 -0.1100779 -0.07427088 0.011811856 -0.06862785
-0.0944784 0.08107372 -0.11377573 -0.14513259 0.11022612 0.1784797 0.022495022 0.008187853
0.00969953 0.034288753 -0.134014 -0.0044359835 -0.20109686 0.1047596 -0.21505544 0.21012722
-0.003277965 -0.09713792 0.1846019 0.024046095 0.10216239 -0.016821543 0.2016707 -0.11187776
-0.2106619 -0.13292436 0.051665906 0.06735724 0.002968634 -0.23262791 0.024564436 0.07963601
0.13592386 0.08325043 -0.100670025 0.0010897975 -0.1405973 0.24920294 -0.13752423 -0.2018918
0.12637979 0.114834465 -0.16181238 0.19862273 -0.14288786 0.104185484 -0.14998993 0.20624201
0.11478431 -0.028184267 0.19553052 0.07335146 -0.009284982 0.11379505 -0.104156755 -0.20005748
-0.048579063 -0.032925803 0.06263652 0.20747843 -0.08679472 -0.096815996 0.05818626 0.113700055
-0.016833307 -0.13765334 -0.08864302 0.036156412 0.15129842 0.0028735164 -0.16421805 0.06413696
-0.077021025 0.12894204 0.09190506 -0.06872977 -0.027361348 -0.045147896 -0.1842064 0.14502622
0.133472 -0.13308835 -0.02228934 -0.0037981838 -0.032943394 0.044726174 -0.06645133 -0.13773769
0.17020999 0.050559253 0.11745257 0.066829905 -0.122567594 -0.007103617 0.069420286 0.12047118
-0.0052709132 -0.098595865 -0.13760069 0.0015846231 0.13433897 -0.09700663 -0.116205834 -0.08002654
0.21476673 0.16595513 -0.12510344 0.04068882 0.062141735 -0.20631313 0.06735851 0.13284968
0.17791824 0.06744615 0.0056867627 -0.22362907 -0.17123158 0.23014873 0.13704552 -0.10846746
-0.15489025 0.113783486 -0.07279031 -0.08173485 0.11490006 -0.086700335 -0.23219775 -0.15047039
0.08012513 0.0011199596 -0.11413604 0.018021593 0.21225193 0.16484986 0.023748396 -0.20317529
0.091162644 -0.010574505 0.033342294 0.0920607 -0.18019357 -0.21052541 0.021352157 0.11944099
0.101380646 0.083305046 0.23081376 -0.16110209 -0.17443062 0.052663095 0.032602992 -0.08615937
0.0059857485 0.063231766 0.24847731 0.11410897 0.03780699 -0.19554286 0.056570083 -0.12878452
0.08291838 -0.015717998 0.13446492 -0.22520454 0.121685736 -0.06045393 -0.0736362 0.08893674
0.011515103 0.07617444 -0.08054644 -0.028715799 -0.100676134 0.015611483 0.0076722675 -0.010571693
-0.10332667 -0.12914518 -0.018217077 0.1391322 0.09421726 0.08341431 0.27865532 -0.06245105
-0.069071576 0.07422235 -0.1167267 0.02709116 -0.11226401 -0.07235063 -0.20254871 -0.01450879
-0.09083457 -0.16327976 0.10411364 0.041028254 0.1578893 -0.016079457 0.030436393 -0.19336736
-0.11348792 0.15956019 -0.14259118 0.2108973 -0.0374463 -0.08430374 0.042099096 -0.0058143125
-0.12911233 -0.16813943 -0.15130414 -0.19463332 -0.16230887 0.0032658766 0.1195743 0.088870995
-0.06539422 -0.054294813 0.02150973 -0.12036472 0.069998756 -0.045206 -0.08224255 -0.12574731
-0.041614402 0.10392185 0.019014155 0.083018325 -0.16598429 -0.07354184 -0.20313925 -0.07512967
00000000: fb08 b8bd c470 37be efb3 8fbd e9b6 ed3d
00000010: 1485 dbbc 2dae 503e f4a7 b7bd 075c 283e
00000020: 2dd5 afbd 3f7b f53d 818f 07be 8756 a83b
00000030: 96ce 633c 7b38 ee3d b3b9 56be 6059 edbd
00000040: 650c 55be 2a0f 00bd e184 16bd 67f9 1ebe
00000050: 8670 e1bd 551b 98bd 8486 413c c28c 8cbd
00000060: e47d c1bd fa09 a63d 4003 e9bd a39d 14be
00000070: 3bbe e13d 62c3 363e 7b47 b83c 5826 063c
00000080: c7ea 1e3c 5d72 0c3d f73a 09be ba5b 91bb
00000090: 56ec 4dbe 338c d63d 7e37 5cbe 972b 573e
000000a0: 20d3 56bb 3ff0 c6bd 4808 3d3e 51fc c43c
000000b0: 843a d13d 55cd 89bc c482 4e3e 2b20 e5bd
000000c0: c1b7 57be 531d 08be a19f 533d 98f2 893d
000000d0: 6a8d 423b 0336 6ebe 5b3b c93c 3418 a33d
000000e0: a02f 0b3e 347f aa3d 162c cebd 89d7 8e3a
000000f0: bdf8 0fbe 0e2f 7f3e 27d3 0cbe b9bc 4ebe
00000100: b469 013e 552e eb3d 25b2 25be c263 4b3e
00000110: 3251 12be 335f d53d f696 19be 1b31 533e
00000120: 0914 eb3d b1e2 e6bc 2739 483e 4a39 963d
00000130: 0a20 18bc 610d e93d 2350 d5bd dedb 4cbe
00000140: d7fa 46bd 35dd 06bd 9347 803d 3a75 543e
00000150: 6ec1 b1bd 7747 c6bd b754 6e3d 93db e83d
00000160: 01e6 89bc fff4 0cbe 798a b5bd bf18 143d
00000170: f9ed 1a3e 9b51 3c3b c728 28be 3d5a 833d
00000180: 33bd 9dbd 6209 043e b838 bc3d 32c2 8cbd
00000190: e824 e0bc 00ed 38bd 9aa0 3cbe c181 143e
000001a0: e2ac 083e 5048 08be 2298 b6bc f3ea 78bb
000001b0: a7ef 06bd cb32 373d a317 88bd 1c0b 0dbe
000001c0: 874b 2e3e 3817 4f3d f98a f03d 1ede 883d
000001d0: b804 fbbd 75c5 e8bb 392c 8e3d 98b9 f63d
000001e0: a0b7 acbb a1ec c9bd 32e7 0cbe 21b3 cf3a
000001f0: 2890 093e 69ab c6bd 53fd edbd f4e4 a3bd
00000200: cfeb 5b3e 24f0 293e 1e1b 00be 52a9 263d
00000210: 5588 7e3d c043 53be 42f3 893d bf09 083e
00000220: 3330 363e 3521 8a3d 0658 ba3b 05ff 64be
00000230: 5557 2fbe 1cac 6b3e a955 0c3e 3024 debd
00000240: 8d9b 1ebe 5107 e93d 1613 95bd 9a64 a7bd
00000250: b950 eb3d f28f b1bd 3fc5 6dbe e914 1abe
00000260: a518 a43d 9ccb 923a 28c0 e9bd 05a2 933c
00000270: 9258 593e 67ce 283e ff8b c23c 2f0d 50be
00000280: 7bb3 ba3d b040 2dbc ee91 083d 528a bc3d
00000290: aa84 38be f993 57be b8ea ae3c 7a9d f43d
000002a0: a8a0 cf3d d69b aa3d 715a 6c3e f2f7 24be
000002b0: f19d 32be 42b5 573d b78a 053d 5374 b0bd
000002c0: 1924 c43b a87f 813d d670 7e3e f7b1 e93d
000002d0: 81db 1a3d 633c 48be 08b6 673d 17e0 03be
000002e0: 1dd1 a93d 08c3 80bc 2cb1 093e 059c 66be
000002f0: 5f36 f93d 8a9e 77bd 93ce 96bd 7724 b63d
00000300: d8a9 3c3c 5801 9c3d 88f5 a4bd 653d ebbc
00000310: 4a2f cebd 4ec7 7f3c a567 fb3b e534 2dbc
00000320: ef9c d3bd a23e 04be fb3b 95bc ac78 0e3e
00000330: fbf4 c03d 1fd5 aa3d e9ab 8e3e accc 7fbd
00000340: 6675 8dbd e301 983d 680e efbd 48ee dd3c
00000350: acea e5bd 912c 94bd ee68 4fbe 47b6 6dbc
00000360: 7a07 babd cf32 27be 8839 d53d 3e0d 283d
00000370: bcad 213e 11b9 83bc be55 f93c 1802 46be
00000380: 5b6c e8bd bf63 233e 6c03 12be 76f5 573e
00000390: 4b61 19bd 70a7 acbd 1a70 2c3d fd85 bebb
000003a0: 0636 04be be2c 2cbe 79ef 1abe f54d 47be
000003b0: 4c34 26be 5108 563b 5fe3 f43d ff01 b63d
000003c0: 68ed 85bd 3d64 5ebd 2c35 b03c c781 f6bd
000003d0: 825b 8f3d ed29 39bd c86e a8bd e7c3 00be
000003e0: dd73 2abd fbd4 d43d 93c3 9b3c 8305 aa3d
000003f0: c9f7 29be 1b9d 96bd bc03 50be 96dd 99bd

encoder.encoder.bias_ih_l0 f4 [128]
-0.029373022 -0.09558448 -0.02561487 0.1824297 0.24698044 0.007708937 0.12976746 0.03220478
-0.11246874 0.20447718 0.027073056 0.12570758 0.015016482 -0.12192518 -0.10754095 -0.00020783779
0.08387072 0.020781467 0.15603389 -0.17859443 0.059141953 0.004993795 -0.04057985 0.1348556
-0.03769023 0.0971586 0.142945 0.07437032 -0.1338847 0.18033911 -0.017602742 0.05173777
0.06104368 0.025630752 0.15736888 -0.1173702 -0.12112653 -0.03642715 0.18977375 0.09623065
0.16890389 -0.044371087 0.1594823 0.04928465 -0.007939233 -0.06298171 0.03972094 0.01353378
-0.017896034 -0.03855722 -0.13039522 0.12993811 0.04739219 0.12859963 -0.019249484 -0.07772866
0.008955131 0.18661441 -0.09292291 -0.056176785 0.17119466 -0.06364124 -0.1012534 -0.10514897
0.13774951 0.025801351 -0.110239156 0.18847086 -0.13733323 0.09224392 0.06910722 -0.10057043
0.050755262 0.088033475 0.041511294 -0.064533256 0.105997786 0.030394532 0.049515016 -0.14453468
-0.090666264 -0.045344673 0.0010930555 0.07046379 -0.167158 -0.18810719 -0.14485009 0.06262804
0.12177572 0.050890666 0.020061135 -0.024593592 -0.09124942 0.050383214 -0.13882913 -0.17960446
0.14195992 0.18040079 0.16351336 -0.011157452 -0.025815938 -0.063431814 0.10254612 -0.09846823
-0.03529 0.14418049 -0.11102061 0.17584309 -0.025330946 0.1863568 0.20126326 -0.079468526
0.24100941 0.22764611 0.1763544 -0.16590515 -0.006110034 0.12329553 -0.079707235 0.059894122
0.0478849 -0.089701146 0.040968567 0.053070825 0.11786733 0.1910063 -0.03315862 0.033425346
00000000: b19f f0bc ccc1 c3bd 47d6 d1bc dace 3a3e
00000010: 71e8 7c3e 409b fc3b c3e1 043e 29e9 033d
00000020: 0356 e6bd 7762 513e 50c8 dd3c 7db9 003e
00000030: b107 763c e9b3 f9bd 6e3e dcbd 08ef 59b9
00000040: 69c4 ab3d e53d aa3c 59c7 1f3e 75e1 36be
00000050: d53e 723d fda2 a33b 0f37 26bd 9617 0a3e
00000060: 1261 1abd 17fb c63d 2d60 123e 774f 983d
00000070: 1219 09be d1aa 383e a033 90bc fcea 533d
00000080: f008 7a3d 95f7 d13c 4f25 213e ca5f f0bd
00000090: 3011 f8bd a334 15bd 0d54 423e 9314 c53d
000000a0: 24f5 2c3e 75be 35bd 544f 233e b3de 493d
000000b0: 8f13 02bc 8efc 80bd 6db2 223d cabc 5d3c
000000c0: b49a 92bc 2dee 1dbd 5386 05be 7f0e 053e
000000d0: 501e 423d 9faf 033e 18b1 9dbc 3430 9fbd
000000e0: 8bb8 123c d917 3f3e 5e4e bebd a119 66bd
000000f0: a74d 2f3e 5756 82bd f15d cfbd 5858 d7bd
00000100: 350e 0d3e 5b5d d33c 11c5 e1bd 81fe 403e
00000110: 15a1 0cbe 61ea bc3d 1688 8d3d dff7 cdbd
00000120: c0e4 4f3d e54a b43d bf07 2a3d 032a 84bd
00000130: 5e15 d93d f4fd f83c 42d0 4a3d e600 14be
00000140: 3caf b9bd 56bb 39bd db44 8f3a 524f 903d
00000150: 772b 2bbe 2c9f 40be 9553 14be 2143 803d
00000160: 8c65 f93d bb72 503d 4057 a43c 8078 c9bc
00000170: fae0 babd a15e 4e3d 3929 0ebe 3bea 37be
00000180: f15d 113e fcba 383e 0c70 273e bfcd 36bc
00000190: f27b d3bc 8ae8 81bd b303 d23d b6a9 c9bd
000001a0: 3f8c 10bd 0da4 133e c65e e3bd 3610 343e
000001b0: d882 cfbc 51d4 3e3e f517 4e3e 65c0 a2bd
000001c0: 2ccb 763e 101c 693e 3f96 343e 0ae3 29be
000001d0: ae36 c8bb 5e82 fc3d 8c3d a3bd 8a53 753d
000001e0: f522 443d 3cb5 b7bd a8ce 273d cb60 593d
000001f0: 6d64 f13d 2897 433e 55d1 07bd 04e9 083d

encoder.encoder.bias_hh_l0 f4 [128]
0.06379593 -0.08162395 0.08392771 0.18019786 0.16632521 -0.10275076 -0.07400644 0.16378896
0.14927691 0.0121945655 0.0932374 0.20300145 0.059741236 0.0043300334 0.020258786 -0.060204007
0.2270332 -0.03986446 0.11717389 -0.035006642 -0.078615196 0.15018073 -0.070774116 0.165716
0.08561564 0.03428815 -0.058274455 0.13065955 -0.12162015 0.12741871 0.1281697 0.047839306
0.13891988 0.15370446 0.16493298 0.01797917 0.06099813 -0.08846951 -0.062436588 0.045792017
-0.06722989 0.08376822 0.07299988 0.106874675 -0.09138029 -0.07872557 -0.13740847 -0.11042662
0.12425523 0.11752122 -0.12633418 -0.0151853515 -0.15572704 0.14525579 -0.023976669 0.17855532
-0.085801356 0.03500819 -0.009112534 -0.13152313 0.01726029 0.1450604 0.034508124 -0.09563304
-0.01139449 0.14636683 -0.081901796 0.018134 -0.011066825 -0.034546264 -0.06661902 0.12904903
0.12985815 -0.12197693 0.1413026 -0.12814638 -0.034085542 0.10977377 -0.14228958 0.12132142
-0.13103499 -0.146431 0.17767732 0.13631012 -0.13344504 0.060534284 0.04987606 -0.12855017
0.22039841 0.025351947 -0.0025284796 0.10147064 0.02976714 0.016857795 -0.12380902 -0.15606062
0.1759761 -0.07544153 -0.021400766 0.061555266 -0.03441492 0.12620658 -0.045562778 0.20980658
0.10778493 -0.120298326 -0.06879974 -0.09268477 0.06903031 0.071721315 -0.07519834 0.1525346
0.24742575 -0.082176395 0.1136103 0.022110313 -0.11568884 0.19908133 0.09024086 0.10161061
0.082516894 -0.04896321 -0.048003897 0.09232623 0.055807322 0.042121038 0.12618904 0.16302517
00000000: 71a7 823d 752a a7bd 4be2 ab3d ca85 383e
00000010: 2851 2a3e fe6e d2bd b090 97bd 4bb8 273e
00000020: 0cdc 183e b7cb 473c 40f3 be3d 9ddf 4f3e
00000030: 3ab3 743d f4e2 8d3b c1f5 a53c 7a98 76bd
00000040: 647b 683e ea48 23bd ddf8 ef3d 2063 0fbd
00000050: 0101 a1bd fac8 193e 05f2 90bd 75b1 293e
00000060: 4157 af3d bb71 0c3d 32b1 6ebd 9ecb 053e
00000070: fc13 f9bd 0d7a 023e eb3e 033e 26f3 433d
00000080: 0341 0e3e b464 1d3e 31e4 283e 0d49 933c
00000090: 2dd9 793d 812f b5bd 82bd 7fbd 6990 3b3d
000000a0: d3af 89bd ac8e ab3d f680 953d 1ce1 da3d
000000b0: 9725 bbbd df3a a1bd ceb4 0cbe 5a27 e2bd
000000c0: 8779 fe3d f7ae f03d bf5d 01be fbcb 78bc
000000d0: e976 1fbe efbd 143e b86a c4bc 35d7 363e
000000e0: 9fb8 afbd bf64 0f3d bd4c 15bc 00ae 06be
000000f0: 7465 8d3c b78a 143e 6458 0d3d 41db c3bd
00000100: f4af 3abc 30e1 153e 21bc a7bd c18d 943c
00000110: a151 35bc 6280 0dbd 8e6f 88bd 6e25 043e
00000120: 89f9 043e 0acf f9bd a1b1 103e ce38 03be
00000130: 489d 0bbd 12d1 e03d 5cb4 11be 5d77 f83d
00000140: 092e 06be 02f2 15be 0bf1 353e e194 0b3e
00000150: d1a5 08be ccf2 773d d74a 4c3d a8a2 03be
00000160: 1fb0 613e e3ae cf3c d9b4 25bb d7cf cf3d
00000170: 38da f33c 5c19 8a3c 958f fdbd 5bce 1fbe
00000180: 1433 343e 1781 9abd a950 afbc 6021 7c3d
00000190: a9f6 0cbd 4c3c 013e 09a0 3abd 89d7 563e
000001a0: 58be dc3d f85e f6bd e1e6 8cbd 83d1 bdbd
000001b0: c35f 8d3d a0e2 923d 9601 9abd 0832 1c3e
000001c0: 2d5d 7d3e 194c a8bd 84ac e83d b020 b53c
000001d0: 45ee ecbd fadb 4b3e 33d0 b83d 3919 d03d
000001e0: 9efe a83d a68d 48bd bc9f 44bd 8915 bd3d
000001f0: 3896 643d 1c87 2c3d b337 013e 12f0 263e

encoder.spatial_embedding.weight f4 [16, 2]
-0.5333564 -1.8953601 0.9520851 0.41599816 -0.7655149 -0.48928794 0.015254223 0.5183767
-1.1113673 -0.52917826 1.6674354 -0.39464012 0.3370674 0.3204228 1.3495754 0.6174804
0.18640107 0.5035662 0.54467416 -1.6705146 -0.9595341 -1.0749316 -0.2501635 -0.23883882
-0.14531864 0.8204229 1.109531 1.8746755 0.1089751 0.53888124 1.364093 0.85061103
00000000: 0c8a 08bf 299b f2bf d9bb 733f b6fd d43e
00000010: c9f8 43bf f383 fabe d9ec 793c 56b4 043f
00000020: 4941 8ebf 3a78 07bf 866e d53f 450e cabe
00000030: 1994 ac3e 750e a43e e3be ac3f 3213 1e3f
00000040: ecdf 3e3e b7e9 003f c46f 0b3f 6cd3 d5bf
00000050: 07a4 75bf 5c97 89bf 6e15 80be 2a92 74be
00000060: 69ce 14be 3c07 523f 1d05 8e3f 5ef5 ef3f
00000070: 562e df3d 1ff4 093f 999a ae3f a5c1 593f

encoder.spatial_embedding.bias f4 [16]
-0.25109562 -0.6668513 0.24870892 -0.63319486 -0.5248571 0.47025603 0.74775857 0.48286572
-0.5489018 0.67746997 0.392325 0.43351397 0.36691123 -0.3917484 0.45975402 0.38219136
00000000: 9b8f 80be c4b6 2abf 8dad 7e3e 0f19 22bf
00000010: 095d 06bf 66c5 f03e 1b6d 3f3f 2d3a f73e
00000020: d484 0cbf ac6e 2d3f d3de c83e 8bf5 dd3e
00000030: cadb bb3e 3f93 c8be e164 eb3e 96ae c33e

decoder.decoder.weight_ih_l0 f4 [128, 16]
-0.11247979 -0.13437909 0.10835717 0.06440475 -0.0338224 0.073389605 -0.16060393 -0.002584458
0.111810245 -0.14390463 0.09669907 -0.122943915 -0.16908109 0.05112963 0.07446298 0.06219506
0.12287695 0.18241803 -0.029803885 0.06422268 -0.1270938 -0.10783897 0.12862328 -0.08900085
-0.061708212 -0.021152187 -0.07578915 -0.07433373 0.07211107 0.036801767 -0.100093275 0.08830255
-0.059107557 -0.094571866 -0.12881629 -0.12192546 -0.049996927 0.0027260517 0.08423925 -0.042096756
-0.16415107 0.0013875889 0.005952609 0.036013767 0.06649839 -0.08511592 0.050569937 0.02263695
0.057405133 -0.013015269 -0.049426675 -0.049545236 0.05511026 -0.10078111 0.17002821 0.13204688
0.06853044 0.15937987 -0.10606575 -0.09080758 -0.13959022 -0.19904752 -0.19562842 0.054284934
0.07723237 0.01959541 0.16831732 0.19249496 -0.12733404 -0.16129044 -0.030419594 -0.0401381
-0.15354279 0.11541816 0.02958135 -0.06940541 0.046212263 -0.08562577 0.07671293 0.07591989
0.13398887 -0.123547405 0.15110157 0.06127374 -0.112577885 -0.081825 -0.13699764 0.047748215
-0.05866902 -0.023035895 -0.12498107 -0.23315407 0.036663555 -0.09098099 -0.009078188 -0.060178075
0.071279705 -0.107731655 0.16857284 -0.057857763 0.14686388 -0.10114697 -0.10310907 0.12280149
-0.119273275 -0.15083027 -0.15660217 -0.17126717 0.080757536 -0.19479491 0.024074083 -0.016250353
-0.0026456928 0.22049454 0.15022759 0.16846274 -0.07007907 0.055541366 0.005135142 -0.09083922
-0.104202114 -0.1771327 -0.15094413 0.05491833 0.068439655 -0.17204134 -0.15955026 0.014129636
-0.046125256 0.10919765 0.028589455 0.11977538 0.12398262 -0.08227929 0.13563372 -0.14086892
0.07909367 0.00275577 -0.030973895 0.048174355 -0.026258118 0.104392804 -0.021937896 0.030454021
0.06836178 0.07898335 0.11775508 0.066745825 -0.12234392 0.11116361 -0.09830621 -0.02270885
0.13634017 -0.11651834 -0.102548726 0.033877812 -0.11034847 -0.072327875 -0.045611322 0.17503724
-0.1933288 0.09051088 -0.15570638 0.0767462 0.024189066 0.098055154 0.12873553 0.12114549
-0.03959952 -0.030441685 0.104175486 -0.03999754 0.07470509 -0.1598531 0.0089820735 -0.057627868
0.07057557 -0.011273308 0.14655612 0.08182085 -0.12546834 -0.0035480885 0.060417444 -0.09114667
0.15015332 -0.016720293 -0.06047032 0.13995907 0.12821855 0.10488129 0.0064111906 -0.1692941
-0.07555906 -0.32433373 0.07362054 0.13345344 -0.07871944 0.20733914 -0.13671198 -0.1267384
-0.12391459 0.103800006 0.08705694 -0.11625056 0.17474176 0.07389564 0.17904866 0.07885969
0.061674874 -0.059225246 0.09824743 0.17735866 -0.027170874 -0.1714557 -0.15385246 0.07407435
-0.13112584 -0.10108701 0.19279552 0.023364387 0.031974137 0.08243533 -0.12070004 -0.16641907
0.004741277 0.11969067 0.063514076 -0.039329838 -0.047071226 -0.187653 -0.0041794763 0.19288677
0.17310505 0.08906344 -0.08708001 0.12235032 0.067101166 0.14058024 0.096711196 -0.0453691
0.028321214 0.18370803 -0.12499365 -0.13006762 0.16042475 0.045774497 0.059203785 0.006668543
-0.049166743 -0.042481948 0.08207709 0.008606904 0.1277204 -0.030838326 -0.06836679 0.021912467
00000000: ce5b e6bd ac9a 09be 5dea dd3d a3e6 833d
00000010: 5b89 0abd 4a4d 963d 5b75 24be 0360 29bb
00000020: c5fc e43d bc5b 13be 290a c63d 05ca fbbd
00000030: 9823 2dbe 4e6d 513d 0c80 983d 3fc0 7e3d
00000040: e9a6 fb3d cbcb 3a3e 4727 f4bc 2e87 833d
00000050: e124 02be aeda dcbd d2b5 033e 1446 b6bd
00000060: c0c1 7cbd 5a47 adbc 5837 9bbd 483c 98bd
00000070: f8ae 933d 73bd 163d b4fd ccbd f8d7 b43d
00000080: c41a 72bd e5ae c1bd 6be8 03be 0eb4 f9bd
00000090: 94c9 4cbd 8fa7 323b a185 ac3d a66d 2cbd
000000a0: 3817 28be c2df b53a 1a0e c33b 2c83 133d
000000b0: 4f30 883d 4151 aebd 6c22 4f3d 2071 b93c
000000c0: a521 6b3d ff3d 55bc a073 4abd f2ef 4abd
000000d0: 4cbb 613d 5466 cebd e01b 2e3e 4c37 073e
000000e0: b059 8c3d 7a34 233e 0039 d9bd 53f9 b9bd
000000f0: bdf0 0ebe 1dd3 4bbe d152 48be e159 5e3d
00000100: 012c 9e3d 8e86 a03c 605b 2c3e 661d 453e
00000110: db63 02be 5229 25be 8332 f9bc d967 24bd
00000120: 523a 1dbe 5b60 ec3d 9654 f23c 6c24 8ebd
00000130: 1249 3d3d 905c afbd ab1b 9d3d e37b 9b3d
00000140: 6134 093e 6c06 fdbd 5fba 1a3e 2cfa 7a3d
00000150: 3c8f e6bd de93 a7bd 1c49 0cbe a293 433d
00000160: ed4e 70bd c6b5 bcbc 13f6 ffbd f1bf 6ebe
00000170: 862c 163d 3e54 babd aebc 14bc 497d 76bd
00000180: 18fb 913d 6aa2 dcbd 5c9e 2c3e 43fc 6cbd
00000190: 7c63 163e 2526 cfbd d92a d3bd 597f fb3d
000001a0: 8c45 f4bd 4073 1abe 525c 20be a960 2fbe
000001b0: 3564 a53d 5178 47be 0337 c53c 761f 85bc
000001c0: 5c63 2dbb 52c9 613e 43d5 193e 7f81 2c3e
000001d0: 9e85 8fbd 587f 633d b144 a83b ea09 babd
000001e0: eb67 d5bd 4662 35be 1991 1abe 0bf2 603d
000001f0: 172a 8c3d 9b2b 30be 2561 23be fd7f 673c
00000200: d6ed 3cbd 04a3 df3d 6f34 ea3c cb4c f53d
00000210: 9aea fd3d 0b82 a8bd 91e3 0a3e f13f 10be
00000220: ddfb a13d 269a 343b f7bc fdbc 7952 453d
00000230: 441b d7bc e5cb d53d 1ab7 b3bc b67a f93c
00000240: 4301 8c3d 06c2 a13d 9329 f13d 09b2 883d
00000250: 738f fabd bfa9 e33d c454 c9bd e907 babc
00000260: c29c 0b3e 2ba1 eebd 1105 d2bd 76c3 0a3d
00000270: 61fe e1bd a320 94bd f0d2 3abd f63c 333e
00000280: fcf7 45be c55d b93d 7e71 1fbe 1d2d 9d3d
00000290: 2628 c63c 24d1 c83d 3fd3 033e 201b f83d
000002a0: 1b33 22bd d760 f9bc f559 d53d 76d4 23bd
000002b0: fbfe 983d 88b0 23be 8c29 133c 330b 6cbd
000002c0: ed89 903d aeb3 38bc cf12 163e b191 a73d
000002d0: c67a 00be 0c87 68bb 4878 773d 1bab babd
000002e0: cbc1 193e fff8 88bc baaf 77bd 6e51 0f3e
000002f0: b94b 033e 00cc d63d f714 d23b 6f5b 2dbe
00000300: b5be 9abd 120f a6be 5ec6 963d 05a8 083e
00000310: a837 a1bd b650 543e 3afe 0bbe b6c7 01be
00000320: efc6 fdbd 1995 d43d e94a b23d c614 eebd
00000330: 81ef 323e 9956 973d 8858 373e 3081 a13d
00000340: cb9e 7c3d 2c96 72bd f335 c93d 829d 353e
00000350: 7495 debc 1592 2fbe 808b 1dbe 4bb4 973d
00000360: da45 06be b506 cfbd 306c 453e ac66 bf3c
00000370: 50f7 023d dbd3 a83d 9531 f7bd c369 2abe
00000380: b75c 9b3b 6220 f53d ab13 823d 5318 21bd
00000390: c2cd 40bd 1c28 40be fdf3 88bb 1c84 453e
000003a0: 7342 313e e566 b63d 0157 b2bd ce92 fa3d
000003b0: 566c 893d 44f4 0f3e 8510 c63d f3d4 39bd
000003c0: e401 e83c f51d 3c3e acfc ffbd 7230 05be
000003d0: 6346 243e 0a7e 3b3d ab7f 723d cb83 da3b
000003e0: 1163 49bd 8d01 2ebd 0918 a83d f903 0d3c
000003f0: 23c9 023e a8a0 fcbc e303 8cbd c681 b33c

decoder.decoder.weight_hh_l0 f4 [128, 32]
-0.025070887 -0.06234385 -0.055866748 0.033421304 0.042520717 -0.111499816 0.027684243 0.21607056
-0.0767961 0.010053031 -0.20039763 -0.09910838 0.06172183 0.04565092 0.15315787 0.16388339
-0.08987041 -0.045207836 -0.13245806 0.088332094 0.16372946 -0.10299939 0.20340256 -0.061934475
0.17596416 -0.11213984 0.15887047 0.05898603 0.07449165 -0.072097465 -0.103928074 0.06699846
0.099781044 -0.050149955 0.22661178 0.19274053 0.12052059 -0.070664085 0.10806123 -0.016490696
-0.083663054 -0.1413708 -0.061909437 0.20607397 0.05148042 0.13956372 0.107719585 0.24594067
0.02027558 0.018312767 -0.19758837 0.2280495 0.1244674 -0.05293158 0.073778525 0.04870035
-0.0072098025 -0.1197723 0.110812925 0.1832097 0.06423047 -0.13410282 -0.07807048 -0.10690714
0.12068312 0.09852267 0.10840473 -0.08121146 -0.023300435 -0.15271807 0.010795623 -0.082094416
0.1261268 0.11378991 0.1252066 -0.004603929 0.048690964 -0.0902064 0.015140339 0.040075082
-0.026569022 -0.10897917 0.083487935 -0.0006503518 0.10294739 -0.15302028 0.14412071 0.10778515
0.16277061 -0.17093842 0.0069490504 -0.005624412 -0.12140019 -0.09265341 -0.12907076 0.049460504
-0.06055087 0.21089183 0.20380516 0.026820708 -0.049431045 0.13872479 0.008064788 -0.21243584
-0.008651542 -0.041134853 0.17215943 -0.04759257 -0.10964652 -0.17554882 0.11651743 -0.1687933
-0.097645774 -0.2462383 -0.197167 0.06756337 -0.00783513 0.06360207 0.035402317 0.10789428
-0.12732016 -0.026236128 0.06498181 -0.060233947 -0.03808462 -0.026628723 -0.180496 0.069886714
0.02660251 -0.07062139 -0.08537076 -0.07805374 0.12185643 0.10901349 0.054942742 -0.11518108
0.034637287 0.07170476 0.035003517 0.020012425 0.14822179 0.17985575 -0.020461803 0.08141046
-0.14426316 0.0074712425 0.10665746 0.16204476 -0.13441147 0.038248293 0.00041811162 0.07902612
-0.04970819 0.118367635 0.13368726 0.010201435 0.14915057 -0.18479985 0.037502456 -0.12120997
0.1051946 0.0923828 -0.032011233 -0.11026473 -0.1062198 -0.08709367 0.18061724 0.052737046
0.051524222 -0.0654932 0.13314196 -0.12712274 -0.14465138 0.18366458 -0.20516647 -0.120042324
0.14998305 0.016279098 -0.035392683 -0.07430417 -0.10632125 -0.12173037 -0.051055066 0.13704678
0.10702431 0.04009263 0.05742662 -0.14639589 -0.17939147 -0.071426325 -0.101370506 -0.1057387
0.0092595285 0.010468222 -0.114490636 0.0011804907 0.057597212 -0.15679586 0.07244971 -0.019500159
0.12308336 0.123908386 0.05224004 0.029259024 0.18904504 -0.19799615 -0.08205542 0.21773636
-0.1611726 -0.06312397 0.03785921 0.06690465 0.046691593 -0.14746444 -0.069961704 0.081992455
0.14703614 0.13011232 0.15706202 -0.12790528 0.03396452 0.056362215 -0.1410942 0.045388304
0.13111314 0.22657342 0.08340559 -0.076238655 0.04480093 -0.14272074 -0.03214317 0.15820384
-0.040539715 0.04439338 0.1110096 0.1689581 0.105165556 0.15079254 0.15345065 -0.024134269
-0.16742176 0.059473086 0.10552097 -0.090527914 0.062306624 0.016830545 -0.15146475 0.1571847
-0.027967464 0.027497549 -0.021494653 0.06103217 -0.17311859 0.10463009 0.06773894 -0.12882395
00000000: 7661 cdbc 445c 7fbd 88d4 64bd c7e4 083d
00000010: 342a 2e3d 045a e4bd 11ca e23c 9a41 5d3e
00000020: 4647 9dbd 78b5 243c 0935 4dbe 56f9 cabd
00000030: 08d0 7c3d 76fc 3a3d 6bd5 1c3e 0cd1 273e
00000040: fa0d b8bd da2b 39bd 16a3 07be 75e7 b43d
00000050: b2a8 273e 58f1 d2bd c348 503e 01af 7dbd
00000060: f32f 343e 93a9 e5bd f1ae 223e 569b 713d
00000070: 148f 983d d6a7 93bd 3ed8 d4bd 7d36 893d
00000080: 015a cc3d 0a6a 4dbd eb0c 683e c65d 453e
00000090: 80d3 f63d 55b8 90bd 354f dd3d 7f17 87bc
000000a0: 8957 abbd 82c3 10be c094 7dbd 0e05 533e
000000b0: 22dd 523d cbe9 0e3e 169c dc3d dfd7 7b3e
000000c0: f918 a63c a804 963c 9b54 4abe cf85 693e
000000d0: c4e8 fe3d c9ce 58bd 3219 973d 057a 473d
000000e0: 3540 ecbb 2e4b f5bd e3f1 e23d 539b 3b3e
000000f0: 448b 833d 4052 09be 6ae3 9fbd 21f2 dabd
00000100: b628 f73d 41c6 c93d 4d03 de3d 3252 a6bd
00000110: 8ee0 bebc 2062 1cbe 20e0 303c 1e21 a8bd
00000120: 6227 013e af0a e93d 2936 003e 8edc 96bb
00000130: 2d70 473d 22be b8bd 2f0f 783c c525 243d
00000140: 47a7 d9bc 7930 dfbd b9fb aa3d 5f7c 2aba
00000150: 15d6 d23d 59b1 1cbe 6194 133e 76be dc3d
00000160: 57ad 263e 7b0a 2fbe dcb4 e33b fd4c b8bb
00000170: aaa0 f8bd 12c1 bdbd 202b 04be 1997 4a3d
00000180: 3004 78bd 07f4 573e 4db2 503e 1ab7 db3c
00000190: 3578 4abd df0d 0e3e 2c22 043c c888 59be
000001a0: 32bf 0dbc 057d 28bd 904a 303e 6df0 42bd
000001b0: 5b8e e0bd 12c3 33be b1a0 ee3d 27d8 2cbe
000001c0: 82fa c7bd e525 7cbe 25e6 49be aa5e 8a3d
000001d0: eb5e 00bc cd41 823d 0502 113d adf7 dc3d
000001e0: 3760 02be 26ed d6bc 2f15 853d dfb7 76bd
000001f0: 9efe 1bbd 7b24 dabc f2d3 38be c420 8f3d
00000200: 82ed d93c f3a1 90bd ddd6 aebd a4da 9fbd
00000210: dd8f f93d 7742 df3d a40b 613d 0fe4 ebbd
00000220: d4df 0d3d f2d9 923d d95f 0f3d 19f1 a33c
00000230: 74c7 173e 1b2c 383e 839f a7bc 87ba a63d
00000240: b9b9 13be 53d1 f43b 3a6f da3d 10ef 253e
00000250: 29a3 09be 3eaa 1c3d fe35 db39 72d8 a13d
00000260: d19a 4bbd bb6a f23d 50e5 083e eb23 273c
00000270: edba 183e 2c3c 3dbe 2d9c 193d ef3c f8bd
00000280: 4470 d73d 3233 bd3d 361e 03bd 7ad2 e1bd
00000290: c489 d9bd 2b5e b2bd baf3 383e cd02 583d
000002a0: 100b 533d 4d21 86bd 5e56 083e 772c 02be
000002b0: 7e1f 14be 9112 3c3e 2917 52be c0d8 f5bd
000002c0: 2895 193e be5b 853c ebf7 10bd c92c 98bd
000002d0: f5be d9bd c64d f9bd 1e1f 51bd fe55 0c3e
000002e0: 902f db3d 2b38 243d 2d38 6b3d cee8 15be
000002f0: 66b2 37be f747 92bd 579b cfbd 888d d8bd
00000300: 47b5 173c e882 2b3c 117a eabd b2ba 9a3a
00000310: 0eeb 6b3d 188f 20be 8360 943d ccbe 9fbc
00000320: 2113 fc3d aec3 fd3d a7f9 553d 9fb0 ef3c
00000330: 0695 413e 81bf 4abe ac0c a8bd 48f6 5e3e
00000340: 6e0a 25be 2447 81bd 4212 1b3d 4e05 893d
00000350: af3f 3f3d eb00 17be 1548 8fbd a9eb a73d
00000360: a490 163e 2a3c 053e ded4 203e 9af9 02be
00000370: 611e 0b3d 11dc 663d ff7a 10be 16e9 393d
00000380: 8642 063e dd02 683e 8dd0 aa3d 0323 9cbd
00000390: 2e81 373d 6325 12be 8ea8 03bd 3000 223e
000003a0: f90c 26bd d5d5 353d 0059 e33d 5a03 2d3e
000003b0: 0a61 d73d 5c69 1a3e 2b22 1d3e 3bb5 c5bc
000003c0: 9c70 2bbe 0d9a 733d 611b d83d b366 b9bd
000003d0: 3b35 7f3d 36e0 893c 9319 1bbe 07f5 203e
000003e0: 061c e5bc 8a42 e13c 8e15 b0bc defc 793d
000003f0: 0046 31be 4d48 d63d b7ba 8a3d 6dea 03be

decoder.decoder.bias_ih_l0 f4 [128]
-0.050899435 0.17858942 0.034079008 -0.031225555 -0.0023951065 0.08964971 0.16985616 -0.09521056
0.1901828 0.15694283 -0.11375075 -0.15855499 -0.08654166 -0.11596981 -0.1531718 -0.008317406
-0.1463037 -0.08108412 0.119265854 -0.16660248 0.084156975 0.07377781 0.14629033 0.012863718
0.09228043 0.18214835 0.038279794 0.1304845 -0.11791599 -0.049978975 0.07061592 -0.056796536
-0.09798244 0.0027113191 -0.061413597 -0.061674085 0.13433792 0.10142105 -0.072094075 0.046112426
0.0009781446 -0.1442593 -0.0047548125 0.14174409 0.03852662 -0.034640588 -0.049141843 0.093839385
0.12654704 0.102174245 0.034479342 -0.10004606 0.26441625 0.09138399 -0.019693987 -0.078148864
0.050642803 -0.14434578 0.09861768 -0.023921406 -0.15981263 -0.006714954 0.18904775 0.03188902
-0.16761938 0.17045082 -0.09685243 -0.0072597396 0.0032593987 -0.104293324 0.018036714 0.05183737
-0.12711969 -0.059038397 -0.10672199 -0.1565636 -0.04105537 0.022803241 0.089294314 0.079519495
0.1750371 -0.12764922 -0.15652755 0.14791378 0.14768511 0.13109148 0.15111743 0.12861182
-0.11736483 0.105952755 0.001487719 0.0343996 0.043173023 0.035108663 0.05853321 0.112552606
0.012287587 -0.07439833 0.09049428 0.09888372 -0.08035689 -0.073487155 0.1454032 0.20491897
-0.14830601 0.04134549 0.011485884 -0.102746405 0.14964138 -0.04381799 -0.12319957 -0.113017425
-0.019061778 0.1743501 0.14154543 -0.111765616 0.06780256 -0.09454754 0.01246517 0.13087726
0.1706242 -0.08624671 0.17724493 0.19412178 0.13245553 0.07804617 -0.06015342 0.059841778
00000000: ed7b 50bd 25e0 363e 6e96 0b3d bccc ffbc
00000010: 38f7 1cbb 449a b73d c6ee 2d3e c1fd c2bd
00000020: 48bf 423e 9fb5 203e 27f6 e8bd 3d5c 22be
00000030: c13c b1bd 9481 edbd 11d9 1cbe bb45 08bc
00000040: a3d0 15be 6e0f a6bd a841 f43d d799 2abe
00000050: 7e5a ac3d d218 973d 22cd 153e 58c2 523c
00000060: 86fd bc3d 1985 3a3e 46cb 1c3d bb9d 053e
00000070: f07d f1bd c1b6 4cbd 149f 903d 7ca3 68bd
00000080: 04ab c8bd 63b0 313b d38c 7bbd f79d 7cbd
00000090: e18f 093e d7b5 cf3d 0fa6 93bd 62e0 3c3d
000000a0: 1635 803a b6b8 13be 42ce 9bbb 5d25 113e
000000b0: 17ce 1d3d 4ae3 0dbd f548 49bd dd2e c03d
000000c0: 8c95 013e bb40 d13d 363a 0d3d f3e4 ccbd
000000d0: 9161 873e 8827 bb3d 4955 a1bc 830c a0bd
000000e0: d46e 4f3d 61cf 13be 11f8 c93d d3f6 c3bc
000000f0: eca5 23be 1e09 dcbb bc95 413e 109e 023d
00000100: 6aa4 2bbe a98a 2e3e 915a c6bd 1ce3 edbb
00000110: a39b 553b bd97 d5bd bbc1 933c 6c53 543d
00000120: aa2b 02be 3fd2 71bd 0f91 dabd 3552 20be
00000130: ad29 28bd ddcd ba3c f0df b63d 1edb a23d
00000140: ed3c 333e 7ab6 02be c248 20be b676 173e
00000150: c43a 173e d83c 063e 87be 1a3e d1b2 033e
00000160: f95c f0bd c2fd d83d 91ff c23a 98e6 0c3d
00000170: 32d6 303d 1ace 0f3d 85c0 6f3d fb81 e63d
00000180: e051 493c 275e 98bd 1155 b93d 8c83 ca3d
00000190: 2792 a4bd 6f80 96bd 94e4 143e 47d6 513e
000001a0: 88dd 17be e359 293d 4a2f 3c3c b56c d2bd
000001b0: 973b 193e 7e7a 33bd 0e50 fcbd ae75 e7bd
000001c0: 7227 9cbc d588 323e 49f1 103e 5fe5 e4bd
000001d0: 12dc 8a3d 24a2 c1bd b63a 4c3c b004 063e
000001e0: 1cb8 2e3e 1da2 b0bd b27f 353e dcc7 463e
000001f0: 6ca2 073e acd6 9f3d 6f63 76bd a71c 753d

decoder.decoder.bias_hh_l0 f4 [128]
0.17741624 -0.043923955 -0.027169866 -0.13974914 0.06806042 0.027394315 -0.02032957 0.17614639
0.18587978 0.059934143 -0.12467382 0.018552044 0.13289458 0.005601545 0.14831947 -0.03923198
0.112501174 0.10115488 0.06488921 -0.09205296 0.11804165 0.16061339 0.15435643 0.18565144
-0.0281494 -0.16066301 -0.150361 -0.060278907 0.028385695 0.015950423 0.039523188 0.1723088
0.18152349 -0.014327438 -0.08309153 0.16607448 0.16516696 -0.09364038 0.05198181 0.08343027
0.18157431 -0.11130637 -0.028714143 -0.08123644 0.18247372 0.18454663 0.14208058 -0.053255577
-0.14496288 0.052116264 0.002827702 0.046201263 0.03396164 0.104632474 0.04409636 -0.140352
0.15578672 0.055167593 -0.1566566 0.017445875 -0.13410307 0.049772028 0.028631214 0.055487502
0.053226963 -0.10898914 -0.17450733 0.1012744 0.084784396 -0.02950369 -0.14132993 -0.090317905
-0.1354219 -0.034320414 -0.08666868 -0.00108719 -0.01347101 0.019587236 0.07064185 0.044702258
0.031417064 -0.038100295 0.014578308 -0.1173444 0.031041725 -0.18676604 0.15447724 0.0071836226
0.1444754 0.041988153 0.07572407 -0.09842477 -0.061093427 0.08671897 -0.07982114 -0.1051869
0.030129375 0.17748442 -0.009928522 0.054611355 0.17828095 0.15151612 -0.024248445 -0.121096864
-0.1451153 0.12572587 0.11992394 -0.07344195 -0.06638721 0.19721046 -0.059469104 -0.11199855
0.056504305 -0.05305916 -0.10415811 0.1363476 -0.015897116 -0.025807781 0.07816223 -0.121141724
-0.05300556 0.056568272 -0.07540588 0.009453893 -0.04207332 0.19125067 0.1915277 0.17970897
00000000: 9aac 353e 9be9 33bd 5793 debc 661a 0fbe
00000010: 4363 8b3d 0b6a e03c 338a a6bc b85f 343e
00000020: 4557 3e3e 817d 753d fd54 ffbd 75fa 973c
00000030: 8415 083e 2a8d b73b 0fe1 173e b6b1 20bd
00000040: 0467 e63d 4a2a cf3d a2e4 843d 4386 bcbd
00000050: d2bf f13d d677 243e 9d0f 1e3e 691b 3e3e
00000060: 9299 e6bc d884 24be 3cf8 19be 04e7 76bd
00000070: 1e89 e83c 76aa 823c 11e3 213d b871 303e
00000080: 4be1 393e a1bd 6abc e42b aabd 6e0f 2a3e
00000090: 8721 293e 87c6 bfbd e1ea 543d 7ddd aa3d
000000a0: 9eee 393e 98f4 e3bd ec39 ebbc 4a5f a6bd
000000b0: 64da 3a3e cbf9 3c3e 927d 113e 8522 5abd
000000c0: 2671 14be dd77 553d f850 393b 893d 3d3d
000000d0: 5c1b 0b3d 8d49 d63d 639e 343d 6fb8 0fbe
000000e0: 8e86 1f3e 6af7 613d 966a 20be a7ea 8e3c
000000f0: 5152 09be c1dd 4b3d 028c ea3c dd46 633d
00000100: 8404 5a3d b335 dfbd 0db2 32be f468 cf3d
00000110: 71a3 ad3d b9b1 f1bc cbb8 10be 98f8 b8bd
00000120: 0aac 0abe 9093 0cbd 597f b1bd 0b80 8eba
00000130: 83b5 5cbc 6975 a03c adac 903d b719 373d
00000140: 2eaf 003d 0e0f 1cbd dbd9 6e3c 4352 f0bd
00000150: 374b fe3c 993f 3fbe 482f 1e3e 9864 eb3b
00000160: 5cf1 133e c5fb 2b3d 3915 9b3d ed92 c9bd
00000170: 1a3d 7abd b799 b13d 4479 a3bd 3b6c d7bd
00000180: e1d1 f63c 7abe 353e 3dab 22bc 28b0 5f3d
00000190: 488f 363e 0b27 1b3e ada4 c6bc a201 f8bd
000001a0: 1b99 14be 48be 003e af9a f53d bc68 96bd
000001b0: 04f6 87bd 8af1 493e e095 73bd 7f5f e5bd
000001c0: 0f71 673d 9054 59bd d950 d5bd b59e 0b3e
000001d0: ab3a 82bc d76a d3bc 8513 a03d 2719 f8bd
000001e0: 5c1c 59bd 22b4 673d 666e 9abd 80e4 1a3c
000001f0: 1355 2cbd 37d7 433e d61f 443e a105 383e

decoder.spatial_embedding.weight f4 [16, 2]
-0.57652086 -0.02952801 0.30657762 -1.3115164 0.80800515 -0.061652344 -0.1681704 0.2865372
-0.9385774 0.31297153 -0.31544647 0.8661365 -0.99372303 -1.0758675 1.0934762 -0.24962719
0.44167852 -0.3665128 -1.0386547 -0.16999887 0.88893825 1.6322458 1.3173269 -1.1194754
-1.6170665 2.4539812 0.87483776 0.8706538 0.38513213 0.50347227 1.4486439 0.22204484
00000000: df96 13bf bae4 f1bc bef7 9c3e c5df a7bf
00000010: 6dd9 4e3f 2b87 7cbd dd34 2cbe 01b5 923e
00000020: 9c46 70bf ce3d a03e 3382 a1be 1fbb 5d3f
00000030: a264 7ebf 07b6 89bf 07f7 8b3f 459e 7fbe
00000040: b023 e23e 91a7 bbbe a3f2 84bf 2f14 2ebe
00000050: 7591 633f 6eed d03f 2b9e a83f f84a 8fbf
00000060: 09fc cebf 070e 1d40 5ef5 5f3f 2be3 5e3f
00000070: 0a30 c53e 8fe3 003f 2a6d b93f b95f 633e

decoder.spatial_embedding.bias f4 [16]
-0.099846914 0.12616646 0.0137462495 0.6154771 0.018779976 -0.5084145 -0.024893144 0.5355793
-0.2896078 -0.21189648 0.51182896 -0.30925888 -0.41301757 -0.63868254 -0.24147812 0.038824905
00000000: 8a7c ccbd c831 013e f337 613c e88f 1d3f
00000010: 77d8 993c 7427 02bf b5ec cbbc ba1b 093f
00000020: 7947 94be 64fb 58be 3907 033f 2e57 9ebe
00000030: 0a77 d3be b380 23bf 0a46 77be dd06 1f3d

decoder.hidden2pos.weight f4 [2, 32]
-0.16307281 0.15495701 -0.0016669387 0.036626644 0.31726885 -0.07813251 0.38795978 0.06736509
0.28223646 -0.020301012 0.3623418 -0.02096829 -0.04675503 0.15890539 0.2962181 0.17893267
-0.21432213 0.32439333 0.63956475 0.15731391 -0.14287755 0.0682939 0.23851942 0.16022679
-0.16304822 0.17173102 0.37147692 -0.12599064 -0.22489256 -0.29114252 0.0826551 -0.34145695
-0.064788364 -0.1279165 -0.21027552 0.48776293 -0.3600731 0.34125224 0.1026024 -0.022331703
0.20035167 -0.2634454 -0.39044127 -0.029931528 0.17880112 0.35074905 -0.37662268 -0.06404816
0.32387558 0.11017498 -0.026926255 -0.21657562 -0.062795706 -0.4267863 -0.042116944 0.11379091
-0.037602097 0.1659435 0.21942706 -0.06442301 0.15581663 -0.058857907 0.016462317 0.16901204
00000000: 8ffc 26be 0dad 1e3e 2e7d daba d205 163d
00000010: 1071 a23e f003 a0bd aaa2 c63e b5f6 893d
00000020: 4c81 903e 4f4e a6bc dd84 b93e b1c5 abbc
00000030: 3482 3fbd 18b8 223e e6a9 973e 203a 373e
00000040: 4377 5bbe e216 a63e 84ba 233f e616 213e
00000050: 7e4e 12be acdd 8b3d 6f3e 743e 7e12 243e
00000060: 1df6 26be 42da 2f3e 3932 be3e b103 01be
00000070: 3c4a 66be a210 95be 1447 a93d 72d3 aebe
00000080: c3af 84bd 8bfc 02be 7752 57be 10bc f93e
00000090: 805b b8be 9db8 ae3e 3521 d23d faf0 b6bc
000000a0: fd28 4d3e 51e2 86be ebe7 c7be f732 f5bc
000000b0: a417 373e 6195 b33e b0d4 c0be af2b 83bd
000000c0: 05d3 a53e 6ba3 e13d 7394 dcbc 00c6 5dbe
000000d0: 099b 80bd bc83 dabe d182 2cbd 350b e93d
000000e0: a804 1abd 18ed 293e 7db1 603e 36f0 83bd
000000f0: 658e 1f3e fd14 71bd fbdb 863c 7e11 2d3e

decoder.hidden2pos.bias f4 [2]
-0.10496899 0.022357794
00000000: fbf9 d6bd b127 b73c

mlp_decoder_context.0.weight f4 [64, 32]
-0.20099722 -0.48251855 0.3613331 -0.021359064 -0.31935444 -0.14465389 0.2959583 0.128994
-0.014091989 -0.12039424 0.24446277 0.3474927 -0.11359761 -0.21412455 0.21900646 -0.29078797
-0.14263412 -0.20506507 0.43575466 -0.5946115 0.31986624 -0.33376503 -0.1768835 0.054250095
-0.105348155 0.08128404 0.11841874 0.22403762 -0.33946723 0.16044222 0.14138135 -0.25994754
0.08822773 0.055144604 0.35863945 -0.09056215 0.70329994 0.19107011 -0.06836597 -0.3307388
0.36519122 -0.12188351 0.04117113 -0.4932596 -0.3018285 -0.007948172 0.24769948 0.34224844
-0.18725619 -0.09779272 -0.40769464 -0.089737274 -0.2660453 0.12370876 -0.16574955 0.13139088
0.72715956 0.102255404 0.4299638 -0.2818955 -0.58067685 0.5350888 0.2713337 0.13673823
0.17162308 0.23415597 0.19655569 0.12322824 -0.047646925 0.28293243 0.13181375 -0.16556233
0.15451996 -0.09498723 -0.27536595 -0.13831545 -0.07116712 -0.17564763 -0.10851286 0.0023332294
-0.30988103 -0.14510329 -0.3380832 -0.49972546 -0.071418434 0.04158213 -0.19657366 -0.3519272
-0.21133092 0.017963583 0.2845162 -0.07094963 0.24253674 -0.6429129 0.16820201 -0.17197466
-0.22207463 0.5251752 -0.28401098 -0.034842838 -0.42395613 -0.18610686 -0.17459786 0.22325131
0.2817016 0.64316434 -0.45988142 0.28398663 -0.21490262 0.07211596 0.42346752 0.11598237
0.353339 -0.03336673 0.18421645 -0.12623899 -0.12387979 0.13378815 -0.2866892 -0.5613765
0.12850685 -0.17321427 0.25935343 0.5172713 -0.32894143 -0.15735042 0.5239962 0.3728512
0.23011851 -0.26911482 0.047941633 0.39988387 0.022235768 0.5848797 -0.056313213 -0.17554587
0.5484943 0.08947723 0.39166397 -0.13523465 0.06939449 -0.16603017 0.48016044 0.37607217
-0.005361312 -0.014373529 0.27393898 0.14717807 -0.2107892 -0.06981979 0.1318351 0.109831855
0.014500542 0.39497992 0.31162325 -0.24091956 -0.19201928 0.37327722 0.13841735 0.17933293
-0.06643504 -0.06808991 -0.1435942 -0.43952096 0.04576226 0.39473006 0.60418284 -0.59501344
-0.2228801 0.3149881 0.26839536 -0.31634232 0.21016294 0.61502486 0.2997049 0.20874533
0.25434956 0.17626038 -0.2144238 -0.1677789 -0.06709064 -0.5586507 -0.048339184 0.3677735
-0.050869983 -0.047361918 -0.115353025 0.04263982 0.014102896 0.21484698 -0.36610672 0.29140452
-0.5883756 0.15911445 -0.18906878 -0.41564715 -0.0014854572 0.10520051 -0.1903324 -0.040352374
-0.04816805 -0.36637145 0.07583547 0.011125304 -0.11799432 0.13270217 -0.31791553 -0.07098428
0.27289605 -0.052669924 -0.09407571 -0.46091345 -0.48918962 0.07092515 -0.13523467 0.3109147
-0.47742385 0.26153 0.18001217 -0.2759203 -0.29505777 -0.2686272 0.16470443 -0.2910411
0.0058263023 -0.4023085 0.08124038 -0.34703487 -0.26464924 -0.23001629 0.2994448 -0.02688447
-0.01725309 0.09503077 0.5223237 0.13774072 -0.08622601 0.0038876876 -0.045329135 -0.0867361
-0.69910735 -0.10633361 0.04272482 -0.04379727 0.3582048 -0.105255365 0.07845525 -0.067516044
-0.029507851 0.44539616 0.24328019 -0.095881626 -0.29463872 -0.4675917 0.18912694 -0.05512889
00000000: 37d2 4dbe ac0c f7be a700 b93e 34f9 aebc
00000010: 6d82 a3be 2620 14be d987 973e 0117 043e
00000020: 16e2 66bc 4191 f6bd 7354 7a3e 90ea b13e
00000030: dda5 e8bd 7743 5bbe 3b43 603e 29e2 94be
00000040: ae0e 12be 94fc 51be 3c1b df3e 7638 18bf
00000050: 82c5 a33e 40e3 aabe f320 35be 5935 5e3d
00000060: c6c0 d7bd 3f78 a63d 8685 f23d 1e6a 653e
00000070: a6ce adbe f74a 243e 46c6 103e d817 85be
00000080: bdb0 b43d 4fdf 613d 979f b73e a678 b9bd
00000090: 770b 343f e2a7 433e 7503 8cbd 9956 a9be
000000a0: 58fa ba3e 109e f9bd 0fa3 283d 868c fcbe
000000b0: 4489 9abe 0d39 02bc efa4 7d3e 303b af3e
000000c0: 16c0 3fbe 8d47 c8bd 5abd d0be 2dc8 b7bd
000000d0: 1737 88be 055b fd3d 40ba 29be 558b 063e
000000e0: 2127 3a3f 486b d13d 3724 dc3e 9b54 90be
000000f0: 3da7 14bf 94fb 083f 40ec 8a3e 1b05 0c3e
00000100: f6bd 2f3e 95c6 6f3e e545 493e 165f fc3d
00000110: 6c29 43bd 85dc 903e 2ffa 063e 2c89 29be
00000120: 7b3a 1e3e aa88 c2bd c4fc 8cbe 91a2 0dbe
00000130: 11c0 91bd f9dc 33be fe3b debd 18e9 183b
00000140: baa8 9ebe f595 14be 3e19 adbe 04dc ffbe
00000150: d443 92bd 0652 2a3d 9b4a 49be cd2f b4be
00000160: 2267 58be 5d28 933c 1bac 913e 0a4e 91bd
00000170: 8d5b 783e f195 24bf 263d 2c3e 201a 30be
00000180: 8867 63be e271 063f e369 91be 5db7 0ebd
00000190: c710 d9be cc92 3ebe c8c9 32be fe9b 643e
000001a0: 313b 903e 6ba6 243f 9475 ebbe b266 913e
000001b0: 6f0f 5cbe 88b1 933d bcd0 d83e 2a88 ed3d
000001c0: d9e8 b43e 8dab 08bd 3da3 3c3e cb44 01be
000001d0: b0b4 fdbd c3ff 083e edc8 92be 5fb6 0fbf
000001e0: 4d97 033e 155f 31be f9c9 843e e46b 043f
000001f0: 036b a8be 7820 21be 9d24 063f 5ae6 be3e
00000200: 30a4 6b3e 6bc9 89be 725e 443d 94bd cc3e
00000210: c927 b63c adba 153f afa8 66bd 4cc2 33be
00000220: 1f6a 0c3f d73f b73d 2e88 c83e f47a 0abe
00000230: b31e 8e3d d003 2abe 97d7 f53e 888c c03e
00000240: f2ad afbb f37e 6bbc bb41 8c3e d9b5 163e
00000250: 20d9 57be aefd 8ebd c8ff 063e 86ef e03d
00000260: ae93 6d3c cf3a ca3e 158d 9f3e 9eb3 76be
00000270: b4a0 44be 311e bf3e 47bd 0d3e 0da3 373e
00000280: 180f 88bd b972 8bbd 5c0a 13be e408 e1be
00000290: 3571 3b3d 0f1a ca3e baab 1a3f cd52 18bf
000002a0: ae3a 64be 1f46 a13e 1e6b 893e 9ff7 a1be
000002b0: f434 573e 4572 1d3f ec72 993e 56c1 553e
000002c0: 1b3a 823e 9a7d 343e ea91 5bbe 3bce 2bbe
000002d0: d166 89bd bb03 0fbf 4fff 45bd cf4c bc3e
000002e0: 0b5d 50bd 92fe 41bd 353e ecbd 18a7 2e3d
000002f0: d50f 673c d900 5c3e 5772 bbbe f932 953e
00000300: c99f 16bf e6ee 223e 3f9b 41be b4cf d4be
00000310: acb3 c2ba 5d73 d73d 7fe6 42be 8848 25bd
00000320: dc4b 45bd 0a95 bbbe a04f 9b3d e846 363c
00000330: 02a7 f1bd 14e3 073e d3c5 a2be 3560 91bd
00000340: 08b9 8b3e 6bbc 57bd c4aa c0bd d9fc ebbe
00000350: 1077 fabe 3441 913d f57a 0abe 3630 9f3e
00000360: e670 f4be 43e7 853e 1c55 383e 6d45 8dbe
00000370: d011 97be 8189 89be 47a8 283e 5703 95be
00000380: 91ea be3b 61fb cdbe 5b61 a63d 8eae b1be
00000390: 1b80 87be 6489 6bbe d450 993e d23c dcbc
000003a0: 5a56 8dbc 7e9f c23d 02b7 053f e70b 0d3e
000003b0: 4397 b0bd 93c8 7e3b 0bab 39bd b2a2 b1bd
000003c0: b3f8 32bf 70c5 d9bd 3900 2f3d c464 33bd
000003d0: 9f66 b73e 2090 d7bd 25ad a03d da45 8abd
000003e0: 73ba f1bc f70a e43e 711e 793e 965d c4bd
000003f0: e3da 96be 2e68 efbe 7eaa 413e d5ce 61bd

mlp_decoder_context.0.bias f4 [64]
-0.0676163 -0.04042014 0.09976466 -0.14978728 -0.014806969 -0.14014885 -0.013200646 0.004816629
0.18467197 -0.051107567 0.06479383 0.0614876 -0.13452145 0.026222607 -0.16031887 -0.081360385
-0.066661574 -0.06888883 -0.102392174 0.20750941 -0.11862763 -0.14919281 0.008666797 0.19555485
-0.045724045 7.065215e-05 -0.039447583 0.0006636217 0.18322693 -0.14189358 0.016701035 0.028945502
0.18309276 -0.13054034 0.09230467 -0.1391996 -0.077734046 0.1681457 -0.013865549 -0.16861656
0.028682152 -0.009137913 -0.13867114 -0.08890071 0.1949832 0.1688282 0.18193527 -0.105636224
0.011403272 -4.8504015e-05 0.20501374 0.098060675 0.14252424 0.08901677 0.01853625 -0.15713498
0.16704091 0.063374594 -0.17477968 0.093586065 -0.0045176516 0.17963496 0.042703245 0.1381527
00000000: 6a7a 8abd 978f 25bd 6a51 cc3d d661 19be
00000010: ee98 72bc 2e83 0fbe 8647 58bc d0d4 9d3b
00000020: a61a 3d3e 2b56 51bd a1b2 843d 6cda 7b3d
00000030: febf 09be cbd0 d63c a12a 24be 46a0 a6bd
00000040: dd85 88bd 9615 8dbd fdb2 d1bd 597d 543e
00000050: 0bf3 f2bd 00c6 18be 2eff 0d3c 883f 483e
00000060: 2349 3bbd 162b 9438 ca93 21bd e6f6 2d3a
00000070: d79f 3b3e 8d4c 11be 9cd0 883c 1e1f ed3c
00000080: ab7c 3b3e 5eac 05be 3b0a bd3d 578a 0ebe
00000090: 0733 9fbd 632e 2c3e 542c 63bc d2a9 2cbe
000000a0: d5f6 ea3c 2fb7 15bc cfff 0dbe 9311 b6bd
000000b0: ada9 473e 4de1 2c3e 3d4d 3a3e ce57 d8bd
000000c0: cad4 3a3c ca70 4bb8 1fef 513e 09d4 c83d
000000d0: e0f1 113e 6d4e b63d 55d9 973c fee7 20be
000000e0: c60c 2b3e 8aca 813d 72f9 32be 0daa bf3d
000000f0: cf08 94bb 3af2 373e 99e9 2e3d e777 0d3e
