scripts/models/sgan-models/univ_8_model.pt (torch_old, 70298 bytes, 18 tensors)

encoder.encoder.weight_ih_l0 f4 [128, 16]
000000 fc 2c fc 3d ea a1 0c be 03 d7 e3 3d 77 ba 95 3d
       0.123132676 -0.1373364 0.111249946 0.07310956
000010 a0 ac a2 bd 11 f1 3a 3d 3f ed 3d bb 3d d3 51 be
       -0.07943082 0.045640055 -0.002898052 -0.20490737
000020 60 2e 89 3d 54 85 1a 3e 91 dd 48 3e 93 70 23 be
       0.066982985 0.15089923 0.19615771 -0.15960912
000030 8e 5e aa 3c dc f1 1f be 23 c1 31 be dd a4 ea bb
       0.02079704 -0.15619606 -0.17358832 -0.0071607665
000040 7b 0e 48 be 1f 1d a6 3c ae 19 54 bd bb 2f 72 bd
       -0.19536774 0.020277558 -0.051782303 -0.05912755
000050 3a 14 56 3e 7f ad 53 be 40 bd 18 be d5 56 39 be
       0.20906153 -0.20671652 -0.14915943 -0.1809953
000060 90 1a 37 3d 6c a6 ea bd ee 12 8e 3d 9c 33 96 bd
       0.044703066 -0.11457524 0.06937204 -0.073340625
000070 03 2e e1 bd 74 6a 71 bb 01 a5 9f 3d 44 e8 fd 3d
       -0.10995104 -0.0036837133 0.07795144 0.12397817
000080 aa ff 45 3e cb 81 80 3d fe 05 77 3d 0d 4e bc 3c
       0.1933581 0.06274756 0.06030845 0.022986436
000090 cb 6f d4 3d b9 d5 95 3d 1c df 18 be 71 a0 70 3d
       0.10372885 0.07316155 -0.1492886 0.05874676
0000a0 5f 9d d2 bd 05 ae 05 3e 86 50 8e 3d 1f 82 2b 3e
       -0.102839224 0.13054664 0.069489524 0.16748856
0000b0 90 ed 05 3e 72 be 42 be e1 cf 4c be 59 c6 f2 3d
       0.13078904 -0.19017962 -0.20001175 0.11854238
0000c0 8e 3e 55 3c 1a bd a4 3d da 7c ed 3d 87 d8 79 bd
       0.0130154025 0.08043881 0.11596079 -0.060997512
0000d0 d3 ef 33 3e e8 ee 3a be 15 14 76 bd 09 25 7d bc
       0.17571954 -0.18255198 -0.060077745 -0.015450724
0000e0 3c 4d a1 bd ad eb 16 be 24 7a e2 3d e6 02 3b bd
       -0.078760594 -0.1473834 0.11058453 -0.04565706
0000f0 c9 98 8f bd d8 9b 34 be 94 57 a7 3c b7 04 e1 3d
       -0.07011563 -0.17637575 0.020427503 0.109872274
000100 d9 b4 ef bc ed 0e 0d 3e 04 7d 31 3d 6c 86 31 be
       -0.02926104 0.13775225 0.043332115 -0.17336434
000110 20 1d a7 3d 2b b1 30 be 15 ea b1 3d 1e 1d a5 bd
       0.08159852 -0.17255084 0.08687226 -0.08062194
000120 8b 85 e8 3d d3 12 be bd 8d 75 1c be 49 1a 19 3e
       0.11353596 -0.09280934 -0.15279217 0.14951433
000130 7a d7 67 3d 46 6d 39 3e a7 77 07 3e d8 0c a6 3d
       0.05660198 0.18108091 0.13229237 0.081079185
000140 4b 16 a2 3d f5 2f 46 bd 49 4c ef 3c 01 18 02 3e
       0.07914408 -0.04838558 0.02921118 0.1270447
000150 4f 41 73 bc 0b 71 d0 bc db 01 53 3d 80 55 6e bd
       -0.014847114 -0.025444528 0.05151544 -0.058187008
000160 c5 89 1e 3d 95 d3 98 3d 55 41 38 be e5 e1 56 bd
       0.038705606 0.07462231 -0.17993672 -0.052461524
000170 79 90 ca 3d b2 4c 84 bb cf 53 2c be 62 d0 6f bd
       0.09890837 -0.004037463 -0.16828845 -0.05854834
000180 fb a7 a7 3d ae 2a 69 be 92 49 8b bd 6b 49 07 be
       0.081863366 -0.22770187 -0.06801142 -0.132116
000190 fd 4b c7 bd 1e 1a 27 be b6 92 30 3d 12 bb db 3d
       -0.097312905 -0.16318557 0.043108664 0.1072904
0001a0 8e f4 54 be d3 2b 5c 3e fd 54 05 be 6f 10 38 be
       -0.20796415 0.21501093 -0.13020702 -0.17975019
0001b0 e1 a3 b7 bd 47 f4 3a be 3b 2e 0b bd 0d 1f ac 3d
       -0.08966804 -0.18257247 -0.033979636 0.0840436
0001c0 b8 65 a9 bd 94 03 19 bd bf 03 a3 3d d7 a6 6a bd
       -0.082713544 -0.037356928 0.07959699 -0.057288017
0001d0 86 98 e1 3c b4 d2 ac bd f2 42 a2 3d 1c 1e 37 bd
       0.02753855 -0.08438626 0.07922925 -0.04470645
0001e0 7e 67 27 3d 8b d3 1c be 00 08 2a 3e 81 1d 36 3e
       0.040870182 -0.15315072 0.16604614 0.17784692
0001f0 71 03 20 3d 4b 0e 92 bd 6f 9c fa bd 3d 35 a5 bd
       0.039065782 -0.071316324 -0.122368686 -0.08066795
000200 59 15 15 3e 66 c2 1e bd f2 c0 25 bc 7d a0 24 3d
       0.14558925 -0.03875961 -0.0101168025 0.040192116
000210 57 ef 12 bc 23 a4 5a bd 3f e7 3f 3e 47 a5 97 bd
       -0.008968196 -0.05337919 0.18740557 -0.07404571
000220 47 30 d4 3d 05 be ff 3d d6 79 67 bc 64 49 18 3e
       0.10360771 0.12487415 -0.014128169 0.14871746
000230 49 f7 60 3e 0c 4b 68 bd fc 69 2b be 59 30 9b bd
       0.21969332 -0.056712195 -0.16739649 -0.07577581
000240 5a 31 10 be 69 55 f0 3d 98 4d 5c 3d 4c 03 fd 3d
       -0.14081326 0.11735041 0.053784937 0.123541445
000250 5d b1 f3 bd 11 8c e8 bd 6e 50 33 3e 18 98 bc bd
       -0.11899064 -0.113548405 0.1751115 -0.09208697
000260 ba d9 09 bd 00 56 8e 3b 91 a1 21 bd 7b 5f b5 bd
       -0.033654906 0.004343748 -0.039460722 -0.08856102
000270 14 bf bb bd df e4 6a bc 20 83 02 be 9b 15 33 3b
       -0.09167305 -0.014336794 -0.12745333 0.002732611
000280 14 d4 ff 3d 25 ad 22 3e 0c 6a 2c be f4 89 a0 3c
       0.124916226 0.15886362 -0.16837329 0.019597031
000290 6a a6 b4 3d ca 3a f7 bc fa 00 e8 bd 69 a4 0c 3d
       0.088208035 -0.0301794 -0.11328311 0.03433648
0002a0 69 ac 20 3e 43 86 ce 3d 63 29 81 bd 88 a3 53 bc
       0.1569077 0.10084202 -0.06306722 -0.012917407
0002b0 e9 1a 1a be 45 45 65 3d 30 ee 33 3e b8 5c ad bd
       -0.15049328 0.055974264 0.1757133 -0.0846495
0002c0 f5 40 e1 3d d6 73 32 3e e6 17 98 bd 35 8e c4 bc
       0.10998718 0.17427 -0.07426433 -0.02399359
0002d0 ea 4a a4 bc 64 e3 1c be 67 eb 44 bd 8e fa d0 3d
       -0.020055253 -0.15321118 -0.04807606 0.102040395
0002e0 52 2a 11 3e b9 40 e2 3d 57 73 59 bc f8 a8 1c bd
       0.141763 0.11047501 -0.013272128 -0.03824708
0002f0 36 5a 11 3e 32 29 ad bd 5e 89 46 3d 3c 6d 81 bc
       0.14194569 -0.08455123 0.048470847 -0.015799157
000300 73 9f 3f 3d da b6 3e 3d 6d 50 bb 3d a0 b8 17 3e
       0.046782922 0.0465611 0.091461994 0.14816523
000310 e1 ba 4d 3d 95 20 42 3d d1 d6 f3 3c 8b 6d 8d bd
       0.05022705 0.047394354 0.029765518 -0.06905659
000320 28 3d 1d 3e 47 b0 ae bd 9b 87 d4 bd fd ac 52 3e
       0.1535536 -0.08529716 -0.10377427 0.20573802
000330 71 7f 28 3e 4d 5c 10 bb 65 e0 56 be 80 68 84 3e
       0.16454865 -0.0022027672 -0.20984037 0.25860977
000340 ad b2 7d bd a6 39 01 3e 13 4e bd 3c 5c e1 d9 bd
       -0.061937977 0.12619647 0.023108518 -0.10638687
000350 81 14 2c 3d df 2d dc bd e0 06 ce bd 56 97 42 be
       0.04201174 -0.10750937 -0.10059905 -0.19003043
000360 94 d4 0f bd 11 60 dc bd 5d ad dd 3d 92 1c 9d bc
       -0.03511484 -0.10760511 0.10824082 -0.019178662
000370 f8 ca cd bd e7 95 ca bd aa 44 c6 3d 2b 18 1b 3c
       -0.10048479 -0.09891873 0.096810654 0.009466211
000380 e5 42 b3 bd 48 93 14 3e 4e 0a 9e 3b e5 5f 00 3e
       -0.087529935 0.14509308 0.0048230058 0.12536581
000390 0e e9 0b 3d e2 b9 07 bc 28 ab 9f bc 53 1f 89 bd
       0.034157805 -0.008284064 -0.019490793 -0.06695428
0003a0 b5 4b 89 bc 3b 25 82 bc 80 e3 22 3e 44 87 14 3e
       -0.016759733 -0.015886893 0.15907097 0.14504725
0003b0 53 3c 9d 3d b0 37 dc 3d 77 ca 5d be 31 5c 37 3e
       0.076775216 0.10752809 -0.21659265 0.17906262
0003c0 01 16 26 be 4f 15 36 3e b5 8d 3d bd 61 e8 6a 3d
       -0.16219331 0.17781566 -0.04627772 0.05735052
0003d0 83 3e 03 be 9f 0e 85 bd cd 45 7b 3d 54 6a 8e 3d
       -0.12816815 -0.064969294 0.061345864 0.06953874
0003e0 33 c1 f7 bd 59 5e 54 3e e9 7c 3d 3d e1 11 71 3d
       -0.12097397 0.20739116 0.0462617 0.05885494
0003f0 ea 8e 82 bd 64 f8 11 be 58 2a 6a be ed 48 f8 3d
       -0.06374915 -0.1425491 -0.22867715 0.121232845

encoder.encoder.weight_hh_l0 f4 [128, 32]
000000 a8 6b 17 3e 2c 4f e6 3d c2 7c 1e be 06 4b 00 be
       0.14787161 0.112455696 -0.15477279 -0.12528619
000010 3a c9 31 be 49 71 d9 3d 07 a5 23 bd 37 6f 26 bd
       -0.17361918 0.106173106 -0.039952304 -0.040633406
000020 0d ee 21 be 10 68 97 3c 26 4a 48 be 3b cc 64 3c
       -0.15813465 0.018482238 -0.19559535 0.013964708
000030 53 86 ad 3c 76 e1 15 be a1 47 17 be 39 40 28 be
       0.021182215 -0.14636788 -0.14773418 -0.16430749
000040 6a 93 15 be 83 17 52 bc b1 bf 75 3b 94 1a 64 be
       -0.14607015 -0.012822988 0.003749829 -0.22275764
000050 b5 4a 7a bd cc 49 81 bd 73 8c 18 be f2 27 cb 3d
       -0.061106402 -0.06312904 -0.14897327 0.09919728
000060 12 fd ac 3d 04 05 3c 3d 0b ca 5d be dd 40 07 bd
       0.08446707 0.04590322 -0.21659105 -0.033020843
000070 e9 bf b9 3d 6e b1 5f be 07 ea c3 3d 19 13 06 3d
       0.09069807 -0.21845028 0.095661215 0.032733057
000080 60 09 15 be a0 16 c4 3d 8b 2a 9a 3d 4c ec db bd
       -0.14554358 0.09574628 0.07527646 -0.107384294
000090 3b e9 8e 3d a4 98 05 3d f8 5d 92 3c 72 3e 2d be
       0.06978079 0.032616273 0.017867073 -0.16918352
0000a0 00 47 ea 3c fd 58 27 3e 9e 79 18 3e 4d 96 e6 bd
       0.028598309 0.1634254 0.14890143 -0.11259136
0000b0 46 8f 61 be 98 e3 2c bc a5 8f ab bd 86 2c 85 bd
       -0.2202731 -0.010552309 -0.083770074 -0.06502633
0000c0 6c 24 c1 3d 12 51 35 be ff 58 a4 bd e3 b2 77 be
       0.09430775 -0.17706707 -0.08024787 -0.24189334
0000d0 b3 fe ef ba 30 97 7a be d5 f4 da bd 26 e2 de bd
       -0.0018310159 -0.24471736 -0.10691229 -0.10882978
0000e0 77 f4 2b bd 8e 1a ec 3d fa 17 08 be 3d 4e 12 bb
       -0.041981187 0.115285024 -0.13290396 -0.0022324466
0000f0 2b 87 5f bd e6 5a 4b be 61 4b 08 be 13 07 67 bd
       -0.054572266 -0.19858894 -0.13310005 -0.05640323
000100 fe f2 93 3d 3b dc 97 bd 63 70 9a bd f8 8d b1 bd
       0.072240815 -0.074150525 -0.07540967 -0.086696565
000110 23 7a d2 3d 02 9d 05 be f7 5a a3 3d 71 7d 21 be
       0.10277202 -0.13048175 0.079763345 -0.15770508
000120 e7 4c f4 bd 13 79 3a 3e e5 60 ce 3d 6d c9 96 3d
       -0.119287305 0.18210249 0.10077075 0.07362638
000130 2f c5 26 bd 2b 9f a3 bd 72 68 2b 3e 73 4d 2e be
       -0.040715393 -0.07989343 0.16739061 -0.17021732
000140 4a 3e 11 be ea dd da 3d 03 22 e1 3d 3c f6 d4 bd
       -0.14183918 0.10686858 0.10992815 -0.10398528
000150 09 c7 38 be 94 67 61 be de 98 fd bb 1d c5 1c be
       -0.18044676 -0.22012168 -0.0077391705 -0.15309568
000160 37 3f 70 3d 1f cb 27 3e 52 fb f4 bc b9 1f 52 3e
       0.058654036 0.16386078 -0.029904995 0.20519914
000170 8d 92 cf 3d ed 5b a1 bd 7f 75 b2 3d fc ee 08 3e
       0.10135374 -0.078788616 0.08713817 0.13372415
000180 7f 06 46 be 17 08 fe bd 3c 0f 0e be 03 66 59 be
       -0.19338416 -0.12403887 -0.13872999 -0.2123032
000190 b9 5c e1 3c 06 cb cb bd 33 c6 50 bd 44 a6 2c be
       0.027510034 -0.09950833 -0.050970268 -0.168603
0001a0 11 68 24 be 4b 4b 8b 3d 45 6a 56 3d 77 7c 2d bd
       -0.16055323 0.0680147 0.05234744 -0.042355027
0001b0 37 0d 34 bd 06 eb cb 3c 32 11 f2 bd c8 fd 56 be
       -0.043957915 0.024892341 -0.11819686 -0.20995247
0001c0 5f b0 54 be 1d 00 c3 bd 18 59 65 be 62 e1 39 be
       -0.20770405 -0.09521506 -0.22397268 -0.18152383
0001d0 33 ca c3 3d a4 2c 3a be f9 40 82 3d 59 5d 37 3e
       0.09560051 -0.18181092 0.06360049 0.17906703
0001e0 ce 8f 14 be f5 2a 08 be 90 99 50 be 71 30 d6 bd
       -0.14507982 -0.13297637 -0.2037108 -0.10458458
0001f0 39 e8 d3 bd 27 0b 8e bd 7a 55 98 3d 2b 69 3f 3e
       -0.10347027 -0.06935721 0.07438178 0.18692462
000200 39 85 07 bd 80 32 12 bd 65 7d 87 3d 4e e8 df 3a
       -0.033086035 -0.03569269 0.06615714 0.0017082782
000210 b9 60 9e 3d 80 a8 15 be fb 6a 53 3d f7 cb 21 be
       0.07733292 -0.14615059 0.051615696 -0.15800463
000220 37 a5 11 3d 16 ab 81 3c e8 99 11 3d a4 30 f4 3d
       0.03555795 0.01582865 0.035547167 0.1192334
000230 8a 4e d8 bd 20 57 24 be ed c6 ef 3d 52 e5 aa bd
       -0.10561855 -0.1604886 0.11707864 -0.08344521
000240 5b 64 e7 bd a6 cb 3b 3d 52 fa fd 3d 27 6e bf bd
       -0.11298438 0.04584851 0.124012604 -0.09347182
000250 e4 4c 0a bd 19 b5 e0 bd 92 29 43 be 44 f2 20 bc
       -0.033764735 -0.10972042 -0.19058827 -0.009823386
000260 a9 ce 6f be dd 8e c0 bc 8e cc 01 3e cb ca 9b 3d
       -0.23418678 -0.023505623 0.12675688 0.07607039
000270 d1 d0 8b bc 90 ed 9d bd 77 08 73 3c f3 b2 f9 3d
       -0.017067345 -0.07711327 0.014833561 0.12192335
000280 79 45 92 3d 4f 95 24 bd 5c 02 d7 3d 5d 6c fd bd
       0.07142157 -0.040181454 0.10498497 -0.12374184
000290 02 36 4a 3d 1d 2f a8 3d d4 90 52 bd c4 88 1c be
       0.049367912 0.08212111 -0.05140765 -0.15286547
0002a0 85 47 84 3d 5d 1a d9 bd ad fa ec bd 62 9d 0a be
       0.06458954 -0.106007315 -0.1157125 -0.135366
0002b0 31 3d 19 be 34 79 52 be 07 0a 74 bd 34 e1 a9 3c
       -0.14964749 -0.20554048 -0.059579875 0.020737268
0002c0 55 0b ec 3c 2b e8 3a 3d 03 5e 0d bd e3 c1 18 bc
       0.028813997 0.04563157 -0.034513485 -0.00932357
0002d0 f9 e3 31 be 5c 52 37 be 3c b0 87 bd dd a8 35 3e
       -0.17372121 -0.17902511 -0.06625411 0.17740197
0002e0 31 15 57 bd f4 bb 87 bd 8a 55 87 3c 0b 83 a8 bd
       -0.052510444 -0.06627646 0.01652028 -0.082281195
0002f0 97 8c c5 3d d5 fe 7a 3c 72 da da 3d 23 4f 55 3e
       0.09645956 0.015319546 0.106861964 0.2083097
000300 45 e1 80 3d 85 85 ab bd d1 75 e6 bd 1a f4 39 bd
       0.06292967 -0.08375076 -0.112529404 -0.04539881
000310 d6 dd 01 3e c3 d3 e1 ba 74 59 26 3e 69 40 66 be
       0.1268228 -0.0017229248 0.16245061 -0.22485508
000320 6c bd 02 3c 67 06 2f 3e 06 5c 2d 3e c6 a5 cd 3d
       0.007979732 0.17092286 0.16929635 0.100413844
000330 5b e3 9e bc 15 85 47 bd d8 aa 23 3e 0b 07 4a be
       -0.01939552 -0.0487109 0.1598314 -0.19729249
000340 18 a9 30 be 7b 32 60 3d 67 6a 3f be df 87 db bd
       -0.17252004 0.054735642 -0.18692933 -0.10719275
000350 41 47 7d 3d 6a 2a c1 3b 6b b8 c0 3d 8d 16 65 bd
       0.06183553 0.0058949487 0.09410175 -0.05592971
000360 1a 2e c7 3c cf 43 21 3e d6 b4 26 bd 02 93 b7 3d
       0.024313975 0.15748523 -0.040699802 0.089635864
000370 10 08 a7 3c c8 ad 3f bc f4 30 0e 3e 5d fa 25 bc
       0.020389587 -0.0116991475 0.13885862 -0.010130492
000380 e3 8c df bd 58 b4 23 bb cc 31 fb 3c 28 cc 47 be
       -0.10915544 -0.002497932 0.030663393 -0.19511473
000390 a4 1f 6a be 9b 3b 67 bd 77 d4 11 be 06 3b 2e be
       -0.22863632 -0.05645333 -0.14241205 -0.17014703
0003a0 a6 59 b0 bd a4 a2 4e 3e d3 90 77 3d 0a 15 4f bd
       -0.08610849 0.2017923 0.06044085 -0.050557174
0003b0 6c 3d ed 3d 0e 39 3e be 98 3d 57 3e f4 bd ec 3c
       0.11583981 -0.18576452 0.2101959 0.02889917
0003c0 f8 5b 96 bb 37 09 a5 3d eb ec 96 bc 7c 66 b1 bd
       -0.0045886002 0.08058398 -0.018423518 -0.086621255
0003d0 08 05 3c be 2f 38 c5 3d 97 a6 ec bd b2 8a 93 bc
       -0.18361294 0.09629857 -0.11555212 -0.018010471
0003e0 73 01 c3 3d 2d 60 63 be 44 56 05 3e ea 36 1f 3d
       0.09521761 -0.22204657 0.13021189 0.03887073
0003f0 bc a0 6c be 22 96 17 be bb d8 08 bd 96 7b be bd
       -0.2310819 -0.14803365 -0.033409815 -0.09300916

encoder.encoder.bias_ih_l0 f4 [128]
000000 da 00 fa bc 19 1b 78 3e 89 74 95 bc 7b bb 0b 3e
       -0.030517984 0.24229087 -0.018244045 0.13645737
000010 d0 42 82 bd 00 cb 62 bd 72 80 d3 3d 8a 59 b0 3a
       -0.063604 -0.055369377 0.103272334 0.0013454419
000020 71 4f 5c 3d c2 6a 8a bd 7c 3a fe bd 1b 61 4e 3d
       0.0537867 -0.06758644 -0.12413499 0.050385576
000030 70 94 23 3e d8 e1 10 3e 1f ec fc 3d cf 00 40 3e
       0.15974593 0.14148653 0.12349724 0.18750308
000040 85 3b 26 ba 24 fb a7 3d f5 2e 42 3e ca e7 5e 3d
       -0.00063412666 0.08202198 0.18963225 0.05442027
000050 30 2d 2d 3e 33 67 19 3e a1 4c 8d bd 4c 86 b6 bd
       0.16911769 0.14980774 -0.068993814 -0.08912334
000060 6f 7c 26 be 1a 01 53 3d 7b 06 dc 3d 3d 5d 8d 3d
       -0.16258405 0.051514722 0.107434236 0.069025494
000070 8a 9d 47 bd 9b ba 04 3e e1 94 c3 bd 2c 9a fc 3d
       -0.048734225 0.1296181 -0.09549881 0.123340935
000080 71 eb db bd b7 82 c4 3d ab ea c7 3d 15 2b 8b bd
       -0.10738266 0.095952444 0.09761556 -0.067953266
000090 84 69 0f be 59 9f 4a bd c3 05 1b be f9 5c 5e bd
       -0.14005095 -0.049468372 -0.15138917 -0.054287884
0000a0 a4 11 7a bc 4d cb f3 3d 64 b3 04 bc 33 0b fc 3c
       -0.015262995 0.11904011 -0.008099411 0.030767059
0000b0 a2 6a 54 3e 12 1c c3 3d ff 7d 14 be bd 5b fe bd
       0.20743802 0.09526838 -0.14501189 -0.124198414
0000c0 d1 6b c5 3d 0b 80 1e 3e 87 4f 58 3e 88 dc f9 bd
       0.09639705 0.15478532 0.21124087 -0.12200266
0000d0 a3 6f 52 bd 90 cb 85 3b 6e 5c 58 bd bb 3e 1f be
       -0.051375996 0.0040831044 -0.052822523 -0.15551274
0000e0 36 26 cb bd ee 0a db bd 87 43 d0 ba 53 ec ff bd
       -0.099193975 -0.10695444 -0.0015889265 -0.12496247
0000f0 98 85 17 3e 6a 3d 41 3d f0 e1 dd 3d d6 17 5e bd
       0.14797056 0.04717771 0.1083411 -0.05422195
000100 00 94 65 bd b2 82 b5 bd ae ab e7 3d aa c0 76 3d
       -0.056049347 -0.08862819 0.11312042 0.060242333
000110 17 2d 30 3d 6a 11 36 3d 68 17 07 be d4 f2 d8 3d
       0.04301175 0.0444502 -0.13192523 0.10593191
000120 08 74 47 be e9 cd 84 bd fa 5e dd 3d b4 c1 30 be
       -0.19477856 -0.06484587 0.10809131 -0.17261392
000130 b5 d6 37 bc dc 9d c0 bd 9a 21 aa bb 79 ed 18 be
       -0.011220624 -0.09405109 -0.005191994 -0.14934339
000140 69 05 ba bd aa cd 6c be 82 da a7 bd fa 9f f8 3c
       -0.09083063 -0.2312533 -0.08195974 0.03034972
000150 66 09 a5 bd 3d 00 ae 3d 3c 44 f5 bd 41 f7 24 3e
       -0.08058433 0.08496139 -0.11975905 0.16109945
000160 ab 4e 08 3e 26 85 ef 3d d9 6c f6 bd 2e c4 ae 3b
       0.1331126 0.11695318 -0.1203248 0.005333445
000170 9c 97 f8 3c 8f 51 2c 3d 02 39 dd bd 25 9f a2 bd
       0.03034573 0.042069968 -0.10801889 -0.07940511
000180 65 b9 9c bd 65 ee f4 3d 6d 73 c0 3c d1 11 b4 3d
       -0.07652549 0.11959533 0.02349254 0.08792461
000190 4e 1d 4e bd 03 01 dd bd 2c 5b fb 3d 2d c7 20 3e
       -0.050320916 -0.107912086 0.12273249 0.1570098
0001a0 41 1c ae bd e8 79 b5 bd f0 ea 88 bd e8 5d 48 3d
       -0.08501483 -0.088611424 -0.06685436 0.04891768
0001b0 a5 73 c1 3c 84 1c 34 3d 53 e0 64 3d 78 3b 12 3d
       0.023614714 0.043972507 0.055877995 0.035701245
0001c0 57 b7 be bd d5 c7 31 3d 81 4c 53 3e 70 f4 48 3e
       -0.09312313 0.043403465 0.20634653 0.19624496
0001d0 6f 31 db bd bb 2f cb 3d dd be 07 3e 12 f4 1c 3e
       -0.10702788 0.09921213 0.13256402 0.1532748
0001e0 e9 ec 7a 3c c5 b7 54 3e e5 33 f6 3d af 1c 67 3d
       0.015315273 0.20773228 0.12021617 0.05642384
0001f0 f3 fc 69 3e ce 50 12 be b7 3f 14 3d b7 47 04 be
       0.22850399 -0.14288637 0.036193576 -0.12917982

encoder.encoder.bias_hh_l0 f4 [128]
000000 99 9a 79 bc 1c f1 f4 3c 7c dc 95 bd ab 7d 1b 3d
       -0.015234613 0.029900126 -0.07317445 0.037961643
000010 c3 93 0a be fc 6b 52 3e 70 a6 0e be 52 b8 89 bd
       -0.13532929 0.20549005 -0.13930678 -0.067246094
000020 4c 91 d7 bd 15 76 8f bd 75 11 3f be 1a 2a c7 bd
       -0.1052576 -0.07004944 -0.18659003 -0.09724827
000030 b1 fb 9d 3d b5 f0 2b bd ee 9b bc bd 72 70 22 3e
       0.07714022 -0.041977603 -0.09209429 0.15863207
000040 fd b2 d3 3d f0 c1 a5 bd 03 da 93 bc aa 67 93 3d
       0.10336874 -0.08093631 -0.018048292 0.07197507
000050 44 42 af 3d f3 0b 3d 3e 55 0b 0e 3e 44 9a 3a 3e
       0.08557561 0.1846159 0.1387151 0.1822291
000060 12 8b f1 bc 6d aa c6 3d 10 68 05 3d 5e 47 0f 3e
       -0.02948526 0.09700475 0.032569945 0.13992068
000070 89 d2 a6 bd 2a 88 1d be 87 fa 1a be 3c 08 64 bd
       -0.08145625 -0.15383974 -0.15134631 -0.055671915
000080 e4 3d 91 3d 2f 70 cd 3d d6 e6 09 be 29 96 94 3d
       0.07091883 0.10031163 -0.13466963 0.07255203
000090 11 eb 41 3c 9d 33 24 be 12 5d a6 3d 1d 0f 01 3e
       0.011835829 -0.16035314 0.081232205 0.12603422
0000a0 ec 03 4e 3b 28 82 a8 bc 2d c9 39 bc 1a cd 0b be
       0.0031435443 -0.020569876 -0.011339468 -0.13652459
0000b0 b2 da 26 3e 98 54 43 3e 7e 61 15 3e 7a 92 df bd
       0.16294363 0.19075239 0.14587972 -0.1091661
0000c0 a5 4d 58 bd 28 81 56 3e ae 42 1c 3e 0e 17 bf 3d
       -0.052808423 0.20947707 0.15259811 0.09330569
0000d0 56 08 27 3d 7c 34 91 3d 39 11 85 bb a0 03 25 be
       0.040779434 0.07090089 -0.004060891 -0.16114664
0000e0 5b 77 e7 bd 91 07 62 3d 05 6b 2b 3e bd 27 9f bd
       -0.11302062 0.055182997 0.16740043 -0.07771251
0000f0 1a 18 05 3e ea 30 bc bc e6 fe 1f be 15 0a 92 3d
       0.12997475 -0.022972543 -0.1562458 0.07130829
000100 1f b1 9a 3c c8 75 0a be dc b9 08 3e 80 38 d9 bd
       0.018883286 -0.13521492 0.1335215 -0.1060648
000110 d6 4a 9f bc 1f f2 1a be 1c 2a 50 3d b3 b7 33 bd
       -0.019444864 -0.15131424 0.05082141 -0.04387636
000120 6d 51 07 3e cf 33 a1 bd e1 10 c0 bd 19 9a 35 be
       0.13214655 -0.0787121 -0.093782194 -0.17734565
000130 b6 f8 76 3c 17 ed fd 3c 7c 3b 2a 3e 2e 55 aa 3d
       0.015073946 0.030996842 0.16624254 0.08317028
000140 0d bc f3 3a c2 1d c0 3d 11 9c 24 be da 82 3d be
       0.0018595472 0.09380676 -0.1607516 -0.18506947
000150 8f be 96 3d 83 f6 03 3e 8e dc 32 3d 4e 98 e9 bd
       0.07360565 0.12887006 0.04366737 -0.11406003
000160 fe c0 bc 3d f5 70 57 3c 76 d4 37 be cc 4b 16 3e
       0.09216498 0.01314949 -0.17952141 0.14677352
000170 15 d6 42 be e8 43 f3 bd 59 97 58 3b a2 f3 42 3e
       -0.19026978 -0.118781865 0.0033049195 0.19038251
000180 da 31 68 bd fd 5f 04 3e 70 59 bc 3d 6d 5a e5 3d
       -0.056688167 0.12927242 0.09196746 0.11198888
000190 21 64 0c 3e e9 f8 26 bd f0 a0 07 3e 2d 03 1b 3e
       0.13710071 -0.040764723 0.13244987 0.1513793
0001a0 0d 80 32 3e d1 31 63 3e 5d 18 a4 bd f5 be 9d 3c
       0.1743166 0.22186972 -0.080124594 0.019256094
0001b0 a0 67 a4 3d b1 70 16 bb 92 c5 13 3b 17 57 d7 3d
       0.080275774 -0.0022955353 0.002254818 0.10514658
0001c0 fc c8 3b bd 49 22 4f bb 66 ad 6a 3c d7 51 87 bd
       -0.04584597 -0.003160613 0.014323568 -0.066074066
0001d0 4c 85 58 3d f2 53 5e 3d f2 a5 8f bd 2c d9 1e bd
       0.052861497 0.054279275 -0.070140734 -0.03878133
0001e0 93 07 3c 3e cf da e6 3d 35 f2 bc bd 9b e0 85 3d
       0.18362264 0.11272203 -0.09225885 0.06536981
0001f0 0b aa 60 3e 13 e4 e8 3d 70 37 f3 bd 9c 11 42 3e
       0.21939866 0.11371627 -0.11875808 0.1895203

encoder.spatial_embedding.weight f4 [16, 2]
000000 96 95 04 c0 80 26 41 3f 5e 7f 85 3e 36 c4 cc 3f
       -2.07163 0.7544937 0.26073736 1.5997379
000010 e0 1d 97 be 6e 72 19 3f 23 d7 19 c0 e5 15 fa bf
       -0.2951498 0.5994023 -2.403756 -1.9537932
000020 80 84 82 be ac e1 0a bf 4d 89 80 bf 8d c3 d7 be
       -0.25491714 -0.542506 -1.0041901 -0.4214138
000030 d5 26 0a c0 77 7e 29 3f ae fb a7 3e e8 06 b0 3f
       -2.15862 0.66208595 0.32809204 1.3752108
000040 d0 68 a2 bf 6e 9a 3a 3f 6a a9 8c 3f 36 96 70 be
       -1.2688236 0.7289189 1.0989201 -0.23494801
000050 ff 6f 84 bf 25 6d 82 bf 45 4e dd bf 18 3e ae 3f
       -1.0346678 -1.0189558 -1.7289511 1.36127
000060 5a 18 47 be 32 ae 3f 3f db e3 7e 3f 9d 4a 9a 3e
       -0.19442883 0.74875176 0.9956643 0.3013505
000070 85 2b dd be ae 81 cb bd b2 43 8e be b5 1f 4b 3f
       -0.43197265 -0.09936844 -0.27786022 0.79345256

encoder.spatial_embedding.bias f4 [16]
000000 c1 44 50 be 82 39 b4 3d 59 4f 01 3f 84 1d 32 3f
       -0.20338728 0.08800031 0.505117 0.6957629
000010 13 5c 83 3d 3a fc b8 be 18 43 a2 be 46 88 0a bf
       0.06414046 -0.36129934 -0.31691813 -0.54114187
000020 a3 28 06 bf 55 a8 60 bd a1 01 c7 3e 98 8f 0b 3f
       -0.52405757 -0.054848034 0.3886843 0.5451598
000030 f0 d9 35 3f b7 bc d7 be cb 96 b6 be 3b ae 99 3e
       0.7103567 -0.42136165 -0.3566192 0.3001574

decoder.decoder.weight_ih_l0 f4 [128, 16]
000000 85 58 cb bc eb fc f6 3c ca eb 24 be bf c4 04 3d
       -0.024822483 0.030149898 -0.16105571 0.032414194
000010 df 56 bc 3d 14 ea 27 be 38 65 29 be e9 90 00 3e
       0.09196257 -0.16397887 -0.16542518 0.12555279
000020 f9 3a 35 bd f1 ab 84 bd af 19 6b 3d a1 f0 a8 3c
       -0.044245694 -0.06478108 0.05739754 0.020622553
000030 42 a0 14 3e ea 43 e2 bd b1 c0 ff bd 04 d1 01 be
       0.14514259 -0.1104811 -0.12487925 -0.1267739
000040 10 77 ad 3d c4 83 42 3e 8a 4d 7e 3d 24 71 6f 3c
       0.08469975 0.18995577 0.062085666 0.014614377
000050 39 c4 1c 3e 97 96 44 3d be c5 a5 ba 81 90 76 bd
       0.15309228 0.047995176 -0.0012647433 -0.060196403
000060 6c ef 9d 3d 66 b6 21 bd f3 1c 1f be 17 4c 63 bd
       0.07711682 -0.03948059 -0.15538387 -0.055492487
000070 37 e4 13 be 6d 67 c6 bc 7e 34 eb 3d 7f 19 cb 3d
       -0.14442526 -0.02421924 0.114846215 0.09916972
000080 30 68 c8 3d 71 39 19 be 95 90 6c ba 86 df 44 3c
       0.09785497 -0.14963318 -0.000902423 0.012016183
000090 f4 a5 1f be dd cc 2c be ee 3c 49 3c 55 22 04 bd
       -0.1559065 -0.16875024 0.012282593 -0.032259304
0000a0 67 77 c7 bd 65 30 d4 bd 53 f5 03 be fb 7f 08 be
       -0.09739571 -0.10360793 -0.12886553 -0.1333007
0000b0 df 46 fa bd 61 c2 5c bd 7c e6 a9 3d 63 2e cf 3d
       -0.12220549 -0.05389631 0.082959145 0.101162694
0000c0 0e ce e9 3d 39 36 5d 3d 58 ff 9a 3d 56 04 23 bc
       0.11416255 0.05400679 0.07568234 -0.009949764
0000d0 95 fd 80 bc 1d 9b 19 be b4 ba f4 bb 43 5a b7 bd
       -0.015745917 -0.15000577 -0.007468546 -0.08952763
0000e0 97 29 01 bb a9 01 9c 3d 82 6c 8e 3d 0e 74 75 bc
       -0.0019708627 0.07617504 0.0695429 -0.014981283
0000f0 9d 44 01 3e 18 81 cb bd c4 35 19 be d5 95 db 3d
       0.1262383 -0.09936732 -0.14961916 0.107219376
000100 cb 2a 5c be 87 14 f6 bd b5 f7 e9 bd 43 50 05 3b
       -0.21500699 -0.12015634 -0.114241995 0.002034203
000110 4a c6 70 3c e7 5f e1 3d 41 5d 67 bd de 17 d9 3d
       0.014695713 0.1100462 -0.05648542 0.106002554
000120 9d ef 06 bc 26 c8 cf bd 99 db a8 bd 8c 88 0f bd
       -0.008235839 -0.10145597 -0.0824501 -0.03504233
000130 18 7a 44 3e a3 11 36 bd c1 e4 30 be c3 e0 ae 3d
       0.191872 -0.044450413 -0.17274763 0.08538964
000140 9e f2 e3 bd 94 aa d7 bd 4f 96 53 3e 36 01 1b 3e
       -0.1113026 -0.10530582 0.20662807 0.1513718
000150 36 39 1b 3e 94 75 68 3c 96 f9 54 3d 3b b2 39 bd
       0.15158543 0.014188189 0.051995836 -0.04533599
000160 2b d4 5a be 82 23 57 be ce a9 7b 3c e3 57 93 bd
       -0.21369998 -0.21009639 0.015360309 -0.071944974
000170 d4 55 b2 bc f0 c5 19 3d 64 04 4e 3e 45 48 65 bd
       -0.021769442 0.037542284 0.20118862 -0.055977125
000180 73 2b 21 3d d6 19 dd bd d9 a5 24 be bc 3a 17 be
       0.039348077 -0.107959434 -0.16078891 -0.14768499
000190 a2 24 18 3e 6b 39 0b be e6 c5 d2 3d 72 c8 c6 bd
       0.14857724 -0.13596122 0.102916524 -0.09706201
0001a0 ab 5c 26 bd 5a a5 07 3e 62 f1 10 be 17 49 01 3e
       -0.04061572 0.1324667 -0.1415458 0.12625538
0001b0 4e a9 59 bd 48 4a e4 3d fc fe f6 bd cb 2b b4 3c
       -0.053139977 0.111469805 -0.12060353 0.021993538
0001c0 91 49 00 be d1 c7 22 be 1a 0c f0 bd f5 f3 78 3d
       -0.12528063 -0.15896536 -0.11721058 0.06077953
0001d0 bc 20 ae bd c6 70 84 bd 72 8c fd 3d ba d5 1f be
       -0.08502337 -0.06466822 0.123803034 -0.15608874
0001e0 2b 4c 08 be b1 ce ab 3d a5 b0 4a 3c 12 a5 8a 3d
       -0.13310306 0.08389033 0.012371217 0.06769766
0001f0 55 84 16 3d 24 83 db bd b2 bf 3a be 38 f5 e9 bd
       0.036747295 -0.107183725 -0.18237188 -0.11423725
000200 59 94 3a 3d a6 10 93 3d 3e a8 63 3e cc 5b 4d 3c
       0.04555163 0.0718091 0.22232148 0.012534093
000210 e9 2e 97 bd 2f fc 09 3e c0 b7 fd bd aa 5e 32 3e
       -0.07381994 0.13475107 -0.12388563 0.17418924
000220 4e d5 2f be e7 e1 4c 3d a2 50 3d be 22 03 ca 3d
       -0.17171213 0.050020125 -0.1848779 0.09863879
000230 27 06 bf 3b cd 7e be 3d 35 41 0a 3e 9e 5b 07 3e
       0.005829591 0.09301529 0.13501437 0.13218543
000240 8f 45 d7 3d 17 5d 41 bc 1a 91 a4 bd 29 1f 00 be
       0.10511314 -0.0118019795 -0.080354884 -0.12511887
000250 c4 10 87 bc ff c2 71 3d 71 9c 0c 3d 70 db bf bd
       -0.016487487 0.059023853 0.03432888 -0.09368026
000260 7e 1c 90 3d d0 d5 e0 bd 0e fd 2f be 7f 14 0e 3e
       0.070366845 -0.109782815 -0.17186376 0.13875006
000270 96 22 10 3e f9 0c ce 3c 20 f9 83 3d 40 72 29 3e
       0.14075693 0.02515267 0.06444001 0.16547489
000280 73 6a 77 bd 40 6d 24 3e 7e 2d 3a be 36 86 56 be
       -0.060404252 0.160573 -0.18181416 -0.20949635
000290 e9 93 45 3e e4 9d 83 3d 70 f5 d8 3c ba 3f c3 bc
       0.19294704 0.064265996 0.026484221 -0.023834098
0002a0 30 8f 27 3e d8 7c 73 bc 43 9c 2f bd a2 b4 03 3c
       0.16363215 -0.014861308 -0.042873632 0.008038672
0002b0 22 6c 15 3e 71 4b 11 bd b6 4f 16 bd d6 35 76 bd
       0.1459203 -0.035472337 -0.036697112 -0.060109936
0002c0 48 80 bd 3d b4 4d bb 3a 38 75 cb 3d a8 4f ec bd
       0.09252983 0.0014290125 0.09934467 -0.11538631
0002d0 7d 4a 1e 3e 68 f4 15 bc 5d 29 35 3e 92 3e 9c bd
       0.15458103 -0.009152509 0.1769156 -0.07629122
0002e0 dc 6a 1e 3e 66 ea db 3d 40 9d 10 be 3b 7b 48 3e
       0.15470451 0.10738067 -0.14122486 0.19578259
0002f0 e6 f3 dd 3d 85 4d 70 bd 89 7d 06 bd 50 c1 e0 3d
       0.108375356 -0.05866768 -0.032834563 0.109743714
000300 6b 51 cd bd 61 63 4a 3d af fc 0a be c1 3b bd 3d
       -0.10025295 0.04941118 -0.13572954 0.09239913
000310 1b d4 0d bd 4d 2d 16 be 81 5e 12 3d 5d c1 09 be
       -0.034626108 -0.14665718 0.035734657 -0.13452668
000320 36 2a ff 3d ef 63 13 bd 18 a3 d6 3d 5d 74 39 be
       0.12459223 -0.035983976 0.104803264 -0.18110795
000330 5b ab 9b bd 9d 25 47 3d 40 de 2e be 24 15 a2 bd
       -0.07601043 0.048619855 -0.17076969 -0.079141885
000340 ac fc 97 3c 55 6d 06 3d 9c 5e 0e bd 91 8d 88 bd
       0.0185531 0.03281911 -0.034758195 -0.06667627
000350 5e 9f 0e be 6b 25 e3 3d be a7 45 bd 03 6d 44 3e
       -0.13927981 0.11091121 -0.048255675 0.1918221
000360 52 ff 34 3e b2 4d 43 3e 72 b6 16 3e a5 ee bc bd
       0.17675522 0.19072607 0.14718035 -0.09225205
000370 e1 9e a8 3d a7 4c d5 3d 5a f3 e9 bd 02 da f9 3d
       0.08233429 0.10415011 -0.11423369 0.12199785
000380 5e aa a8 bd ce e7 40 bd 5b 5c 16 be 59 f5 60 3d
       -0.0823562 -0.047096066 -0.14683668 0.05492148
000390 cd c2 10 3d db 6e bd bd 27 ca d9 3d 2d 57 68 3b
       0.035342027 -0.0924966 0.106342606 0.0035452351
0003a0 e7 89 25 bd db a8 25 be 0d 81 c4 bc ed c6 52 3e
       -0.040414717 -0.16177694 -0.023987317 0.20583697
0003b0 a5 51 d6 3c 56 59 d3 bc 7b 52 78 3b ed d6 0e be
       0.026161978 -0.025799435 0.003789096 -0.13949175
0003c0 b9 f6 f7 bd 08 32 19 3e b0 a5 31 be a4 a7 2d be
       -0.121076055 0.14960492 -0.17348361 -0.16958481
0003d0 5f 2d c2 bd 33 e3 35 be 6c 27 8a 3d 92 0e 9e 3d
       -0.0948131 -0.17762451 0.067458004 0.07717623
0003e0 63 a3 35 bd 70 58 86 3d e1 ef 21 be ff 55 29 be
       -0.04434527 0.06559837 -0.15814163 -0.16536711
0003f0 d4 1b a5 3c c8 30 b8 3c 05 86 d5 bd 29 4a 80 3d
       0.020154871 0.022484198 -0.10425953 0.06264145

decoder.decoder.weight_hh_l0 f4 [128, 32]
000000 18 d1 98 3d 9e 25 b7 3c a9 3f 1a 3e 53 f4 22 3e
       0.074617565 0.022356804 0.15063347 0.15913515
000010 9d 7b 39 be 4b 70 25 3e c6 ba 8a 3c 92 5c de bd
       -0.18113561 0.16156118 0.016934764 -0.108575
000020 7f b7 e5 3d 8d e5 85 bc d2 d6 17 3e 7f 15 f0 bd
       0.1121664 -0.01634481 0.14828041 -0.1172285
000030 11 e8 88 bd 4a bf dd 3c e1 7d b7 bd 69 2f e9 bd
       -0.06684888 0.027068753 -0.08959556 -0.11385996
000040 57 2e 3f be c4 65 3e 3d 4d 40 89 3d 40 c8 10 3e
       -0.18670021 0.04648377 0.067017175 0.1413889
000050 5f 9d 1b bb 87 53 f0 bd b1 7f b1 bd 7b fd 4d 3d
       -0.0023744924 -0.117346816 -0.08666933 0.050290566
000060 f4 0e 1f 3c e9 b4 4d 3d 22 6d 17 bb 94 58 70 bd
       0.009708155 0.050221357 -0.002310582 -0.058678225
000070 ec 3e 5e 3d 0f e4 94 bd ea 4e d4 bd bc 6a a4 3c
       0.054259226 -0.07270061 -0.10366614 0.020070426
000080 ef ce 84 bd e1 2b 10 be 30 87 db 3d c3 08 f7 3d
       -0.06484782 -0.14079238 0.10719144 0.12062218
000090 a8 32 0b 3d 7c f4 ce bd d0 cd 44 3e 5f 92 0d be
       0.033983856 -0.101052254 0.19219136 -0.13825367
0000a0 04 57 60 bc db f2 8f bd 4a 05 de bd ba 16 a9 3d
       -0.013692621 -0.07028743 -0.108408526 0.08256288
0000b0 13 13 4b 3e b0 74 8c bd 4c 31 17 3c b1 14 14 bd
       0.19831495 -0.06858194 0.009228062 -0.036152545
0000c0 a6 3c 76 bd 34 47 1a be 85 b0 0a be 22 a8 d7 3d
       -0.060116433 -0.15066224 -0.135439 0.10530116
0000d0 e0 22 65 3d 9b 70 12 3d 9a 74 30 be ea 4f 75 bd
       0.055941463 0.03575192 -0.1723198 -0.059890665
0000e0 dc 27 80 3d 37 7c cb 3c e2 3e 3b 3e 37 0a 27 be
       0.062576026 0.024839504 0.18285707 -0.1631249
0000f0 bb cc 0b bd 6b f5 ed bd ba e6 a3 bd 93 a2 89 bd
       -0.034130793 -0.116190754 -0.08002992 -0.06720462
000100 fe ce d4 bd fc 8e 2e be 27 6a 1d 3d b0 9c db bd
       -0.10391043 -0.17046732 0.038431313 -0.10723245
000110 46 52 7b 3d 16 51 3b 3e f9 54 6f 3d f4 76 f5 bd
       0.06135776 0.1829265 0.058430646 -0.11985579
000120 6c 11 5a 3d 74 5a b0 3d c1 47 30 be a2 60 2d be
       0.05323927 0.086110026 -0.17214872 -0.16931394
000130 6f e5 a9 3d 51 0f 01 be 00 e7 ea 3d a2 3e 05 be
       0.08295714 -0.12603499 0.11469841 -0.13012174
000140 0e b2 01 be 40 8c 02 3e ff 3a 27 3d b0 41 db bd
       -0.12665579 0.12748814 0.040827747 -0.10705888
000150 52 25 94 bd fe cd f3 bd 25 cb 86 3d c6 3d a5 3d
       -0.07233681 -0.11904524 0.065817155 0.08068423
000160 55 81 ba 3d cf 1c 26 be c9 2b cf bd 0d c4 c8 3d
       0.091066994 -0.16221927 -0.10115773 0.09803019
000170 7f 76 ba 3d 30 f6 ac bc 22 2a 09 bd 8e a4 c7 3d
       0.091046326 -0.021113485 -0.033487447 0.09748183
000180 1f ad 34 3e fa 70 30 be 82 d2 53 3d 18 9b 58 3c
       0.17644165 -0.17230597 0.051714428 0.013220571
000190 75 d2 f4 3d e4 96 f8 bc 17 92 37 bd d6 95 1f be
       0.11954204 -0.030345388 -0.044817057 -0.15584502
0001a0 16 d4 9b bb 71 26 f5 bd fd 88 18 be 7e 15 50 be
       -0.004755507 -0.11970223 -0.14896007 -0.20320699
0001b0 80 5a 92 3d 73 2e 37 bd 9d 34 12 be 43 15 a1 bb
       0.07146168 -0.04472203 -0.14277883 -0.0049158647
0001c0 99 d1 e8 3d f8 1d c1 3c 98 bb b5 bd 97 4b 62 bd
       0.113681026 0.02357386 -0.08873671 -0.05524787
0001d0 49 ef 0a 3e 94 51 ab 3d 95 4c 19 be 1d f5 15 bd
       0.13567843 0.08365169 -0.1497062 -0.03661071
0001e0 4b 1c 5f 3c 11 69 40 3e b9 c0 37 3d c2 9d 25 3e
       0.013617585 0.1879008 0.04486153 0.16173461
0001f0 9d ca 0a 3e 41 8b 7b 3d 42 98 92 be 36 68 89 bb
       0.13553853 0.0614121 -0.28631788 -0.004193331
000200 6d ec 01 3d 18 3d 26 3a 16 25 21 3d ef 74 96 3c
       0.031719614 0.0006341501 0.03934201 0.018366305
000210 a7 73 08 be 05 0a 24 3e 2f dd 8c 3c 9e 58 fe 3d
       -0.13325368 0.16019447 0.017195312 0.12419246
000220 17 21 f0 bb ab cb 0b bd 23 29 0a 3b b2 8c 3a bd
       -0.0073281634 -0.03412978 0.0021081648 -0.045544334
000230 3d 69 6a 3d 92 a2 3c bd 4d 8f e3 3d f7 1d 1a 3b
       0.05722927 -0.046053477 0.11111317 0.0023516396
000240 1c 58 08 3e 3e 1c ef 3d 11 0f b2 bd 14 0e 1a be
       0.13314861 0.11675309 -0.0869428 -0.15044433
000250 19 76 ca bd 6b b8 11 be ff c7 28 be ca 2f ce bd
       -0.098858066 -0.14230506 -0.16482542 -0.10067709
000260 cd a3 0d 3e b0 0f ec 3d d1 a5 a0 3d 0c a5 8f 3c
       0.13832016 0.1152643 0.07844127 0.017534755
000270 cb 19 67 3d 84 af c3 3d 2a 08 35 be 85 0d 0d be
       0.056421082 0.09554961 -0.17678896 -0.13774689
000280 0d 28 13 3d f7 6f c1 bc 86 a1 dd bd 9f c6 57 be
       0.035926867 -0.02361296 -0.10821824 -0.21071862
000290 24 bd af 3c 9c c6 83 3c e0 15 cf bd 2b 11 1d be
       0.021452494 0.016085915 -0.10111594 -0.1533858
0002a0 d7 d8 ee 3d 54 b2 84 bd 0b a9 c2 bd 28 fd 16 3d
       0.11662453 -0.06479326 -0.09504899 0.036862522
0002b0 7f 47 00 3d be 81 8e 3d 68 41 f7 bd 64 b0 28 be
       0.031318184 0.0695834 -0.12073022 -0.16473538
0002c0 fc 1e 1c 3e 06 62 22 be eb c4 81 3d bf d8 c3 3d
       0.15246195 -0.15857705 0.06336387 0.095628254
0002d0 cc b2 4d bc d4 6e a3 3d 72 24 0b be 7f 5a 36 3e
       -0.0125548355 0.07980123 -0.13588122 0.17807959
0002e0 f3 d7 ed bc 90 25 9e 3d e1 ab 1c be 18 ed 21 be
       -0.029033637 0.07722008 -0.15299942 -0.158131
0002f0 2b cc 3a 3d 85 4b b9 3d 37 3d a8 bd db eb 09 be
       0.045604866 0.09047607 -0.08214801 -0.13468878
000300 87 d6 81 bd d1 b3 90 bd a7 e9 71 3d dc 7a cc bd
       -0.06339746 -0.07065547 0.05906072 -0.09984371
000310 6b 15 2b bd 84 e7 d9 3c ea b5 d9 3b fd 4c d2 3d
       -0.041768473 0.026599653 0.0066440003 0.102685906
000320 9e 96 83 bd 46 da 07 be 53 57 f4 bb 70 6d bf bc
       -0.06425212 -0.13266858 -0.007456699 -0.023367614
000330 d8 a8 0c be 37 e8 34 3e bd 28 75 bc 34 bc 50 be
       -0.13736284 0.17666708 -0.014963326 -0.20384294
000340 dd 05 3f be 48 c6 5d 3d 00 c6 03 3e 17 b8 e5 3d
       -0.1865458 0.054144174 0.128685 0.11216753
000350 f9 6f 4c be d0 01 fe 3c 65 0a 0a 3d 56 d3 33 3e
       -0.19964589 0.031006724 0.03370132 0.17561087
000360 c0 ab e1 bd 63 89 dc bd 69 92 d1 bc 89 8a 11 be
       -0.11019087 -0.10768392 -0.02558251 -0.14213003
000370 ea 74 24 3e 79 be 9d 3c 5b 66 66 bb 20 f4 22 be
       0.16060224 0.019255864 -0.0035156223 -0.15913439
000380 b4 f0 f4 3d ba 3d 29 3e 8d 82 ad bd f3 6d 5b 3e
       0.11959973 0.16527453 -0.08472166 0.21428661
000390 f0 79 ad bd 70 4b ac 3d d7 37 e3 3d 9c 66 01 be
       -0.08470523 0.08412826 0.11094635 -0.12636799
0003a0 63 d3 2e 3e cd ae 22 be 55 63 64 bc 6c 6d c0 bd
       0.17072825 -0.15886994 -0.013939698 -0.093958706
0003b0 9c d2 21 be d1 04 30 bc 99 bc b0 3d e1 82 c5 bd
       -0.15802997 -0.010743336 0.08629722 -0.09644104
0003c0 6b db 0f be e9 59 bf bd c1 6d 06 3e 5a 70 96 bc
       -0.14048545 -0.09343321 0.13127805 -0.01836412
0003d0 dd 0e 95 bd 34 d9 ea bd 1c 72 22 be 94 09 19 3e
       -0.072782256 -0.114672095 -0.15863842 0.1494506
0003e0 cc 78 d3 bd cd 87 22 3e 4d f8 7c bd 0b 69 76 3d
       -0.103257746 0.15872116 -0.061760236 0.06015877
0003f0 97 f5 18 3c 65 34 59 3c 74 34 06 3e c9 d9 15 be
       0.009335897 0.013257121 0.13105947 -0.1463386

decoder.decoder.bias_ih_l0 f4 [128]
000000 87 f9 07 be bf ba 17 3b e5 4c 06 3e 53 93 d3 ba
       -0.13278781 0.002315208 0.1311527 -0.0016141928
000010 fd 70 0a be ae 06 04 bc b1 56 8a 3c 5b 3b 0a be
       -0.13519664 -0.008058233 0.01688704 -0.13499205
000020 af db 3a bd 8b 78 a6 3d 66 b6 0a be 07 d7 d7 3d
       -0.045619663 0.081284605 -0.13546142 0.1053906
000030 78 c6 f1 bd fe 6b aa 3d df 78 37 3e f4 03 7d 3c
       -0.11805433 0.08321379 0.17917202 0.015442837
000040 d9 5b 25 bc 4f 44 e1 bd 62 75 fb bc a0 8f 1b be
       -0.010092699 -0.10999357 -0.03069562 -0.15191507
000050 2d 09 31 3e 3a a5 0e be f5 8c 05 3e df 7b 1f 3e
       0.17288657 -0.13930216 0.13042052 0.15574597
000060 e6 ba 05 be 43 7c 18 3e a7 98 e2 3d b7 59 e5 3c
       -0.13059577 0.14891152 0.110642724 0.027996881
000070 2b 14 af 3d 49 00 00 3e fd d3 e1 bd 85 5a 28 be
       0.085487686 0.12500109 -0.11026762 -0.1644078
000080 c3 7b bf 3c b4 48 1a be 4b e0 61 3d 87 8a ae 3d
       0.023374444 -0.15066797 0.055145543 0.08522516
000090 e9 b6 e1 3d d3 76 31 3d 7b b8 19 3e dd c8 34 3e
       0.110212155 0.04332621 0.1501178 0.17654748
0000a0 14 d8 9a bc ae 10 f7 3d 42 48 bc 3c ae d6 94 3d
       -0.018901862 0.12063728 0.022983674 0.072675094
0000b0 9b 88 bb bd bd 6f 39 3d 6c a8 6a bd 71 d0 41 bd
       -0.09156915 0.045272578 -0.057289526 -0.047317926
0000c0 aa c6 07 be fe 89 82 3d c2 7f a0 3d 6a 60 0f be
       -0.13259378 0.06373976 0.07836868 -0.14001623
0000d0 0b 68 8d bd 02 a7 c9 3d ff 98 e9 bd 7c e6 bb bd
       -0.0690461 0.09846307 -0.11406135 -0.09174821
0000e0 04 7a e9 3d 67 b8 5e bd 18 47 39 3d f3 13 b0 3d
       0.11400226 -0.05437508 0.045233816 0.08597555
0000f0 9d 13 ba 3d ce 31 53 3e 5b 4f b7 3d 4f ce 94 3d
       0.09085772 0.20624468 0.08950683 0.07265913
000100 8f 8f f3 3c e8 86 78 3d 78 a3 27 bd 1f d9 00 be
       0.02973154 0.06067553 -0.04092738 -0.12582825
000110 28 31 26 3e 44 89 44 3e 85 bc 1c 3e fe ee 28 3d
       0.16229689 0.19192988 0.1530629 0.041243546
000120 2e 62 09 be a9 05 20 3e 84 21 e6 bd 62 50 db 3b
       -0.13416359 0.15627159 -0.11236861 0.006692932
000130 a0 6a 37 3e ad bd 2e 3e cb 75 23 be 68 d2 15 be
       0.17911768 0.17064543 -0.15962903 -0.14631045
000140 1c b3 cb bd f9 48 05 3e 7b b3 24 3e 42 fe 1d 3e
       -0.09946272 0.13016118 0.16084091 0.15429023
000150 42 cf aa bd dd 7d a6 3c 23 d5 de bd 9c c4 1a 3e
       -0.083403125 0.020323688 -0.10880496 0.15114063
000160 5e da bf bc 77 a8 1e 3e 2c dc 1a 3e c7 ae 9b 3d
       -0.023419555 0.15493952 0.15123051 0.076016955
000170 ed e7 c5 bc 31 e6 23 3e 47 7d e5 3d 6f d9 f4 bc
       -0.024158442 0.1600578 0.112055354 -0.029888837
000180 cf a0 92 3d ad ac 0b 3e 94 5f 0b 3c 9f 19 1f be
       0.07159578 0.1364009 0.008506674 -0.15537117
000190 a7 3d d3 3d aa 1a ef 3d 18 35 01 3e 4e f2 01 bd
       0.103144936 0.11675008 0.1261791 -0.03172522
0001a0 79 86 e1 bd 0b 97 11 bb 80 63 db 3d e7 87 26 3e
       -0.11011977 -0.0022215273 0.107123375 0.1626278
0001b0 3a 3d 00 3e 03 a1 c2 3c f9 45 98 3d 78 f9 3d 3e
       0.12523356 0.023758417 0.07435221 0.18552196
0001c0 db 5a 4f 3e 62 41 82 3d 4f 4c 6d 3d 7e 02 1b 3d
       0.20249502 0.06360127 0.0579341 0.037844174
0001d0 4c ee 9f 3c 4c b7 20 be df e8 29 bc f5 f9 b2 bb
       0.019522808 -0.15694922 -0.010370462 -0.005461926
0001e0 a5 bc 0c 3e 1b db 51 3e c9 db e3 3d 24 02 b1 bd
       0.13743837 0.20493738 0.11125905 -0.086429864
0001f0 a8 01 3d 3e 64 68 d1 bd fa 22 d7 bd f4 85 16 3e
       0.18457663 -0.10224989 -0.10504718 0.14699537

decoder.decoder.bias_hh_l0 f4 [128]
000000 93 ff 14 3e f5 88 05 3e c7 88 02 3e f3 15 2a 3e
       0.14550619 0.13040526 0.12747489 0.16609935
000010 f2 7b 5b 3e 76 83 af bd 0f 8c 22 be e0 3b 82 3d
       0.21434 -0.08569996 -0.1587374 0.063590765
000020 8d 8c f8 bd b1 7d d5 3b 6b 49 09 bc 37 f3 f6 bd
       -0.12136183 0.0065152277 -0.008379321 -0.12058108
000030 2e 1a 19 bd 74 e4 bd bc 52 f9 ba bd be b3 38 3d
       -0.037378483 -0.023180224 -0.09129585 0.04509329
000040 ac b8 d5 bd e6 60 2d bd f7 7a a5 3c cf 15 c1 bb
       -0.10435614 -0.042328738 0.020200236 -0.0058924924
000050 e4 d8 ac bd 31 43 1f bd 70 52 17 bd 64 a4 21 3d
       -0.08439806 -0.038882438 -0.036943853 0.039463416
000060 cd e2 c7 bc 12 c7 90 3d 73 71 20 3e 04 6e 0f 3e
       -0.02440014 0.0706922 0.15668277 0.14006811
000070 52 d3 23 3e d9 4e 8c 3d 35 f7 ab bd fa 11 06 bc
       0.15998581 0.068509765 -0.083967604 -0.008182997
000080 47 7d 04 be e2 2a 61 bd 82 8e 16 3e 01 71 dc 3c
       -0.12938415 -0.054972537 0.147028 0.026909353
000090 d8 bf 01 be ca 01 05 be e4 3f d4 3c 26 6e 9a bd
       -0.12670839 -0.12988964 0.025909372 -0.075405404
0000a0 22 a1 d9 3c bc 8f 20 be 0f a0 61 3d 41 ef 2e 3d
       0.026566092 -0.1567983 0.055084284 0.04270864
0000b0 ef 8b 49 3d 45 4b 20 3d 98 5c eb 3d 35 37 c7 bd
       0.049205717 0.039134283 0.1149227 -0.09727327
0000c0 90 3a d8 bd d4 e2 12 3e db fb ca 3d 3e 51 cb 3d
       -0.10558045 0.1434434 0.09911319 0.09927605
0000d0 b6 11 16 be 30 3d e2 3d 6a 6a 8f bd d7 8f 6a bd
       -0.14655194 0.11046827 -0.07002719 -0.057266083
0000e0 e8 28 2b bd d4 61 c5 3d b0 62 0e be cf db 39 3e
       -0.041787058 0.096378 -0.13904834 0.18150257
0000f0 8a 5f f3 3b 2b 12 c7 3d 85 9e 07 bc e7 1f 15 3e
       0.0074271606 0.09720262 -0.00827754 0.14562951
000100 69 a3 9a 3d b4 4b 6c 3d 76 6c 2d be 84 bd 2a 3d
       0.07550699 0.057689384 -0.16935906 0.041684642
000110 21 9c 56 bc 9c f3 49 bd 7e 80 d0 3d ed 41 11 3e
       -0.0130987475 -0.04930459 0.10180758 0.14185305
000120 e9 5c f2 bd 69 e8 df bd 7c c0 67 3d 20 90 df 3d
       -0.118341275 -0.109330006 0.05658005 0.109161615
000130 88 5d 27 bd e7 f8 e2 3d 70 03 f9 bd 6b 11 14 be
       -0.040860683 0.110826306 -0.12158859 -0.1445977
000140 88 4c fa bc fd 8b 22 3e a7 4e 22 3e 01 a1 0c be
       -0.030554071 0.15873714 0.15850316 -0.13733293
000150 ab c0 a1 3c fa 08 05 be 47 e7 08 be ca cd 76 bd
       0.019745192 -0.12991706 -0.13369475 -0.06025485
000160 82 0d 25 3a 6a fd da bd f2 52 18 3c 85 a3 ba bd
       0.00062962633 -0.10692866 0.009297119 -0.0911322
000170 d6 b1 8f bd 26 19 0a 3e 43 c1 76 bd fe f3 8a 3d
       -0.070163414 0.13486156 -0.060242902 0.06784819
000180 c1 f1 95 3c 1a df ce bc fb 88 2d 3e e4 e9 e9 bd
       0.018303754 -0.025252867 0.16946785 -0.11421564
000190 4c 58 c2 bd 44 f7 6f bd d5 da 8d bc ab d2 e7 bd
       -0.094894975 -0.05858542 -0.017316261 -0.113194786
0001a0 83 cf 08 bd 7b d0 16 be 33 a2 02 be c6 f8 dc bd
       -0.033401024 -0.14727966 -0.12757187 -0.10789637
0001b0 72 20 04 be 4b 09 8b bd 49 20 fc 3d 74 e5 cc bd
       -0.12903002 -0.06788882 0.123108454 -0.10004702
0001c0 f1 41 d0 bd dd 5b 3b 3e 88 9e 41 bd f4 1f 9f 3d
       -0.10168827 0.18296762 -0.047270328 0.077697664
0001d0 c8 86 c1 3d a0 38 3a bd 59 0e 1e be 63 38 05 be
       0.094495356 -0.045464158 -0.1543516 -0.13009791
0001e0 f2 08 e2 3d ca 0e 1d 3d 04 66 45 3c df d0 40 3e
       0.110368624 0.038344182 0.012048248 0.18829678
0001f0 70 b3 0b be f3 17 55 bd 40 49 d6 bd 2d fc 4b 3d
       -0.13642669 -0.052024793 -0.1046319 0.04980104

decoder.spatial_embedding.weight f4 [16, 2]
000000 b7 4a 6d be c0 e7 0d 3f 0a 87 c5 be 68 22 4e bf
       -0.23173033 0.5543175 -0.3857959 -0.8052125
000010 5b b4 25 c0 ab 20 6b bf 0c fa d2 be 84 74 d5 3e
       -2.589133 -0.9184672 -0.41206396 0.41690457
000020 a8 22 dd bd 4f 44 b6 bc ff 09 95 3c 27 e6 0a bf
       -0.10797626 -0.022249369 0.018193243 -0.54257435
000030 15 74 4e bd 2e 45 8c be ea ac 14 3f 79 97 e6 bf
       -0.050403673 -0.2739653 0.58076346 -1.8014976
000040 1b ab 4d 3f ff 2c 95 3f 5c b5 de 3f 61 a0 af 3f
       0.8033921 1.1654357 1.7399096 1.3720819
000050 55 6a 03 3f 3f 25 11 40 31 51 1d bd d0 18 64 bf
       0.51334125 2.2678983 -0.03840751 -0.8910036
000060 ed ce 0c 3e 6b cf 9e bf 61 46 6a 3f c9 66 26 3f
       0.13750811 -1.2407049 0.9151364 0.6500059
000070 ef 69 a7 bf 07 81 42 bf a7 5c 42 bf 25 42 3c 3e
       -1.3079203 -0.7597813 -0.75922626 0.18384607

decoder.spatial_embedding.bias f4 [16]
000000 84 4c c9 be 3a e5 61 be e2 a6 a9 3e 73 19 2c 3e
       -0.3931619 -0.22060099 0.33135134 0.16806583
000010 0e 65 ca 3e 9d ff 21 bf e7 a3 dc 3e 8f 93 29 3f
       0.39530224 -0.6328066 0.43093798 0.6624078
000020 e7 ba de 3e 25 42 db 3e 9e c3 bf be 0f cc 92 3e
       0.4350197 0.42823902 -0.37453932 0.2867131
000030 fb cd 19 3e 9b 7a 0e 3f 63 5e 1e bf 21 1a 7c 3e
       0.15019982 0.5565583 -0.6186277 0.24619342

decoder.hidden2pos.weight f4 [2, 32]
000000 df fe a5 be aa 89 12 be 30 a1 f8 3e 7d db 25 be
       -0.32421014 -0.14310327 0.48560476 -0.1619701
000010 67 31 ad 3e 63 ec 73 be 7e 73 19 be 0e 63 30 3e
       0.33826753 -0.23820643 -0.14985463 0.17225286
000020 2e e1 f4 3d 25 1f 59 3e 89 b7 a9 3e 4a 4a 36 bd
       0.11957012 0.21203287 0.3314784 -0.04450444
000030 47 8b 93 3e 5d d3 47 bd cc 41 db 3b 9a f5 1d be
       0.28817198 -0.048785556 0.006691193 -0.15425721
000040 93 a8 3c bd 40 d1 0e 3f 43 90 46 be 07 1a 1e be
       -0.046059202 0.5578804 -0.19390969 -0.15439616
000050 2a 2a 1e be 92 dd 4f bd f0 84 49 3e 27 04 7d bd
       -0.15445772 -0.050748415 0.19679618 -0.061771538
000060 34 e3 11 bf 89 e4 4c be 0f 6b 7b be fc c2 98 be
       -0.5698731 -0.20009054 -0.24552558 -0.2983626
000070 a0 6d 4f be f2 d7 8c 3d 1d 70 28 3e 90 37 b7 3d
       -0.20256662 0.06877126 0.16449018 0.089461446
000080 e6 5a 87 be 55 dc 59 be 6c 8b 44 3e de 42 90 3e
       -0.26436538 -0.21275456 0.1919381 0.28176016
000090 c6 64 90 bd fe 36 81 bd 3d df 0d 3e 12 dd 23 3e
       -0.07050471 -0.06309317 0.1385469 0.160023
0000a0 d6 22 4d be dc c0 6a 3e 40 45 00 3d 54 bc d0 bd
       -0.2003282 0.22925133 0.031316042 -0.10192171
0000b0 70 74 07 bf e2 fe 24 be 6d 7b 7b be ab f5 89 3e
       -0.52912045 -0.16112855 -0.24558802 0.26945242
0000c0 34 2c 4d bd 8b b7 e4 39 d5 bb 60 be fe e4 6f 3c
       -0.050090984 0.000436243 -0.21946652 0.014641998
0000d0 80 ef 99 be 9e 55 77 be f4 9e cb be 9f ab 5b bd
       -0.30065536 -0.24153754 -0.3976971 -0.053630468
0000e0 43 ec 85 3d 1b 19 6e 3d 35 ec da 3c c4 2c 86 3e
       0.06539204 0.05812941 0.02672396 0.26206028
0000f0 ee 00 21 be fc 20 a6 3e 40 83 a2 3d 5b df ed 3e
       -0.15723011 0.3244704 0.0793519 0.4645947

decoder.hidden2pos.bias f4 [2]
000000 89 34 e7 bd 80 f4 48 3c
       -0.11289317 0.012265325
