scripts/models/sgan-models/zara1_12_model.pt (torch_old, 70313 bytes, 18 tensors)

encoder.encoder.weight_ih_l0 f4 [128, 16]
000000 b6 6f 4e 3d b6 a0 3b bc fe 64 07 3e 9e 6b 1d be
       0.050399505 -0.011451891 0.13222119 -0.15373084
000010 cf a1 c4 bb a0 7d 01 3e e4 e0 c1 3d 4e f7 2b 3e
       -0.0060007344 0.12645578 0.094667226 0.16793558
000020 13 2e d1 bd 0c 9b b5 bd c5 e5 d6 bd 7f fa dd 3a
       -0.10213866 -0.088674635 -0.10493044 0.0016935616
000030 4b a1 49 3d 12 a0 14 bc 70 89 2b 3d da 46 bd 3c
       0.049226087 -0.009071367 0.041879117 0.023105074
000040 29 3a 29 3e 78 17 68 bc 32 71 20 3d 8b ba 41 bd
       0.16526093 -0.014165752 0.03917045 -0.047297042
000050 1e 9e 1a 3c 7d a4 8d 3d 8c b5 57 bc 10 b3 5d 3d
       0.009437112 0.06916139 -0.013165843 0.054125845
000060 2a e0 9e bc 1e e5 bb 3d fc 98 cb bd 62 ec ab 3d
       -0.019394 0.0917456 -0.09941289 0.08394696
000070 23 49 9d 3d 1b 64 ff 3d e4 bd 5b bc 97 8d 75 3d
       0.07679965 0.124702655 -0.013411973 0.059949484
000080 30 09 4b 3d 5a 89 07 be 33 e0 54 3e 29 aa 4b 3d
       0.04956931 -0.13235989 0.2078865 0.049722824
000090 79 ad e3 3d 4c 80 64 3e 93 b1 1e be a2 8f b5 bd
       0.11117072 0.22314566 -0.15497427 -0.088652864
0000a0 6c b5 e6 bd 80 d6 07 be 56 18 33 bd 0b c4 0f be
       -0.11265072 -0.13265419 -0.04372438 -0.14039628
0000b0 67 4c 40 3d e6 7c 23 3c 2b 09 a5 bd b1 5f 0d bd
       0.046947863 0.009978509 -0.08058389 -0.034515087
0000c0 1b b0 11 3d 92 a9 5e 3d 1c c4 64 be d5 c6 42 bc
       0.035568338 0.054360934 -0.22340435 -0.011888226
0000d0 9c 40 e6 bc 9f a7 a7 bd b5 6b d2 bc 18 30 88 bd
       -0.02810698 -0.08186268 -0.025686124 -0.06649798
0000e0 b8 ab b1 3d ec 4e 1c 3e 33 c5 88 bd 78 0e c6 3d
       0.08675331 0.15264481 -0.06678238 0.096707284
0000f0 49 d0 c9 3d bd 36 b8 bd be 53 ad bd b1 b9 15 be
       0.0985418 -0.089948155 -0.08463238 -0.14621617
000100 f1 80 63 3e ce e4 b9 bd 28 02 00 be f9 5a 2a 3d
       0.22217156 -0.09076844 -0.12500823 0.041590665
000110 ab 54 d1 3a cb d6 90 bc c1 09 1f bd 14 16 38 3e
       0.0015970668 -0.017680546 -0.03882766 0.17977172
000120 fa 93 16 be 95 bf 67 3a 7c a1 ce 3c b0 55 d0 bd
       -0.14704886 0.00088404986 0.025223486 -0.101725936
000130 ac 4c 70 3e 45 3f cb bc fb 66 ec bd 75 5d 9f bd
       0.23466748 -0.024810443 -0.115430795 -0.077814974
000140 64 71 6d bc 4b 71 2c 3e 0f 9d 83 3d 7c 0e 88 3d
       -0.014492366 0.16840093 0.06426441 0.06643388
000150 13 1d 18 be 15 be 0c be 43 9e 3e 3b 4e 15 46 3d
       -0.14854841 -0.13744386 0.002908603 0.04836016
000160 21 a8 c9 bc aa fa d1 b9 e2 f7 79 bd 3b 4d b4 bd
       -0.024616303 -0.00040050346 -0.061027415 -0.08803793
000170 00 28 32 3d af 49 b3 3d 1f 9e b5 3c 5b e6 40 3d
       0.04349518 0.087542884 0.022170125 0.047094684
000180 4c 23 a5 3d f9 4a 13 bd 18 58 2f 3d 76 33 48 be
       0.08063373 -0.03596017 0.042808622 -0.19550881
000190 ea 13 0d be 20 79 dc 3d 50 08 3e be 17 89 c9 bd
       -0.13777128 0.1076529 -0.18557858 -0.09840601
0001a0 5c 6f 32 be 24 af ce bd 67 18 89 3d 29 51 4f 3e
       -0.17425293 -0.10091999 0.066941075 0.20245804
0001b0 7a d9 80 3d 35 96 1e 3e e4 e2 cb bc 49 8d c1 3d
       0.0629148 0.15486987 -0.024888463 0.09450776
0001c0 6d 22 32 3e 6b ed d6 bd 09 b7 b7 bc fd 40 16 be
       0.17395945 -0.10494503 -0.022426145 -0.14673229
0001d0 b3 7f 0f be 60 0d 23 3e 8c 9d c6 3c 85 40 0c bd
       -0.14013557 0.15923071 0.024245046 -0.034241218
0001e0 66 9a 33 be 88 a3 db bd 50 b8 35 3e 5b 65 b9 bd
       -0.17539367 -0.107245505 0.17746091 -0.09052535
0001f0 26 c6 cd bb 7f a7 01 be ba bf 1d be 49 3d 14 be
       -0.0062797247 -0.12661551 -0.15405169 -0.14476503
000200 f6 79 e2 3d fc 43 82 3d 9e d1 99 3d 2d 9f 82 3d
       0.110584185 0.06360623 0.075106844 0.063780166
000210 4d 57 5e 3e b1 91 31 bd ee b6 ae bd 85 c9 58 3e
       0.2171299 -0.043351833 -0.08530985 0.21170624
000220 44 ec 3a be 6b f6 03 3e 5c 7c cb bd 3a d3 a3 bd
       -0.1825419 0.1288697 -0.09935829 -0.07999273
000230 1a 10 4a bd 8b d2 02 3e be db be 3d 75 28 54 bd
       -0.049331762 0.12775628 0.09319256 -0.051796395
000240 84 a9 92 bc 5e a2 b9 3d bb 76 35 be 23 87 df bd
       -0.017903097 0.09064172 -0.17721073 -0.10914447
000250 d0 19 fb 3d e1 4f c2 bc 90 be 15 be 54 24 91 bd
       0.12260783 -0.02371973 -0.14623475 -0.07087007
000260 be 6a 8e bd 8b 81 00 3e 90 a9 00 3e 90 64 0a bd
       -0.06953953 0.12549417 0.12564683 -0.03378731
000270 7f fe 49 3e fe b3 de 3d 2e 04 20 be 4f d8 e7 3c
       0.19725989 0.108741745 -0.15626594 0.028301386
000280 80 79 23 3d 08 e2 aa bd 2f a9 12 be 8e 33 1a be
       0.039910793 -0.08343893 -0.14322351 -0.15058729
000290 bd e8 32 3e de 8b 8f 3c 09 3b e3 3b 7d 9a ca bd
       0.17471595 0.017522749 0.006934528 -0.098927476
0002a0 24 61 a1 3d cb e0 2a 3e 12 4d 8a bd 0f 74 a6 3d
       0.07879856 0.16687314 -0.06752981 0.08127605
0002b0 99 99 0c 3e 41 3a 62 3c f6 19 16 3e 81 8e 52 be
       0.13730468 0.013807834 0.14658341 -0.20562173
0002c0 e0 1d 48 3e e4 64 b7 bd cf 06 d5 bc f3 5d 81 bc
       0.19542646 -0.0895479 -0.026004223 -0.015791869
0002d0 d2 3e 12 3e 3f 09 b9 bd cb 87 8d 3d 99 5a c1 bc
       0.14281777 -0.09034967 0.06910666 -0.02360277
0002e0 20 44 cc bd 56 64 81 3d 7e 2f 9f 3b 73 3e 8f bd
       -0.09973931 0.06317966 0.0048579564 -0.06994333
0002f0 f5 59 f9 bd 3c 01 bf 3d 70 17 06 be a5 ac 7b 3d
       -0.12175361 0.09326407 -0.13094878 0.061443944
000300 e2 32 ce 3d 5f 9a 8e bd 04 e1 9e 3d b8 d5 cf 3c
       0.10068299 -0.06963038 0.07757762 0.025370464
000310 69 a1 ac bd cb bb fb b9 c1 e6 ab bd 18 e1 01 be
       -0.08429224 -0.00048014367 -0.08393622 -0.12683523
000320 cc eb 1b bd 0a bd 37 3e 6f 72 13 3e b7 91 8b bd
       -0.03806667 0.17943206 0.14399122 -0.06814902
000330 0c 23 ff ba f7 5c d0 3d 1d c9 c1 3d a6 c7 cb 3d
       -0.0019465401 0.10173982 0.094621874 0.09950189
000340 e6 7b 20 3e a2 43 ef bd 17 91 07 be 4c 64 8e 3c
       0.15672264 -0.11682822 -0.13238941 0.01738181
000350 17 1d 3b 3e d4 d0 ae 3d cc 68 09 3e bb 81 34 3c
       0.18272816 0.085359246 0.13418883 0.011017258
000360 01 af 13 be 5f fa d5 bd 94 67 0e 3e dd 79 1b 3e
       -0.14422227 -0.10448145 0.139067 0.15183206
000370 d0 96 97 3c af be 6e bc 75 3e 44 3e 3f 5d 86 3c
       0.01850453 -0.01457183 0.1916445 0.016401885
000380 44 b7 09 be 2a 51 61 bd 0d 74 29 bc b4 98 81 3d
       -0.13448817 -0.055009045 -0.01034261 0.06327954
000390 18 85 cd bd 57 c5 02 be c2 20 2e 3d ea bb 89 3c
       -0.10035151 -0.12770592 0.04251171 0.016813237
0003a0 b2 ce 09 3e c4 e8 91 bc 3e 52 af 3d 01 da 0b 3d
       0.13457754 -0.017811187 0.08560608 0.03414345
0003b0 7c e3 d3 3d 2d f4 a0 bd 1f 97 62 be 94 9d bc 3d
       0.103461236 -0.07859073 -0.2212796 0.09209743
0003c0 e3 f2 63 bd 94 bd fa bd 13 17 81 3d 08 70 18 3d
       -0.055651557 -0.122431904 0.06303229 0.037216216
0003d0 42 80 09 bd c5 cf 97 3c dd 53 27 be a8 1a 18 bd
       -0.03356958 0.01853169 -0.16340585 -0.037134796
0003e0 05 da 98 3d d7 8c 6a bd 6f 3c 15 3e b0 eb 36 3e
       0.07463459 -0.05726322 0.14573835 0.17863345
0003f0 87 00 82 bd 5b 54 00 3d d8 d1 1d be f5 cb 81 bc
       -0.06347757 0.031330448 -0.1541208 -0.015844325

encoder.encoder.weight_hh_l0 f4 [128, 32]
000000 04 70 54 be 72 87 21 be 76 a4 f7 bc 6c e1 63 3e
       -0.20745856 -0.15774325 -0.030229788 0.2225396
000010 ce 08 7b be 18 38 ee 3d 6e cf 63 bc 03 b6 d1 3d
       -0.24515077 0.11631793 -0.013904436 0.10239794
000020 37 3a c1 bd a3 4f 90 bd 1f b4 dd bd 11 f2 b3 bd
       -0.09434932 -0.070464395 -0.10825371 -0.08786405
000030 76 d1 ea bd ab 4e fd bc 8a c0 b7 bd 4c 4d 5d 3d
       -0.11465733 -0.0309213 -0.08972271 0.054028794
000040 f9 24 3e 3d bd 6e 07 3e 03 82 b9 3d d6 cc 8a 3a
       0.04642198 0.13225837 0.09058001 0.001058961
000050 f6 12 17 3d 8e 77 56 3e cc 61 15 be d3 79 b7 3d
       0.036883317 0.20944044 -0.14588088 0.08958783
000060 85 9b 99 3b 86 b0 ca 3d cc db 2b 3e 44 af 03 bd
       0.004687729 0.098969504 0.16783065 -0.03214957
000070 44 d4 ab 3d bf 79 4f 3e 95 4c 96 3d 2d 1f a3 3c
       0.08390096 0.20261286 0.073388256 0.019912327
000080 11 81 bc 3d a8 06 40 3d 38 57 92 3d 82 f9 88 bd
       0.09204305 0.046881348 0.07145542 -0.06688215
000090 5f a7 2c bd 51 dc e6 3d 22 38 12 3e 4e fc a7 bd
       -0.042151805 0.11272491 0.14279225 -0.0820242
0000a0 9a 53 54 3d c0 83 f1 3d 26 af 4f 3d 4a ff f8 3d
       0.05183754 0.117927074 0.050704144 0.121580675
0000b0 90 49 8b 3d f9 23 da bd 2c 53 be 3d 82 ad e0 bc
       0.0680114 -0.106513925 0.092932075 -0.027426485
0000c0 b4 a8 4f be e5 a9 6a 3d 68 97 f1 3d 5f b3 ad 3d
       -0.20279199 0.05729093 0.117964566 0.08481478
0000d0 30 1d d2 3b 6e 10 57 bc c7 5b c8 bd 3b c4 2e 3e
       0.006412171 -0.013126476 -0.0978313 0.17067043
0000e0 40 0c 1a 3e 56 24 eb bd ad 34 00 be 32 b7 ba bd
       0.15043736 -0.1148154 -0.12520094 -0.09116973
0000f0 9b 70 c5 bd 45 38 10 3e ec fc c2 bc 96 35 09 be
       -0.096406184 0.14083965 -0.023802243 -0.13399348
000100 91 6e 4b 3d a4 ca 97 bd 7d ea 63 3e 0d 37 6f 3a
       0.04966599 -0.074116975 0.22257419 0.00091253297
000110 28 2d d6 3d 50 eb 13 bd 34 6e 50 3d 49 d9 09 3e
       0.104578316 -0.036113083 0.050886348 0.13461794
000120 fb 52 82 bd bc 55 24 be df cf 7b 3d e6 e7 0b 3d
       -0.063634835 -0.1604833 0.06147754 0.034156702
000130 9b c8 2b 3e f1 37 92 bd 5e be a7 3d 6f ca f7 bd
       0.16775744 -0.07139576 0.081906065 -0.12099158
000140 0f 01 ec bc 9f 80 0b be e5 cc 63 bd 60 4d 4d 3e
       -0.028809099 -0.13623284 -0.055615325 0.20049047
000150 45 c9 79 be e6 36 0a 3e d2 0d b5 3c 58 22 bb 3c
       -0.24393184 0.13497505 0.022101317 0.022843525
000160 f5 52 db 3d 5b f4 cc bd f1 29 8f bd d9 9f f4 3d
       0.10709182 -0.100075446 -0.069904216 0.11944551
000170 8a fd 2d be de 20 2b 3e d8 87 a0 bd 9d 0f bb bd
       -0.16991249 0.16711757 -0.0783841 -0.09133837
000180 9a 75 95 bd b0 6c 61 bc 8d 90 b5 bd 1f c8 dc bc
       -0.07297821 -0.013758823 -0.088654615 -0.026950894
000190 9e 7c 4c 3d a9 56 85 3d b3 0e 58 be 47 4c 75 be
       0.04992353 0.0651067 -0.21099357 -0.23954879
0001a0 4d 46 af bd d2 43 1a 3e 9a 3a 53 3d 96 2d 8f 3d
       -0.08558331 0.15064934 0.05156956 0.06991117
0001b0 28 52 15 3d aa 03 9c 3d e9 bd 57 bd 12 a0 bb 3c
       0.036455303 0.07617886 -0.052671347 0.022903476
0001c0 05 a8 99 3d 27 78 88 bd e8 cc b6 bd 69 0c 2d be
       0.0750275 -0.06663542 -0.089258015 -0.16899265
0001d0 53 2b 97 bd 5e 3d 90 bd 43 d1 c6 bd 7c 7c 52 be
       -0.0738131 -0.07042955 -0.09707882 -0.205553
0001e0 ba cd ac 3d f3 c8 de bc f9 1f 55 be 08 37 6e 3d
       0.08437677 -0.02719543 -0.20812978 0.05815795
0001f0 87 99 5e 3e ca 44 a2 3d fb e6 2d 3e f7 45 27 be
       0.21738254 0.07923277 0.16982643 -0.16335283
000200 e0 7b 00 3c 93 63 45 3e f1 64 de 3d f6 86 79 bd
       0.007842034 0.19276266 0.10859097 -0.060919724
000210 24 71 8b 3d d8 d6 02 3d 8a 9c 65 3d 54 57 54 be
       0.06808689 0.031943172 0.05605749 -0.20736438
000220 fd 24 8e 3d fc ef 2c 3e 68 d1 a4 bc 9c 36 c4 bd
       0.06940649 0.16888422 -0.020119384 -0.095807284
000230 cc 3c 2d 3e ed 60 4a be e1 8f 5d 3d 22 aa 71 3e
       0.16917723 -0.19763537 0.05409229 0.23600057
000240 79 08 5f 3e 6a 13 cc 3d c6 5d 18 3c 9a b8 b2 bd
       0.21780576 0.099646404 0.009299701 -0.08726616
000250 0c 51 9a bc 21 7b 1a 3e be 62 fb 3d 06 ae 80 bd
       -0.018837474 0.15086032 0.12274693 -0.06283192
000260 fc 4d 0e be 8a b0 8e bb 48 75 e9 bd 87 8a 4d bc
       -0.13896936 -0.004354541 -0.11399323 -0.0125452345
000270 fc f0 a2 3d 05 82 76 3e 68 e6 55 3d 1f 3a 05 be
       0.0795612 0.24073036 0.052221686 -0.13010453
000280 4b 77 17 be 10 45 03 3e 5b 01 e1 bc 41 00 75 bc
       -0.147916 0.12819314 -0.027466467 -0.014953674
000290 08 5e 09 3e b6 8e d1 3d 9b 84 1b bc 89 fa 7b 3d
       0.13414776 0.10232298 -0.009492065 0.061518226
0002a0 de 38 95 3d ab d6 80 bd a1 9b 87 3d f6 56 ae 3d
       0.07286237 -0.06290945 0.06621481 0.0851268
0002b0 cf cd d1 bc 21 d1 20 3e e5 42 f2 bc a1 c9 0f 3e
       -0.025610832 0.15704776 -0.029572913 0.14041759
0002c0 c3 36 18 3e 01 90 ae 3d 17 10 ac bd 8c ce 45 3d
       0.1486464 0.0852356 -0.084015064 0.04829268
0002d0 70 82 c5 3d 86 f6 36 3e af d1 bf 3d 9c b9 1b 3e
       0.096440196 0.17867479 0.09366166 0.15207523
0002e0 31 52 08 3d ae 12 de 3b 03 ce 12 3e 0f 75 ad bd
       0.03328151 0.006777129 0.143364 -0.08469593
0002f0 fb a6 a7 b9 61 16 a8 3d 2b d9 0f be 0e 1c a8 3d
       -0.00031977132 0.082073934 -0.14047687 0.08208476
000300 32 9e c5 3d b5 63 0d be 17 6c 45 3d 51 fc c3 bd
       0.09649314 -0.13807566 0.048198786 -0.0956961
000310 cb 04 b4 bd ca d2 36 3e 49 d2 72 3d af 23 13 3d
       -0.08789977 0.17853847 0.059282575 0.035922702
000320 73 0c 0a 3e 89 66 ed 3d b3 b3 b1 3d b2 b4 29 3d
       0.13481312 0.11591823 0.08676853 0.04143209
000330 57 a9 c2 bd 0a ad b5 bb 85 e0 36 be 33 1e c4 3d
       -0.09504955 -0.0055443095 -0.17859085 0.095760725
000340 41 47 3c 3e 56 53 24 bd 03 83 94 3d 90 e1 12 3e
       0.18386556 -0.040118538 0.07251551 0.14343858
000350 0e 07 7d 3d 3e 75 4e 3e c7 28 4a be f1 46 32 3e
       0.061774306 0.20161912 -0.19742118 0.17409874
000360 42 eb fc bd 05 c1 84 bd 1b b3 18 3b 61 d1 c9 3d
       -0.12349559 -0.06482128 0.0023300115 0.09854389
000370 ad c3 fa bd da 89 c9 bd 9e 84 03 be 51 f7 f6 bd
       -0.122443534 -0.09840746 -0.12843558 -0.120588906
000380 a5 23 65 be 77 91 4e be 99 2a b6 3d 7f 50 1b be
       -0.22376879 -0.20172678 0.088948436 -0.15167426
000390 54 ed 4e bd 8d dc 27 3d b3 c5 e3 bd 0c c6 a6 bd
       -0.050519302 0.040981818 -0.111216925 -0.08143243
0003a0 92 ef 89 bd 57 68 2e 3e a6 3d 14 3e ee 72 d7 bd
       -0.067351475 0.1703199 0.14476642 -0.10519968
0003b0 f9 0a f5 bd 2a 87 53 bd 20 98 d9 3d 80 1d 40 3e
       -0.119649835 -0.051642574 0.10624719 0.18761253
0003c0 36 dd 8d 3d 60 76 64 bd d0 49 74 bc 01 a9 94 3c
       0.06926958 -0.055776954 -0.014910176 0.018146994
0003d0 1d bc 0d 3d 24 03 38 3e 72 25 05 bd 5c 5b 22 3e
       0.034603227 0.17969948 -0.032506414 0.15855163
0003e0 86 6f 5f be fc c8 9c bd a3 0e a8 3d ad 3b df 3d
       -0.21819887 -0.07655522 0.08205917 0.10900054
0003f0 90 7c 41 3d 62 3e 28 3d f3 20 ad bd 2f 05 5a 3e
       0.047237933 0.041075118 -0.0845355 0.2129104

encoder.encoder.bias_ih_l0 f4 [128]
000000 c2 39 bc 3c 71 4d 9a 3c d3 b2 0d 3e b4 e4 ad bd
       0.02297676 0.018835755 0.13837747 -0.08490887
000010 99 68 2f 3e f6 f9 59 3d 75 dc 7c bd 60 20 c6 bd
       0.17129745 0.053216897 -0.06173368 -0.09674144
000020 9a a1 21 3e 33 60 16 3e 6f 7e 06 bd 34 ea e5 3d
       0.15784302 0.14685135 -0.03283542 0.11226311
000030 e9 c7 86 bd 5a b8 fa 3d f7 26 13 3e 0e 77 a9 bd
       -0.065810986 0.122421935 0.14370333 -0.08274661
000040 65 56 94 ba b3 c7 08 3d 68 df 2f 3e 3d 34 a3 3c
       -0.0011317251 0.033393573 0.17175066 0.01992237
000050 1a b5 be 3d 63 fb 1f 3e dd 05 77 3c c2 6e dd bc
       0.09311886 0.1562324 0.0150770815 -0.027030353
000060 2c c2 1d 3e 8f 3d 19 be 46 57 01 3d 31 14 6c 3e
       0.15406102 -0.14964889 0.03157737 0.23054577
000070 ce 31 b6 3d 70 d1 4e 3e 52 41 de bd f7 83 76 3e
       0.08896218 0.20197082 -0.108523026 0.24073778
000080 57 99 34 3e 21 35 c5 bd 27 9c 35 be 05 83 74 3d
       0.1763662 -0.09629274 -0.17735349 0.059695262
000090 00 b2 01 bd 44 1d 2c 3e 3c b1 ce 3d a9 58 f5 bc
       -0.031663895 0.16808039 0.100923985 -0.029949503
0000a0 92 80 1b be 27 eb 5a 3d 51 ed 06 be 65 a1 2b bd
       -0.15185764 0.053446915 -0.13176467 -0.041901965
0000b0 a4 51 ab bd 17 8a 27 3e 11 fa f3 3c 7c 3a 00 3d
       -0.08365181 0.16361271 0.029782327 0.031305775
0000c0 2f 18 39 bd 47 b7 ba bc 37 aa 21 3e 1a 0a b7 3d
       -0.04518908 -0.022792472 0.15787588 0.089374736
0000d0 12 58 ad bd 28 b1 2b be 72 90 ac 3d 4c 51 ee bb
       -0.08464064 -0.16766798 0.08425988 -0.007272875
0000e0 1b 99 c4 3d 81 2b 1e 3e 12 3f 0d 3e db f0 14 3d
       0.09599515 0.15446283 0.1379359 0.03636251
0000f0 5e b3 52 bd 52 2b 3a 3e 5b b0 45 be 45 21 30 be
       -0.05144059 0.18180588 -0.19305556 -0.17200191
000100 26 32 91 3d 26 91 a9 bd 57 c9 74 bd 31 81 51 3e
       0.07089643 -0.08279638 -0.059762325 0.20459439
000110 17 d3 e3 bd 6b 4e e3 3d b1 c8 90 bc 6c 5a 22 3d
       -0.111242466 0.110989414 -0.017673822 0.039637014
000120 fd 6b 28 bd 96 39 f9 3d f1 6e 8f 3d b0 56 3b 3d
       -0.04111861 0.12169187 0.07003582 0.04573697
000130 3b 6f 4e 3e ee 6b 0a be 38 95 02 bd f1 43 2b bd
       0.20159619 -0.13517734 -0.031880587 -0.04181284
000140 35 ea 41 3d 1a 67 ac 3d 8f 17 db 3b 7b af bd bd
       0.047342498 0.084181026 0.006686158 -0.09261986
000150 f3 6d 2f 3d 7c 71 96 bc fc 59 7a 3d 25 82 ee bd
       0.042829465 -0.01836466 0.061120972 -0.11645917
000160 59 de 2e be 4f 27 e2 bb 56 9a ee 3d 7f 0b a1 3d
       -0.17077006 -0.0069016586 0.11650531 0.07863521
000170 63 a9 a9 3d 9b 59 fb 3d 23 87 bb bc c4 81 67 bd
       0.08284261 0.1227295 -0.022891587 -0.05652024
000180 ed b5 df 3d 52 81 af bc f9 2a dc 3d 9a 41 dc bd
       0.109233715 -0.02142397 0.10750384 -0.107547
000190 10 eb a7 bc 72 e3 32 3e 83 e9 3f 3e 1a df 35 3e
       -0.020497829 0.17469576 0.18741421 0.17760888
0001a0 ce 47 3e 3d 4c c4 df 3d 42 38 58 3e df 57 e9 3d
       0.046455197 0.109261125 0.2111521 0.11393713
0001b0 4a 8b 7c bd 67 b7 46 3e e6 c7 b0 bc 22 c6 ba bd
       -0.061656274 0.194059 -0.021579694 -0.09119822
0001c0 c5 b0 1f 3d d6 2b 1c 3e 10 d0 e7 bd 77 40 d6 3d
       0.03898694 0.15251097 -0.11318982 0.104615144
0001d0 1f a8 f6 3d 56 80 cc 3d 5b b8 6a 3e b5 ef 87 3e
       0.12043785 0.09985416 0.22921889 0.2655007
0001e0 27 01 b6 bd ca 87 03 be f9 16 34 3e 69 da b6 3d
       -0.088869385 -0.12844768 0.17586888 0.08928377
0001f0 63 3b 50 3d eb 1a 9c bd d1 e1 e3 3d bb 85 9c bd
       0.050837886 -0.07622322 0.111270554 -0.076426946

encoder.encoder.bias_hh_l0 f4 [128]
000000 bd 7b cb bd 41 7f 94 bc 5a b4 c6 bc aa d3 5e 3d
       -0.099357106 -0.018127086 -0.02425592 0.054401077
000010 74 ae 6e 3e 94 eb 0a 3d 14 21 50 bd 19 4b b3 3d
       0.23308736 0.03391607 -0.050812796 0.08754558
000020 a2 93 c0 3d 09 34 b7 3d f1 43 07 3e bf 72 af bd
       0.09403159 0.08945472 0.13209511 -0.08566808
000030 30 f9 3e 3e 12 5d 2b 3e 2c c5 a3 3c 6f 09 2c 3d
       0.18649745 0.16734722 0.01999148 0.042001184
000040 8b 97 3f 3e 1a d6 cd 3c d2 2a 3c bd 22 9e 89 bd
       0.18710153 0.025126506 -0.045939274 -0.067196146
000050 bc 8d 0b 3e cc ad 00 be bf cc 1c 3c 1c 43 a2 bc
       0.13628286 -0.12566298 0.0095703 -0.01980739
000060 aa 0c 25 3d f1 79 c7 ba 75 a1 0a 3e 90 53 8f bd
       0.04029528 -0.0015218836 0.13538153 -0.0699836
000070 b6 d5 53 3e 47 7b 19 3e 3b 1d ca 3d 44 c6 d1 3c
       0.20686993 0.14988433 0.098688565 0.025607236
000080 55 99 0a 3e 7d ab 20 3e c6 56 8a bd 8e 9a 92 3d
       0.13535054 0.15690418 -0.06754832 0.07158385
000090 13 1d da bd a1 93 d9 3d c8 94 0a be 86 79 8b 3d
       -0.10650077 0.10623861 -0.13533318 0.06810288
0000a0 47 d7 bb bd 0a e8 dd 3d 27 d3 70 bc df 55 f3 bb
       -0.0917192 0.108352736 -0.01469878 -0.007426008
0000b0 77 b6 4c 3e cd 30 c1 3c 19 51 83 3d 8f 13 6a bd
       0.1999148 0.02358284 0.064119525 -0.05714756
0000c0 18 9f 7f bb 0f 82 0c be 37 73 3f 3d 4d bd 0e be
       -0.003900474 -0.13721488 0.046740737 -0.139394
0000d0 75 24 2a be 0a c7 29 bd aa 93 b5 bd cf 13 18 be
       -0.1661547 -0.041449584 -0.08866055 -0.14851306
0000e0 82 25 af bd 8b 51 39 bd c9 46 39 3e a6 31 0b 3d
       -0.08552076 -0.04524378 0.18093409 0.033982895
0000f0 b4 e1 db 3c 1a 6d 91 3d 0c 65 7e bd e4 a8 97 bd
       0.026841022 0.071008876 -0.062108085 -0.0740526
000100 56 2a 02 bc 9b ca 0a 3e d2 72 01 bd c6 f5 a8 bc
       -0.007944664 0.1355385 -0.03160364 -0.020625006
000110 77 b7 d0 bd 30 32 2e 3e f7 57 c5 bd 6b 48 1d be
       -0.10191243 0.17011333 -0.096359186 -0.15359657
000120 e3 79 80 bc d9 00 a0 3d 6e ef d2 3d e1 32 a2 bc
       -0.01568312 0.07812662 0.10299574 -0.019799652
000130 35 b2 32 3e d1 12 b8 bd ac 47 63 3d aa 8f a8 3d
       0.17450793 -0.08987964 0.055488274 0.08230527
000140 b5 43 53 3e a1 7f 92 3c 8e ab a6 3d 87 06 d5 bd
       0.20631297 0.017883124 0.0813819 -0.104016356
000150 9b 52 b3 bd 36 98 e7 3c 16 37 b1 3d b3 dd a7 3c
       -0.0875599 0.028270822 0.08653085 0.020491457
000160 be 10 03 be c8 85 eb 3d 9f 89 bc bd 8b a8 e2 3c
       -0.12799355 0.11500126 -0.09205937 0.027668258
000170 7a 50 37 3e 56 36 f5 3d 0c 79 09 3e e6 4b 60 3d
       0.17901793 0.119732544 0.13425082 0.054759882
000180 72 3e 9b 3c 03 1f b9 3d 98 6d f5 bd 44 6d c2 bd
       0.018950675 0.09039118 -0.11983794 -0.09493497
000190 95 76 49 3d 74 ad 3e 3e a2 44 3c 3e 70 97 a4 bd
       0.049185354 0.18620855 0.18385556 -0.08036697
0001a0 79 fb 08 3e cc 92 17 3e 3f 4d 9a 3d 40 94 04 3e
       0.13377179 0.14802092 0.07534265 0.12947178
0001b0 52 2f 4d 3e 96 b2 13 3b a4 65 c8 3d 6e e2 15 3e
       0.20037583 0.0022536865 0.097850114 0.14637157
0001c0 51 59 04 3d 1e 23 4a 3e 61 ce a8 3d 57 47 01 3e
       0.03231174 0.19739959 0.08242489 0.1262487
0001d0 bf 1a 46 3e 55 d0 17 3e 3f 12 ac bd 44 e5 90 bd
       0.1934614 0.14825566 -0.08401918 -0.07074979
0001e0 50 b8 0b be 8e b9 39 bb 23 bd c8 bd 50 14 3b 3e
       -0.13644528 -0.002833936 -0.098017 0.18269467
0001f0 2d f9 19 3e ab 0e 5a 3e ef 63 46 3e b7 26 50 3e
       0.1503646 0.21294658 0.19374059 0.20327269

encoder.spatial_embedding.weight f4 [16, 2]
000000 7c 93 51 3d 06 56 e3 bf 64 25 ab 3f 54 fc f5 3e
       0.051166043 -1.7760627 1.3370786 0.48044074
000010 88 b3 03 bd 58 5a ac 3f f6 14 bd be ae 63 dd be
       -0.032153636 1.3465071 -0.36930054 -0.43240112
000020 7e 7d f2 be 0e 96 92 bf 1a a4 ca 3c 34 a6 c0 3f
       -0.47361368 -1.1452043 0.024736453 1.5050721
000030 e7 d5 63 bf cb 06 aa be 7a fa 8a be 20 79 64 bf
       -0.88998264 -0.33208308 -0.27144223 -0.8924732
000040 be ee f4 3d 2f 5c a7 3f 9d 3f 15 40 39 b5 19 bf
       0.11959599 1.3075007 2.3320076 -0.6004215
000050 10 f6 94 3f 28 70 a0 bf 4a 33 30 3f 4f 23 ab 3e
       1.1637592 -1.2534227 0.6882826 0.33425376
000060 51 79 26 3f 4b 46 d5 be 3d ab 99 3f 13 d5 ea 3f
       0.65028864 -0.41655192 1.2005383 1.8346275
000070 3a 35 ad bf 70 78 b4 3e e0 ab bb bf 18 dd 5e 3f
       -1.3531868 0.35248137 -1.4661827 0.8705611

encoder.spatial_embedding.bias f4 [16]
000000 16 44 94 3e 5b 94 49 be b7 8c ef be 8f e0 ea be
       0.28958195 -0.196855 -0.46787044 -0.4587445
000010 ae b2 34 3e 52 89 eb bc b1 c9 bf bd 40 e8 e3 3e
       0.17646286 -0.028752003 -0.093646415 0.4451313
000020 4f fd 09 bf c5 09 e4 3e 35 16 97 be 8d 89 bf 3d
       -0.53902143 0.44538704 -0.2950913 0.093524076
000030 9d 29 f2 3e 81 51 a1 be 7b b2 99 3e 62 27 37 bf
       0.47297373 -0.31507495 0.30018982 -0.7154447

decoder.decoder.weight_ih_l0 f4 [128, 16]
000000 4c eb 33 3e 0d e8 04 be 7a c5 51 bd aa 60 23 3e
       0.17570227 -0.12979145 -0.05121372 0.15954843
000010 46 0d 57 bd 31 e1 39 3e 8e b1 96 bd f1 0d ed bd
       -0.052502893 0.1815231 -0.073580846 -0.11574925
000020 11 b1 7d 3d 7c ae 37 3c 68 1e 15 bc bc 7b 0f bc
       0.06193644 0.011211034 -0.009101488 -0.008757528
000030 6e c3 d0 3d 95 c7 82 3d aa 1d 92 3d a0 4e a0 3d
       0.10193525 0.063857235 0.07134564 0.078274965
000040 3f da b2 bd d1 ff 13 3e bb fb f1 bd 5c 98 b5 3c
       -0.087330334 0.14453055 -0.11815592 0.022167377
000050 c7 45 09 be 32 f7 02 bd a7 f8 a7 3d bc 6d 34 be
       -0.13405524 -0.031974025 0.082017235 -0.17619985
000060 46 42 4d 3e 8c 95 1e 3e fc 64 4d bc 15 a1 2d 3e
       0.20044813 0.15486735 -0.012536284 0.16955979
000070 1f 3d f8 bd ae 25 bc bc 48 25 a2 3c 21 af 2e be
       -0.12121033 -0.022967186 0.019793168 -0.17058994
000080 ef e0 19 be 3c 6d 77 3c 09 ec d5 3d a1 a0 f0 bd
       -0.15027212 0.015101727 0.10445411 -0.117493875
000090 f9 bd 24 be 13 e3 c2 bd a9 58 de b9 1f cc 9e 3d
       -0.16088094 -0.09515967 -0.00042409197 0.07753777
0000a0 72 30 f1 3b 09 8b 17 be c3 b5 fd 3d f4 6e 75 3d
       0.0073605115 -0.14799131 0.12388184 0.059920266
0000b0 9a 21 3e bd 1a b4 be bd b5 a6 eb bd 25 64 54 be
       -0.046418764 -0.093116954 -0.11506406 -0.20741327
0000c0 d5 33 2d bd 27 90 09 be bc 39 24 bd 5f c3 91 3d
       -0.04228576 -0.13433896 -0.040094122 0.07117342
0000d0 ed 4d 26 3d 9d 0a c5 bd c4 bc ff 3d 90 39 b8 3b
       0.04060166 -0.09621165 0.12487176 0.0056220964
0000e0 30 86 a4 3d 10 51 20 be 0d 19 9f 3d ff 51 1d 3e
       0.08033407 -0.15655923 0.0776845 0.1536331
0000f0 06 f0 7e 3e 32 d4 91 3b 94 a2 ca bd b9 07 94 3d
       0.24896249 0.0044503445 -0.098942906 0.072280355
000100 5f 65 c4 3d 22 92 5a bc 1b 70 ed bd a5 ac 6e 3d
       0.095896475 -0.013340505 -0.11593648 0.058270115
000110 bc 0f a7 3d 56 ae e2 bd d4 1a 2b bd f1 a6 0d be
       0.08157298 -0.11068408 -0.041773632 -0.13833214
000120 64 56 bd bd c9 d9 5c bd 5a 2c 15 bd 56 fe 1a 3e
       -0.09244993 -0.053918634 -0.03641925 0.15136084
000130 01 c9 d8 bd 98 cc c7 3d 1d be 7c bd bf e8 16 3d
       -0.105852135 0.0975582 -0.061704744 0.036843058
000140 2c fc 96 bd 15 61 7b bd 59 b0 6d bd fa 16 11 be
       -0.07372317 -0.06137188 -0.058029506 -0.14168921
000150 28 b1 e7 bd aa 7a fe bd ce dc 53 ba ef 18 0c be
       -0.11313087 -0.1242574 -0.00080819137 -0.13681386
000160 5f cc 19 be 96 8d a7 bd 87 c1 82 bd 49 fd 3e 3d
       -0.15019368 -0.08181302 -0.06384569 0.04662827
000170 1d d1 4d be 2b c2 35 3e 37 46 09 3e 23 3a 1d 3e
       -0.20099302 0.1774985 0.13405691 0.15354209
000180 71 e4 b2 bd cc 08 ca bd f7 62 44 be 2d ca af 3d
       -0.08734978 -0.09864959 -0.19178377 0.08583484
000190 6a 00 d7 bc fa 27 dc bc 91 22 ed bd 13 b3 07 be
       -0.026245315 -0.026874531 -0.11578859 -0.13251905
0001a0 20 98 3a 3d 42 3b 25 bd 24 18 d8 3d 45 5c 9e bd
       0.045555234 -0.040339716 0.105514795 -0.07732443
0001b0 7a 7a 21 be 2a 94 a9 bd c1 71 11 bd 02 6d e8 3d
       -0.15769377 -0.08280213 -0.035508875 0.113489166
0001c0 01 51 02 3c 14 c1 2e be b7 37 10 3c 52 37 7c bd
       0.007953883 -0.17065841 0.008802346 -0.061576195
0001d0 56 a7 be 3d 0e 94 a1 3d fe 77 13 3d 92 d1 3f 3c
       0.093092605 0.07889567 0.036003105 0.01170768
0001e0 35 5d 38 bd 22 c0 18 3e fb ad 4c 3d 0f 63 ac 3d
       -0.045010764 0.14917043 0.04997061 0.084173314
0001f0 6d 44 10 3e a0 87 d1 3d f3 70 ec 3d a1 1c 96 3d
       0.14088602 0.102309465 0.11544981 0.07329679
000200 f5 6f 35 3e d3 82 26 bd 70 8a 2c 3e f3 fe 59 bd
       0.1771849 -0.040652107 0.16849685 -0.053221654
000210 8a 07 f7 bc 3b 9a e4 3d b8 b6 59 3e bc 37 41 3d
       -0.030154962 0.111622296 0.21261108 0.047172293
000220 52 d1 75 3d d4 cc 83 3d 82 c5 2b 3e 81 0c 8d bc
       0.060014077 0.06435552 0.16774562 -0.017217876
000230 f4 6c c6 3d 4f ec b8 bd 89 1b 85 bd 3a 61 02 3e
       0.0968875 -0.09029447 -0.064993925 0.12732401
000240 6c 46 d0 3d ec a3 b4 3d 82 97 38 3e 73 2e ee 3d
       0.10169682 0.08820328 0.18026546 0.11629953
000250 33 19 39 be dd 23 a6 bd b9 b4 fe 3c 6b fb f2 3d
       -0.18076019 -0.08112309 0.031092035 0.118643604
000260 26 9c 17 be 8a ea 34 3e b9 50 13 be 4e 29 06 3e
       -0.1480566 0.17667595 -0.14386262 0.13101694
000270 06 70 48 3e e3 9a e0 3d c3 22 88 bd a5 8f 40 bc
       0.19573984 0.10967042 -0.06647255 -0.0117529975
000280 91 ec a2 bd b9 b4 e2 3d 48 c2 d4 bd 10 33 31 be
       -0.07955278 0.11069626 -0.10388619 -0.17304635
000290 48 9c 89 3d 63 a7 6a ba 06 79 10 3d 34 b3 e4 3d
       0.067192614 -0.0008951334 0.035271667 0.11166993
0002a0 fb 50 ab 3d 5a 00 ff bd be 2c 17 bd b0 df 3a 3d
       0.08365055 -0.12451239 -0.036907904 0.04562348
0002b0 1f f3 d6 bc 67 93 f4 3d 2a c4 6f 3c c9 3f 26 be
       -0.026238976 0.11942177 0.0146341715 -0.1623527
0002c0 7c c1 2c 3e 30 6c e8 3d 1a d2 d2 bd 21 01 f7 bd
       0.16870683 0.1134876 -0.1029398 -0.12060762
0002d0 a6 b9 c3 bc f1 ab 10 3e b9 4c 9b bc 69 89 82 3d
       -0.023892235 0.1412809 -0.018957483 0.06373865
0002e0 28 76 1e 3d d1 6d a1 bd 28 08 45 bd b0 51 89 bd
       0.0386869 -0.07882274 -0.04810348 -0.06705034
0002f0 9c 7e 23 3e 34 92 08 3e 99 ec a5 bd e8 8c 23 3e
       0.15966266 0.13337022 -0.08101768 0.1597172
000300 51 d3 b0 3d 13 0b 2f be c8 95 12 be 91 db 5b bd
       0.086340554 -0.17094068 -0.1431495 -0.05367619
000310 ad 90 80 bd 84 a6 0a 3e 34 44 c4 bc 18 43 df 3d
       -0.06277595 0.13540083 -0.023958303 0.10901469
000320 cb d7 9e 3d cf a1 10 bd 55 02 b5 3b 45 4e 9f 3d
       0.07756003 -0.035310563 0.0055239596 0.077786006
000330 43 7a c9 bc e8 b1 9f 3d 96 0e 1f 3e 77 8d cc 3b
       -0.024594432 0.07797605 0.15532908 0.00624245
000340 2f b3 82 3c f6 ed 87 bc 80 ba 42 3a db 30 1f bd
       0.015954582 -0.01659296 0.00074283034 -0.03886495
000350 9d 0f 2b be 3d 3c dc 3d a1 a0 3f be 77 76 3e 3e
       -0.16705175 0.10753677 -0.18713619 0.18599878
000360 32 0d d5 bd 51 aa 25 be 28 df 98 3d 18 0b 8f bb
       -0.104029074 -0.16178252 0.07464439 -0.004365336
000370 21 f4 5c 3e 0e 3d 86 bb 73 c8 fd 3d 48 b6 38 3d
       0.21577503 -0.0040966338 0.12391748 0.045095712
000380 36 a6 90 3d 6e da d7 bc a1 16 75 bd 5e a9 c6 3d
       0.07062952 -0.026349273 -0.059836034 0.09700273
000390 b1 13 16 bd fe ae 39 3e 63 0e 2e bd f4 24 ca 3d
       -0.036639873 0.1813316 -0.04249419 0.098703295
0003a0 d6 46 33 bd 18 0f 35 3d f0 d2 63 3d 2c af 02 be
       -0.043768726 0.044203848 0.055621088 -0.12762135
0003b0 f5 05 45 3e 90 47 3d be 69 7c 31 be 7d e6 23 3d
       0.19240554 -0.1848433 -0.17332615 0.040014733
0003c0 4c 95 97 3d 8e ff c9 bc cf 98 41 3e ac 03 bf 3d
       0.07401523 -0.02465799 0.18905948 0.09326872
0003d0 62 0d 43 3c 98 04 8c bd 57 11 b5 bd 28 ef 0d be
       0.011905046 -0.06836814 -0.08841198 -0.13860762
0003e0 2f 24 b4 bd ba 17 5f 3d a5 de fe 3d fc 15 57 3d
       -0.08795964 0.054465987 0.1244481 0.0525112
0003f0 f8 48 06 3d 4a f8 0a bd 1c b6 3a be 06 13 a4 bd
       0.032784432 -0.033928193 -0.18233532 -0.08011441

decoder.decoder.weight_hh_l0 f4 [128, 32]
000000 e0 ca 2e 3e 0f 46 9e 3c 42 fd cb 3c 30 46 e2 3b
       0.17069578 0.019320516 0.024901036 0.0069053397
000010 0f 59 19 3e 64 e8 5c 3d 57 be cb 3b 05 a5 47 3e
       0.1497538 0.053932562 0.0062177586 0.19496544
000020 f8 24 bc bd 95 15 a5 bd 64 9d 9c bc 53 c7 92 3d
       -0.09186739 -0.08060757 -0.019118018 0.07166924
000030 b9 f7 f4 3d 8b 30 31 3e 80 93 f8 bd 4f fc 49 bb
       0.11961312 0.17303674 -0.121375084 -0.0030820554
000040 0a cd 7b 3e 61 92 8b bc 31 3a f4 3d b4 b3 25 3e
       0.24589935 -0.017037572 0.11925162 0.16181833
000050 15 a8 03 be c6 6a da 3d 30 e1 86 3d c5 0e 3a 3e
       -0.12857087 0.10664897 0.0658592 0.18169697
000060 dc 41 6e 3d 43 ed 06 be 15 d3 c6 3c 03 03 1f be
       0.058168277 -0.13176446 0.024270574 -0.15528493
000070 dc 9f ff bd f2 53 69 bd 87 c1 ac bd 7d cc 5e 3d
       -0.12481663 -0.056964822 -0.0843535 0.054394234
000080 25 41 0a 3e cc 4f 2c 3e eb 07 cc bc 13 a3 0e 3e
       0.13501413 0.16827315 -0.02490612 0.13929395
000090 b1 b9 2a bd 60 0b 56 3e 56 d0 93 bd 10 a9 5c 3d
       -0.041680995 0.20902777 -0.07217471 0.053872168
0000a0 4f 88 dc 3d 64 6b e3 bd 60 54 c9 3d cd 35 d2 bd
       0.10768186 -0.111044675 0.098305464 -0.10264168
0000b0 e4 ba 61 3e 4b f2 32 3d 1e 17 84 3c 9a c3 c7 bc
       0.2204395 0.0436881 0.016124304 -0.024385262
0000c0 42 01 b8 3c 28 cf 0e 3d 7d 63 ef bd ec 6a 79 3b
       0.022461537 0.03486553 -0.11688898 0.0038058115
0000d0 14 c8 da bc 38 3a 53 be b4 ec 9f bd a3 62 58 3d
       -0.026706733 -0.20627677 -0.078088194 0.052828442
0000e0 2b ac 04 3e 57 64 91 bd 85 1c 88 bd 0c e7 63 3d
       0.12956302 -0.070992164 -0.06646065 0.055640265
0000f0 5c 0a 15 3e 06 1f 06 3c 92 5a 6a 3d 7a 28 d2 3d
       0.14554733 0.0081861075 0.05721528 0.102616265
000100 99 f1 5c bd 43 2b 55 bd 4e 9f 77 be ba 8e 92 3d
       -0.053941343 -0.05204321 -0.24181864 0.07156129
000110 65 8c fa bc 41 9e 45 3b c8 6e 3f be 61 05 be bd
       -0.030584523 0.003015414 -0.18694603 -0.0927837
000120 54 5d d4 bd 04 93 17 bd 70 20 ff 3c ad ff 21 be
       -0.103693634 -0.03700544 0.031143397 -0.15820189
000130 48 b6 ed 3c 19 5e ed 3d 7a f3 c1 bd 53 e5 34 bd
       0.029017583 0.11590213 -0.094702676 -0.044164013
000140 0f 46 a2 3d 34 80 f2 bd 47 6a 44 be 53 77 b1 bd
       0.07923519 -0.11840859 -0.19181167 -0.086653374
000150 37 07 fc bd 40 80 8c 3d b7 47 5c bd c6 90 f1 3d
       -0.123060636 0.06860399 -0.05377933 0.117951915
000160 84 2e a8 bd a1 da 19 3d 55 53 80 bb 7d 05 61 3d
       -0.08211997 0.037562016 -0.003916184 0.054936875
000170 cd 16 f2 3d 4d a3 56 3e 91 cb 0b be b8 ea ae 3d
       0.11820755 0.20960732 -0.13651873 0.08540863
000180 f5 b2 0c be cc 1b 0c 3d d3 17 49 3d 1c bb 26 3d
       -0.13740142 0.034206197 0.049094986 0.040705785
000190 38 fd 1b 3e 3d 9a 11 be 62 c7 f3 3d a5 b9 06 3e
       0.15233314 -0.14218993 0.11903264 0.13156755
0001a0 7a 76 54 bb 23 e0 11 3e 78 f3 2f 3d 97 55 17 bd
       -0.003241925 0.14245658 0.0429568 -0.03694686
0001b0 97 33 e4 bd cb b8 05 3e ea 4a 10 3d 45 53 72 be
       -0.111426525 0.13058774 0.035227694 -0.23664577
0001c0 a7 76 a6 3d 08 75 6b 3e bb 10 03 be 8b 07 56 bd
       0.081281 0.22993863 -0.12799351 -0.052253287
0001d0 cc f6 0a be a6 e2 20 be 1f 0a 69 3e 35 e8 13 bd
       -0.13570708 -0.1571146 0.22757767 -0.03611012
0001e0 15 28 95 bc 27 6e 17 3e 2f 66 b0 3d a8 08 3c 3e
       -0.01820759 0.14788114 0.0861324 0.18362677
0001f0 a6 e5 76 bd 15 84 0a be ac 6a b8 3d 2e 95 17 3e
       -0.060277604 -0.13526948 0.09004721 0.14803001
000200 61 b8 e6 3c 1e 36 d0 3d d4 52 da bd 55 0f 9c 39
       0.02816409 0.10166572 -0.106603295 0.00029766062
000210 f9 83 3f 3e 1d 36 99 3d 5f e6 ea 3d 60 8d 12 3e
       0.18702687 0.074810244 0.11469721 0.14311743
000220 a4 fb 0d 3e d6 35 bf bd b5 51 f3 bd 04 4e 1b 3e
       0.13865525 -0.0933644 -0.11880819 0.1516648
000230 ea a5 95 bc 58 fa 36 3d 6e b6 21 be 2c 29 c6 bd
       -0.01826759 0.04467234 -0.15792248 -0.09675822
000240 7e eb b4 bc 00 f6 2d 3d 8d c3 83 3d 30 31 4c 3d
       -0.022084948 0.042470932 0.06433783 0.049851596
000250 79 39 b5 bd 04 59 69 3e 12 48 1f be 16 77 14 3e
       -0.08848853 0.22787863 -0.15554836 0.14498553
000260 9d c7 cc 3c 4f 8c 33 be ff 09 0f bd 22 da 40 be
       0.024997527 -0.17533992 -0.034921642 -0.18833211
000270 63 df 84 bd 97 5d 26 3e c6 0d 08 3d 5f e1 cb 3d
       -0.0648792 0.16246639 0.03321626 0.099550955
000280 91 1f 5f 3d 1a f6 18 bc 13 03 12 be 53 50 fa 3d
       0.054473463 -0.009336019 -0.14258985 0.12222352
000290 15 1b 23 3e 25 e3 85 bd e1 9f 3b bd cc f2 7e bd
       0.159283 -0.06537465 -0.04580677 -0.062243268
0002a0 ee 77 d0 3d c9 6c b0 bc 44 52 dd 3d e7 c6 6d bc
       0.10179125 -0.021536248 0.108067065 -0.014512754
0002b0 36 ed c1 3b 57 c2 79 3d a0 33 19 3e 2a 1b 75 bd
       0.0059181703 0.060976353 0.149611 -0.05984036
0002c0 0a c9 b2 bd 4c 2a d7 3d 2b d3 98 3d 49 5e 15 bd
       -0.087297514 0.10506114 0.07462152 -0.03646687
0002d0 90 05 c1 bd ab 0f e8 bd 3d ad 54 bd 38 05 43 bd
       -0.09424889 -0.113311134 -0.051923025 -0.0476124
0002e0 73 0e f2 bd 78 a8 e1 bb f7 8a cc 3d 7c ca 0c be
       -0.11819162 -0.006886538 0.09987443 -0.13749117
0002f0 8b 36 10 3e f1 b1 d2 bd f5 41 24 3e b8 62 04 be
       0.14083306 -0.10287846 0.16040786 -0.12928283
000300 f9 6c 7d bd 47 4b b7 3d bd a3 d6 bd d7 82 ca bd
       -0.061871503 0.08949905 -0.10480449 -0.09888237
000310 aa f4 96 bd a3 37 38 3d 89 e2 d7 bd 51 22 d3 3c
       -0.07370885 0.044974934 -0.10541255 0.0257732
000320 90 2a 8e bd 8b 9f 03 39 65 c4 2f 3d f1 e9 12 3e
       -0.06941712 0.00012552568 0.042911906 0.14347054
000330 8c 6f f5 bd 6d 22 a2 bd 05 15 88 bc 1e 89 7c 3d
       -0.119841665 -0.079167224 -0.016611585 0.061654203
000340 d7 e6 24 3e 49 aa 3c 3e ee 25 cd 3d 2b a1 f6 3d
       0.16103683 0.18424334 0.10017 0.12042459
000350 ea a4 07 3d 40 83 94 bd a7 6c 00 3e c0 95 95 bd
       0.03311626 -0.072515965 0.12541448 -0.07303953
000360 3e 1f b8 3c dc c6 ba 3a bf bf 03 3e 89 a9 ea bb
       0.022475835 0.0014249939 0.12866114 -0.0071613234
000370 ec 77 54 bb aa b0 31 be 2b d0 8b 3d 37 a2 e9 3d
       -0.0032420112 -0.17352548 0.06826814 0.11407893
000380 fb 03 ca 3d 08 13 24 3e 9e 03 27 3c 0f 31 33 3e
       0.098640405 0.16022885 0.0101937335 0.17499183
000390 b2 9f 90 bd 91 92 3a 3e b2 8c b0 bc 92 2a 64 bd
       -0.070617095 0.18219973 -0.021551464 -0.05570466
0003a0 f1 f1 bb bc 70 ac 78 bc bb f8 00 be ed c3 52 3b
       -0.022942515 -0.015177831 -0.12594883 0.0032160238
0003b0 53 5e 9f bd 07 4a de bb 06 a0 3d 3e a6 13 2e be
       -0.07781663 -0.006783727 0.18518075 -0.16999683
0003c0 83 76 c1 bd dc d9 3a 3e f2 6d 07 be dd 85 de bd
       -0.094464324 0.1824717 -0.13225535 -0.10865376
0003d0 42 cf 2a 3e 98 96 f6 bd 62 7c 8f bd 3d b9 0c 3e
       0.16680625 -0.12040442 -0.07006146 0.13742538
0003e0 e6 a3 35 3d b1 fe cd 3c e5 b4 fe bd 8f 8b 3f 3d
       0.04434576 0.02514586 -0.12436847 0.046763953
0003f0 63 19 da 3d 93 fe c4 bd ba 90 a7 3a 67 6a 1a 3e
       0.106493734 -0.09618869 0.0012784221 0.15079652

decoder.decoder.bias_ih_l0 f4 [128]
000000 bb cf 0f be 94 b0 6a bd d7 b0 72 bd ba 8a 1c 3e
       -0.14044087 -0.057297304 -0.05925068 0.15287295
000010 4f 24 e7 bd d5 3f a8 3d 30 eb 80 bd d6 3e 11 be
       -0.11286222 0.082153 -0.062948585 -0.14184126
000020 f7 5f 2a 3e 0f 81 b5 bd 39 59 1e be 81 c3 09 3d
       0.1663817 -0.088625066 -0.15463723 0.033633713
000030 72 55 45 3c af 10 75 bc b0 8c db bc 5b 39 ad 3c
       0.0120442975 -0.014957591 -0.026800483 0.021145513
000040 d1 12 f5 3d ec 7c b2 3d 6d 79 3c 3d b2 e7 b7 bd
       0.119664796 0.08715233 0.04601424 -0.08979739
000050 a8 13 03 be 91 cd 11 be 7f b4 ab 3c 51 71 dc bd
       -0.12800467 -0.14238574 0.02096009 -0.10763801
000060 37 01 43 3e 79 90 1a be 85 d9 69 bd a6 97 0b 3d
       0.19043432 -0.15094174 -0.05709221 0.03408017
000070 85 55 ed bd 2f 77 5e bd 1e ce 6d 3d bc 43 1f be
       -0.11588577 -0.05431288 0.058057897 -0.15553182
000080 7a 30 37 bd d8 17 fd 3d 12 d6 07 be 42 3f 13 be
       -0.044723965 0.123580635 -0.13265255 -0.143796
000090 9a 8a 35 3e 29 49 75 bd 7f e9 16 3e ad 9f 06 3c
       0.17728654 -0.059884224 0.14737509 0.008216781
0000a0 61 29 bf 3d 99 22 00 3e 4e 3e ed ba 70 91 1a 3e
       0.09334064 0.12513198 -0.0018100233 0.15094543
0000b0 a7 b7 0e 3e 65 50 c5 3c 9f 11 09 bd 75 35 11 bd
       0.13937245 0.024086187 -0.03346407 -0.03545137
0000c0 2a 00 78 bd f1 2a 52 3e 4f 17 c2 bc 5f 20 75 bd
       -0.06054703 0.20524193 -0.023692755 -0.059845325
0000d0 46 4d ca bd 76 ea dd 3c 59 4e c2 bd a8 59 20 be
       -0.0987802 0.027089339 -0.094876 -0.15659201
0000e0 66 bc da 3c e1 5c fd 3b 7e d7 22 3e 3e 65 2e 3e
       0.026701164 0.0077320193 0.15902516 0.17030808
0000f0 08 df 11 3e 80 aa 38 bc 78 a0 82 3d 7f 42 c9 bd
       0.14245236 -0.011271119 0.06378263 -0.09827136
000100 b1 d9 08 3e 89 8d db 3d d8 31 e9 3d b1 98 15 3e
       0.13364293 0.10720355 0.1138646 0.14609028
000110 15 a3 d4 bd 51 69 16 3e 89 7c 01 be 69 02 af bc
       -0.10382668 0.14688613 -0.12645163 -0.021363454
000120 95 3b 14 3e 4f 3f 2b be f7 c3 1e 3e 8a 00 89 bd
       0.14475854 -0.16723369 0.15504442 -0.06689556
000130 63 40 19 3e a0 4e 15 3e 53 b4 15 be 0f 56 aa 3d
       0.14965968 0.14580774 -0.1461957 0.083171956
000140 3a 8d a4 3d 25 c0 1d be bd 41 07 3e 7f 16 1b 3e
       0.08034749 -0.15405329 0.13208671 0.151453
000150 bf 4c b7 3d cf 1b d1 bd ec 6c 18 3e cd 60 87 bd
       0.08950185 -0.10210382 0.148853 -0.0661026
000160 f6 31 89 3d a5 c8 71 3c 47 14 1a bc 67 2d ae bd
       0.066989824 0.01475731 -0.009404249 -0.085047536
000170 35 aa 06 3e 54 c1 af bd 99 9d 26 3d a6 5c c5 bd
       0.13150866 -0.08581796 0.04067764 -0.09636812
000180 9e ac ea bc 52 4c 41 3d d4 61 80 bd a0 bc eb bd
       -0.028646763 0.047191925 -0.06268659 -0.11510587
000190 46 49 2f bc 0b 44 64 bd b6 b9 de bd 88 77 15 be
       -0.010698622 -0.055728953 -0.10875265 -0.14596379
0001a0 af da 34 3e fd 60 1d 3d 2b a9 e3 3d 94 8f c4 bc
       0.17661546 0.038422573 0.111162506 -0.023994245
0001b0 a5 44 bc 3d a7 b8 82 bc d9 51 92 bc 84 67 9c bd
       0.091927804 -0.01595719 -0.017861294 -0.076369315
0001c0 1b c2 a9 bc 2e 9a e8 bd ac de b0 3d 97 27 c2 3c
       -0.02072244 -0.113575324 0.08636221 0.023700519
0001d0 62 a8 0b 3e 50 e4 f6 bd 81 86 c3 3c 33 55 31 be
       0.13638452 -0.12055266 0.023867847 -0.17317657
0001e0 a4 61 d3 bd 29 d1 27 3d 80 d2 9b bd 8e d2 07 3d
       -0.10321358 0.040970955 -0.07608509 0.033159785
0001f0 3d f2 24 3e 30 22 97 bc ba 23 04 be e3 22 fb bd
       0.16108032 -0.018448919 -0.12904254 -0.122625135

decoder.decoder.bias_hh_l0 f4 [128]
000000 9e 6c 49 bd d6 4f 45 3e fc 65 8a bc 55 ea ec 3d
       -0.04917585 0.19268736 -0.016894333 0.11568133
000010 8e 20 8f 3c 70 6e 12 be 6a 53 05 3e cd 03 27 3e
       0.017471578 -0.14299941 0.13020101 0.16310044
000020 db 0e ba bd 13 f5 e2 3d 66 d6 8c 3d a2 3e dc 3d
       -0.09084865 0.110819004 0.06876831 0.10754134
000030 f1 22 77 bd cd 9d 0d bd d7 e8 01 be cf bf 5c 3a
       -0.060336057 -0.03457432 -0.12686478 0.00084209157
000040 bf 38 00 be 0a a6 fc bd 1a 9f 85 bd 69 7b f1 3d
       -0.12521647 -0.12336357 -0.06524487 0.11791117
000050 fa cf 31 bb fe 59 7c 3d cd d5 a6 39 45 03 cc 3d
       -0.002713202 0.06160926 0.0003182128 0.09961561
000060 57 2f 2d 3e 7a bc 72 3d 3f 49 9e bc dd ee 35 3d
       0.1691259 0.059261777 -0.019322036 0.04441725
000070 a3 a7 6d 3d d5 fa 22 be 2f fc 43 3d b2 dc 2a 3e
       0.0580212 -0.15915997 0.047847923 0.16685751
000080 6f dc 2e 3d 93 1e ae ba 20 25 43 bd f8 99 e7 3d
       0.04269069 -0.0013284258 -0.047642827 0.11308664
000090 90 e5 1e bd 00 a9 b3 3d 82 12 81 3d 23 14 86 3d
       -0.038793147 0.087724686 0.06302358 0.065468095
0000a0 8b 10 22 3e b5 c4 f4 bd 90 fd 0e 3e 83 13 c2 3d
       0.15826623 -0.119515814 0.13963914 0.09476378
0000b0 26 c2 94 bd ef dd 21 be 8b 86 14 3d 9b 32 e2 bd
       -0.072635934 -0.15807317 0.036261123 -0.110448085
0000c0 75 04 2d 3e a2 0c fa 3d f3 02 3c 3e 05 5e fd 3d
       0.16896231 0.12209441 0.183605 0.123714484
0000d0 c5 62 ae bd cf 8a 0c 3e 16 2e 5b 3c 67 ae 5c bd
       -0.085149325 0.13724826 0.013377687 -0.05387726
0000e0 5d 7b 07 3d d1 7d 25 be 10 e8 7b 3d 4c d0 41 3d
       0.033076633 -0.16161276 0.06150061 0.047317788
0000f0 77 de 01 be a1 46 dd bc 10 b9 b9 bd c3 b7 46 bd
       -0.1268252 -0.027011218 -0.09068501 -0.048515093
000100 41 35 8e 3d ec b9 cf bd 37 76 4a 3d 82 b3 17 3d
       0.06943751 -0.10142884 0.049429145 0.037036426
000110 4d 79 30 3e cb 7a e5 bd 6f 58 b0 3d b8 dd 30 3d
       0.17233773 -0.112050615 0.08610617 0.043180197
000120 53 94 f4 bd f9 a9 45 bd bd 95 04 3e 6c fa 23 be
       -0.11942353 -0.0482578 0.12947746 -0.16013497
000130 df db 2f 3e ce 43 02 3e 91 de b3 3d 29 4b 28 bd
       0.17173718 0.12721178 0.087826855 -0.041087303
000140 63 13 21 be bb b9 9a bd 93 81 71 bd cb 7b 3d be
       -0.15730052 -0.075549565 -0.058961462 -0.18504255
000150 01 06 e7 3d a5 ad 06 be d8 05 ac bc 22 96 32 bc
       0.11280442 -0.13152178 -0.02099888 -0.010900052
000160 40 59 9b bd 0d 00 42 3d 3e 8f 9a bd 18 e7 5a 3d
       -0.075853825 0.04736333 -0.075468525 0.053443044
000170 6f 49 30 3d fc 52 00 3e 14 f1 48 bd d4 6b cf bd
       0.04303878 0.12531656 -0.049058035 -0.101279885
000180 20 d4 ef 3b 52 b7 24 3e ea 17 c4 3d 5c 28 75 3d
       0.0073189884 0.16085556 0.09574874 0.059852943
000190 b6 bb 09 3d 7d 0d 5b bd 54 0b 2a bd 03 b3 f4 bd
       0.03362628 -0.05347966 -0.04151471 -0.11948206
0001a0 d1 a5 6c bd c5 66 34 be ee 7a 22 3e 03 b8 86 3c
       -0.057775322 -0.17617328 0.15867206 0.016445166
0001b0 09 d9 f1 3d 07 72 1e be bd 26 1e 3e 65 6c 18 be
       0.11808974 -0.15473185 0.15444465 -0.14885099
0001c0 9c cf 41 bd 72 74 39 3e a7 c2 49 3e 44 80 da bd
       -0.047317132 0.18110827 0.1970316 -0.10668996
0001d0 e4 60 1f 3e 61 12 65 3d 44 5a fb 3d f2 02 2d 3d
       0.15564305 0.05592573 0.12273076 0.042239137
0001e0 3a df d8 bd 1b ba 1d bc b6 86 3a 3e 94 a3 c6 bb
       -0.10589452 -0.0096268905 0.1821545 -0.0060619805
0001f0 8f e7 c8 bd de 21 17 3e e8 75 27 3e 47 b7 aa bd
       -0.09809791 0.14759013 0.16353571 -0.08335739

decoder.spatial_embedding.weight f4 [16, 2]
000000 2d 8e 0c 3e 84 fe 24 bf 37 de ea bf 89 0d c8 3f
       0.13726111 -0.6445086 -1.8349065 1.5629131
000010 0e 85 9a 3e b5 c6 95 bd 34 fb e5 3f 06 b7 ce bf
       0.30179638 -0.07313291 1.7967286 -1.6149604
000020 4d ce 0e bf ef 0e 1f 3f 11 e8 6f bd b8 c0 28 bf
       -0.5578354 0.6213216 -0.058570925 -0.65919065
000030 17 a1 1a bf e0 e9 83 bf b7 7b c8 3f 9f 73 5e bf
       -0.60402054 -1.0305748 1.5662755 -0.86895174
000040 0b 9b b9 bf 89 82 d8 bf 83 91 28 be 8f cf ee bd
       -1.450044 -1.6914836 -0.16461758 -0.116606824
000050 6b 7a 73 3f d6 bd 73 bf ae 2d 2f be 5d 04 85 bf
       0.9510867 -0.9521154 -0.17107269 -1.0391957
000060 ca 50 e1 3f cf 53 86 be 90 04 c6 bf cc 70 2b bf
       1.760278 -0.26235816 -1.5470142 -0.6696899
000070 0f 7e d1 bf b8 c8 c0 be d6 5e 48 3d 5d 56 ba 3e
       -1.6366595 -0.37653136 0.048918568 0.36394015

decoder.spatial_embedding.bias f4 [16]
000000 8a 18 b9 bc a7 af 01 bf 73 eb a8 bd 10 d0 15 3d
       -0.022594709 -0.5065865 -0.082480334 0.036575377
000010 7c e4 ce be 44 25 64 3e 65 4e 17 3e 97 54 1d bf
       -0.40408695 0.2227984 0.14775999 -0.614572
000020 1c a8 fc be d8 32 d9 be ec c5 ea 3e 88 39 2c bf
       -0.49347007 -0.42421603 0.45854127 -0.67275286
000030 44 8c f4 3d 20 4e f3 be 04 2c d3 3e 1c d0 61 3e
       0.11940816 -0.47520542 0.4124452 0.22052044

decoder.hidden2pos.weight f4 [2, 32]
000000 ba 62 76 3e 1c 7b ca be 44 a2 e2 be 5b 07 e8 bc
       0.24061099 -0.3954705 -0.44264424 -0.02832382
000010 1f 0a 0e be 7b 4f 0f 3e a2 b0 c8 3e dd 80 d8 3e
       -0.13871048 0.13995163 0.3919726 0.42285815
000020 d5 0b b6 3e 28 75 52 be bf ee 71 be ae 48 10 3c
       0.35555902 -0.20552504 -0.2362623 0.008806391
000030 30 0b 12 3f 95 97 58 3e 80 96 07 bf ba 1d 90 3d
       0.5704832 0.21151574 -0.5296402 0.0703692
000040 db de 89 be 08 3a a7 bd 12 2c b2 bd ea 9d f3 3e
       -0.26927838 -0.081653655 -0.08699812 0.47581416
000050 13 56 3d be bf 74 92 3e ac 11 48 3d 13 c9 b9 be
       -0.18489866 0.28604695 0.04884498 -0.3628622
000060 71 c9 e1 bd af 68 bc be d4 36 ec 3d 36 9e 1f bf
       -0.1102475 -0.36798617 0.11533895 -0.62350786
000070 b4 14 14 3e 0e 47 41 bc c5 28 e2 3d 04 08 df 3c
       0.14461023 -0.011796726 0.110429324 0.027225502
000080 82 6f a5 3e bc ca 8e bd 6c 36 34 3d 6e 59 82 bd
       0.32311636 -0.06972262 0.043997213 -0.063647136
000090 c7 d4 c0 be f4 04 56 be 8b eb c2 be d9 c3 e6 be
       -0.37662336 -0.20900327 -0.3807033 -0.45071295
0000a0 9e 67 bf be 27 30 ec 3d b2 cc ae 3d 9e 06 08 be
       -0.3738374 0.11532622 0.08535136 -0.13283774
0000b0 91 ff ad be 16 01 a2 3e 7b 20 94 3e 76 7b f6 3e
       -0.33984044 0.31641454 0.2893103 0.48141068
0000c0 4c bc 99 3e 4e 6a a3 bb c9 9b 10 be db 2f a2 be
       0.30026472 -0.0049870377 -0.14121927 -0.31677136
0000d0 08 42 84 bd 52 49 9c 3e 92 11 86 bd eb dc 47 3e
       -0.06457907 0.3052469 -0.0654632 0.19517867
0000e0 bd 8e 81 be 66 a3 9f be b4 a0 15 bd af ba ab 3e
       -0.25304213 -0.3117935 -0.03653021 0.33540866
0000f0 62 ff 43 3e e5 92 70 be 25 8c 69 3e ac b6 19 bd
       0.1914039 -0.23493536 0.22807367 -0.037527725

decoder.hidden2pos.bias f4 [2]
000000 b2 67 9b bd e4 3c be bd
       -0.07588138 -0.09288958
