scripts/models/sgan-models/zara1_8_model.pt (torch_old, 70313 bytes, 18 tensors)

encoder.encoder.weight_ih_l0 f4 [128, 16]
000000 21 d2 c8 3d a1 ef 3f bc e2 ec 4c bd 4e c7 bc 3d
       0.09805704 -0.011714847 -0.050030597 0.09217702
000010 c4 04 89 3d 15 ed 8b 3c ad 08 1a 3d 01 1c ab bd
       0.06690362 0.017080823 0.03760593 -0.08354951
000020 85 76 b5 3d b2 6f d4 bc 9e f5 8a bd 26 63 fb bb
       0.088604964 -0.025932167 -0.06785129 -0.0076717315
000030 92 02 0f 3e 16 eb 56 be cd ff 40 3e 07 65 05 3e
       0.13965824 -0.20988116 0.1884758 0.1302682
000040 8b 8a 2f 3e e0 3c 8c 3d 34 a9 dd 3c 7a 5d 08 3e
       0.17142694 0.068475485 0.027058221 0.13316908
000050 1b 9f a7 3d ed 3a 2f 3b 96 02 46 bd 59 11 25 3e
       0.08184644 0.0026738003 -0.04834231 0.16119899
000060 1f 45 91 3d 49 14 d3 3b 60 81 c4 3d 67 5d 2a bd
       0.07093262 0.006441627 0.09594989 -0.04159298
000070 a9 83 b6 bd 8a f7 be 3d 5d 0b ca 3c 1a 31 ff bd
       -0.08911831 0.09324558 0.024663622 -0.12460537
000080 a3 c3 ba bd 35 13 85 3c ea d8 7c bd be 20 11 be
       -0.09119346 0.01624451 -0.061730303 -0.14172646
000090 2a a1 9a 3c 25 9f 26 3d 17 a6 2a bc fd 33 4b bd
       0.018875677 0.040679116 -0.0104155755 -0.049610127
0000a0 f9 b7 2c bd ed 53 8a bd ff 39 b2 3c e1 e3 88 3d
       -0.042167637 -0.06754289 0.02175617 0.066840895
0000b0 6e 74 c8 3d 7b d5 d2 3d ec 59 18 3e 88 f8 62 3e
       0.09787832 0.102946244 0.14878052 0.2216512
0000c0 c8 36 89 3d d5 f0 51 bd 07 1c 94 bd 2f d3 22 be
       0.06699902 -0.051255066 -0.07231908 -0.15900873
0000d0 0f bc 69 3d 9b 60 80 3d 6e 71 d2 3d 69 9f 82 bd
       0.057064112 0.06268426 0.10275541 -0.06378061
0000e0 e4 db 26 bb 4d 77 1c 3d b2 3a 3e bd 08 37 b3 bd
       -0.0025460655 0.03819971 -0.046442695 -0.08750731
0000f0 3e 8c 37 be 95 94 c6 bd 5d 68 8c bd e8 9b 45 3e
       -0.17924592 -0.096963085 -0.06855843 0.19297755
000100 98 e1 c3 bc a3 24 bb 3d 16 bd cf 3d b1 79 48 3d
       -0.023911282 0.09137847 0.10143487 0.04894418
000110 bd c4 7f 3d 21 38 19 be a8 32 27 3e 19 d3 1e 3e
       0.062443484 -0.14962818 0.16327918 0.15510215
000120 cb 87 94 bd fb 49 50 3e e6 86 05 3e 27 7c f0 3d
       -0.07252463 0.20340721 0.13039741 0.1174243
000130 b0 ae 25 3d 9b 88 31 be 97 81 3e 3d 75 a8 06 3e
       0.040449798 -0.17337267 0.046510305 0.13150199
000140 8a 56 d1 bd 80 e2 96 bd 92 e8 13 be d4 22 c3 bd
       -0.10221584 -0.0736742 -0.14444187 -0.09528127
000150 7c 91 45 3d c1 69 04 be 41 50 b2 3d ac 58 a2 3c
       0.048234448 -0.12930967 0.087067135 0.019817673
000160 c3 72 03 3e a3 4f 81 3e d0 7c 53 3e 46 db 7c 3d
       0.12836747 0.2525607 0.20653081 0.061732553
000170 64 f8 3b 3e b5 27 d6 bc 12 31 24 be e6 cf 02 3e
       0.18356472 -0.02614198 -0.16034344 0.1277462
000180 eb 03 fe bd e2 0f 3b be d7 a7 6b bd 97 ff 7b 3b
       -0.12403091 -0.18267778 -0.05753311 0.0038451904
000190 77 55 12 be 1c 78 da 3d 89 21 c8 bd 96 07 03 be
       -0.14290415 0.1066744 -0.09772021 -0.12795863
0001a0 39 be a4 3c 33 1d e0 3d 8e 29 3e be c1 26 a0 bd
       0.020110236 0.10943069 -0.1857054 -0.07819892
0001b0 a0 66 5c 3e 9c 32 c6 3d c9 db 4a 3d d6 8e ce 3b
       0.21523523 0.09677622 0.04952601 0.0063036485
0001c0 61 79 39 be 51 46 5b be cc 87 e4 bd c2 78 a9 3d
       -0.18112709 -0.21413542 -0.11158714 0.08274986
0001d0 0a 53 21 3e df 99 08 3d 1f 10 8c bd 66 83 97 bd
       0.15754333 0.033349868 -0.06839012 -0.07398109
0001e0 31 dd 7e bd de 35 2b 3e fb e0 0f 3e a2 bb 9f bb
       -0.062222663 0.16719767 0.14050667 -0.0048746625
0001f0 f6 40 a9 bd 5e cb 23 3e f6 34 d5 3b 92 68 e6 bd
       -0.082643434 0.15995547 0.0065065576 -0.11250414
000200 ba cc 40 be 44 73 ec bd 88 72 e8 3d 9b 6a d9 3d
       -0.18828097 -0.11545423 0.1134997 0.106160365
000210 fa 2a df 3d d6 71 35 3e 05 26 a0 3d 8b db 36 be
       0.10896869 0.17719206 0.07819752 -0.17857186
000220 1f 58 1d 3e ed 8b f9 3d 40 95 8c bd bc cc 37 3e
       0.15365647 0.12184892 -0.06864405 0.17949194
000230 74 27 bd 3d d6 c5 1e 3e a1 a6 b8 3d 8c a5 ab 3c
       0.09236041 0.15505156 0.09016157 0.020952962
000240 67 f5 49 3d 4a 9b 0a be 05 8b 9c bd 51 bc 24 3d
       0.0493063 -0.135358 -0.07643703 0.040218655
000250 da a2 ed bd 84 5a a6 3d be e5 76 3d 43 68 93 3d
       -0.11603327 0.08122733 0.060277693 0.07197621
000260 13 12 c1 3d 39 01 64 bd 9e 1e 7b 3d 58 4b 07 3e
       0.094272755 -0.05566523 0.061308496 0.13212335
000270 8d a8 8e bd 9a 24 03 bd 72 c5 ae 3d fb 6a 06 be
       -0.06965742 -0.032017328 0.085337535 -0.13126747
000280 1a 6c 24 be c7 e3 1c bd c6 42 f3 3d c3 d9 25 3e
       -0.16056862 -0.038303163 0.118779704 0.16196351
000290 31 69 17 3e 06 82 11 3e 90 3d f3 bd d3 12 26 bd
       0.14786221 0.14209756 -0.118769765 -0.040545296
0002a0 95 b5 26 be 12 fe f8 bb ed f1 91 bd d2 bd 3e be
       -0.16280206 -0.007598647 -0.07126222 -0.18627098
0002b0 bc fb 3f bc 10 e4 a7 bb 98 0c 21 3e 8c 29 26 be
       -0.011717733 -0.0051236227 0.1572746 -0.16226786
0002c0 5a b0 37 3d 09 a5 f5 3d 71 a3 2a 3e 83 2d 92 3d
       0.044845916 0.119943686 0.1666391 0.07137587
0002d0 99 34 b7 bd d8 b3 99 bd a8 67 d5 3c a2 30 2a 3e
       -0.08945579 -0.075050056 0.026050404 0.16620114
0002e0 fe af bb bd c0 cf 44 3e 94 ea 84 bc 38 91 20 be
       -0.09164427 0.19219875 -0.016225137 -0.15680397
0002f0 4f 66 2d 3d f0 f1 44 bd 73 7c d2 3d b3 f5 54 3d
       0.042333897 -0.048082292 0.10277643 0.05199213
000300 cd 9d d9 3d 59 9f d9 bd ad 52 91 3c a7 1d 23 be
       0.10625801 -0.10626096 0.017739618 -0.1592928
000310 ed bb 91 3d 4a ac bf 3d 3f 2d 7d bc 09 e0 11 be
       0.07115922 0.093590334 -0.015452682 -0.14245619
000320 1e c0 29 3d 50 b8 53 3d bb a4 0e 3d 1d df b0 bb
       0.041442983 0.051689446 0.034825068 -0.005397691
000330 10 59 4f 3d fe 23 fb 3d 22 df 30 3e 5f 81 19 3d
       0.050622046 0.12262724 0.17272618 0.037476894
000340 bd c6 a3 bd a7 d4 4f bd 5f 48 d7 bd 73 ed 9a bb
       -0.07996891 -0.05073991 -0.105118506 -0.004728013
000350 fe 45 44 bd 7b 3f c5 3d 76 cb 17 be 16 91 b4 bd
       -0.047918312 0.096312486 -0.14823708 -0.088167354
000360 65 a6 02 3e a2 44 b3 3d fd aa 01 be a3 0a 9c 3c
       0.12758787 0.08753325 -0.12662883 0.01904804
000370 59 6d 64 3e 94 91 18 bd 41 48 14 3e dd eb a9 3c
       0.22307338 -0.03724821 0.14480688 0.020742351
000380 e4 32 21 bd bf f4 40 bd 1a 84 34 be b5 f4 c8 3d
       -0.039355174 -0.047108408 -0.17628518 0.09812299
000390 c5 12 e7 3d 16 47 07 3d 88 54 32 be b1 ce 54 bd
       0.11282877 0.033026777 -0.17415059 -0.05195493
0003a0 10 0f 30 bd a0 72 87 3d 6a 40 d3 bd 6e a6 65 3e
       -0.042983115 0.0661366 -0.103150204 0.22426769
0003b0 d6 ed b2 3d 4c 3a 1c be 46 c9 a1 bd 64 63 4d bd
       0.0873677 -0.15256613 -0.07899718 -0.050143614
0003c0 af 8c 8d bb 82 3b a1 bd 1c ea a4 3c be 17 c8 bd
       -0.0043197493 -0.07872678 0.020131163 -0.097701535
0003d0 58 6b 2c bd bb 47 23 be 90 4c b9 bc 7a e1 da 3d
       -0.04209456 -0.15945332 -0.022619516 0.106875375
0003e0 08 b4 02 3e 32 bb da bc d9 22 df 3d 17 3d 12 be
       0.12763989 -0.02670059 0.108953185 -0.14281116
0003f0 38 57 ec bc 19 ee b2 3c 05 b9 0a be 19 a1 1f 3e
       -0.028850183 0.02184205 -0.13547142 0.15588798

encoder.encoder.weight_hh_l0 f4 [128, 32]
000000 7d 8f 16 be cc 2b e5 bd d6 04 09 3e 35 f6 86 3d
       -0.14703174 -0.11189994 0.13380751 0.06589929
000010 0f f3 df 3d 01 0b 68 bd af 12 2a bd 1a c3 04 be
       0.109350316 -0.05665112 -0.041521724 -0.1296505
000020 81 ae 60 bd aa d4 24 be 55 a1 f1 bd db ee 33 3e
       -0.05485392 -0.1609675 -0.1179835 0.17571585
000030 1c 3f d1 bb 52 3e 2c bd 73 da 9e bd e5 be b5 bc
       -0.006385697 -0.04205162 -0.0775651 -0.022185752
000040 14 48 4c bc d4 ed d9 bd 5a 7e d5 bd 42 f3 cf 3c
       -0.012468357 -0.10641065 -0.1042449 0.025384549
000050 41 05 c0 3d 84 af 3b bd 4b ce 36 3d 86 d2 88 3d
       0.09376002 -0.04582168 0.04463033 0.06680779
000060 6a 05 7d 3e 31 0f 54 3e af a8 03 3d d3 26 14 be
       0.24709097 0.2070892 0.03214329 -0.14467935
000070 b5 90 80 3d 04 e3 fb 3c d8 44 f2 3d 4c 52 01 be
       0.06277601 0.030747898 0.11829537 -0.1262905
000080 7f 15 30 3d 50 d5 be 3d 10 2d fa bd 7f 98 02 be
       0.04298925 0.0931803 -0.12215626 -0.12753485
000090 16 d4 ca 3d c6 9e 1d 3d a5 42 8a bd 93 d2 99 3d
       0.099037334 0.038481496 -0.06750993 0.07510867
0000a0 ba 27 f3 3d c8 39 c1 3d 78 62 0c 3e b6 3c 04 3d
       0.118728116 0.09434849 0.13709438 0.03228446
0000b0 37 89 a8 3d 40 27 c1 bd 73 c4 dd 3d fe f2 10 be
       0.08229297 -0.094313145 0.10828485 -0.14155194
0000c0 8d e1 04 be b1 9c 40 3d c8 78 a8 bd f9 a3 87 bd
       -0.12976666 0.047024433 -0.08226162 -0.06623072
0000d0 9d ec df 3d cc dd 23 bd 9b a6 96 bd 41 09 05 3e
       0.10933802 -0.040006444 -0.07355996 0.12991811
0000e0 8a 11 f3 bd a7 93 59 3d 9b af 07 3e b5 5c e3 bc
       -0.1186858 0.053119328 0.13250582 -0.027754167
0000f0 3e 8e 1e 3d 8c 13 b2 3d 3b 1c a8 bd 0f c5 f0 3d
       0.03870987 0.086951345 -0.082085095 0.11756336
000100 ff 3a db 3d 48 9f 79 bd cf 81 69 3d 5a 33 a3 bd
       0.10704612 -0.060942918 0.05700856 -0.07968779
000110 4a ee fc bd d1 26 30 bc 06 ae b7 3d d2 8e a5 3d
       -0.123501375 -0.010751442 0.08968739 0.080838814
000120 e8 d1 9b 3d ff 42 5f bd c5 00 ef 3d 65 a7 7c be
       0.07608396 -0.05450725 0.11670069 -0.24673231
000130 e5 6a 98 3d d1 4d 0f bd f0 03 15 3e d6 d8 86 bc
       0.074422635 -0.03498632 0.14552283 -0.016460817
000140 de 04 ad bd 79 7a a2 3d 1e 06 b2 bd cc c1 d8 bd
       -0.08448194 0.07933516 -0.08692573 -0.10583839
000150 d8 40 fa 3d 7c b4 0c be 8b 01 0b 3c 31 cf b0 3d
       0.12219399 -0.13740724 0.008484255 0.086332686
000160 74 33 60 bc 61 29 83 bd f1 0b 25 be 76 61 5e bd
       -0.013684142 -0.06404377 -0.16117837 -0.054292165
000170 ab fc 0b 3e 91 ce d4 bd 4a f1 58 bb 10 20 d6 3d
       0.13670604 -0.10390962 -0.0033102804 0.10455334
000180 92 c0 4a 3d 65 23 01 be 16 a4 15 3d 51 0a ec 3d
       0.049500056 -0.12611158 0.036533438 0.11525405
000190 4e e0 8a bd 6d af ff 3d 8c bc f6 3c 36 5d 12 3e
       -0.06781064 0.12484632 0.030119203 0.1429337
0001a0 1c e4 2b 3e 34 7c 03 3e 63 42 11 bd ce b9 8e bd
       0.16786236 0.12840348 -0.035463702 -0.06969033
0001b0 92 8b fe 3a fa d4 0c 3e 10 db d1 bd 54 bc 33 be
       0.0019420257 0.13753119 -0.10246861 -0.1755231
0001c0 76 5f e0 3d 8b ee 2e bd d1 1c b0 39 b7 3e 38 3d
       0.10955708 -0.04270796 0.00033590806 0.044981685
0001d0 96 4b 21 3e dc 9a 30 be ff 14 b5 3c 13 86 f3 3d
       0.1575149 -0.17246574 0.022104738 0.11890807
0001e0 8e de 58 be 14 d6 cb bd 36 e8 ce 3d 07 e2 98 bd
       -0.21178648 -0.099529415 0.101028845 -0.07464986
0001f0 a6 4e 44 3c 0e b1 1d 3b 98 31 02 3d 5b fd 51 be
       0.011981642 0.0024061832 0.031785578 -0.20506804
000200 3d d3 9e 3d 86 4c c5 3d 4f e7 4a 3e b4 83 05 3e
       0.07755134 0.09633736 0.198148 0.13038522
000210 70 91 03 3d 78 ac b6 3c e7 88 f0 3b 0d a5 21 3d
       0.032121122 0.022299036 0.007340539 0.039464045
000220 3c 67 5f 3d 7a 56 02 be 21 e6 c0 3d c7 92 2f bd
       0.05454181 -0.127283 0.094188936 -0.042864587
000230 21 f4 9c bd 09 b0 63 3a e1 bb 36 3e a3 63 38 be
       -0.076637514 0.0008685594 0.17845108 -0.18006758
000240 42 56 26 3e 95 37 8b 3d 96 bb 11 bd 3d b6 53 bd
       0.16243842 0.06797711 -0.035579287 -0.051687468
000250 56 75 03 3e 30 71 4e bd 6d 94 10 be 16 86 ed 3d
       0.12837729 -0.050400913 -0.1411912 0.115978405
000260 cd fd 98 bd f1 37 f6 bc a8 f5 31 3e c0 63 05 bd
       -0.07470284 -0.030055972 0.17378867 -0.032565832
000270 94 63 15 3e 1b cb 2e 3e 74 59 2c bc 00 12 98 bc
       0.14588767 0.17069666 -0.010519374 -0.01856327
000280 ac 44 3d be 30 82 13 be 36 fe b9 3d bf b5 b2 3d
       -0.18483227 -0.14405131 0.0908169 0.087260716
000290 34 d5 de bc 4c c3 1c 3e 93 f1 0f 3e 5c 36 b2 3a
       -0.027201273 0.15308875 0.14056997 0.0013596523
0002a0 68 ec ab 3c 32 84 05 be 3f d0 02 bd 8e 6c 6f bc
       0.02098675 -0.1303871 -0.03193688 -0.014613284
0002b0 48 f2 6a 3c 1b 6b 6d 3c d4 28 23 3e fc a7 bb 3d
       0.014339991 0.014490868 0.15933543 0.091629
0002c0 f2 74 f2 3d ec aa 95 3d f5 8f bd 3d 24 07 db bc
       0.11838712 0.073079914 0.09255973 -0.026736803
0002d0 a1 89 42 3e 0a e6 62 be 7a d3 6c 3d 8a af c2 bd
       0.18997814 -0.22158065 0.057818867 -0.09506138
0002e0 cd 48 13 be d5 c6 83 3d be 8a af bd 76 2a f1 3d
       -0.1438324 0.064344086 -0.08571385 0.11775677
0002f0 c4 cb 5a bd 2a 2b 27 3d 27 6e b8 3d 68 05 29 bd
       -0.053416982 0.04081265 0.09005385 -0.04126492
000300 38 5a de 3c b9 ca 08 be 0b 00 c5 3a ac 0d 19 bd
       0.027142629 -0.13358583 0.001502992 -0.037366554
000310 df dc 49 be 71 2e d8 bd 8b 88 06 3e 8b fc 8f 3d
       -0.19713162 -0.10555733 0.13138025 0.070305906
000320 fd 55 42 3e 99 73 24 be 6b 1a 5e 3d 24 c5 eb 3a
       0.18978114 -0.16059722 0.054224413 0.001798783
000330 b2 04 6f bd 33 d3 85 bd d8 05 0f 3e 2a e9 3b be
       -0.058354087 -0.06534424 0.13967073 -0.18350664
000340 bd 23 03 3e 04 60 00 be eb f5 46 3d 92 97 12 be
       0.12806602 -0.12536627 0.04857437 -0.14315632
000350 89 2e 31 3e 67 15 cc bd 4c 42 6e 3d 03 42 ce bd
       0.17302908 -0.0996502 0.058168694 -0.100711845
000360 d3 66 80 bd 13 33 d0 3c 5e c0 77 bd a3 7c 24 be
       -0.06269612 0.02541498 -0.06048619 -0.1606317
000370 8d e1 39 bd 09 1e 7b bd ba 5d 17 3e 6d 2f d7 3d
       -0.045381118 -0.06130794 0.14781848 0.105070926
000380 8a d5 eb bd ee c9 58 bd 88 23 54 3e a1 39 2c 3e
       -0.11515339 -0.05292695 0.20716679 0.16818859
000390 d6 19 1e be 5f ae fc 3c e9 39 96 3d 52 83 97 3b
       -0.15439543 0.030844865 0.07335264 0.004623809
0003a0 37 73 8a 3c e0 79 cb bd 5f aa 2f 3e 3f 38 54 be
       0.016900642 -0.09935355 0.17154835 -0.20724581
0003b0 3f ef 1e bd d5 3d b7 3d c8 ee c5 3d d0 20 8d be
       -0.03880238 0.089473404 0.096646845 -0.27564096
0003c0 57 50 1f 3e cd 13 93 3d cb d4 eb bd 25 f0 f1 3c
       0.15557991 0.07181511 -0.115151964 0.029533455
0003d0 4a db 82 3e 51 2a 45 bd 7b 97 06 3d 4a 74 ab bd
       0.2555793 -0.04813606 0.032859307 -0.0837179
0003e0 d9 77 02 bd fd 64 8b 3d 0c 2d 69 bc a0 e9 ef 3d
       -0.031852577 0.06806371 -0.014231931 0.11714482
0003f0 95 0c 39 bd 60 bc d2 3c cf 98 dc bd cf ea 9e bd
       -0.045178015 0.02572459 -0.107713334 -0.0775963

encoder.encoder.bias_ih_l0 f4 [128]
000000 89 52 07 be 3b 79 96 bd cf cc a0 3d cf 81 30 3e
       -0.13215078 -0.073473416 0.07851564 0.17237018
000010 ea a6 4b 3e 3e ea 28 3e 11 84 b0 3d ab 61 35 3d
       0.19887891 0.16495606 0.0861894 0.044282597
000020 2c ce 4d 3e df c9 aa bd 37 7c 1f bc 61 8f b3 3c
       0.2009818 -0.08339285 -0.009734205 0.021918954
000030 a6 2e 09 bc 20 e1 56 3e 0a 79 96 bd 74 be 02 be
       -0.008372938 0.20984316 -0.07347305 -0.12767965
000040 79 14 18 3e d6 a4 8c bc 9a 05 4a 3e 5e b7 34 3e
       0.1485156 -0.017168444 0.197287 0.17648074
000050 7f 80 47 bd a9 d4 a9 bd 0b d2 0e 3e 08 70 1d 3e
       -0.048706528 -0.08292515 0.13947313 0.15374768
000060 1b 75 5e bd 10 fa 93 3d 3c cb ab 3d b1 85 42 3e
       -0.0543109 0.0722543 0.08388373 0.18996312
000070 06 32 cc 3c ea a9 61 bc 20 52 de 3c 71 9b a7 3d
       0.024926197 -0.013773421 0.02713877 0.08183945
000080 35 39 a6 bd 31 61 74 bd 5b bb 48 3e 9d da 3a 3e
       -0.0811638 -0.059663 0.1960272 0.18247457
000090 ef 9c 11 3e b4 39 04 3e b3 a5 f4 3d eb a8 e9 bd
       0.14220022 0.12912637 0.11945667 -0.11409172
0000a0 24 ae 13 be b5 a7 e4 3c 84 75 03 be 2d 62 ae 3d
       -0.14421898 0.027912 -0.12837797 0.08514819
0000b0 0d fc 19 3e 7f 7c 85 3c e0 d4 ba 3c 1a e3 88 3d
       0.15037556 0.016294716 0.022806585 0.06683941
0000c0 c3 34 ed bc 6e d4 0e be 0e d7 5b 3c 0e aa f1 bd
       -0.028955823 -0.13948223 0.013417972 -0.118000135
0000d0 c0 09 f7 3c 85 4f 88 3d c4 29 d2 3d 85 b5 53 3e
       0.030156016 0.06655792 0.102618724 0.20674713
0000e0 b5 df 87 3d e2 01 ff 3d 38 8a 61 bd 29 18 0b be
       0.066344656 0.12451531 -0.055063456 -0.13583435
0000f0 24 1a 32 3e 87 12 1d 3e e7 3d 07 be 75 be 10 be
       0.17392784 0.15339099 -0.13207208 -0.14135154
000100 3d eb e0 3d b0 83 f1 bb 12 ec 4e 3e b8 ca 11 bd
       0.10982368 -0.0073704347 0.20207241 -0.03559372
000110 af de c4 bd c5 54 a8 bc 6a f5 83 bd 1f e1 0d be
       -0.09612786 -0.020548234 -0.064432934 -0.13855408
000120 ac 75 08 be d4 73 2d be f7 2b 2d 3e f8 87 d5 bd
       -0.13326138 -0.16938716 0.16911303 -0.104263246
000130 50 b4 ee bd 0f b6 33 3d df cd bb 3c 55 f3 19 3d
       -0.11655486 0.043874796 0.022925315 0.037585575
000140 a6 1e 43 3e d7 9b b0 3c ac 40 35 bd ab e6 16 be
       0.1905466 0.021558685 -0.04425113 -0.1473643
000150 1b 07 65 3d c1 25 17 3e 4b 78 5a bd df b5 aa 3d
       0.05591498 0.14760496 -0.053337377 0.083354704
000160 e3 72 a2 bd cf 7c e8 bd ae 8a 0d 3e e5 94 cf bd
       -0.07932069 -0.1135193 0.13822433 -0.10135821
000170 e0 08 b5 bc df ec a7 bd 6d 07 09 3e 2e b4 07 bd
       -0.022098958 -0.081994765 0.13381739 -0.033130817
000180 9a 36 13 3e d8 26 59 bc df a8 82 3d 90 cb df bb
       0.14376298 -0.01325389 0.06379866 -0.0068296865
000190 10 86 6a 3e 0d c3 d9 3d b0 ea d9 3d fc de 1c 3e
       0.22902703 0.10632906 0.10640466 0.15319437
0001a0 f3 95 86 3d cc 67 fa bd d9 2c 71 3d 18 f9 1b 3e
       0.06571569 -0.12226829 0.05888066 0.1523174
0001b0 af 2b c1 bd d1 59 55 3e 5d a3 4e 3e 2a 0b b7 3d
       -0.0943216 0.20835043 0.20179506 0.08937676
0001c0 2c 1c 48 bd e7 cc 13 3e ae 8a b0 3d 47 d5 1d bd
       -0.04885499 0.14433633 0.08620201 -0.038533475
0001d0 65 e2 dc 3d b8 b0 23 3d 6e 77 e8 3d 8a 6e 08 3e
       0.10785369 0.039963454 0.113509044 0.13323417
0001e0 e3 4d d5 3d ce f1 47 3e 9a ac 02 3e f3 73 0b 3e
       0.10415246 0.19525835 0.12761155 0.1361845
0001f0 cd 93 9b 3c 18 c5 07 3e ae 59 7a bc ce 63 68 3d
       0.018991375 0.13258779 -0.01528017 0.056735806

encoder.encoder.bias_hh_l0 f4 [128]
000000 be df 2c 3e 45 ed 1e 3e 3e bc 1c 3e 8a 08 07 3e
       0.16882226 0.15520199 0.15306184 0.13186851
000010 73 b0 20 3e b7 9b 23 3e d9 6b e9 bd 00 25 f7 bd
       0.1569231 0.15977369 -0.113975234 -0.12067604
000020 39 00 48 3e ec 3e ba 3d f0 93 77 3d d8 07 64 3d
       0.19531335 0.09094033 0.06044382 0.055671543
000030 2b 1b 30 3e d5 80 50 bd 71 c9 fa bc 9e d2 dc 3d
       0.17197864 -0.050904114 -0.030613633 0.107823595
000040 07 eb f1 3d 87 86 43 3e 34 22 a4 3d 43 c1 aa bd
       0.11812406 0.19094287 0.08014336 -0.08337643
000050 5c 60 bf 3d d8 a8 89 3d 5c 0c 83 bd 54 3c 12 3d
       0.09344551 0.067216575 -0.06398842 0.035702065
000060 4f 23 c1 3d 4e bf bc bd 8c f2 03 bd 9b 7d 28 3e
       0.09430563 -0.09216176 -0.032213733 0.16454165
000070 0a 86 9c 3d 59 13 2b bd 07 19 7f 3d a5 21 af 3d
       0.076427534 -0.0417665 0.062279727 0.08551339
000080 44 5a 9a bd 57 54 49 3e 66 28 df bd 01 42 b0 3d
       -0.07536748 0.1966108 -0.10896377 0.08606339
000090 c4 ef 1f 3e d1 1e 92 3d d8 97 c0 3d a7 f8 23 b9
       0.15618807 0.07134784 0.09403962 -0.00015637522
0000a0 bf 88 2c 3e ee 54 94 3d 18 c3 d7 bd e6 80 0c 3e
       0.1684904 0.072427616 -0.10535258 0.13721046
0000b0 34 9b 5e bd 3f 00 45 bc 46 f9 f7 3d c7 4f 10 be
       -0.054347232 -0.012023984 0.12108092 -0.14092933
0000c0 08 9a d0 bd 39 64 a6 bd bf 37 c8 bd 52 7a a9 3c
       -0.10185629 -0.08124585 -0.09776258 0.02068821
0000d0 e7 13 af 3d 5e 20 6a bd f8 0d a7 bc 4d 84 88 bd
       0.08548718 -0.057159774 -0.020392403 -0.06665859
0000e0 d5 48 1d bd d3 40 f5 3c 74 5d a9 bd c7 a7 1e bd
       -0.038399536 0.029938137 -0.08269778 -0.038734224
0000f0 4c 83 94 bd 07 33 75 bd 7e 3f 43 3e f2 a9 1b be
       -0.072516054 -0.059863117 0.19067189 -0.15201548
000100 d9 33 11 be 95 6d 54 be 69 0e 6f 3d cb 7c dc 3d
       -0.14179935 -0.20744927 0.058363352 0.1076599
000110 d8 c1 5b be 7b 9f 2d be de e6 1a 3d bb f5 24 be
       -0.21460664 -0.16955368 0.03781783 -0.16109364
000120 00 50 4b 3e 56 d8 af 3d 00 0c c3 bc cf 01 09 3d
       0.19854736 0.08586185 -0.023809433 0.03344899
000130 45 9e ec 3d 6c f8 b8 3c 3a 97 2d 3e 99 d4 00 bc
       0.11553625 0.022579394 0.1695222 -0.007863187
000140 fa 1d 14 3c e0 40 9e 3d fa cb f7 3d 37 88 c7 bd
       0.00904035 0.07727218 0.12099452 -0.09742778
000150 e7 f0 42 3e 73 f5 1e be 22 0a 6c 3d 10 9c 19 be
       0.1903721 -0.15523319 0.05762685 -0.1500094
000160 e7 44 ae 3d 6a 4b a7 3b 0b 83 1c bd 39 2a 3b 3e
       0.08509236 0.0051054256 -0.03821091 0.18277825
000170 60 66 0a 3e d0 62 15 be c7 6c 8f 3c b6 0d f2 3d
       0.13515615 -0.14588475 0.017507924 0.118190214
000180 40 ce 91 bd d4 8d 99 bd 5e f8 44 3e 44 10 b1 3d
       -0.07119417 -0.07497755 0.1923537 0.086456805
000190 fe 9d 85 3d 1a 35 38 3e 5e e9 b3 bd 82 7c 35 3e
       0.06524275 0.17989007 -0.08784746 0.17723277
0001a0 f3 49 d7 bd 30 5c 77 bd f4 68 ad bd a5 a8 e4 3d
       -0.105121516 -0.06039065 -0.08467284 0.11164979
0001b0 47 41 ed 3d 6a 39 98 3d 6e 86 d8 3d c9 f4 d9 3c
       0.11584716 0.07432826 0.105725154 0.02660598
0001c0 8b 8d e4 3d 02 94 49 3e 44 c1 8c bd f6 48 58 3e
       0.1115981 0.19685367 -0.068728 0.21121582
0001d0 f9 00 24 3e e2 44 c4 3d 67 b4 3a 3d 8a 9a 58 3e
       0.16015996 0.09583451 0.0455822 0.21152702
0001e0 ff fd 11 3e 84 8b 2d bd 3e ef 3a 3d fc d2 57 bd
       0.14257048 -0.04236938 0.045638315 -0.052691445
0001f0 be 0e 11 3e f9 1f c9 bd d7 05 3c 3e 1f 45 a5 bd
       0.1416578 -0.098205514 0.18361603 -0.080698244

encoder.spatial_embedding.weight f4 [16, 2]
000000 ce 30 8e be 18 19 35 bf b7 ad d4 be 9e 9b 19 bf
       -0.2777161 -0.70741415 -0.41538784 -0.6000308
000010 33 84 27 3d 4c 4d c4 3f b0 d4 c4 bf 8a 6e b7 3e
       0.04089756 1.5336089 -1.5377407 0.35826522
000020 b1 8d 54 bf e6 6b 94 be e3 8b a1 3f 82 23 a0 3f
       -0.83028704 -0.2898857 1.2620815 1.2510836
000030 50 34 b6 bf a7 1c ea 3f 57 71 01 c0 5b 21 91 3f
       -1.4234715 1.8289994 -2.0225427 1.1338304
000040 d1 04 11 40 59 03 ca bf fb d5 00 bf 42 e2 18 3f
       2.265919 -1.5782272 -0.5032651 0.5972024
000050 d5 65 a3 bf 93 68 2f 3f 90 35 92 3f 68 9b 51 bf
       -1.2765452 0.6851894 1.1422596 -0.81877756
000060 a3 08 92 3f 8c 5a 00 c0 77 54 31 bf 48 d1 0c 3f
       1.1408886 -2.0055265 -0.6926951 0.5500684
000070 00 e8 f9 be 41 eb de bf f9 6d 42 3f 83 f3 cf be
       -0.48809814 -1.7415544 0.75949055 -0.40615472

encoder.spatial_embedding.bias f4 [16]
000000 37 2c 4e be ee e9 53 be d3 1a cc be 6f b3 99 be
       -0.20134054 -0.20694706 -0.39864215 -0.3001971
000010 20 06 f3 3e 05 9d 81 be 52 8c 2e 3f c7 65 43 3e
       0.4746561 -0.2531511 0.6818286 0.19081794
000020 3d 71 22 3f ac 04 1d 3f 5c b4 03 3f ec 20 36 3f
       0.6345404 0.61335254 0.5144708 0.71143985
000030 c8 9d f8 3e 19 b6 9e bd 53 15 87 be a5 a4 18 3f
       0.48557878 -0.07749576 -0.26383457 0.5962623

decoder.decoder.weight_ih_l0 f4 [128, 16]
000000 f0 5d 67 3d 86 20 28 3d 0b 69 00 be 80 37 4a 3c
       0.05648607 0.04104664 -0.1254007 0.012342334
000010 f6 99 bf 3b c2 1d 0e be e1 4b b6 bd 14 b8 18 be
       0.005847211 -0.13878539 -0.089011915 -0.1491397
000020 9b 00 31 3d 13 97 14 3e f0 65 29 be e9 ff 25 be
       0.043213468 0.14510755 -0.16542792 -0.16210903
000030 cb fe fb 3d c4 0e 48 3e f6 4a c4 3c 4f 2a b0 3c
       0.12304457 0.19536883 0.023961525 0.02150455
000040 14 7e ce 3d f3 8e 6f bd 99 7d bf bd 93 a8 2d 3e
       0.10082641 -0.058485936 -0.09350128 0.16958837
000050 70 72 cf 3b 08 19 af 3c 75 b0 0a 3e 32 59 33 3e
       0.0063307807 0.02137424 0.13543876 0.17514494
000060 66 01 35 3e 89 1c b5 3c b8 60 43 bd 2f 82 d3 3d
       0.17676315 0.022108333 -0.04769966 0.10327565
000070 9d ad 8d 3d 3e eb 60 3d a8 83 c4 bd 90 87 73 bd
       0.0691788 0.054911844 -0.09595424 -0.059455454
000080 81 81 d8 bd 57 d9 19 3e f0 ae a2 bd af 43 89 3b
       -0.10571576 0.15024315 -0.07943523 0.0041889767
000090 f3 b2 9e bd e8 3b 4e 3d ee d1 d7 bb 99 61 f8 bc
       -0.077489756 0.0503501 -0.006586305 -0.030319976
0000a0 7d bd c8 bd 80 f4 be bd e1 f7 03 3e ca b7 35 bd
       -0.09801767 -0.093239784 0.12887527 -0.044364728
0000b0 da 5e 9a 3d 5b db e2 bd fc 1f 21 3d 73 d5 2e be
       0.07537623 -0.11076995 0.039337143 -0.17073612
0000c0 ca 62 eb 3d 42 fe 31 3d f7 22 b4 bd 57 1c 15 3e
       0.11493452 0.04345537 -0.087957315 0.14561592
0000d0 3a 25 2d be e7 a2 27 be 86 8e eb bd 75 3a 93 bd
       -0.16908732 -0.16370736 -0.115017936 -0.07188884
0000e0 f0 d5 26 3e 03 9b 09 3e 7c fc 45 bc 91 dc 59 bd
       0.16292548 0.13438039 -0.012084123 -0.053188864
0000f0 73 a3 c2 3d 9e 67 ff 3d 70 3f 7d bc 9c b6 fc bc
       0.09503832 0.12470935 -0.015457019 -0.030848794
000100 50 07 06 3e 94 34 53 be ab 26 8b 3d f7 ba 03 be
       0.13088727 -0.20625526 0.06794485 -0.1286429
000110 48 33 9f 3d 6a 38 36 be 5d 72 20 bd f7 cd 3b 3e
       0.07773453 -0.17794958 -0.039171565 0.18340288
000120 8f e5 cd bd c7 8e 16 3e fc 6b 45 3e a4 30 cc bd
       -0.100535505 0.14702903 0.19279474 -0.09970215
000130 bd 2b 29 be bf 4e aa 3d 4f 89 01 be 3d 25 dd bc
       -0.16520591 0.08315801 -0.12650035 -0.026995296
000140 13 f4 4d 3c f2 06 34 be 92 dd 0f be 0a 37 df 3c
       0.012570399 -0.17580774 -0.14049366 0.027247924
000150 fd a2 42 be 12 09 1f 3e 5e 76 12 be 91 9e 1b 3c
       -0.19007488 0.15530804 -0.14302966 0.009498254
000160 0d 73 4c 3d 6f 1f a2 bd 35 fa 73 bc 8a 74 33 3d
       0.04991441 -0.07916152 -0.014891197 0.043812312
000170 b2 93 1d bc 5e 89 4d 3d c8 54 ea bd 78 9f 75 3d
       -0.009617733 0.05017983 -0.11441952 0.059966534
000180 c8 03 08 bd 7a 6e 9d bd 33 fd 0e 3d 5b 2f e3 bd
       -0.03320673 -0.07687087 0.03490944 -0.11093017
000190 f1 4e 0b 3e 10 09 d9 3d f2 ed df 3c d5 4e 02 3e
       0.13604333 0.10597432 0.02733514 0.12725385
0001a0 e9 65 db bd 9d b6 38 be 99 a7 97 3d c5 0d 29 bd
       -0.10712797 -0.18038411 0.074050136 -0.041272897
0001b0 15 09 70 bd b8 18 0d 3c b5 c6 10 bd f1 1e 86 3c
       -0.05860241 0.00861185 -0.03534575 0.016372176
0001c0 02 cb 13 3e 38 ce 25 3e d7 6a b8 3d 05 d2 19 be
       0.1443291 0.16191947 0.09004753 -0.15021522
0001d0 18 79 09 3e f2 65 ad 3d 81 43 39 3e 20 90 3c 3e
       0.134251 0.0846671 0.18092157 0.18414354
0001e0 a1 c2 4b bd 91 d4 ea bd bd 08 82 3d 7a 39 18 be
       -0.04974616 -0.11466325 0.06349323 -0.14865676
0001f0 81 cd a1 bd 44 ae b3 bd 82 5c 15 3e bf b4 7d bd
       -0.07900525 -0.08773473 0.1458607 -0.06193995
000200 2a f4 4c bd 13 b6 7b 3c d3 e3 17 bd 5f 4b e6 3d
       -0.05003754 0.015363234 -0.037082504 0.11244845
000210 8d f4 10 3e 10 39 69 bd 91 46 80 bd f7 df e0 3d
       0.14155789 -0.056939185 -0.062634595 0.10980218
000220 39 24 02 be a5 be 38 3d fb db 08 3d 6f e8 8c 3d
       -0.1270913 0.045103688 0.033412915 0.06880271
000230 c0 07 0b 3e 66 93 7c bd 2a 2f 90 3d 4c 20 1e 3d
       0.13577175 -0.061664008 0.07040246 0.03860502
000240 91 25 18 be 37 45 4f 3d 5b 3e d9 bd 77 fe d8 3d
       -0.1485808 0.050603118 -0.106075965 0.1059541
000250 49 71 04 be b1 b8 53 3d 43 9a ca 3c e9 e9 b0 3d
       -0.1293384 0.051689807 0.02473176 0.08638365
000260 71 74 5a 3d 13 d8 15 3e e1 5d a1 3b a1 f9 0b be
       0.053333703 0.14633207 0.0049245213 -0.13669445
000270 db cd 65 bc 3e ff 50 bd 2c d7 f1 3d da 51 c6 bd
       -0.014026131 -0.051024668 0.11808619 -0.09683581
000280 a8 ed 4c 3d 8b 4d b8 3c 8f 3f b5 3d 35 b7 aa bd
       0.050031334 0.022497913 0.088500135 -0.08335725
000290 f1 88 19 be 84 a7 d2 bd db 02 1b 3e 21 64 a0 3d
       -0.14993645 -0.10285857 0.15137808 0.07831598
0002a0 9e c8 a0 3c 12 98 8d bc 7d f9 c1 bd 83 84 2b 3e
       0.019626912 -0.017284427 -0.09471414 0.16749768
0002b0 70 bf ae 3d 00 de d0 bd f8 27 01 bb a7 5e 57 3d
       0.085326076 -0.10198593 -0.001970766 0.052580502
0002c0 a8 be 9e bd bb b0 d6 3d 68 ae 35 3e c4 9a 04 be
       -0.077512085 0.104829274 0.17742312 -0.12949663
0002d0 7b a0 fa 3d 3f 53 99 bc 57 b0 2a be e9 4e 72 3b
       0.122376405 -0.018716453 -0.16668831 0.0036973304
0002e0 61 35 be 3b 44 72 75 bd 3d c2 71 3d f1 c6 1c bc
       0.005804703 -0.059923425 0.05902313 -0.009568916
0002f0 99 e2 a7 bb bf 83 b6 3c 35 2c 62 bd a7 1a 14 bd
       -0.005123448 0.022279618 -0.05521794 -0.03615823
000300 11 64 01 3c 8a 34 36 3e 0b 38 22 be 92 fa 76 bc
       0.007897393 0.1779348 -0.15841691 -0.015074389
000310 0b a6 ff bc 34 94 16 be 36 4e 2c 3d 74 55 81 3b
       -0.031207105 -0.14704973 0.042066775 0.0039469544
000320 f2 54 1e 3e 8b fc 28 be 72 7e 13 3e 67 b5 78 bd
       0.15462092 -0.16502587 0.14403704 -0.060719874
000330 89 59 64 bd d7 5b 85 bd b7 7e 13 be cf e2 20 3d
       -0.05574945 -0.06511658 -0.14403807 0.0392788
000340 c2 5c 5e 3e a5 d3 34 be 7c 16 23 3b d0 a9 25 be
       0.21715072 -0.17658861 0.0024885228 -0.1617806
000350 14 7a d5 3d 5d b5 13 be 64 67 9e bd fa 21 87 3d
       0.10423675 -0.14424653 -0.07734564 0.065982774
000360 d7 a6 33 be cb b9 af 3d b4 92 70 bd 05 ca 4c bb
       -0.17544113 0.08580359 -0.058733657 -0.0031248343
000370 8a 80 5d bd ed cb ba bc 47 4d d1 3d 16 68 31 3e
       -0.054077663 -0.022802318 0.102198176 0.17324862
000380 cb be 9e bd 2e cf a9 3b 6b 87 26 3e 34 de e1 bc
       -0.077512346 0.0051821684 0.16262595 -0.027571775
000390 2c 7f a4 3d 38 d9 09 be 37 c3 02 be 3b 4d 14 3d
       0.080320686 -0.13461769 -0.12769781 0.036206465
0003a0 f0 d1 75 3d 48 83 01 be d1 05 80 bd f2 f8 76 3d
       0.060014665 -0.12647736 -0.062511094 0.060296007
0003b0 80 ba f1 bd b2 07 4b 3d 9b 9e b7 3c ae 98 8b 3d
       -0.1180315 0.049567886 0.022414496 0.06816231
0003c0 5f c6 d7 bd 14 1e 47 bd 66 80 fb 3b ab 6f 68 bc
       -0.10535883 -0.04861267 0.0076752184 -0.01418678
0003d0 29 61 40 3d 51 00 40 bd 64 67 66 be 92 79 a8 bd
       0.04696766 -0.0468753 -0.22500378 -0.08226313
0003e0 e7 6e 92 bd eb 7e 03 be 1e c3 a2 3c 74 91 ea bc
       -0.07150059 -0.12841384 0.01986843 -0.02863381
0003f0 3d a8 a7 bc 30 c9 41 bd 41 85 60 3c 5e 87 d8 bd
       -0.020465964 -0.047311008 0.013703645 -0.10572694

decoder.decoder.weight_hh_l0 f4 [128, 32]
000000 da 17 8c bd fe 26 f4 3d 78 82 61 bd 3b 3e 0c 3d
       -0.06840487 0.119215 -0.055056065 0.034239035
000010 ff 94 c8 bd c0 95 cb bc 36 7c 0c 3d 7f a2 e3 3d
       -0.09794044 -0.02485168 0.034298144 0.11114978
000020 df b2 2b 3e c2 0b 04 bd 16 03 4b 3e 1c 3c ae bd
       0.16767453 -0.032237776 0.19825396 -0.08507559
000030 a5 18 ae 3d 06 1e b8 bd 2e e3 43 3e d2 78 8a 3d
       0.08500794 -0.089901015 0.19129631 0.06761326
000040 a8 70 70 3e e0 3a 5b 3e 13 54 06 be 2b 54 b2 3d
       0.23480475 0.21409178 -0.1311801 0.0870746
000050 bf 19 ae bd 57 ff 22 3e 36 d9 6b 3d ad d7 bf b9
       -0.085010044 0.15917717 0.057580195 -0.0003659105
000060 cf be 01 3e 2b a0 45 be 1c ce c4 bd 59 3f 8b 3d
       0.12670444 -0.1929938 -0.09609625 0.06799192
000070 01 44 d6 bd d0 a3 8b bd 35 a5 75 bd f4 5d e9 bd
       -0.104621895 -0.06818354 -0.059972007 -0.11394873
000080 34 56 15 3e 61 e8 fa 3d d6 71 e2 3d 3a 16 37 3e
       0.14583665 0.12251354 0.11056869 0.17879573
000090 9d ff d6 bc 9f 90 77 bd d7 51 9b bc da 5b 93 3d
       -0.026244933 -0.060440656 -0.018959923 0.07195254
0000a0 b0 4f 96 3d 73 cb 0e bd 9e a9 1b bd 81 50 3e be
       0.07339418 -0.034861993 -0.038003556 -0.18585397
0000b0 2c 4a 22 3e 1e 21 45 3e 2e 6b 10 3e 90 bb b2 bc
       0.15848607 0.19250914 0.14103386 -0.021817952
0000c0 5e 20 ee 3d 09 25 c9 3c d4 11 82 3d 63 32 81 bd
       0.11627267 0.024553793 0.06351057 -0.06308439
0000d0 92 16 48 3e 3d 90 80 bd 41 e4 48 be 39 73 be 3d
       0.1953986 -0.06277511 -0.19618322 0.09299321
0000e0 5c 59 c9 bd ec 10 ea 3d 09 ea 52 bd 08 a1 10 3e
       -0.09831497 0.11429009 -0.051492725 0.14123929
0000f0 72 58 34 3d 96 8e 2a be e2 9d 99 bd 83 93 32 bd
       0.04402966 -0.16655955 -0.07500817 -0.04359771
000100 fe 12 56 be 77 77 a2 3d 97 6a 08 3d 23 b7 4b 3e
       -0.20905682 0.07932942 0.033304777 0.1989408
000110 52 b8 c8 3c cb 27 94 bc 77 92 ba bb 0b f1 f8 bd
       0.024501953 -0.018085381 -0.0056937295 -0.1215535
000120 0e 97 24 be fe b5 66 bd cb bd a7 3d c0 c8 d4 bb
       -0.16073248 -0.056325905 0.08190497 -0.006493658
000130 de a5 0f be e5 1d ac 3d f1 03 5f be e0 18 45 bd
       -0.14028117 0.084041394 -0.21778847 -0.048119426
000140 72 40 bd 3c f4 fb 52 3e f9 f0 84 bc 4b 0f 0c 3e
       0.023102019 0.20603925 -0.016228186 0.13677709
000150 44 12 e5 bd ab fc 0d be eb 13 a8 bd cc a4 5b be
       -0.111851245 -0.13865916 -0.08206924 -0.21449584
000160 43 33 da 3d 47 10 09 3e 75 ee 0a be 1d 22 63 3d
       0.10654309 0.13385116 -0.13567527 0.055452455
000170 1f ef cb 3d 65 ca 36 be 74 7c a5 bc af 03 2e bd
       0.09957718 -0.17850645 -0.020200945 -0.04248398
000180 98 c0 9b 3d 2a 26 c0 bd d4 2d e9 bd 0a d6 18 3e
       0.07605094 -0.09382279 -0.11385694 0.149254
000190 aa e6 32 3e 3b 81 bf 3d 3e 90 1c be 98 fb 21 be
       0.17470804 0.09350821 -0.15289399 -0.15818632
0001a0 03 24 4a 3e d0 db 58 3e 4b d6 c3 3c 35 e2 bf bd
       0.197403 0.21177602 0.023905894 -0.093693174
0001b0 f9 fc 2a 3e 25 2e 0b be 02 cf 26 3e 1e 0c 8a 3c
       0.16698064 -0.13591821 0.16289905 0.016851481
0001c0 55 f9 11 3e 95 3e bb 3d 83 50 8e 3e 67 f7 b1 3d
       0.14255269 0.09142796 0.277958 0.086897664
0001d0 8a 95 8c 3b 56 9f cb bd c1 8a ea bd 27 9f de bd
       0.0042902874 -0.099425 -0.114522465 -0.108702
0001e0 e0 bc 96 bd 01 9b 22 be ac 60 20 be af 35 11 bd
       -0.07360244 -0.15879442 -0.15661877 -0.035451587
0001f0 93 27 5e be 5d ea 0c 3e d9 19 b3 3d 9b 1d 27 be
       -0.21694784 0.13761277 0.087451644 -0.16319887
000200 c9 c8 24 3e 85 be 15 be f8 4d 72 bd 52 74 76 3d
       0.16092218 -0.14623459 -0.059156388 0.060169525
000210 0b d9 40 3e 74 d9 f5 bd 2e ea 96 3d e6 f5 1b bd
       0.18832795 -0.120043665 0.07368885 -0.038076304
000220 23 1f b1 3d d2 a3 ef 3d 87 5a 16 3e f0 d0 44 bb
       0.08648517 0.11701168 0.14682971 -0.0030031763
000230 2f 9d d9 bd 7b ab 0b 3e 18 3c 6a 3d 00 de 9f 3d
       -0.106256835 0.13639633 0.057186216 0.07806015
000240 5b 6a fa 3d 82 3b cd bc bf 24 0b 3d d6 ca c1 bd
       0.12227317 -0.02505279 0.03397059 -0.09462516
000250 eb 06 9e 3b 0f 4a 0e be 75 82 0c 3e b5 28 a6 bd
       0.004822602 -0.13895439 0.1372164 -0.08113233
000260 9d e5 94 3d 9a 8e fb 3c 74 21 26 3d 8c 5b a8 3d
       0.07270358 0.030707646 0.040559247 0.08220586
000270 e9 c4 9d 3d 60 0d e3 bd a1 cc 0e 3e 0f 7e ba 3d
       0.07703573 -0.110865355 0.13945247 0.09106075
000280 c4 50 a6 3d ad 39 db 3d 23 20 09 3e e9 6a 29 be
       0.081208736 0.1070436 0.13391165 -0.16544689
000290 c4 c5 9f bd 8a d9 5b be 90 59 67 3b 9e 68 43 3e
       -0.07801393 -0.21469703 0.0035301186 0.19082877
0002a0 c3 cc dc bc 5c 10 48 3e 9d b5 75 bc 56 53 43 bd
       -0.026953107 0.1953749 -0.014996913 -0.047686897
0002b0 a2 17 7a 3d 13 e8 33 3e 38 b8 77 3d 8b 4a 5b bd
       0.061057694 0.17568998 0.06047842 -0.053537887
0002c0 94 70 0c bc 73 7a ff bc cd 53 6e 3c d7 2f 16 be
       -0.008571763 -0.031186318 0.014546347 -0.14666687
0002d0 aa 7c 21 be 55 5f 93 3d ed f8 2a bd 2d fb 8a 3d
       -0.15770212 0.071959175 -0.0417413 0.06786189
0002e0 e2 47 57 be 2a 4f 0c 3e 32 e3 3c be f9 1b 16 3d
       -0.21023515 0.13702074 -0.18446043 0.03664777
0002f0 1e 35 79 be fe c9 95 3b 9d e1 ca bd b5 1d dc 3d
       -0.24336669 0.0045711985 -0.099063136 0.10747854
000300 b4 31 0a bc a2 76 1b be 93 b4 30 bd 04 97 47 3c
       -0.008434702 -0.15181974 -0.04314096 0.012182001
000310 cf b6 88 bd a4 95 98 3d ec 45 90 bd 11 ea 05 3d
       -0.06675493 0.07450417 -0.070445865 0.032693926
000320 65 e8 e9 3d 50 2d ae 3c aa 46 e7 bd 6e e5 f6 3b
       0.11421279 0.021261841 -0.11292775 0.0075346744
000330 b0 7e 41 be a9 db 0a be df a8 77 3d 89 5b b4 bd
       -0.18895984 -0.13560356 0.060463782 -0.088065214
000340 41 9b 5f 3d f7 a4 ef bc a5 fe 11 be 72 c8 24 be
       0.05459142 -0.029253466 -0.14257295 -0.16092089
000350 3c 8d 41 bd 70 fa 3d 3d 8b 63 e0 bd 9e e5 05 bb
       -0.047253832 0.046381414 -0.10956486 -0.0020431052
000360 ec 14 24 be cf 75 3b 3d 98 c6 1d 3e f3 ab 14 3e
       -0.16023606 0.045766648 0.15407789 0.14518718
000370 50 fa ba bc 15 bd 00 bd 79 d0 34 be 97 2a ac bd
       -0.022824436 -0.031430323 -0.17657651 -0.08406561
000380 14 66 0f be 4b 3c c3 bd 59 e3 37 be b0 fe c0 3d
       -0.14003783 -0.09532984 -0.1795782 0.09423578
000390 5b 64 4d bd d9 09 f8 bd b5 76 66 3c f0 3c 07 3e
       -0.050144535 -0.12111253 0.014066388 0.1320684
0003a0 1d 1d 9a bd 20 3b 2d be 61 15 d5 bd 51 69 31 be
       -0.07525084 -0.16917086 -0.10404468 -0.17325331
0003b0 30 33 ea 3d 9d 36 00 3e 33 9f 24 bd fa 3e 32 be
       0.114355445 0.12520833 -0.040190887 -0.17406836
0003c0 84 50 fc bd 7a e6 fe 3d 6c 2a 1e 3e ae 55 4e be
       -0.12320045 0.12446304 0.1544587 -0.20149872
0003d0 a9 0a bb bd 9d 06 d7 3d 66 27 80 3d dc fa 02 3e
       -0.09132893 0.10499308 0.06257515 0.12791008
0003e0 98 a7 50 be dd 58 64 3d 56 9b 90 3d fc f1 3a 3c
       -0.20376432 0.05574881 0.07060878 0.011410233
0003f0 c3 54 16 bb bd d9 fd 3d e1 73 b0 3d 68 81 c7 bd
       -0.0022938706 0.12395046 0.08615852 -0.09741479

decoder.decoder.bias_ih_l0 f4 [128]
000000 3d ae 31 bd 8b 60 f5 bd a2 91 fb 3d 8f d2 34 bc
       -0.043379057 -0.11981305 0.12283637 -0.011036529
000010 9d 7d cf 3d 71 d2 5f bc 31 51 c0 bd 73 4f cd 3d
       0.10131381 -0.013661013 -0.09390486 0.10024919
000020 dc 42 60 bd 89 33 03 be 4d 2f e5 bd c4 fb 52 3b
       -0.054751262 -0.12812628 -0.111906625 0.003219352
000030 b1 a5 0c be fc 55 78 3a 85 b0 d7 3d 8f 26 aa bd
       -0.13735081 0.0009473262 0.10531715 -0.08308136
000040 c8 a4 6b bd 31 8a 0d be 89 d9 80 bd 5d 09 da 3d
       -0.057530195 -0.13822247 -0.062914915 0.10646317
000050 06 ab b6 bd 7e 66 79 3c 0d b2 ff 3d b5 8d 02 be
       -0.08919339 0.01522219 0.12485132 -0.1274937
000060 08 a3 db bd da 71 f7 3d 13 c4 f4 bd c2 39 d5 3c
       -0.10724455 0.12082262 -0.11951461 0.026028518
000070 4f 7d ec bd 45 6b c8 3d 1f 52 b8 3d 6b 60 d9 3d
       -0.11547338 0.09786085 0.09000038 0.106140934
000080 93 df aa 3d 63 63 7d bd d8 3b c7 bd 82 c9 11 3e
       0.08343425 -0.06186236 -0.09728211 0.14237025
000090 91 ed 11 be 03 d1 a6 bd f1 d4 c5 bd 50 cc 2f 3e
       -0.1425078 -0.081453346 -0.09659756 0.17167783
0000a0 69 bf 90 bd 78 96 7b 3c fc c7 9f 3d 3f b1 25 bd
       -0.070677586 0.015355699 0.07801816 -0.04045224
0000b0 70 67 c2 bc 09 97 15 be a1 0b 91 bd 4c c4 31 3e
       -0.023730963 -0.14608397 -0.07082296 0.17360038
0000c0 f8 0c a9 3d 89 4b 6b bc 58 7c ae bc 3e 96 fc bc
       0.08254427 -0.014361271 -0.021299526 -0.03083336
0000d0 6e 79 92 bd bb 8f 19 be e4 57 86 bd 95 ea 9d bd
       -0.07152067 -0.14996235 -0.065597326 -0.077107586
0000e0 bf 56 4f 3e b6 32 b8 3c c5 17 25 be a4 e4 94 3d
       0.20247935 0.022485118 -0.16122349 0.07270172
0000f0 ed 4f 44 3d 3b f4 e0 bd dd f5 5d 3d e7 6b 19 3e
       0.047927786 -0.10984083 0.05418955 0.14982568
000100 45 c4 11 3d 86 b4 e9 bd 19 0c 01 be 18 d6 88 3d
       0.035587568 -0.11411385 -0.12602271 0.0668146
000110 05 d7 00 be 06 5f 21 3e df 32 1c 3e a2 93 22 3e
       -0.12582023 0.15758905 0.15253781 0.1587663
000120 24 a6 af bc 8d 7c c9 3d 62 cb ac bd 7d 7e 00 3e
       -0.021441527 0.09838209 -0.0843723 0.12548251
000130 f4 76 81 bd 8b fa b3 3d 23 8e 5a bd eb 18 11 be
       -0.06321517 0.08788022 -0.05335821 -0.14169662
000140 93 15 67 3d 0b 85 07 3e 15 2e b1 bb b8 19 1c be
       0.05641706 0.13234346 -0.0054071047 -0.15244186
000150 5a 10 11 3e d9 c5 b8 bc 5a aa ef 3d 96 ba b5 bd
       0.14166394 -0.022555279 0.11702414 -0.08873479
000160 af b0 ad bb 65 51 d4 bd 56 d1 a7 3d d0 22 30 3d
       -0.0053006033 -0.10367087 0.081942245 0.04300195
000170 88 72 c5 bd 82 2f 39 bc ae 0d 76 3d 5a fc 3b 3e
       -0.09640986 -0.011302831 0.06007164 0.18357983
000180 ea a9 0e be c3 9a 8c bd 76 00 17 3d 33 e3 74 3d
       -0.13932005 -0.06865456 0.036865674 0.059786987
000190 81 3d 1c be bd 48 d0 bd f1 73 37 3e 8b 7c cb bd
       -0.15257837 -0.10170124 0.17915322 -0.09935864
0001a0 6a 38 4c bc ab 5e 1d 3e b6 d9 05 be d0 ed 06 be
       -0.012464622 0.15368144 -0.13071331 -0.13176656
0001b0 a6 9e 34 3e 58 b2 37 3e 3a b5 47 3e ab d6 98 3c
       0.17638645 0.17939126 0.19502726 0.01865705
0001c0 d9 7a 66 3c 42 d3 1e 3e 75 1b 12 3e c5 ee 96 ba
       0.014067375 0.15510276 0.14268287 -0.0011515251
0001d0 0a 01 10 3e da 10 9a bd 08 54 07 be 60 7e 75 bd
       0.14062896 -0.075227454 -0.13215649 -0.059934974
0001e0 96 be 05 bd 92 d9 8f 3d 35 31 72 bd 8d b8 cd bd
       -0.03265246 0.0702392 -0.05912896 -0.10044966
0001f0 bf c8 ce bc f5 ff 15 be e5 e9 de 3c 90 47 3b be
       -0.025242208 -0.14648421 0.027211139 -0.18289018

decoder.decoder.bias_hh_l0 f4 [128]
000000 e2 bd 27 be 9d 54 1e be 09 6c 86 3d ab 8a 37 3d
       -0.16381028 -0.15461965 0.06563575 0.04480998
000010 fe 30 db 3c d3 6f 53 bd eb f6 b5 bc a7 c9 03 be
       0.02675676 -0.051620316 -0.022212466 -0.12869893
000020 fd 49 d9 3d a1 b8 b1 3d 4a 87 2f bd 5c 38 07 be
       0.10609815 0.08677793 -0.04285363 -0.13205093
000030 09 f1 01 be 14 0f 49 3e 60 31 0f 3e 7d 8d 49 3e
       -0.12689604 0.19634658 0.13983679 0.1968288
000040 ff 0a ac bd c0 65 27 3e 8c 00 fe 3d 91 b5 f8 bd
       -0.08400535 0.16347408 0.12402448 -0.12144006
000050 2f 8d 1b 3e 71 35 dd bd 19 05 5a 3d 31 2f bc bc
       0.15190576 -0.10801209 0.053227518 -0.022971721
000060 31 4c d3 bc 8d e4 66 bd 18 12 de 3d 18 98 ae bb
       -0.025793167 -0.056370307 0.10843295 -0.0053281896
000070 5f 15 01 be 89 d8 bd 3b 16 e7 cd bd 84 99 49 be
       -0.12605809 0.0057936353 -0.10053842 -0.19687468
000080 93 8d 36 3d a8 b9 fc bd 8f 9c 20 be d4 d6 da 3d
       0.04456861 -0.123400986 -0.15684722 0.106855065
000090 55 f5 1b be 22 7f b7 3c fe e2 b8 3c 62 1f 6e 3b
       -0.15230305 0.022399489 0.022569176 0.0036334624
0000a0 8e a2 02 bd d0 6c c2 3c 7f 70 c7 3d e6 39 6c 3d
       -0.031893305 0.023733526 0.09738254 0.057672404
0000b0 17 b3 c8 bc 46 12 02 be 4b ff 05 3e c0 c8 4e 3e
       -0.02449946 -0.12702283 0.13085668 0.20193768
0000c0 23 c8 85 bd 91 72 22 bd 61 f0 7a bc d7 54 b1 bd
       -0.06532314 -0.03966004 -0.0153161 -0.0865876
0000d0 74 8d 2a 3e d6 e4 cc 3c c6 09 05 3e b7 4f 87 3d
       0.16655523 0.025011461 0.1299201 0.06607001
0000e0 0d f4 64 3e 2f 62 22 bd ed ab 9d 3d f2 5e ae 3b
       0.22358723 -0.039644416 0.07698808 0.005321377
0000f0 dd 45 74 3d 93 04 b3 3d 5c 89 d0 bd 0b 70 aa 3d
       0.05963694 0.08741107 -0.10182449 0.08322152
000100 4c 17 0e be d8 ef 28 be 89 b8 16 be e5 f4 0e be
       -0.13876075 -0.16497743 -0.14718832 -0.13960607
000110 9f 60 0d be 1b e7 af bd ee e8 e0 bb 72 fb 27 3d
       -0.1380639 -0.08589002 -0.006863705 0.04101128
000120 36 65 af bc ae 2e 43 bd f6 73 07 be 21 ee ad bd
       -0.021410566 -0.04765194 -0.1322783 -0.08492685
000130 ec 4b fa 3d 5b d3 f1 3d 2f c4 18 bd 02 d3 3e bd
       0.12221512 0.11807891 -0.03729647 -0.04658795
000140 6a 67 15 be 1a d2 ca bc f3 92 4a bd b1 32 94 3b
       -0.1459023 -0.024758387 -0.049456548 0.0045226444
000150 a6 94 c8 3d 9c 07 30 3e cb 6e e2 bd 42 4a cf 3c
       0.097939774 0.17190403 -0.11056288 0.025303964
000160 49 ca 9c bd 6b be 7c 3c 30 46 95 bc 7c bb 0d 3e
       -0.0765577 0.015426259 -0.018221945 0.13841051
000170 c7 9f 93 3d 87 eb 1f 3e 8c 4b 8f 3d f9 58 93 3d
       0.072082095 0.1561719 0.06996831 0.071947046
000180 07 18 cf 3b a9 9d 9f bd a3 e9 a1 bd 88 a8 a0 39
       0.006320003 -0.07793743 -0.07905891 0.00030643144
000190 76 c1 33 3e 78 e0 ca bd 20 83 a8 3b 75 41 b0 3d
       0.17554268 -0.09906095 0.0051425844 0.08606235
0001a0 0b 53 c2 bd cc b8 53 bd 31 2c 15 3e e7 10 10 3e
       -0.094884954 -0.051689908 0.14567639 0.14068948
0001b0 32 30 3f 3d 05 d7 ae 3d e8 33 b3 3c fa 5d 06 3e
       0.046676822 0.085371055 0.021875337 0.13121787
0001c0 f9 11 cd 3d e8 68 13 be 1c 14 08 3e 67 2d f8 3d
       0.10013194 -0.14395487 0.13288921 0.12118035
0001d0 30 45 bf 3d 05 f0 17 be b1 bd fb bd 14 25 b9 3d
       0.09339368 -0.14837654 -0.1229204 0.09040275
0001e0 33 58 06 3e 4f 02 7d 3c 75 99 ed bd ac 13 21 3e
       0.13119583 0.015442445 -0.11601535 0.1573016
0001f0 c1 f6 17 bd 23 da 03 3d 3f 8a 25 be 75 e7 0e 3e
       -0.037100557 0.032190453 -0.16166018 0.13955481

decoder.spatial_embedding.weight f4 [16, 2]
000000 8e 25 d8 3f d9 0a a0 bf cb d0 9d 3e 7b b2 7f 3e
       1.6886461 -1.250331 0.3082336 0.24970429
000010 89 41 f2 bf 1f db 0d c0 29 bb 48 3d f6 e9 c6 3f
       -1.892625 -2.216499 0.049006615 1.5540149
000020 fa 5a 7b 3f da 71 fa 3e c0 41 d2 3f 2b 2c 79 3f
       0.98185694 0.48914987 1.6426315 0.9733302
000030 b4 39 82 bd 40 b8 af 3f 3f 27 bc be 08 e9 1a 3f
       -0.06358662 1.3728104 -0.36748692 0.6051183
000040 57 50 a4 bf 4f 41 3b be c7 0c 2d bf 68 a6 0b 3f
       -1.2837018 -0.18286632 -0.6759762 0.5455079
000050 c9 56 74 be 60 ea a3 be 27 5b 8d 3e cb 67 6a bf
       -0.23861231 -0.3201475 0.27608606 -0.91564626
000060 27 8c ec 3f b6 b6 16 c0 64 91 9f be de 8f a0 bf
       1.8480271 -2.3549018 -0.31165612 -1.2543905
000070 2c 9d 10 3f f1 a9 c5 bd 45 35 fa bf df e9 6e 3f
       0.56489825 -0.096515544 -1.9547507 0.9332561

decoder.spatial_embedding.bias f4 [16]
000000 52 7c b7 3e 9a 3c 20 3d 0f 9a 90 bc e8 ca bc 3e
       0.35837036 0.039120294 -0.017651586 0.36873555
000010 ef a6 a2 bd be 3d a5 3d 73 69 b9 be ed 70 04 3e
       -0.07941996 0.08068417 -0.36213264 0.12933703
000020 bb 95 f4 be 39 9e a6 3e e5 b2 1f 3f ef 40 eb 3e
       -0.47770485 0.3254259 0.62382346 0.45947978
000030 99 50 35 bf e6 02 2d bc b7 66 22 3f 7d 1e 0f 3e
       -0.7082611 -0.010559773 0.6343798 0.13976474

decoder.hidden2pos.weight f4 [2, 32]
000000 f8 7c 80 be 32 6b ab 3d ee 70 2d be eb c3 71 3e
       -0.25095344 0.08370055 -0.1693761 0.23609893
000010 1e 6c 6a 3e 49 07 8e 3e 77 5d 4c 3d 6b 3e d5 be
       0.22892806 0.27739933 0.049893823 -0.41649184
000020 88 24 33 be 4d 3a ca 3e 87 59 88 be a1 7d b9 3e
       -0.17494404 0.39497605 -0.26630804 0.3622866
000030 d7 57 83 3e 9d e0 71 be 8d 25 07 be 9b 42 8a 3e
       0.25652954 -0.2362084 -0.13197918 0.2700394
000040 94 1c 33 be d3 4a 7b 3c 58 05 ff b9 29 f2 4c bd
       -0.1749137 0.015337664 -0.00048641372 -0.05003563
000050 a9 b8 84 3e b7 0f d7 bd a3 85 17 3d 10 e0 0d be
       0.25922135 -0.10501044 0.03699268 -0.13855004
000060 a3 ee b7 3e f2 02 af be 4d 42 68 be f0 56 2a be
       0.35924253 -0.34181935 -0.22681542 -0.16634727
000070 a4 7d aa 3c 34 50 01 3d ea 20 38 3d ae ed 5e 3e
       0.020811863 0.03157063 0.044953264 0.21770355
000080 56 bc 23 be 42 a8 c8 bc 00 37 42 3e 31 fa 10 be
       -0.15989813 -0.024494294 0.18966293 -0.1415794
000090 56 88 e8 3d 8f 42 b1 3e 83 b3 7c 3e 41 78 8d 3e
       0.11354129 0.34621093 0.24677853 0.2763081
0000a0 62 6a 33 be 91 0e 7a be 83 08 ee bd 26 d7 4f be
       -0.1752105 -0.24419619 -0.11622717 -0.20296916
0000b0 18 86 8a 3e a1 91 9b be 3c ac 6e 3e 46 6f 37 be
       0.2705543 -0.30384544 0.2330789 -0.17913541
0000c0 0b 45 f7 3d 8d d1 be 3e 35 29 e1 3e 0c ae f9 3d
       0.12073716 0.3726925 0.4397675 0.121914
0000d0 ed 33 db 3e 6a d7 f3 3d df b0 5d bd a1 b3 a9 bd
       0.42813054 0.11906321 -0.054123756 -0.082862146
0000e0 07 94 a1 be 1f 3c f1 bd 36 58 d4 bd 70 2f af 3d
       -0.31558248 -0.11779045 -0.103683874 0.0855397
0000f0 be 9e b1 3c 58 57 85 be 52 64 2b 3e 6f 51 eb be
       0.02168214 -0.260432 0.16737488 -0.45960566

decoder.hidden2pos.bias f4 [2]
000000 4e 8f fc 3c da ea d8 bc
       0.030830052 -0.026479173
