scripts/models/sgan-models/zara2_8_model.pt (torch_old, 70313 bytes, 18 tensors)

encoder.encoder.weight_ih_l0 f4 [128, 16]
00000000: 9aed 9abd 6c61 5d3d d27d 78bd 103a ae3c
00000010: 8269 26be 4b91 29bd 7bd4 67bd 2646 233e
00000020: a934 c73b 3c31 2d3e 8e3e 783d 04ed fe3d
00000030: bba6 153e b368 053e 6047 043e 3b4f 1abe
00000040: 7063 423e 18df acbd 1053 d63d fbf0 4c3e
00000050: ede3 4bbe 942a b93c e1c7 84bb 37b7 273d
00000060: 94f5 cdbd 8bda 433d 5faa 35bd 7796 e13d
00000070: 4ee7 4ebd 12cd 22be 9251 363e e1a8 26bd
00000080: eb4c e53d 4eb5 183e 227e 32be 5177 ba3d
00000090: f504 f13c 503b b7bd 3e2f b23d c3f9 f5bc
000000a0: 889f c43d b838 303d 6098 0f3e 0c0d 763d
000000b0: 722d ecbd 7228 24be b6f8 8dbd 3101 5d3d
000000c0: 317f 08be e42a 8abd 698a ad3d e3c9 023c
000000d0: 6ff8 aa3d 99a5 003d 8267 cdbd 7227 5a3e
000000e0: d2ae c6bd 00f3 19be d26b 663d 6429 b4bd
000000f0: 48af d03d 92e1 19be 740c bcbd 0601 bbbc
00000100: c234 8ebd 293f cf3d 2c94 493e 422f c6bd
00000110: 7aff 0fbe 9937 7a3d 323c 1fbe 67a0 67be
00000120: f6fb 13bd 41bc 9f3d 30cf 7bbd 0b2f 25be
00000130: 7c19 f63d b9d2 b0bd c6f8 9bbd 7af3 db3d
00000140: adc5 22be 04a1 f1bd 1c03 bc3d 1175 203e
00000150: e7d0 07be 6507 033e e5a2 083e 799a d43d
00000160: bd98 113e 79e7 1a3d 52db debd ec02 dcbd
00000170: f04d a23c 0565 d93d 87b2 b83d d432 c3bd
00000180: 42b2 793e 5568 bdbd d446 6e3d d8cf 7ebd
00000190: 838e 14be 4de1 bebd f939 e2bd ad20 f33d
000001a0: 5e7e 2abd c4b5 fa3d 86c3 a73c e63a febb
000001b0: 1c45 0b3e c352 9c3d 5709 413e 53b8 a13d
000001c0: ac6f 1f3e 03e0 a23b 7895 593d f50a 333b
000001d0: 3da5 38be 5d24 383e 3f70 2cbe 897f 473d
000001e0: c26a 8abd 6f20 e9bd 349a f13d 59a0 a2bd
000001f0: 80e6 1f3d 28c3 f63d 0df2 0f3e cc65 1ebe
00000200: ed2b fcbc e1ec d63d 1012 cabd 237b 7b3d
00000210: b4e5 383d c6a9 233e bf60 903d 70ce 103e
00000220: 4946 863d 24a1 17bd 8f35 963d 621d c93d
00000230: b853 373e 3cfe 19bd 847a 07be 4a8a 24be
00000240: fa85 e6bc cfe5 12be 4801 28bd 0989 aabd
00000250: ae4c 6cbd 8db0 203e 3579 4cbd 71cc 0abd
00000260: 9410 36be a22c 193e 52c7 173e e64e debd
00000270: a341 16bd 50da f93d 1cbb 13bd 399d 38bd
00000280: 111f fabc 4e04 833d 430e 433e 277e 14bd
00000290: a95f 3b3e 89ba 6e3c eb18 28be e2b0 293d
000002a0: 6640 fbbd 6a41 20bd 4252 173e a25e dc3d
000002b0: 322e d4bd c1c1 a03d f459 3e3e 7c98 c0bd
000002c0: 1b7c ab3d 024c b43d 0814 063e d993 15be
000002d0: 0190 39bd b973 a43d 112e 3ebe af96 2b3e
000002e0: 16ac d53d 8dd6 1cbe ea51 b23d d21f 03bd
000002f0: 6548 01be e6cc 94bd 3165 b63d b92f 45be
00000300: 9224 b9bb 4221 a93c f272 35be 2101 913d
00000310: 88c8 9c3d 1736 5e3e fdb8 2c3e a90d d1bd
00000320: 7db7 333e a2a3 cdbc 2a9c 20bd b718 373d
00000330: d43d e03d 0d1f cfbd 8f9e 9fbd 45f8 8e3d
00000340: 4dd2 11be be83 643d 4f0d ffbc 58d2 16be
00000350: fc1f 3ebe f603 0b3d ea4d ad3d dad8 203e
00000360: aa09 03bd 0ea7 5e3d 083b 1e3e 4132 283e
00000370: 3725 f43d d333 39be dd89 b23d b78a 0e3e
00000380: 6eec e2bd 78da 3e3d 31e7 60bd 7ca3 d9bd
00000390: e4ba a9bd 73a1 1f3e 4415 ecbd 4b3a 9a3b
000003a0: 7560 30be 41a8 b13d 88d2 d1bd db6d 48bd
000003b0: 93d8 2c3d 9088 283d 443f 1ebd 82df 31be
000003c0: dde9 0c3e 2f3e 463e e05a 7d3d 04b6 d9bc
000003d0: 7bd4 d6bd 69fa 8dbd 2665 86bd 32c8 84bd
000003e0: a85c 32bd 5c42 6d3d 7d59 d33d 70ba d5bd
000003f0: 5240 313d 9ec7 96bc a2eb 9c3d b923 6e3d
-0.0756485 0.054047987 -0.060666867 0.02126792 -0.16251186 -0.041398328 -0.05659912 0.15944728
0.0060792756 0.16913313 0.06060653 0.12447551 0.14614384 0.13028221 0.12917852 -0.15069287
0.18983245 -0.08440989 0.10465062 0.20013802 -0.19911166 0.02260331 -0.0040521477 0.04094621
-0.10056606 0.04781584 -0.04435193 0.11015027 -0.050513558 -0.1589854 0.17804554 -0.0406884
0.111963116 0.14912912 -0.17430928 0.09104789 0.029421309 -0.0894686 0.08700417 -0.030026322
0.09600741 0.04302284 0.1402297 0.060071036 -0.115321055 -0.16031054 -0.069322035 0.053956214
-0.1332977 -0.06746462 0.08473665 0.007982704 0.08348166 0.031407926 -0.10029508 0.2130411
-0.09701313 -0.15034103 0.05625517 -0.08796957 0.10189682 -0.15027454 -0.09182063 -0.022827636
-0.069436565 0.10119469 0.1968543 -0.096769825 -0.140623 0.06108818 -0.15550306 -0.22619782
-0.03612896 0.077995785 -0.061476886 -0.16131227 0.120165795 -0.08633942 -0.07615809 0.10739799
-0.1589572 -0.117982894 0.091802806 0.15669657 -0.13263284 0.1279579 0.1334339 0.10381026
0.14218421 0.037818406 -0.10881676 -0.10742745 0.019812554 0.10614971 0.090184264 -0.09531179
0.24384406 -0.092484154 0.058173016 -0.062209934 -0.14507489 -0.093203165 -0.11046214 0.11871467
-0.04162442 0.122417 0.020478975 -0.007758486 0.13600582 0.07632973 0.18851219 0.07896485
0.15569943 0.004970552 0.05312106 0.0027319763 -0.18031783 0.17982621 -0.16839693 0.04870561
-0.06758644 -0.11383139 0.1179699 -0.0794074 0.03903818 0.12048942 0.14057179 -0.1546852
-0.030782664 0.104944 -0.098667264 0.06139673 0.045140937 0.15982732 0.07049703 0.1414125
0.065563746 -0.03701891 0.07334434 0.098200575 0.1790303 -0.037595972 -0.1323033 -0.16068378
-0.028140057 -0.14345478 -0.041016847 -0.08326919 -0.057690315 0.15692349 -0.04992028 -0.033886377
-0.17779762 0.14958432 0.14822128 -0.108548924 -0.03668369 0.12199843 -0.036067113 -0.045071814
-0.030532392 0.063973054 0.19048409 -0.03625312 0.1829821 0.014570841 -0.16415755 0.041428454
-0.122681424 -0.039124884 0.14777473 0.10760237 -0.103603736 0.078494556 0.18589002 -0.09404084
0.083732806 0.0880356 0.13093579 -0.1460718 -0.04530335 0.08029885 -0.1857226 0.167567
0.104332134 -0.1531622 0.0870703 -0.032012768 -0.12625273 -0.07265644 0.089060195 -0.19256486
-0.0056501115 0.020645741 -0.1771963 0.070802934 0.07655436 0.21700321 0.16867442 -0.102076836
0.17550464 -0.02510244 -0.03921143 0.044701304 0.10949293 -0.10113344 -0.077939145 0.069809474
-0.1424038 0.0557897 -0.031134276 -0.14728677 -0.18566889 0.033939324 0.084621266 0.15707722
-0.03199164 0.054358535 0.15452206 0.1642542 0.11921161 -0.18086176 0.087177016 0.13920103
-0.11080252 0.046595067 -0.05490798 -0.10626885 -0.082876 0.15588932 -0.115274936 0.004706656
-0.17224295 0.0867467 -0.10245234 -0.04893289 0.04219873 0.04114586 -0.038634554 -0.17370418
0.13761087 0.19359659 0.061854243 -0.02657605 -0.10489746 -0.069325276 -0.06562261 -0.06483497
-0.043545395 0.057924613 0.10319803 -0.10435951 0.04327423 -0.018405732 0.07662131 0.058139537

encoder.encoder.weight_hh_l0 f4 [128, 32]
00000000: 2991 3d3e 83ce b8bd ed89 6ebd b6be 983c
00000010: c7c6 193d 1e89 1abd 8097 32bb 7326 a93c
00000020: ff2b 95bd 324a e0ba 1180 243e 1ee1 b9bc
00000030: a47b a2bd 06ee 46be 5f14 c8bd a449 bbbd
00000040: 0796 813d 6e4e 3dbe ce95 39be 7157 cabd
00000050: 8122 0f3e ae2f 903c 84fe 193e e859 2d3e
00000060: b988 3b3d 4fdc 173c a5ae aabc b773 1a3e
00000070: fa3d 903d 25dc cd3d 2ff2 bf3d 6931 16be
00000080: 4e2d 313d e6c0 4c3d 9312 9d3c 48c8 e2bd
00000090: 9e2c 3f3e e7e8 1cbe 25f5 36be b6f0 783d
000000a0: 2277 6fbe 82c0 03be 556d 4f3e da07 b6bd
000000b0: 6aa0 033e b14f 123e 8f5b 123d f850 213d
000000c0: 2b85 59be fee0 efbc 952b d2bb 278f bfbd
000000d0: f836 f0bc 9269 4b3e 04d0 52be b303 d53d
000000e0: 3015 abbd a7ba 403d ab73 25be 3c11 a73a
000000f0: 59ed bebd 1807 febc 8946 8dbc f6b0 223e
00000100: 1007 463e cb5a 67bc caf0 17bd 72b8 f33b
00000110: a025 463d 8d01 43bd 2767 8f3c ba19 8abd
00000120: eb65 c2bd 6e01 a3bd be6f 213e 8da3 b9bd
00000130: 536a 583d fc10 5d3d fcf5 c8bd ffc9 fabc
00000140: c87d 1c3e 4542 a8bd eb52 a03d c873 88bd
00000150: fbfd 343e 3201 31bd b599 45bd 37dd 933c
00000160: a500 2cbd 27be 7f3d fd40 65bd 6394 783e
00000170: f800 b43d 8a3c 953d 0710 24be 51df bebd
00000180: 380a 1ebe 1110 fcbd b1a1 bbbd a47b dcbd
00000190: 07dd 033e f1ae b9bd 2208 483d 2e16 10be
000001a0: 458a 54bd 7b91 04bd 40fb 453d cb85 87bd
000001b0: 83de 533d 26dc ec3d 7b48 e23c 2b5f 433e
000001c0: bfb7 ea3d 2c40 fd3d e5b2 84bb 400e 1dbd
000001d0: 0352 d6bd 1c3a 283b e0bc 4fbd 2f03 5a3e
000001e0: ed05 d03d 7b6e b8bd 569e a03d b879 ef3d
000001f0: a4ca 053e de22 d43d f28b 87bd 7986 f73d
00000200: da43 f43c 8e3f ea3d 5b4e 513d a0b7 ba3c
00000210: 6b6d 393c 9887 033d b20c 243e e467 acbd
00000220: f1b7 013e 87e0 393e 163b 453e b275 51bd
00000230: 9d1e 6b3c 4e0e 293d 6214 68be a17d 91bd
00000240: 5e32 533c 989e debd b746 81bd ed75 9fbd
00000250: 6e36 f43d b175 10bd de86 45be 8c82 923d
00000260: 7fb4 06be f0f8 f5bd 503c a93d 7c7f 5b3c
00000270: 19cb 8fbc ed17 98bd 4661 e13d 36fb 7aba
00000280: 6128 60bd 9a26 4abd bfd8 1a3d a4d5 743d
00000290: e5a0 b93d ab8f d0bd bde3 f9bd 641b 1cbd
000002a0: e502 bbbc 610c 883d 3008 a53d b441 0abc
000002b0: f50e 143e de14 96bc f010 0d3e f80c 16bd
000002c0: c132 48be fbaf 14be 82a4 363e 4b8b 913d
000002d0: 9023 c6bd 16c4 5d3e 1e25 373c 7eac 403c
000002e0: 7f7d b9bd ab18 693d 8abb 3ebe 0cdc 8d3c
000002f0: a086 d5bd b32d 44bd d5fb 8a3d 38d1 c3bd
00000300: 663b c93d 2067 e3bd 8a9b aebb 2a08 5e3e
00000310: fe20 543e e481 12bb 291b c73d d8e4 43bd
00000320: 78e9 dabc f44d 8d3d 8189 44bd 0923 45bc
00000330: bd46 103e b291 843d 8242 ffbd c963 393e
00000340: ce62 dc3d 89a0 c13d a89a 03bd 4846 8b3b
00000350: f6f6 e3bc c8ea abbd a123 56bd 8634 babd
00000360: 3333 6bbc 20b4 163e 3401 37be 8c4f 043e
00000370: c81e 5c3e 87ba 0a3e cb32 33be 8ffa a53d
00000380: abf7 433e 1cb4 d4bd bb5c ffbd de42 f33d
00000390: da08 3d3e ec0e 81bd 11fe afbd a03b a7bd
000003a0: bb67 9fbd cac4 8d3d e83f 233e fe84 273e
000003b0: 93e1 b73c 9bf1 26be 03f2 273d f806 aa3d
000003c0: ba08 99bd 8a7d a8bd ba09 e4bd cc4b 5a3c
000003d0: 5b15 b83d 4936 f1bd bca7 b1bd eb9c d5bd
000003e0: f046 2dbe 6eeb 8abd 3941 d13d 9bf3 37bd
000003f0: 58b3 3cbd 5d22 84bc 4a9b 943d f23a 303e
0.18512405 -0.09023764 -0.058237005 0.018645626 0.037543084 -0.03772842 -0.0027250946 0.020648217
-0.07283782 -0.0017111956 0.16064478 -0.022690352 -0.07933739 -0.19426736 -0.097695105 -0.09144905
0.063274436 -0.1848695 -0.18123552 -0.098799594 0.13978006 0.01760086 0.15038496 0.16928828
0.045784686 0.009268834 -0.02083523 0.15083204 0.07043071 0.10051755 0.09372365 -0.14667286
0.043256097 0.04998865 0.019173896 -0.11073357 0.18669364 -0.1532322 -0.17866953 0.060776435
-0.2338529 -0.12866405 0.2025655 -0.08888216 0.12854162 0.14288212 0.03573185 0.03938386
-0.21242206 -0.02928209 -0.006413887 -0.09353476 -0.029323086 0.1986449 -0.20587164 0.10401096
-0.083536506 0.047053006 -0.16157405 0.0012746225 -0.09322614 -0.031009242 -0.017245548 0.15887818
0.19338632 -0.014120768 -0.03709487 0.007437759 0.048375726 -0.0476089 0.017505242 -0.06743188
-0.094920956 -0.07959257 0.15765283 -0.09064398 0.052835774 0.053971276 -0.09812543 -0.030613897
0.15282357 -0.08215765 0.07828315 -0.066627085 0.17675011 -0.04321403 -0.04824229 0.01804982
-0.041992802 0.062437203 -0.05597018 0.24275355 0.08789247 0.072869375 -0.16021739 -0.09319938
-0.15433586 -0.12307752 -0.091616996 -0.1076577 0.12877284 -0.090665706 0.04883588 -0.14070961
-0.051889677 -0.032365303 0.048335314 -0.06617316 0.051725876 0.115654275 0.027622452 0.19079272
0.11460828 0.123657554 -0.004049646 -0.038343668 -0.10464861 0.0025669402 -0.050717235 0.21290277
0.1015738 -0.090054475 0.078427 0.11693138 0.13065583 0.10358213 -0.06618489 0.120861955
0.02981751 0.11437903 0.051100116 0.022792637 0.011317591 0.032111734 0.16020468 -0.08418253
0.12667824 0.18152057 0.19260821 -0.051137634 0.0143505605 0.041273408 -0.22664025 -0.0710404
0.012890426 -0.10870093 -0.06312316 -0.077861644 0.11924444 -0.03526849 -0.19289729 0.07153806
-0.13154791 -0.12010372 0.08263457 0.013397094 -0.0175529 -0.074264385 0.110048816 -0.00095741765
-0.05472601 -0.04935322 0.03780436 0.059774056 0.09063891 -0.101836525 -0.12201641 -0.03811206
-0.022828529 0.06642986 0.08058202 -0.008438516 0.1445883 -0.018320497 0.13775992 -0.03663346
-0.19550611 -0.14520256 0.17836192 0.07106646 -0.09674752 0.21656832 0.011178283 0.011759875
-0.090571396 0.05690829 -0.18626228 0.01731684 -0.10426068 -0.047895145 0.067863144 -0.0956139
0.098257825 -0.11103654 -0.0053286003 0.21682802 0.2071571 -0.0022355253 0.09721977 -0.047825664
-0.026722655 0.06899634 -0.047982696 -0.012032279 0.14089485 0.06473102 -0.12463857 0.18104471
0.10761033 0.09454448 -0.032129914 0.0042503215 -0.027827721 -0.0839439 -0.052280072 -0.09092049
-0.014355469 0.1471715 -0.17871553 0.1292097 0.21496117 0.13547717 -0.17499845 0.08104431
0.19137447 -0.10385916 -0.12468859 0.11877988 0.18460408 -0.06301674 -0.08593381 -0.081656694
-0.07783457 0.069223 0.15942347 0.16359326 0.02244643 -0.16303103 0.041002285 0.083021104
-0.074723676 -0.0822707 -0.11134668 0.013323735 0.08988448 -0.11777932 -0.08674571 -0.1043032
-0.16921592 -0.06783186 0.10217518 -0.044910055 -0.046069473 -0.016129667 0.072561815 0.17209986

encoder.encoder.bias_ih_l0 f4 [128]
00000000: a0c0 203e b95b 283e 21ef d53d e643 16bd
00000010: bc1b 0a3e 0556 e73d d8e0 c13d 17d9 cdbd
00000020: 0d54 e9bd 3aff 0abe 490f 18be 2d5d 543d
00000030: fd03 b8bc a5d2 05bd 8639 493e 3477 d63d
00000040: d9cd 5e3c a80e 13be 64e6 353e 6fc0 0fbe
00000050: 4cd2 533d b381 643e e534 173e 12c6 76bd
00000060: 1652 1e3e f55c 2d3e 7b5d 153d 74d8 273e
00000070: 48df 6bbd 7e40 773c 709d ee3c 9029 953d
00000080: a513 e13c da41 1b3d 8578 3c3e 7eb6 273c
00000090: 0454 443d a2f3 9eba 22a3 afbd df61 153c
000000a0: c697 ea3d 92de db3d a6ec b33c 5ff8 a53c
000000b0: 0e3c 8d3b 639d 70bd 3273 023e f08b c6bd
000000c0: d607 57bd c99a e4bd 1396 003e 8640 003c
000000d0: 913f aabd d77e adbd d382 b33d 6fb9 dfbc
000000e0: cf9c 823d 96f7 05bd 131b b13c 2b2b b43b
000000f0: 884f c03d ed26 253e cb96 cc3a bf75 8d3d
00000100: ca65 5dbc 3e91 1cbe 038c e73d 9168 18bd
00000110: 21e3 a53d ff76 553d d2d0 43bd 25d1 c43d
00000120: 57a7 42bd 3128 973c 2d58 2b3e d4ba 2f3e
00000130: 2959 bbbd 86c3 6cbd 1ef2 aa3d dbe9 593d
00000140: 1852 08bd c48d 09bd 3bcd 9dbd ef39 2e3e
00000150: bc62 083e 7aa7 853d 0cf0 02be 1059 253e
00000160: 7b15 14be 638d 403e e1c0 5dbd 0cc9 0c3e
00000170: c353 553e 71b6 b63d c0c0 a03c e431 3c3e
00000180: 3b4d 153e 0523 013e 7e6a 163e 97ee 4b3c
00000190: 26e8 ddbd 022d 533e b12e 6e3e 956e e53d
000001a0: 3ec1 44bd 35ea e0bd 639d 1c3d 8948 adbd
000001b0: aa4a 1a3e 7db3 2b3e d25a 76bc aae5 0fbd
000001c0: 0fc2 263e 5aa8 d6bd 9977 e3bd ccdf 32bd
000001d0: fff6 453c e206 e9bd 1ed7 573e 9b72 6f3e
000001e0: 703c 163c 7cfe efbc 86b8 463e 8fd7 843d
000001f0: 870a 103e 3f27 b9bd beac 583e a242 8fbd
0.1569848 0.1644124 0.10446001 -0.036685847 0.13487142 0.11295704 0.09466714 -0.10051172
-0.113929845 -0.13573924 -0.14849581 0.05184667 -0.02246284 -0.03267159 0.1965085 0.10471955
0.013598883 -0.1436106 0.17763668 -0.14038251 0.051714227 0.22315101 0.14766271 -0.06024749
0.15461001 0.16929992 0.036466103 0.16391164 -0.057585984 0.01509106 0.029127806 0.07283318
0.027475188 0.037904598 0.1840535 0.010236381 0.047931686 -0.0012127052 -0.08576037 0.009117573
0.1145473 0.10735811 0.021963429 0.020260034 0.0043101376 -0.058743846 0.12739256 -0.0969466
-0.052497707 -0.111623354 0.12557249 0.007827884 -0.083129056 -0.084714584 0.08765187 -0.027310101
0.06377565 -0.03270682 0.021619355 0.00549831 0.093901694 0.1612813 0.0015608905 0.06907224
-0.013513038 -0.1528978 0.11306002 -0.037209097 0.08099962 0.052115437 -0.04780657 0.09610204
-0.04752287 0.018451782 0.16732855 0.17161113 -0.09147865 -0.057803653 0.083469614 0.053201538
-0.033281416 -0.033582464 -0.0770516 0.17014287 0.13318914 0.06526084 -0.12786883 0.16147256
-0.14461319 0.18803935 -0.05413902 0.13748568 0.20832734 0.08921517 0.01962316 0.18378407
0.14580242 0.12611015 0.14689061 0.012447021 -0.108352944 0.20622638 0.23259999 0.112027325
-0.048035853 -0.109821714 0.038236033 -0.084611006 0.15067545 0.16767688 -0.015036302 -0.035131134
0.16284965 -0.10481329 -0.11106796 -0.04367046 0.012082814 -0.11378266 0.21078154 0.23383562
0.009169683 -0.029296152 0.19406328 0.06486427 0.14066516 -0.09040689 0.21159646 -0.06995131

encoder.encoder.bias_hh_l0 f4 [128]
00000000: f6ad 2d3c 261b 1b3e 994e b6bd 3577 323e
00000010: 22ef f3bd a363 f43d 323f c33d 0635 98bd
00000020: 1d71 b1bd 52e6 073e 678b 91bd eefb d83c
00000030: 5463 f73c ade5 8b3c 5200 4b3d d29d ab3d
00000040: ce55 06be 7efe 383e f0ad f13d aa97 d13d
00000050: a06c 5c3d 1e14 653e 376b b2bd e198 f13c
00000060: 9c17 883d 7fab 41bd e18b 83bd 41be a7bd
00000070: 02cd 16bd 98fe 07be e8de ddbd 8948 3e3e
00000080: 35f7 e63d 1134 f1bd bb4f 1b3e 358d 3b3e
00000090: 5680 6c3d 9d4d aabd 850a 983d ec68 8ebc
000000a0: 0b4e c93c 0d70 883c ad34 2a3e 2e5f 063e
000000b0: 86db 26be e144 d83d 0fd8 39be b9f1 e13d
000000c0: a541 9ebd 8381 e83d 97e5 07be 6770 033e
000000d0: dc43 dabd 5e71 dfbd be14 dfbd 6ce6 85bd
000000e0: be1b 223e 9701 b6bb 54c2 adbd f7d7 febd
000000f0: 10e5 47bd 93ee c5bd f745 a2bc 58ba 713e
00000100: b41a 003e e8d5 763d f0e8 b73d 4989 ee3d
00000110: 814b 91bd bcdf 42be 1bcb 06be c390 543d
00000120: baeb 263d 7c0b 58bd f0f3 a6bc ec40 523e
00000130: 5245 663d 2444 0dbc 89de ee3d 7266 023e
00000140: d7a2 99bd e7eb b93d e449 06bd aa67 96bd
00000150: e511 7a3d 636e d9bd ea0b 08be 93fa 043e
00000160: 5ea0 febd a13e 823c 930f 6b3d 00f8 023e
00000170: 7b01 dbbc 3683 20be 9a46 e0bd 8429 6ebd
00000180: e587 a83d c11b 6bbd 1047 ed3d 1e11 3b3e
00000190: 0b3e 4c3e 4550 c73d 234f 333e 3406 a9bd
000001a0: e842 0cbd fa0f 213e 91d0 2cbd dfa4 8f3c
000001b0: b83e 313e 1065 413e f312 693d d396 1a3d
000001c0: e783 503e e955 0f3e a49c 1c3e 1300 d3bc
000001d0: cb27 bfbd f371 1f3c 9cc1 163e 56ce 403e
000001e0: e026 d63d 9fea 663e 504e 4c39 e542 bd3d
000001f0: 6ffa 3e3d b2d6 993d 31a2 bfbd 5f80 2a3b
0.010600558 0.15147075 -0.0890171 0.17428286 -0.11910845 0.11933067 0.09533538 -0.074319884
-0.08664153 0.13271454 -0.07106667 0.026487317 0.03019873 0.017077291 0.049560852 0.08379711
-0.1311867 0.18065831 0.11800754 0.10234006 0.05381453 0.22370955 -0.08711856 0.029491844
0.06645128 -0.047282692 -0.06423164 -0.08190585 -0.036816604 -0.13280714 -0.108335316 0.18582357
0.1127762 -0.11777509 0.15167134 0.18315585 0.05773958 -0.08315585 0.074238814 -0.017384015
0.024573347 0.016654992 0.16621657 0.13122246 -0.16294679 0.105600126 -0.18148826 0.11032433
-0.077273645 0.113528274 -0.13271175 0.12835847 -0.106574744 -0.10910295 -0.10892628 -0.0653809
0.15830895 -0.0055543887 -0.08484331 -0.12443536 -0.048802435 -0.09664645 -0.019808752 0.23606241
0.12510186 0.06026259 0.08979976 0.11647279 -0.07094479 -0.1903066 -0.13163416 0.051895868
0.04075215 -0.052745327 -0.02037999 0.20532578 0.056218453 -0.008622203 0.11663539 0.12734392
-0.07501762 0.09078198 -0.03278531 -0.07343991 0.06105222 -0.10616758 -0.13285795 0.12986211
-0.12432931 0.015899004 0.0573879 0.12789917 -0.026734104 -0.15675053 -0.10950966 -0.05814506
0.08229045 -0.057399515 0.1158582 0.18268248 0.19945543 0.09732107 0.17510657 -0.08253136
-0.034243494 0.15728751 -0.042191092 0.017534671 0.17309082 0.18886209 0.056902837 0.037741493
0.20362817 0.13997616 0.15294129 -0.025756871 -0.09333762 0.009731757 0.14722294 0.18828711
0.104566336 0.22550438 0.0001948413 0.09241275 0.04662555 0.07511653 -0.093571074 0.0026016457

encoder.spatial_embedding.weight f4 [16, 2]
00000000: 2364 d9be 10c2 22c0 45b1 b03e 705b 8fbe
00000010: 5f1f bb3f 3f52 01bf ea4f 6cbf 44e8 75bf
00000020: 2596 733e 1b78 15be 4bae ba3e 1830 5cbf
00000030: c628 8bbf a7fb 9fbe 38c1 39bf 3f47 0240
00000040: ea5c 89be fda1 47bf 2d73 a03f ddd0 1dbe
00000050: 8256 bc3f 40f8 87bd 4a4c 34bf fd04 ffbf
00000060: fff6 7d3f cb61 a6be 2278 8cbf 9129 b53f
00000070: 7ab8 a63f 9f5e 39bf 2b30 3d3e 6bad 133e
-0.4245921 -2.5430946 0.34510246 -0.2799945 1.4618949 -0.5051612 -0.9230944 -0.96057534
0.23787744 -0.14596598 0.364611 -0.86010885 -1.0871818 -0.31246683 -0.72560453 2.0355985
-0.268287 -0.7798155 1.2535149 -0.15411706 1.47139 -0.06639147 -0.7042891 -1.9923397
0.9920501 -0.32496485 -1.0974162 1.415331 1.3025048 -0.72410005 0.18475406 0.14421622

encoder.spatial_embedding.bias f4 [16]
00000000: 901f e0bd 9e07 bf3d 6dd2 80be 039a 92bc
00000010: 5878 11bf da60 963e 8f60 17bf 318a 1e3f
00000020: d905 edbe 7ef4 273f c8d4 82bc f0f4 723d
00000030: 107c 373f 09f6 a7be 8b1c e13e 0b18 94be
-0.1094352 0.09327625 -0.25160542 -0.017895704 -0.56824255 0.29370767 -0.5913171 0.61929613
-0.46293524 0.6560744 -0.015970603 0.05931562 0.7167368 -0.32804897 0.4396709 -0.28924593

decoder.decoder.weight_ih_l0 f4 [128, 16]
00000000: b848 1dbe ecd1 d3bd 7d30 f23d fb15 323d
00000010: 69a6 17be a407 15bc 34f4 35ba 0242 123d
00000020: 9cc6 43be aa18 8ebd c91d 0d3d 8903 b83d
00000030: c936 41be 6bd6 cfbd a2c0 ccbd c662 00be
00000040: 8c02 51bd 2e31 eb3c bc8f 8fbd b808 22be
00000050: 8ca8 65bd f698 393e d11b 3c3e cd3a 63bd
00000060: 8820 123d 6155 07be dee4 f53c 89c6 e3bd
00000070: 6be8 1a3e e26d 5a3d a469 c6bc b4dc a4bc
00000080: dbb6 643d 3325 a6bc 0418 463d c2ef 64bd
00000090: 0987 e7bd 2333 183e b803 3d3e 9286 a73d
000000a0: 898f d63d 19b8 b03d f836 2dbe 1fe8 99bd
000000b0: b87e 49be 5d8b 3a3c 0038 ef3c 059e db3d
000000c0: dc06 f83d f1de 123e 7199 9d3d a873 003d
000000d0: 9c38 a23b dfc6 643d fe4c f2bd 6fcc 963d
000000e0: 63b7 cabd 04d8 ab3d 5bb0 b33c 8aae 96bd
000000f0: eca8 d2bc 393c f03d ff0a a93d e02c b3bd
00000100: 9412 f93c 7684 833c 1181 44bd fae4 e03b
00000110: d52c 103e 2341 f13d 72ef aebd adcb 3abe
00000120: 10f3 59bd ff97 893d 118c 393d 93a3 dd3d
00000130: c192 0b3e 32c6 613d d326 783d fe04 0cbe
00000140: 9407 4ebd 0b11 86bc 2a81 f83d b03b 453e
00000150: d8ab 0cbe bb0b 793d 5f0f 0fbe c11c e93d
00000160: 3835 e53d adde 9c3d 0f1d 6b3d 6ff0 013e
00000170: 490a ad3d fce1 82bd 147f 9d3d 490e 0f3d
00000180: 9e67 1d3e 18de eabd c5a3 64be 7032 493d
00000190: 06e9 0cbe 9ad5 473e 68da 583e 9b9c 1b3e
000001a0: 45ce e5bd 9d4f 343e 6e5b 983d d657 05bd
000001b0: 1b6a cbbc 8044 a23c f2db 5d38 86ce 92be
000001c0: 1209 76bd ea56 51bd f5f3 093c 6381 d83d
000001d0: 80ce 023e ed73 10be 91db 13be b387 ee3c
000001e0: 33a8 21be f45b ba3d 4afe e9bc a277 fabd
000001f0: e324 333d ab63 543e e274 0bbd fb2c f8bc
00000200: 280a 1d3e 1dcd 213c afb4 ba3c 7737 103e
00000210: 88b4 d8bd 1c25 293e bd5a 4fbd 3ba3 dd3d
00000220: 73e8 43bc 799b 633d b33c c0bd 9bdd b1bd
00000230: cfe5 fb3d 74a8 8c3d a4f9 1e3e c07b 21be
00000240: 1a1e 19be 1a6a 313d 6e21 0e3e bbad 063e
00000250: 852b f5bc fb03 e63c 9df0 363e 66f4 3e3c
00000260: ca16 4ebd 7f46 b0bd ba93 c33c 54ae 3fbe
00000270: 7550 3abd 2b02 9e39 267a 2c3e 2a5e e53d
00000280: 72d8 803d c5c5 28bd 1df2 94bc 9b24 9dbc
00000290: 2edb 10bd 0cf3 b63d b051 10bb bdaf b9bd
000002a0: f91c b2bc b7b0 98bd dd00 203e a5f8 3a3b
000002b0: 0090 12be 3355 d43d 869b 75bd a67c bcbd
000002c0: a986 2d3d 5340 0ebe 8662 133e 10c9 1e3d
000002d0: 9536 0c3e 5bae c1bb 453e 04be c1aa 80bd
000002e0: 5dc3 153e ae06 813d af04 cabd 7fe5 8abd
000002f0: 64db 013c d198 9e3d 28d1 023e 74de 3dbd
00000300: 84e1 0c3e 41c8 033e d6e7 083d ee23 8ebd
00000310: 640f c33d f536 153e 60b2 163d d410 6a3d
00000320: 5b0c fbbd cb66 b9bc 4205 183e 6b3f d4bd
00000330: 567e 65bc 6bb5 ac3d 06ea c3bb 2fd8 9b3d
00000340: 9548 a0bd f02e 273e a891 cebb 0176 d83d
00000350: 6758 33bd 24a6 5abd 2b7f 19bd 5104 f83d
00000360: f612 d1bc 3b95 e83d a3b5 61bd 10fe f33d
00000370: 5c75 213e 9ce4 6b3c 56b7 02bd 440a c0bd
00000380: 9f89 f73d 39c0 dabd 5e71 263e 660c 03bd
00000390: 81e8 e63c 8c74 263d 5eef 6cbd 772b 263c
000003a0: f7c5 063c 0f58 f83d 8600 ddbd 251a 37bd
000003b0: 46b5 93bd 7e6b 5a3e e9e3 0e3d c8f3 8f36
000003c0: 4e4c e83d c708 ed3d 509e a43d 5b5f e3bc
000003d0: 0d5a 103e 32d6 82bd 3d24 e83d 4eb0 30be
000003e0: 1403 5bbd b532 26be 4e67 43bd 12b2 eb3c
000003f0: 068a 8bbc 8442 7d3d a797 09be 0c02 413e
-0.15359771 -0.10342774 0.11825655 0.043477993 -0.14809574 -0.00909606 -0.0006940991 0.03570748
-0.19118732 -0.06938298 0.034452233 0.08985049 -0.18868555 -0.10148319 -0.09997679 -0.12537679
-0.05102782 0.028709974 -0.07009837 -0.15823638 -0.056068942 0.18124756 0.18369986 -0.055476
0.035675555 -0.13216163 0.030016359 -0.11121852 0.15127723 0.05332745 -0.024220295 -0.02012477
0.055838447 -0.02028141 0.048362747 -0.055892713 -0.11305053 0.14863257 0.1845845 0.08179964
0.10476596 0.08628864 -0.169155 -0.07514977 -0.19677246 0.011385766 0.029201508 0.10723499
0.12110683 0.14342858 0.07695282 0.0313603 0.004950596 0.05585372 -0.11831091 0.07363211
-0.098982595 0.08390811 0.021934679 -0.073575094 -0.025715314 0.117302366 0.082540505 -0.087487936
0.030404367 0.016054373 -0.04797465 0.0068632336 0.14079602 0.11780002 -0.08541764 -0.18241759
-0.053210318 0.06718444 0.045299593 0.10822215 0.13630201 0.055120654 0.0605839 -0.1367378
-0.050300196 -0.016365549 0.12134011 0.1926105 -0.13737428 0.060802203 -0.13970707 0.113824375
0.11191791 0.076596595 0.05740076 0.12689374 0.08449227 -0.06390759 0.07690254 0.034925733
0.15371558 -0.11468142 -0.22328098 0.049120367 -0.13760766 0.19515076 0.21177065 0.15196459
-0.112209834 0.17608495 0.07439314 -0.03255447 -0.024830868 0.019808054 5.2895346e-05 -0.2867319
-0.060067244 -0.05110828 0.00841998 0.105715536 0.12774086 -0.14106722 -0.14439227 0.02911744
-0.15786819 0.0909957 -0.028563637 -0.122298494 0.04373635 0.20741145 -0.034047015 -0.030294886
0.15335906 0.009875563 0.022791235 0.14083658 -0.105813086 0.16518062 -0.050623644 0.10822149
-0.011957276 0.055568192 -0.093865775 -0.08684846 0.12299692 0.068680674 0.15524918 -0.15769863
-0.14952889 0.043314077 0.1387994 0.1315221 -0.029927978 0.02807807 0.17865224 0.011654949
-0.050314702 -0.08607196 0.023874152 -0.18718845 -0.045486886 0.00030137724 0.16843471 0.11199601
0.06291284 -0.041204233 -0.018181855 -0.019182494 -0.035365276 0.08933076 -0.0022021346 -0.090667225
-0.02174233 -0.07455581 0.1562533 0.0028529551 -0.14312744 0.10367813 -0.05996277 -0.09203462
0.04236475 -0.13891725 0.14393052 0.038765967 0.13692696 -0.0059106774 -0.12914379 -0.06282569
0.14625306 0.06300102 -0.098641746 -0.06782054 0.007925842 0.07743991 0.127751 -0.046354726
0.13757902 0.1286936 0.03342422 -0.06940447 0.0952442 0.14571746 0.036791205 0.057144955
-0.12258216 -0.022632023 0.14845756 -0.103636585 -0.014007172 0.0843304 -0.0059788255 0.07609593
-0.07826344 0.16326499 -0.0063039847 0.105693825 -0.04378548 -0.0533811 -0.037474792 0.12110198
-0.025521737 0.113565885 -0.055104863 0.11913693 0.15767425 0.014397766 -0.031913124 -0.09376958
0.12086796 -0.10681195 0.16254184 -0.031994246 0.028187038 0.04063849 -0.057845466 0.010142199
0.008225909 0.12126171 -0.107911155 -0.044702668 -0.072123095 0.21330068 0.03488532 4.290112e-06
0.11342679 0.1157394 0.08038008 -0.02775543 0.14096852 -0.06388511 0.11335037 -0.17254755
-0.053469732 -0.1623028 -0.04770594 0.028771434 -0.017033588 0.061831012 -0.13436757 0.18848437

decoder.decoder.weight_hh_l0 f4 [128, 32]
00000000: 42dc ed3c 1461 df3d 2621 823d 2ad2 663e
00000010: bfd9 9cbd 52f5 c13d 5507 3fbe 8034 113e
00000020: c418 b7bd 8407 8ebd 6d91 20be 8e3d 5cbd
00000030: 68b5 023d 46ee 59bd 4ec4 a8bd fadd cfbd
00000040: 5809 cdbd a5ec 34be 100e 50bb d46c 3c3b
00000050: af7b c23d d31f 0c3e c62c e7bc afff 683c
00000060: 2728 d43d 48b1 dcbd 06cd 9a3d 727f 833d
00000070: cdbd b7bd 9f11 523b 6394 23be d0d0 cd3d
00000080: e0a7 a53d ff08 c9bd e522 e93d 2cf3 7fbd
00000090: f0f1 3dbe f818 72bd 3ca6 08be de79 1e3c
000000a0: ee36 3ebd 3e13 2dbe eb06 87bc 0a4d a53d
000000b0: 1d93 94bd 7a11 e6bd 4f32 4eb8 c058 07be
000000c0: 3f25 81bd f1c8 f2bd c217 fd3d 382f eebd
000000d0: d2de 153d 659a f73d 89ee e93d 8d81 003d
000000e0: b0d3 07be dc24 13bd 105d 3e3e 5c17 a7bd
000000f0: 3a3a b7bc 7664 b5bd 502e 413d ec87 3a3d
00000100: 6300 e03d dbc9 91bd 3766 893c e69a 0abe
00000110: 8a8f 9cbd 0208 463e 7cdc c63c 1d25 c63c
00000120: 9bbb 453d 7f8b 14be a3d7 41be 9b79 9f3b
00000130: 398f 3cbd 9f3b 2c3e f2e0 513d ed9f 033e
00000140: 2fb4 893d b704 e83c 21a2 55bd fa0c f93d
00000150: 0aff 2a3e a975 503c a6d8 1ebd 1df6 01bd
00000160: 213f 9c3d 7705 ee3c 154e 4abe 6189 db3d
00000170: 84e6 36be 1977 23bd 1129 0abe a303 c53c
00000180: 7ce2 683d d756 4a3d dadd d1bc 65a1 8fbd
00000190: 35ed 453d 3a75 bdbd 27c2 953d 6d67 b0ba
000001a0: f0a0 0d3d 6762 9d3c 9d72 babd d1c5 0c3e
000001b0: 5429 2dbd 7966 e73d b973 993c cb6a 5abb
000001c0: 4131 3e3b 5a3b d93d cb5c 32be c06a cabd
000001d0: 797d d93d 5dd0 363e 4e3f dc3c 7644 633e
000001e0: 5a48 2bbe fcd5 d33d 9e9c ccbd 78a8 af3d
000001f0: 71fe f53d 2cdf bd3d fcee 99bd b250 e1bd
00000200: edaf 863d 570c 5e3d 7e77 aabc 4e9e d3bd
00000210: 342a 173d a0be bb3d d21b 443e 8aef a0bd
00000220: 5c1c e3bd 2281 4c3e afe0 e93d bfb3 0abe
00000230: adcc 003e d020 10bd 34f7 f3bc 13b5 943c
00000240: fd6b 99bc 5dca a43c ee90 efbd 7fa3 26bd
00000250: 5506 7abc 7589 1c3d b99c 6c3e 716a 8fbd
00000260: eb9f a3bd f7a8 f23d ec23 033e 23f9 0d3c
00000270: 49e5 233d 71aa ee3d 38d2 3ebd 001e 343e
00000280: db71 e6bd 32d7 763d d560 6abd 08b8 083e
00000290: a347 ddbd 6363 99bd f0f1 2ebc 621c 3a3d
000002a0: bf88 403d 5fa4 6dbd 714d e1bd 47e1 e33d
000002b0: bd91 243e ccf0 06be 78a3 bd3d 283c 263d
000002c0: 8580 0bbd 2ae0 4cbe 6851 08bc 7f23 2cbe
000002d0: d45a 97bd 22f2 c93c 8585 e1bd db01 bd3d
000002e0: 46e8 443e e93c 963d 2d75 ecbd 7e16 1abe
000002f0: fcde 05be f990 553c 78b5 00be 49a7 173e
00000300: 6bbd a33d 5591 18bd 2567 39be 3395 d83d
00000310: d63e ccbd 1767 c73d a119 55be 0def 68be
00000320: d8c5 b23d 723b 08be b28d 68be e216 053e
00000330: 76a7 84bd 790b 553d 4def b2bd cb66 543d
00000340: 84f1 28be 3f47 34be 346f 59bc fadf d13d
00000350: 1fde 033d 6f32 3e3e 64e6 7bbc 20c8 2f3e
00000360: 118d 20bd a4a3 cc3d 3068 213e 5bc1 2f3e
00000370: e1ca f3bd 15fc 823d 222f 253e c453 503e
00000380: 833a 4e3a 331e 9f3d 4c10 1bbe 2771 f43d
00000390: 0aaf 52bd df00 c63d fb5b 10be 6a50 8abc
000003a0: a0d7 2c3b 6756 053c f2b0 223e 1c1d 5ebd
000003b0: 4944 e13d 93b1 253e 0aa7 02bc 77b7 fabd
000003c0: f2fe 2f3d 694e 00be afee 05be 7895 933c
000003d0: 599c be3d 1e35 993d 8ba8 0f3e c91c 66bd
000003e0: 754c ee3d 6562 01be abf7 60bc f8ee 1ebd
000003f0: 1a8c e73d 12df acbd 7e14 623e 5f6d 0abe
0.029035691 0.10907188 0.06353979 0.22541109 -0.07658719 0.09470619 -0.1865514 0.14180183
-0.089402705 -0.06935027 -0.15680476 -0.05376964 0.031911284 -0.05320575 -0.08240567 -0.101497605
-0.10011548 -0.17668398 -0.0031746663 0.002875139 0.09496247 0.13684015 -0.028219592 0.014221116
0.10359221 -0.10776001 0.07558636 0.06420793 -0.089717485 0.003205396 -0.15974574 0.100495934
0.0808866 -0.09816169 0.11383609 -0.062487766 -0.18549323 -0.059105843 -0.13344663 0.00967261
-0.046439104 -0.16901872 -0.016482791 0.08071335 -0.07254622 -0.11233802 -4.916108e-05 -0.13217449
-0.06305932 -0.11854733 0.12358047 -0.116301 0.03658945 0.12089995 0.1142245 0.03137355
-0.13264346 -0.035923824 0.18590188 -0.08158752 -0.022366632 -0.08857052 0.047163308 0.04553978
0.10937574 -0.07118579 0.016772373 -0.13535652 -0.076445654 0.19338992 0.024275057 0.024187619
0.048274618 -0.14506339 -0.18929915 0.0048667914 -0.046035025 0.16819619 0.051239915 0.12853976
0.067238204 0.02832256 -0.05215657 0.12160678 0.16698852 0.012723365 -0.03878083 -0.031728853
0.076292284 0.02905534 -0.19756348 0.10719562 -0.17861372 -0.039908502 -0.13492228 0.024049586
0.056856617 0.049399223 -0.025618482 -0.070132054 0.04832192 -0.09250875 0.07312422 -0.0013458558
0.03457731 0.019211961 -0.09103892 0.13747336 -0.04227574 0.11298842 0.018731939 -0.0033327814
0.0029021057 0.106070235 -0.1741821 -0.09883642 0.10619635 0.17852922 0.026885655 0.22194085
-0.16726819 0.10343549 -0.0999081 0.08577055 0.120114215 0.09271082 -0.07516286 -0.110017195
0.06576524 0.054210987 -0.020808931 -0.103329286 0.036905482 0.09167218 0.19151238 -0.078581885
-0.110893935 0.19971135 0.11419808 -0.1354513 0.12578078 -0.035187542 -0.029780962 0.01815275
-0.01872825 0.020116026 -0.11697565 -0.040683266 -0.015260299 0.038217027 0.2310666 -0.07002724
-0.07989486 0.11848634 0.12806672 0.008665356 0.040013585 0.11653603 -0.0465872 0.17589569
-0.11252185 0.06026382 -0.057221252 0.13351452 -0.10804679 -0.0748966 -0.0106778 0.045437224
0.04700541 -0.058018085 -0.11001099 0.111269526 0.1607122 -0.13177794 0.09259695 0.040584713
-0.034058113 -0.20007387 -0.00832019 -0.16810416 -0.07390371 0.02465159 -0.11011795 0.092288695
0.1922923 0.073358364 -0.11545787 -0.15047643 -0.13073343 0.013035052 -0.12569225 0.14809908
0.07995113 -0.037247974 -0.18105753 0.105753325 -0.099729225 0.0973646 -0.20810558 -0.2274744
0.08729142 -0.13303927 -0.22710302 0.1299701 -0.06477253 0.052012894 -0.08737049 0.051855844
-0.16498381 -0.17605303 -0.013271142 0.10247798 0.032194253 0.18573926 -0.015374754 0.17166185
-0.03919703 0.099921495 0.157624 0.17163603 -0.119039305 0.06395737 0.16131261 0.20344454
0.00078669953 0.07769432 -0.15142936 0.119356446 -0.05143646 0.09668135 -0.14097588 -0.016884048
0.002637364 0.008138276 0.15887812 -0.05422698 0.109993525 0.1618102 -0.0079743955 -0.122420244
0.042967744 -0.12529911 -0.13079332 0.018015608 0.09307165 0.074808344 0.14029138 -0.056179795
0.11635677 -0.12635191 -0.013730924 -0.038802117 0.11306019 -0.08440985 0.2207813 -0.13518284

decoder.decoder.bias_ih_l0 f4 [128]
00000000: 6d13 213e fdb3 e9bd 8b5d 02be 5e6a a13d
00000010: 9335 ba3d f14d c8bd 94e4 32bd 0c9c d0bc
00000020: b21c 39bd 2b35 57bd 20a2 633b 5efa 213e
00000030: 3e3d 5e3d 37a0 923d e3ce 953d e3e8 27be
00000040: 90a3 f8bb a4c5 31be 4a17 fb3d bd8b e7bd
00000050: 2555 173e 50f5 27be 7458 a73d a51b 853d
00000060: fc1d 3c3e 12e0 dbbd b00a 463d e50f c33c
00000070: 5155 63bd 458e 1d3e 3b71 ffbd 3cdc af3c
00000080: e0df bb3d 7af4 e5bd c9d3 263e 27b5 88bb
00000090: 0a1f 5bbd c97c df3d 6825 b73d 8ed6 473e
000000a0: 5172 8bbc 4f33 d8bd 3137 23bd 20d0 203e
000000b0: 36bc f93d b577 383d 2ac4 91bd cba2 1e3e
000000c0: c1ec 013d 2448 31be 8bec 163e 2e61 17bd
000000d0: 8668 21be 2285 3dbe 41cb 613d 9ca4 bb3d
000000e0: 618e 1dbe 4e99 a8bd 4b0e d33d 2d50 98bd
000000f0: 6664 f5bd 96b7 fe3c 1332 10bd 0b25 7d3c
00000100: 340a e7bd 9774 173c 5344 b6bd 7a89 2f3e
00000110: 9e7e ec3d ee3d 973d aae7 bc3d 7f78 483d
00000120: d206 c9bc 853f cdbd 59c5 293e f4a4 0abe
00000130: 18a3 e8bd 0277 f6bd 40c3 353e bd25 913d
00000140: fa82 48be 863e f7bd fd1b e5bd 6297 0d3e
00000150: 5137 18be 0731 a73d a1ad aa3d a4e7 d1bd
00000160: 9098 31be 8603 d9bd f5ad a03d bc8e 443d
00000170: b50c e63d 6b26 fabd 1b43 ccbd d0b9 4ebd
00000180: 5a29 373d 98ec a83d f332 a9bd 8e6d cabd
00000190: 3ef6 d8bd a52f 0f3e 47ae 583c 1613 143e
000001a0: 77b7 10bd a94f ca3d c0bc d9bd 2cd1 11bd
000001b0: f323 773d ebb2 b13d 9d1b 3ebd 1e68 013e
000001c0: 7d0b b1bd 2a24 293d 166c b53c eb3a ea3d
000001d0: dd69 e0bc de48 343e bcf4 e7bd a7d6 893e
000001e0: 6967 f4bd 57a6 0b3e 8487 513d d227 83bd
000001f0: f8f7 363d db08 0a3e 3352 0bbe 898b 99bc
0.15730067 -0.11411283 -0.12730996 0.07881616 0.0909225 -0.09780491 -0.04367502 -0.025465034
-0.04519338 -0.05254094 0.0034734085 0.15818164 0.054257624 0.07159465 0.07314851 -0.16397433
-0.0075878575 -0.1736055 0.122603014 -0.1130595 0.14778574 -0.16402173 0.08171168 0.064994134
0.18370813 -0.107360974 0.048350036 0.02381129 -0.055501286 0.15386303 -0.12472769 0.02146732
0.0917356 -0.11228271 0.16291727 -0.0041719857 -0.053496398 0.10912473 0.089426816 0.1951544
-0.017022284 -0.10556661 -0.039847557 0.15704393 0.121941015 0.045036037 -0.071174935 0.15491788
0.031719927 -0.17312676 0.14738671 -0.036957912 -0.15762529 -0.18507817 0.05512548 0.09162256
-0.15386344 -0.082323655 0.103054605 -0.07437167 -0.1198204 0.0310934 -0.035204004 0.015450726
-0.11281243 0.009244106 -0.088997506 0.17142287 0.11547588 0.07384859 0.09223874 0.04894304
-0.024539385 -0.10021881 0.16579188 -0.13539487 -0.11359233 -0.12034418 0.17750263 0.07087276
-0.19581214 -0.12072472 -0.11186979 0.13827279 -0.14864852 0.08163648 0.08333898 -0.1024926
-0.17343354 -0.10596375 0.0784568 0.047987685 0.112328924 -0.12214359 -0.09973737 -0.050470173
0.04471717 0.08248252 -0.08261671 -0.09884177 -0.10593842 0.13983019 0.013225145 0.14460406
-0.035331216 0.09878475 -0.10631704 -0.035599872 0.06033702 0.08676704 -0.046413053 0.12637374
-0.08644769 0.041294254 0.022146266 0.11437019 -0.02739423 0.17605922 -0.11325976 0.2692158
-0.119337864 0.13637672 0.05115463 -0.064040795 0.044670075 0.1347994 -0.13605575 -0.018743293

decoder.decoder.bias_hh_l0 f4 [128]
00000000: c5cd f83d 1d95 013e 0a0b 913d b5a6 c73d
00000010: 7388 02bc b8e9 11bd 325d f6bc 17fc 86bd
00000020: 5fb8 d4bd db78 afbd b7ca 03be f131 c1bc
00000030: 76fb 353e cee8 2e3d 5b58 7fbd 6b66 0fbe
00000040: 6650 18bd 34e6 debd 6382 87bd b018 b6bd
00000050: aaff 00be 78f0 dfbd 4f90 b33c e5d6 c0bd
00000060: fe24 08be e777 67bd 6f59 3cbd f8c5 a5bb
00000070: 3e86 8dbd 3589 e6bc d1f6 8ebd a132 d2bc
00000080: 5fc6 60bd c591 eabd 048d 03be b4d1 0c3d
00000090: 8a32 4e3d d79f b6bd 3dd9 ff3d 5cf9 793c
000000a0: a4b1 6d3d c05b 92bd f080 123e 5707 5a3c
000000b0: 154e 893d af77 f8bd e552 f8bd 36f5 58bd
000000c0: 7715 903d 005b b03d c666 b5bc 92d2 88bc
000000d0: 5776 2f3e 0045 333d 273b a5bd 0736 c33d
000000e0: e1b6 d33d d9df 293e 7479 adbd 32ec c1bd
000000f0: 0fa6 bb3d 4971 933d 7413 12be 8152 b73c
00000100: 283f 963d ffbc dabd 80ff f6bd 64bc ba3b
00000110: 82c3 14bc 5513 90bc 01af 59bd 67c0 8d3c
00000120: 1e9e 1e3e baf6 03bd 6a33 223e 2e74 1ebe
00000130: 39f3 eabd 3002 29be 16fc e43d 394d 99bd
00000140: c949 113e 7d5d d1bd 8425 3b3d 0194 fd3d
00000150: 163c 83bd c470 7f3d 506b aa3d 0604 4e3d
00000160: cd08 fbbc 2af1 443d de0e abbd 680b 0c3d
00000170: 48ed d7bd 12fc 03bd d709 e03d 94c5 88ba
00000180: 9668 ef3d 3e7f 283e 00e7 c03c c3cc e63d
00000190: 2637 5b3e dc32 2e3d b378 fdbc b207 b93d
000001a0: 9b0f 433e e1c7 1cbe eeb5 55bd d62c 28be
000001b0: 360d 163e 4e73 bc3d 88a7 723d 0a1d eb3d
000001c0: 9b16 a83c ae23 49bd de19 31bd 65c3 c4bd
000001d0: 7e5e a8bd 17d6 7cbb b26c a6bd d40f 12bd
000001e0: 1b10 d6bd c8cb 663d cf1e 50bc 942c 023e
000001f0: 3b95 de3d f5da 22be 3e36 413e c559 5bbd
0.121486224 0.12654538 0.07082184 0.09748594 -0.007967102 -0.035623282 -0.030073736 -0.06591051
-0.103867285 -0.08567973 -0.12870298 -0.023583384 0.17771706 0.04270249 -0.06234012 -0.14003913
-0.03718605 -0.108837515 -0.06616666 -0.088914275 -0.12597528 -0.10934538 0.021919398 -0.09415988
-0.13295361 -0.056510832 -0.045983728 -0.005059 -0.0691037 -0.028141597 -0.0698067 -0.025658907
-0.05487668 -0.114535846 -0.12846762 0.034379676 0.050341167 -0.08917206 0.12492607 0.015257206
0.05803074 -0.07146406 0.14306998 0.013307414 0.06704346 -0.12132203 -0.12125186 -0.052968226
0.07035344 0.08611107 -0.022143733 -0.01670197 0.17134987 0.043766975 -0.08067923 0.09531789
0.10337616 0.16589297 -0.08470431 -0.09468879 0.091625325 0.07199342 -0.14265233 0.022378208
0.07336265 -0.106805794 -0.120604515 0.0056987274 -0.009079816 -0.017587343 -0.053145412 0.017303659
0.15490004 -0.03221772 0.15839925 -0.15474007 -0.11472172 -0.1650474 0.11180894 -0.07485432
0.14188303 -0.102229096 0.045690075 0.12381745 -0.06407945 0.0623634 0.083212495 0.050296806
-0.030643845 0.048081554 -0.08352445 0.034190565 -0.10543305 -0.032222815 0.10939377 -0.001043486
0.1168987 0.16454789 0.02354765 0.11269524 0.21407756 0.042528972 -0.030941343 0.09034671
0.19048922 -0.15310623 -0.052175455 -0.16423354 0.14653477 0.0920168 0.0592418 0.11480148
0.020518592 -0.049106292 -0.04323756 -0.09607581 -0.08221148 -0.0038579756 -0.08126201 -0.035659626
-0.104522906 0.056346685 -0.012702658 0.12712318 0.10868307 -0.15903838 0.18868348 -0.053552408

decoder.spatial_embedding.weight f4 [16, 2]
00000000: 2f44 3a3f fed1 44bf 5f9b db3f db7d a83f
00000010: e43c 3abe 4481 1340 5633 6d3f 2867 32bf
00000020: 3b3a 1d3f c607 e53d 38e3 2bbe 1070 48bf
00000030: f10a abbf cba9 e1bd 9236 4bbf 84a2 b4bf
00000040: 67bb 27bf 70f5 963f 437e 14c0 49ea 5cbd
00000050: 9a2e 673e 09c2 8cbe 67ba 613f 8103 483e
00000060: a41a bf3f 8cdf 34bf 87bf 76be 5bd8 aa3f
00000070: 5ba5 713f 3d5b 5cbf ffb6 913e 375e 823f
0.7276029 -0.7688292 1.715679 1.3163408 -0.1818729 2.3047647 0.9265646 -0.69688654
0.6141698 0.11183123 -0.16785896 -0.78295994 -1.3362714 -0.110187136 -0.7938014 -1.4112096
-0.6552033 1.1793652 -2.3202064 -0.05393437 0.22576371 -0.27491787 0.8817505 0.19532587
1.4930005 -0.70653605 -0.240965 1.3347276 0.9439294 -0.8607672 0.28459927 1.0185002

decoder.spatial_embedding.bias f4 [16]
00000000: 7885 97be 679f a03c 1d19 bbba 3737 613b
00000010: eff4 923e 2769 3f3e 0b07 bcbd 5942 f93e
00000020: 9c45 33bf 78c7 2ebf 7b78 323e 048a c5be
00000030: a0fe 153c d340 a53e 7027 013e a3f9 673e
-0.29594016 0.019607259 -0.0014274452 0.0034365186 0.28702495 0.18692456 -0.09181031 0.48683432
-0.7002809 -0.68273115 0.17428772 -0.3858186 0.009154946 0.3227602 0.126127 0.22653823

decoder.hidden2pos.weight f4 [2, 32]
00000000: d2e2 f53e 84a7 193e e1f2 6abc 3ff1 b8be
00000010: 78cc 903e 812b 08bd ef65 763e 22bf d6be
00000020: 7f7e 263e fab0 b33e 43b5 e0bd b0ca ffbd
00000030: 8c93 d43e 7354 e1bd eaa9 143e 24d4 1f3d
00000040: 43b1 0a3d 7ced 23be ffa5 dabe 7b14 88bb
00000050: 4beb 8abe a2a0 2fbe ae9c 053e 53e2 b8be
00000060: a7a5 933d 409d 14bf 66bc b13b 8b40 26be
00000070: e73f 4abd 8656 6b3e 63ff bcbe dd13 a73e
00000080: 9bf6 893d b9d0 143f 4ca1 093e 0fc9 0e3d
00000090: 69b9 98bc 286f 28be 5945 2fbe 8f1e 18bd
000000a0: 4239 d03e 3545 72be 883c 9d3e 03fb edbc
000000b0: 68fb 3fbe 535b cd3e e4c1 fd3e 86d9 b93c
000000c0: 13d4 863d 6fa3 963d 4963 a83e 43d4 e73c
000000d0: e583 123c 0102 b63d a220 aa3e 1974 40be
000000e0: 488d ce3e 8516 d5bd 8d3a b6be 514d b0bd
000000f0: 0811 da3e 31fd cb3e 5dbe 3dbe cfcf 903e
0.48024613 0.15005308 -0.014340133 -0.36121556 0.28280997 -0.033244614 0.24062322 -0.41942698
0.16259192 0.3509596 -0.10972073 -0.124898314 0.4151882 -0.110024355 0.14517942 0.039020672
0.033860456 -0.16008562 -0.4270477 -0.004152832 -0.2713264 -0.1715112 0.1304805 -0.36110172
0.0720933 -0.58052444 0.00542407 -0.16235559 -0.04937735 0.22982225 -0.36913595 0.32632342
0.067364894 0.58130985 0.13440436 0.034859713 -0.018643098 -0.16448653 -0.17116298 -0.037138518
0.40668684 -0.23659213 0.30710244 -0.029050356 -0.18748248 0.40108737 0.4956199 0.022686731
0.06583419 0.07355391 0.3288825 0.028299456 0.008942579 0.08887101 0.33228022 -0.18794288
0.40342164 -0.10404686 -0.35591546 -0.08608497 0.4259112 0.39841607 -0.18529649 0.28283545

decoder.hidden2pos.bias f4 [2]
00000000: c752 c8bd fd3f 2e3e
-0.097814135 0.17016597

mlp_decoder_context.0.weight f4 [64, 32]
00000000: 7155 46be 0812 12bf 0997 82be c0c2 fcbd
00000010: c04e f0bd b9f9 7d3e cd5f 2abe 1e0d 743e
00000020: 00a9 1b3c 85d8 023e e266 4ebe f8d0 eabe
00000030: dc4a d13e 071e 5b3d 832c e93d 48ae 353e
00000040: 442d df3d 7a83 d0bc 109e 97be 482e 2abe
00000050: c626 8a3e b132 5f3c 2f7c 42be ecb2 d4bd
00000060: 701e 193e fe6b 763e 23a4 5ebc 313a a93e
00000070: c3bb 0bbe 1b3a e9be e0c4 fdbe f084 28be
00000080: e064 47be 78d2 003f 2868 603d 8bf7 023f
00000090: 9b6a 083f e49b 843e 4ba1 6dbd 6d1e 013e
000000a0: 325c 923d 2bd9 e1be 0ed9 d8bd a515 c1be
000000b0: 593e e03d 2d36 af3d 297e 723e 8c26 9c3a
000000c0: 2f4c e8bd 57db 6f3c c5b1 f13c 7214 84be
000000d0: 8e8e fa3d 83af 043e 1002 003f a0eb 69bd
000000e0: 87d6 2ebd 32f1 67be 68b0 bbbe 5d72 863e
000000f0: 8fd7 113e 682f 99be 0c46 883c 529f 2b3e
00000100: cf5d 64be 78c3 23be 2da2 db3e 324d 85bc
00000110: cc18 153f 644b 58bd 380b 10bf 3f10 89be
00000120: d051 8cbd 3a83 82be 4b62 523e 85ff 763e
00000130: 9cd5 8c3e b367 b4be 9bcb 5a3e aa30 093f
00000140: b47b ea3d b2a4 c23d f17f 31be 9718 9dbe
00000150: 165c 463e a50b 403e 4135 02bf 4490 ac3d
00000160: d8bd c3be 3cff bcbc 4f44 a7be 77fc 903e
00000170: 7dce eabe 9b2b ee3e acc3 433e bb2c c5bd
00000180: c77f e8bc 9959 913e 542b be3c fec5 ab3d
00000190: eff0 9f3e b8fc 5b3c 67d1 a3bb 648b fd3d
000001a0: 559d 003e e65d 3dbd da4b e3bd fc2d 753e
000001b0: a842 df3e 5604 28bd 049b e03d 7e07 f03c
000001c0: 19d6 723e cd20 1a3e 860f 90be 6ba7 12be
000001d0: 5537 7bbe 4c93 733c ef77 99be 6ba5 a4bc
000001e0: 0663 79bd 3abf 7cbd a3f5 a13e 9091 c7be
000001f0: dffd 7abe 0182 4d3e 9c0b 453e 145c 613e
00000200: 0f51 4dbe d67b 443e c851 d43d 4066 0cbe
00000210: 9e86 063f 9676 3e3e acfa 243e acb6 5a3e
00000220: dc5f fd3e 48f1 abbd a84e 82be b0d8 d53e
00000230: 0411 87be 4c21 bebd 93b6 773e 3483 96be
00000240: 1a8d a6bd 9239 31be ccd6 143e e33a cb3d
00000250: fdfd 843e a376 33bf dc56 e0bd b1bc 26ba
00000260: 8087 eebd f4f2 ea3e c869 33bc bfa4 3f3d
00000270: cb34 9cbe ee94 95bd c36f ebbe ac7f 32bd
00000280: 0f8f 16bf 580e 8bbe 871b a83e 1bf9 8fbe
00000290: 4262 12bd 4a51 83bf 65a4 b7bc ec25 d0bc
000002a0: a6a5 75be fa53 a53e 93bc 8c3d 43af 9c3e
000002b0: 7542 8f3e bbef ee3c 3e73 3fbd b80d 3cbd
000002c0: cd7c fd3d c3c0 7dbe a406 d33d 44cb 813e
000002d0: fe1d 0fbf 1944 793e 530b cd3d 3e96 09bd
000002e0: c4f4 36be 3da8 1cbf 88f6 c63e 88b6 b1be
000002f0: 4bc0 433e 1227 29be 54f9 e93d 52fe e4bc
00000300: a945 9c3d 84ed 98be 7ad9 2dbd d2b9 113e
00000310: 2c36 3a3e 2659 f2bd 0c78 04bf 8eac 233c
00000320: 346b ebbd 05a0 b73e 1f58 c23d 13e1 abbc
00000330: 436b 563e d655 dabd 11e5 4d3e c3b6 e0bc
00000340: 2ce3 3a3e 730f 8fbe ef57 06be 54db 5abe
00000350: d436 a9bd 7ce0 8dbd cb39 c13e 16f9 df3e
00000360: f82d 7b3e 1841 88be 0805 033f b7f2 a43d
00000370: 17db bb3d 21c8 023f 0052 0e3f 6b28 1fbf
00000380: 57a0 f9bd 83aa d9be bc00 19be f1a0 6fbe
00000390: 2a57 53be 7758 45be 2d75 a53d b3ca acbe
000003a0: 1777 85bb bf81 1abe 44dc 193e 8e4a b1bd
000003b0: 4bd6 1dbd 6b06 15bf f38f aebc 0734 ad3e
000003c0: f16f 56be b9af 26bd cbe2 88bd edbb 4b3e
000003d0: 3df9 48bd 869b 0fbf d507 a83d a2f8 a53e
000003e0: 167e d13d 51d5 843d 5728 f33c c6a1 babb
000003f0: 7030 073f c053 9fbc 1d3b abbc 510f 983d
-0.19368531 -0.57058764 -0.25505856 -0.12341833 -0.1173377 0.24802293 -0.16638108 0.23833129
0.009500742 0.12777908 -0.20156434 -0.45862556 0.40877426 0.053495433 0.11385443 0.17742264
0.108973056 -0.025453318 -0.2961278 -0.16619217 0.26982707 0.013622926 -0.18992685 -0.10385689
0.14953017 0.24064633 -0.013588938 0.3305221 -0.13645844 -0.45552143 -0.49564266 -0.16456962
-0.19472075 0.5032115 0.05478683 0.5115897 0.5328767 0.25900185 -0.05801515 0.12609263
0.07146491 -0.44111 -0.10588275 -0.37711826 0.10949392 0.08555255 0.23680939 0.0011913343
-0.11342656 0.014639697 0.029503712 -0.2579685 0.122342214 0.12957577 0.5000315 -0.057109475
-0.042685058 -0.22650602 -0.36658025 0.26259127 0.14242385 -0.2991898 0.016634963 0.16759995
-0.2230141 -0.15992534 0.42897168 -0.016272161 0.5824096 -0.052806273 -0.5626712 -0.26770207
-0.06851542 -0.25490743 0.20545308 0.2412091 0.2750672 -0.35235366 0.21366732 0.5358988
0.11449376 0.095040694 -0.17333962 -0.30682823 0.19371065 0.18754442 -0.5086251 0.08425954
-0.38230777 -0.023070924 -0.32669303 0.28317615 -0.45860663 0.46517643 0.19117612 -0.09627672
-0.028381241 0.2838867 0.02321402 0.083873734 0.31238505 0.013426952 -0.004999328 0.12380102
0.12560017 -0.046232127 -0.11098452 0.23943323 0.43605542 -0.04101976 0.10967067 0.029300448
0.23714484 0.15051575 -0.28136843 -0.14321677 -0.24532826 0.014866661 -0.29974315 -0.020098409
-0.06088545 -0.061705805 0.31632718 -0.38978243 -0.24510907 0.20069124 0.1924271 0.22007781
-0.20050453 0.19187865 0.10367161 -0.1371088 0.5254916 0.18599924 0.16111249 0.21358746
0.49487197 -0.0839563 -0.25450635 0.41766882 -0.2638017 -0.092836946 0.2419074 -0.29396975
-0.08132382 -0.17307118 0.14535064 0.09923341 0.25975028 -0.701029 -0.10954067 -0.00063605147
-0.11646938 0.45888484 -0.010950513 0.046787973 -0.30509028 -0.07303797 -0.45983705 -0.04357879
-0.5881204 -0.2715938 0.32833502 -0.2811974 -0.035738237 -1.0259182 -0.022417257 -0.025408708
-0.23988971 0.32290632 0.06871905 0.30602464 0.2798039 0.029167047 -0.046740763 -0.04591152
0.123773195 -0.24780564 0.10304001 0.25350392 -0.5590514 0.24342383 0.100119255 -0.033590548
-0.17866808 -0.6119421 0.38859963 -0.34709573 0.19116323 -0.1651881 0.11424509 -0.0279533
0.07630474 -0.2986871 -0.04244373 0.14231041 0.18184727 -0.1183341 -0.51745677 0.009989871
-0.11495057 0.35864273 0.09489464 -0.020981347 0.20939355 -0.10660903 0.20106913 -0.027430898
0.18250722 -0.27941474 -0.13119482 -0.2137273 -0.08262411 -0.069275826 0.37739405 0.43744725
0.24529254 -0.26612163 0.5117955 0.08054107 0.091726474 0.5108662 0.5559387 -0.6217105
-0.121887855 -0.42512903 -0.14941686 -0.23401238 -0.20638719 -0.19272028 0.0807899 -0.33748397
-0.0040730345 -0.15088557 0.15025431 -0.08656798 -0.038534444 -0.5821292 -0.021308875 0.33828756
-0.2094114 -0.040694926 -0.06683882 0.19895907 -0.049065817 -0.56096685 0.08204619 0.32416254
0.10229127 0.064859994 0.029682321 -0.0056955544 0.52808285 -0.019449115 -0.02090221 0.074247964

mlp_decoder_context.0.bias f4 [64]
00000000: 6e20 a13d 748d 56be c96f 30be b31f 0b3e
00000010: 7d17 3bbd 28ba fabd d709 f43d ac78 eabc
00000020: 4c49 e4bd da2b 1e3d be11 14be f8d6 a6bd
00000030: d878 09bd 44b2 3aba 9859 1c3d b9ae 85bd
00000040: 9506 393d 2f7f c33d 05a7 1bbe 9318 fcbd
00000050: b1d9 843d 6ada ef3d 1fdb 003e b5d3 743d
00000060: cc2d 193e 7119 173e 9ed4 11be 0291 0dbe
00000070: 292d 3c3e 3516 2ebd 1666 133d 6ad2 ae3c
00000080: 9f79 c43d 026b 003e cc2f a6bd fe07 223e
00000090: 7f98 bcbc 81f2 2ebe 76e6 1ebe 8c4e cb3c
000000a0: 63fa 3fbe de18 7abc c84c 71bd 34e5 1a3e
000000b0: 9f9c d7bd c614 35be acda 16be 5409 cd3c
000000c0: 4100 37bd 0a3e 283e a3d7 ff3d c7ce 263d
000000d0: 2edd c83c 88e6 17bc 6c8f 11bc 686c 08be
000000e0: 4a68 033e 9b9f b43d 6d7a 94bd 7ef0 1e3e
000000f0: 9b4c 543c cbf5 0f3e fdcb e1bd c5b7 a9bd
0.078675136 -0.20952398 -0.17230143 0.13586311 -0.045676697 -0.12242538 0.11915939 -0.028621994
-0.11146793 0.03861604 -0.14459893 -0.08146471 -0.03356251 -0.00071219006 0.03817138 -0.06527466
0.045172293 0.09545743 -0.15200432 -0.12309375 0.06486834 0.11711581 0.12583588 0.059772212
0.14958876 0.14755799 -0.14241263 -0.13824847 0.18376602 -0.042501647 0.03598603 0.021340568
0.0959351 0.1254082 -0.08114585 0.15823361 -0.023021935 -0.17084695 -0.15517601 0.024817728
-0.18747859 -0.015264718 -0.058911115 0.15126497 -0.1052792 -0.17683706 -0.14731854 0.025028862
-0.044677977 0.16429916 0.12492301 0.040724542 0.02451953 -0.0092712715 -0.008884292 -0.13322604
0.12832752 0.08819505 -0.07249913 0.15521428 0.012957717 0.14058606 -0.11025236 -0.082870044
