scripts/models/sgan-models/zara2_12_model.pt (torch_old, 70313 bytes, 18 tensors)

encoder.encoder.weight_ih_l0 f4 [128, 16]
00000000: d327 8d3c d4ce 1ebe 48c7 0e3e f427 a6bd
00000010: 3bda bbbd 3713 d53c 01de 113e d466 0c3e
00000020: 8517 863d 829f 9ebd 5ce3 be3d acf9 ebbc
00000030: e92b 453e c9da 3fbc 511d 7abc dda8 ecbd
00000040: 0d61 58be 3663 febd 5c2d 023e 9b15 2abe
00000050: 94ad a4bd acba b33d 43e1 713c a813 16be
00000060: 9617 9dbd 4c2f 54bd e6b7 f43d fc0e b8bd
00000070: 7b46 36be f27d ddbd e8ee 3d3e 7435 273e
00000080: f0c3 9abd 781a 49be 6acf 80bd b60c 1e3d
00000090: 93e1 323e 22d5 19be a4c2 74be 8a25 503d
000000a0: 1a59 f3bd 1b52 6f3d 6dd3 873d 7605 c1bd
000000b0: a757 62bb d9bc 373e 5e9d 713e 4cc4 f4bd
000000c0: 002d 8b3d 81e6 613d 1757 78bd 74f1 7cbd
000000d0: 6ed6 e83d 48e9 813d b063 a93d 5eee bf3d
000000e0: 06ad 1fbe 4f67 49bd 3b17 1c3e 737a ddbc
000000f0: 3bfa 043e 4ca2 093e 818c 923d e5f7 09bc
00000100: d92b 443d 3a6b 06bd c34d a0bd a6e7 423d
00000110: 78de 353e bbe8 fb3d 5cf7 e9bc 99b7 a93d
00000120: 9664 44be d6dd 043d 8c15 a6bd 29ec 66bd
00000130: 1c93 e3bb 735e 09bd 78fb 3ebc 4272 c53d
00000140: 0bec e53d 0dee c23c bd7e a0bd 14e2 4bbe
00000150: 3338 10be 391d b4bd 1a68 b53c f74a a5bd
00000160: b1f9 c83c d547 06be 28ad d63c b55d e33b
00000170: 6454 88bc 8f75 eabd 8e05 2a3e f88a 193e
00000180: 53df 173e a3f1 0fbc 35c7 a4bc f73c 1ebd
00000190: 3c42 c0bd e250 313d ff36 0e3e 71a3 463e
000001a0: 4417 46be b8b9 61bd 9b48 15bd d7e8 423e
000001b0: b822 c7bd cdea 1a3e 1a9b 843d b137 25be
000001c0: c042 f5b7 4119 18bb 1c99 e3bd adef 613d
000001d0: 5667 9f3d c89b 06be 525d 54bd c52f 2a3d
000001e0: 196e a4bd 3e1b 853c 226f a33d 1737 92bd
000001f0: 69b8 c9bd 25a4 533e cc0b 563d b7d0 433d
00000200: 3af3 3bbd 27a2 01bc 2604 48be 8880 6fbd
00000210: f33f 993d 5a69 da3d 65f1 1d3b 11a3 cdbd
00000220: cf59 a5bd 74c8 d93d 9c8b 093d 20c8 f6bd
00000230: 3be8 d03c 2767 bfbd e503 323e 4540 f33c
00000240: 40ac 82bd e591 5c3d c1d2 c3bd 7565 8ebd
00000250: c622 3e3d c0c2 013d b714 f1bd 51ac 353e
00000260: 27b8 0a3e 0dfd eb3d 6066 ad3c 1e86 73bd
00000270: 79ce 31be 205c 80bd a4c5 56bc 3c29 2c3e
00000280: f04b 2c3e 33e8 96ba f340 d6bb d0cd 373d
00000290: 1d78 523e 8c73 2c3e 86f8 5c3d d42c e0bc
000002a0: ab45 9cbb 30f3 433d 5e56 febd b296 313e
000002b0: de8d f4bc af56 103e 94c9 113e 2fe6 003d
000002c0: 7257 febc 8f97 423e d16c fbbd d662 d03d
000002d0: 7e1a 4fbe 8cf0 f6bc d385 e8bd da66 9f3c
000002e0: f572 d5bc a49f 3fbe 4839 5a3d 3588 7abd
000002f0: b33d 0a3d 487a d83d f014 01be 9467 a43d
00000300: fda5 353d 068b 923d c8c2 abbd 312c d33d
00000310: 0c02 693d 84b4 7e3e 5347 4cbe a331 f3bc
00000320: 66cb 66bc 039d 52bd 8e5e 9cbd b93c 803d
00000330: 60da 193e 1761 cd3d bc10 d7bd 24ea e0bd
00000340: e472 c73d 44f0 853d bf9b 29bd f19b d8bd
00000350: c229 ef3d 5078 203e 67f1 29bd 3bf3 32bd
00000360: 5e6d d43a fb29 a8bd 4b6b 75bd 1295 87bd
00000370: 2889 da3d 8fd6 2b3e c704 2d3d cef2 b0bb
00000380: 3897 d33d 661c 1a3e 3e03 f73d 0f3a 15be
00000390: b04e 03be c364 373e ae86 663c 0b7e 363e
000003a0: df43 39be fa81 dcbd 4050 aabd 7bd0 a53d
000003b0: 2da0 a3bc b564 e83d 39d5 053e 22be 03bd
000003c0: 0793 f63d 3fb2 c33d 4ce4 b3bd b8e3 2bbe
000003d0: a536 303e 41c7 493e f072 95bc 0349 653d
000003e0: a25c 02be 311a 2d3a 1c2c 883d c811 d9bd
000003f0: 1089 28bd a97a cd3d 076a 99bd 5ee3 df3d
0.017230904 -0.15508586 0.13943207 -0.08113089 -0.091724835 0.026010139 0.14244844 0.13711101
0.06547455 -0.077452675 0.09320709 -0.028805576 0.19255032 -0.011709877 -0.015265779 -0.115556456
-0.21130772 -0.12421267 0.12712616 -0.16609804 -0.0804092 0.08775839 0.014763179 -0.14655936
-0.07670514 -0.05180292 0.11949138 -0.08987233 -0.17800324 -0.10815038 0.18548167 0.16328984
-0.07556903 -0.19639003 -0.06289561 0.03858634 0.17468862 -0.1502271 -0.23902375 0.05081705
-0.11882229 0.05842791 0.06632123 -0.0942487 -0.0034537108 0.17943133 0.23595187 -0.11951503
0.067956924 0.055151466 -0.06062993 -0.061753705 0.11369024 0.06343323 0.08270967 0.09371637
-0.15593347 -0.04917079 0.15243237 -0.027035927 0.1298608 0.13440818 0.07155705 -0.008420919
0.04789338 -0.032817103 -0.07827332 0.0475842 0.17760646 0.12300249 -0.028560333 0.082869716
-0.19178995 0.03243812 -0.081095785 -0.056377564 -0.006945027 -0.03353734 -0.0116566345 0.096409336
0.11226662 0.023795152 -0.078366734 -0.1991046 -0.14083938 -0.08794636 0.022144366 -0.08070939
0.024533125 -0.13113339 0.026205614 0.006938661 -0.016641803 -0.11448204 0.16603681 0.14994419
0.14831285 -0.008785638 -0.02011452 -0.03863236 -0.09387633 0.043290026 0.13888167 0.19398285
-0.19344813 -0.055108756 -0.036446195 0.19034134 -0.09723419 0.15128632 0.06474896 -0.16134526
-2.9237359e-05 -0.0023208412 -0.11113188 0.055160213 0.07783382 -0.13145363 -0.05184681 0.041549463
-0.08028812 0.016248342 0.07980181 -0.07139414 -0.098496266 0.20668085 0.052257344 0.047806468
-0.045886256 -0.007912195 -0.19532833 -0.058472186 0.074829005 0.106646255 0.0024100181 -0.10040868
-0.0807377 0.106339365 0.033580408 -0.120498896 0.025501361 -0.093458466 0.17384298 0.029693732
-0.0638051 0.053850073 -0.095616825 -0.06952945 0.04641988 0.03167987 -0.11771529 0.17741515
0.13546811 0.11522875 0.02116698 -0.059454076 -0.1736392 -0.062675714 -0.013108645 0.16812605
0.16825843 -0.0011513293 -0.0065385043 0.044874012 0.20553632 0.16840953 0.053947948 -0.027365126
-0.0047690473 0.047839344 -0.12418817 0.17342642 -0.029852804 0.14095567 0.14237052 0.03146952
-0.031047557 0.19003128 -0.122766145 0.101751015 -0.2022495 -0.030143999 -0.1135365 0.019458223
-0.026055792 -0.18713242 0.053277284 -0.061165053 0.033750247 0.10570198 -0.12605643 0.080275685
0.044347752 0.07155423 -0.08386761 0.10311163 0.056886718 0.24873549 -0.19949083 -0.029686755
-0.01408658 -0.05141927 -0.076352224 0.06261582 0.1502471 0.10028284 -0.10501239 -0.10982159
0.097387105 0.06539968 -0.041408297 -0.105766185 0.116778865 0.15670896 -0.041489985 -0.043688994
0.001620691 -0.08211132 -0.059916776 -0.0662023 0.10670692 0.16781066 0.042240884 -0.0054000383
0.10331577 0.15049896 0.12061165 -0.14572929 -0.12822986 0.17909531 0.014070196 0.17821519
-0.18092297 -0.107669786 -0.08316088 0.08096405 -0.019973839 0.11347333 0.13069619 -0.032163747
0.12039762 0.09555482 -0.087837785 -0.16786087 0.17208345 0.19704916 -0.018243283 0.055977833
-0.12730649 0.0006603329 0.06649038 -0.10599095 -0.041146338 0.10033161 -0.07490926 0.10932039

encoder.encoder.weight_hh_l0 f4 [128, 32]
00000000: f09d 2a3e 75d2 d1bd bf92 423d d67e 5ebd
00000010: 5053 b0bd baee d53d 4e3d e73d 5e61 083e
00000020: 4a89 ae39 da5c 25be af9e 3cbe cc76 68be
00000030: 8adc 73be de6b 2c3e 680d 57bc 64a7 02bd
00000040: 6c0b d8bd d206 203d 9c8e 083e 0ce4 a03d
00000050: ed7e 763d 27cd 9ebd 2012 1d3d 0623 753d
00000060: 6f21 6cbd 8f4d edbd e434 10be b612 1a3d
00000070: 68ba 01be 273a 53be 79f2 c0bd 656d d13d
00000080: 2943 45bd b708 3d3e 16a1 cd3d f2a3 b53d
00000090: 9d39 b3bc bea7 e13d b609 71bd a50c 75bc
000000a0: eb5c 5e3e fb59 40be 19e0 f2bd 550f 51bd
000000b0: 3046 6bbc 2ca8 8cbd a99f cdbd 44e8 4dbe
000000c0: 3b5f fd3d 79c7 7e3d c100 243e fdb2 fa3d
000000d0: b60b 7e3d ba63 6cbe 5d75 67bc df78 6abd
000000e0: b748 253d b336 07be 6806 e9bb 42e4 2ebe
000000f0: fa86 673e 0ab0 163d b7cd 9bbd 4a92 4f3e
00000100: 5f9d 8cbd 1e94 5f3e 7e8e 213c 7959 fb3d
00000110: b572 9fbd 9cf2 19be 3b9b 0a3e 7d99 803e
00000120: 63e6 a9bd d1e1 dbbc 6640 01be 4f22 233c
00000130: 51c3 e53d 50f4 813e 53e4 c93c e4fb 8dbe
00000140: 7542 283e 9008 95bc 9e17 5d3e 2fde b53d
00000150: 0817 b13d b2f3 ffbc 8835 b93d dd49 37be
00000160: 7116 7a3d e983 09be 5288 90bc 8506 f43c
00000170: ee1e 4b3c 9546 03bc 73d8 2b3d 5881 103e
00000180: c426 fc3d a0e3 c43d 88f4 663d 2e3f 703c
00000190: f190 073e 0d0f 2a3e 499e dfbd 7813 e23c
000001a0: 1c08 c0bd ecc3 fcbb 30c3 133d f8db 84be
000001b0: 8583 b13d 625d 3e3e 0f98 ebbc d453 d53d
000001c0: 9551 30be 7730 4a3d be85 b03d 95c2 c13d
000001d0: d1e7 4dbe 2444 9f3c 9b13 d1bd 230b 08be
000001e0: 9ab5 35bb e39e 623d a387 12be 577d 5a3b
000001f0: 46f4 4a3e c2b9 d6bd 6f44 bf3d ad8f 013e
00000200: 40cb b03c a296 1d3d c6f1 d03d 6102 cebd
00000210: 6102 3cbd 69f9 c73d 210a c0bb 5688 bcbc
00000220: b9eb 333e fc17 63bd 7072 a63c 32f8 d4bd
00000230: 81f2 8cbc 12db 8dbd d062 7d3e cd99 d9bd
00000240: 6d17 94bd 08f0 823d 1ebc 023d 6714 ec3d
00000250: 0d8b 0dbe 3352 04be bd4c 943d cbb4 a83d
00000260: 00c5 1cbe 2e1e 72be 8730 673e ffc3 80bd
00000270: 8ed8 703e 1b2c 53bd fb2d 29bd aa8f 293e
00000280: 4283 0ebe 38dc 2f3e 7188 1f3d 508d 873d
00000290: 3f85 003e 6f03 91bc 5e10 e23d 1bc8 1f3e
000002a0: 4cdb 18be 6fc4 b63d 52a5 f83d 24d2 21be
000002b0: 2884 bb3d f454 2b3e 1d14 103e b901 f4bd
000002c0: 0778 2dbb c25b 293e 0d9f 9e3b 0799 3cbd
000002d0: 09d1 48bd bae2 73bd 2733 24be a51c 123e
000002e0: 3504 a6bc dc26 53be b82f 3c3d 64c3 ec3d
000002f0: 3005 523d 3f7a 463d 9ced 923b d2a3 f43d
00000300: c8b0 37bd ce32 16bd 7729 c2bb fdd1 acbd
00000310: 139b 873d a6c6 41be e7b2 103e fe6a ab3d
00000320: 6af3 b1bd 8cb1 c43d 337c d93d 74c4 883d
00000330: 7eb9 823d dd18 7f3d 9108 20bc 6828 52bd
00000340: 6942 13bd a9e2 d1bb adc9 bfbd ed15 4a3e
00000350: 58bc 90bd 94c2 5abd 919f c3bd 7796 f73d
00000360: c4ca 4b3d 4dde 2bbc baba 8fbc 1a62 963d
00000370: 3977 023e c9ec ce3d 8fd2 cb3d 993f 2c3e
00000380: 549e b3bc 1ce4 16be 0de9 003e 15c0 863d
00000390: acde 77bd 58b4 a9bd c011 d2bc 4258 93bd
000003a0: b6c2 3e3e 4d97 9c3d 4efc f5bd ca32 973d
000003b0: 07b6 68bd 491b 153d bd37 be3d 9a95 6cbe
000003c0: 7a2d d7bc 9f1d f9bd a8e3 d13d d89b 073e
000003d0: 986e 2f3d 4b83 ce3d 3773 323d c666 cc3d
000003e0: b348 09bc 3129 e03d 1190 6d3d 9d04 d6bc
000003f0: 8efe 0f3d 522e 103c ea2e df3c 88bd 9d3d
0.16661811 -0.102452196 0.04750323 -0.05432018 -0.086096406 0.10445924 0.1129099 0.13318393
0.00033290155 -0.16148701 -0.18419908 -0.22701567 -0.23814598 0.16838023 -0.013125755 -0.031897917
-0.105490535 0.039069004 0.13335651 0.078559965 0.06017964 -0.077539735 0.038347363 0.059847854
-0.057649072 -0.11587059 -0.14082676 0.0376155 -0.12668765 -0.20627652 -0.09421248 0.102259435
-0.048159752 0.18460356 0.1004049 0.08869161 -0.021878058 0.110183224 -0.05884715 -0.014956628
0.21715133 -0.18784325 -0.118591495 -0.051040012 -0.014359996 -0.06868014 -0.100402184 -0.20108134
0.123716794 0.06220195 0.16015913 0.122411706 0.062022887 -0.23084918 -0.014127103 -0.057244178
0.04035255 -0.1320446 -0.0071113594 -0.17079261 0.22610083 0.036788978 -0.07607596 0.20270649
-0.06865954 0.21833846 0.009860633 0.12272925 -0.077855505 -0.15033954 0.13535778 0.25117102
-0.08295896 -0.026841076 -0.12622222 0.00995691 0.11218894 0.25381708 0.024645006 -0.2773124
0.16431601 -0.01819256 0.2159104 0.08880269 0.08646971 -0.031244133 0.090434134 -0.1789927
0.061056558 -0.13429226 -0.017643128 0.029788265 0.012397511 -0.008012434 0.04195447 0.1411184
0.123120815 0.096137285 0.056385547 0.014663501 0.13238885 0.16607304 -0.109188624 0.027597174
-0.09376547 -0.0077137854 0.036074817 -0.25949073 0.086676635 0.1859031 -0.02875903 0.104163796
-0.17218621 0.049362626 0.08619259 0.09460942 -0.20107962 0.019441672 -0.102088176 -0.13285498
-0.0027726651 0.055327307 -0.14309554 0.0033338869 0.19819745 -0.10484649 0.093392245 0.12652464
0.021581292 0.038473733 0.102023646 -0.100590475 -0.045900706 0.09764368 -0.0058605825 -0.023014229
0.1757039 -0.055442795 0.02031824 -0.10398902 -0.017205479 -0.0692655 0.24744725 -0.10625038
-0.072310306 0.063934386 0.031917684 0.11527329 -0.13822575 -0.12921982 0.07241199 0.082376085
-0.15309525 -0.23644325 0.22577105 -0.06287383 0.23520109 -0.051555734 -0.041303616 0.1655871
-0.13917258 0.1717385 0.03894848 0.0661875 0.1255083 -0.017701833 0.11038278 0.15603678
-0.14927405 0.089241855 0.12140907 -0.15802819 0.09156066 0.16731626 0.14070173 -0.11914391
-0.0026469247 0.16538909 0.0048407377 -0.046044376 -0.049027476 -0.059542395 -0.16035138 0.1426874
-0.020265678 -0.20620292 0.045943946 0.11560705 0.05127448 0.048456427 0.0044838917 0.11945309
-0.044846326 -0.036669545 -0.005925353 -0.084384896 0.06621375 -0.18923435 0.14130746 0.083700165
-0.08689006 0.09604177 0.10619392 0.066780955 0.06383036 0.06227957 -0.009767667 -0.051308066
-0.035952006 -0.006405194 -0.093646385 0.19734927 -0.07067174 -0.05340822 -0.09551919 0.12089246
0.04975392 -0.010490012 -0.017545093 0.0734293 0.12740792 0.10103757 0.0995227 0.16821136
-0.021926083 -0.14735454 0.12588902 0.065796055 -0.06051509 -0.08286351 -0.02564323 -0.07194568
0.18628964 0.07646046 -0.12011014 0.07382734 -0.05681422 0.036402974 0.09287975 -0.23103943
-0.026266802 -0.12163853 0.102485 0.13243043 0.04283008 0.10083636 0.04356691 0.0998054
-0.008379149 0.10945357 0.05799872 -0.026125247 0.03515487 0.008800106 0.02724405 0.07702166

encoder.encoder.bias_ih_l0 f4 [128]
00000000: e2bb 82bd e7cd dabd dea2 043e 1b77 473e
00000010: 8049 5c3e fe2c 0f3e a154 103d ff2a f83c
00000020: 6ae1 583e e19d 043d 7946 c0ba 7629 0abe
00000030: 9114 ff3d d168 413e 856a 2f3e 1d89 15bd
00000040: d5f9 8dbd 07e7 413d 54e6 003d 26e8 233e
00000050: 9543 b8bd ea32 963c fc44 0b3e 4036 6c3e
00000060: 0ace 4cbd 09fe 783d 1e9e 5f3d e01a 253e
00000070: 767a 6ebd d996 053e 9c44 483e 49f4 e63d
00000080: bc83 ef3d bdc7 d03d a9f1 a8bd de50 1b3e
00000090: e1e6 c9bc f1d4 803d 0ea6 99bb 79f6 0fbc
000000a0: b495 c23d fe2f 2bbd 2ea8 e5bd 0084 44bd
000000b0: 74d1 9f3d 48bf 5d3e 3085 0bbe 0c51 a93d
000000c0: 4375 3fbe 31b4 15be 7fec 283e c56c 4cbc
000000d0: 4036 3fbe 92fc 12be 777a 8dbd c850 c6bd
000000e0: fbea 103e 3cd0 d93d 3c07 193e 9e7d 0b3d
000000f0: 199a 243e d317 363e a868 dabd 7df7 2abd
00000100: 373e 2dbe 270b a4bd b272 4f3e ea89 d73d
00000110: 038c 82bc f254 e13d 0ddc afbd c4c0 463e
00000120: cd1b 4d3e e0e1 febd 9678 9f3d 679f 3d3d
00000130: b961 86bd 7289 f43d 4b39 403d 230c 45be
00000140: 1bc6 c33d a1a5 e63d 3d28 293e 2caf 643d
00000150: 4be1 08be 4b84 ba3d e140 1abe 3a9d b5bd
00000160: a228 1f3e 3ab9 c53d 7062 273e 8032 a43d
00000170: 6258 253e 7b7f c23b d2a1 3cbe a460 f73c
00000180: b655 c13d d5e8 2fbd b506 563e f783 9a3c
00000190: 7b87 95bc 3d0e 3c3e 2b62 c33d 73f4 24bd
000001a0: d800 4c3e 2a45 8ebd 29fd ca3c 5d9d 8f3d
000001b0: 546a 193e 361d 333e 5ee3 9abd b1da 033e
000001c0: d049 543e f8c4 2fbd eb02 093c 6fbe 00be
000001d0: df80 afbd 05cd 503e 1629 c5bd 2f75 123e
000001e0: 815c 4e3e 0b34 403d 8f22 79bd 416e 253e
000001f0: a7b5 a13d 69a4 593e 32a9 babc 9e61 7b3d
-0.06383492 -0.10683804 0.12952754 0.19479029 0.21512413 0.13982007 0.03523696 0.03029394
0.21179739 0.032377128 -0.001466944 -0.13492379 0.124550946 0.1888764 0.17130478 -0.036507715
-0.06932417 0.047339465 0.031469658 0.16006526 -0.08997265 0.018334825 0.13600534 0.2306757
-0.05000118 0.06078914 0.05459415 0.16123533 -0.058222257 0.13045825 0.19557422 0.112770624
0.11695048 0.10194347 -0.08249218 0.15167567 -0.024646224 0.06290615 -0.0046889847 -0.008786791
0.0950121 -0.041793816 -0.11213718 -0.047977448 0.07803622 0.21655 -0.13625026 0.082674116
-0.18697076 -0.14619519 0.16496466 -0.012477105 -0.18673038 -0.1435416 -0.06908124 -0.096833766
0.14152138 0.10635421 0.14944166 0.034055345 0.16074409 0.17782526 -0.10664493 -0.04173993
-0.16918264 -0.0800994 0.20258597 0.10524352 -0.015935903 0.1100253 -0.08586893 0.19409472
0.20030136 -0.12445426 0.07786672 0.046294596 -0.06561608 0.11940278 0.04692964 -0.19242911
0.0955927 0.1126206 0.16519256 0.05583112 -0.13367192 0.09107264 -0.15063812 -0.08867879
0.15542844 0.0965447 0.16346145 0.080174446 0.16146997 0.005935607 -0.18421105 0.030197449
0.09440176 -0.042946655 0.20900996 0.018861754 -0.018253079 0.18364806 0.095402084 -0.040272187
0.19922197 -0.06946786 0.02477892 0.070124365 0.14981967 0.17491612 -0.07562898 0.12876393
0.20731282 -0.042912453 0.008362512 -0.12572645 -0.08569502 0.20390709 -0.09626977 0.14302514
0.20152475 0.046924632 -0.060823973 0.1615534 0.078959756 0.21254124 -0.022785757 0.061372392

encoder.encoder.bias_hh_l0 f4 [128]
00000000: c197 5f3d d26e cf3d 149d 2cbd e477 dabd
00000010: f8f3 7d3d b2fe 493e 3e31 1b3e ba20 223e
00000020: 0096 8dbd 8600 453e e7c2 c33d 453b e3ba
00000030: 9d07 073e cdc8 1e3e d25d cbbd 677a 4b3d
00000040: 6348 8d3d 4252 78bd efc1 f2bd 0464 1a3d
00000050: 93e9 19bd a864 8c3c f2e3 c3bd 3dd6 7ebd
00000060: 9661 203e 2fe7 803d f163 1abe 9bd6 7d3d
00000070: 9eee 5fbc 6c38 053e 68be dabc e9ed 333e
00000080: e901 64bd 5f5e 6e3d 1cde 50bc 7800 4d3e
00000090: c1e0 e0bb 5ad2 613c a053 3b3d 2333 453e
000000a0: 71c3 54bb ede3 8abc 7443 5fbe b5d0 d5bd
000000b0: 36aa 033e 9130 bcbd cd04 25be 3efd 413b
000000c0: bf1b febc 826a d63d 4c28 b7bd 1b1f ef3c
000000d0: d966 773d c653 1c3e fcb4 163e a0b2 fdbd
000000e0: 43c6 a4bd 38b4 c33c eeaf ba3d e37b bb3d
000000f0: bff9 413d 4d16 ffbb a38f c93d c125 82bd
00000100: a3bc a7bd 5a97 16be d0fe c6bc 33bf e23d
00000110: 74ef dabd 2ed9 883d a027 1c3e f26a 72bd
00000120: b90c c43d 040c ca3d 2a9d ffbd 2cd4 863d
00000130: b7ef f9bb 5a45 2f3c dd3d e13d 9dea 57be
00000140: 8ecc 87bd a9bf 02be 18cd abbd 83ff fabb
00000150: ab29 1d3d 8fae 22be 2852 2dbd 594b 8bbd
00000160: 952a 45bd 00ea 34be de4f e93d 2426 713c
00000170: 5f3a 593d d089 0fbe fd1c 5cbc 2b52 e33c
00000180: b23a 663d b31a f93d 13b7 c53d eea4 5d3e
00000190: 58de b33d 4bae 2f3e 43ac 3abd 45da 593e
000001a0: 1cba eb3d 12f3 53bd c791 423e 1129 65bd
000001b0: 3a4c 403d 364c 1e3e ffb2 4c3d f5ec 903d
000001c0: 9d30 ddbd d8f4 8a3d 280c 60bd 2fd2 8d3d
000001d0: c2cb 7bbd 50be 993c dc0b 203e 266f a2bd
000001e0: 3c2d 493d 7423 1abd dfc6 c8bd 9cc5 d5bd
000001f0: 6ae8 f2bd ab28 f03d e054 d13c 652d 5b3e
0.054588083 0.10128559 -0.04214199 -0.106673986 0.062000245 0.19726065 0.15155503 0.15832797
-0.06913376 0.19238481 0.09558659 -0.0017336389 0.13186498 0.15506287 -0.09930004 0.04967728
0.06898572 -0.060625322 -0.11853396 0.03769304 -0.03757627 0.01713784 -0.095649615 -0.062216032
0.15662226 0.06294095 -0.15077187 0.06197224 -0.013667731 0.13009804 -0.02670212 0.17571224
-0.055665884 0.058195468 -0.0127482675 0.2001971 -0.0068627303 0.013783062 0.045734048 0.19257788
-0.0032465125 -0.016954387 -0.21803075 -0.10440198 0.12857899 -0.09188951 -0.16115113 0.0029600407
-0.03101909 0.104695335 -0.08943233 0.029189637 0.060400818 0.15266332 0.14717478 -0.12387586
-0.08045628 0.023889646 0.09115587 0.09154489 0.047357317 -0.007784641 0.0984185 -0.06354857
-0.081902765 -0.14706174 -0.024291426 0.110716246 -0.10690203 0.06682049 0.1524949 -0.059184022
0.09572739 0.09865573 -0.124811485 0.06583437 -0.007627453 0.010697687 0.109981276 -0.21085592
-0.066308126 -0.12768425 -0.08388728 -0.007659854 0.038369816 -0.15886901 -0.04231468 -0.06801481
-0.048136313 -0.17667389 0.113921866 0.014718566 0.053034183 -0.14017415 -0.013434646 0.027749142
0.05620832 0.121632956 0.09654059 0.21644947 0.08782643 0.17156331 -0.045574438 0.2127467
0.11510107 -0.05174548 0.19000922 -0.055947367 0.046947695 0.1545876 0.04997539 0.07076446
-0.10800288 0.067849815 -0.054699093 0.06924855 -0.061473615 0.018767506 0.15629524 -0.07931356
0.049115404 -0.037631467 -0.09803557 -0.104380816 -0.11860736 0.11726507 0.025553167 0.21404035

encoder.spatial_embedding.weight f4 [16, 2]
00000000: 4cb2 02c0 db77 dbbf 938d 54bf e15b 5cbd
00000010: 8abf 5a3f dc51 793d 2d49 b8bf f581 443f
00000020: 03b2 b63e e4d2 03c0 5019 98bf 709f 46bf
00000030: b712 26bf 8140 ad3e 0a51 a4bf 7329 44be
00000040: 2a36 0bbf 9eb7 9dbf 83e7 383f 2789 00bf
00000050: bbc2 fbbf e39a a53f ef9a 15c0 0c9d 72bf
00000060: 2182 193e 0e93 e53f 8fd8 733f b5c3 51be
00000070: 5ca7 9dbe 04c2 64be 7e5c 9b3f 8dc2 35be
-2.0421324 -1.7145952 -0.83028525 -0.05379856 0.85448515 0.060869083 -1.4397331 0.767608
0.35682687 -2.0597467 -1.1882725 -0.7758703 -0.64872307 0.33838275 -1.2837231 -0.19156437
-0.5437952 -1.232166 0.7222826 -0.5020928 -1.9668802 1.2937893 -2.3375814 -0.94770885
0.14991046 1.7935503 0.9525232 -0.20484813 -0.30791748 -0.22339636 1.2137601 -0.17749996

encoder.spatial_embedding.bias f4 [16]
00000000: 90c5 933e c390 4ebe 09b4 0dbe 2688 2bbf
00000010: 6a86 093f 4ddf 4d3e f45f debe 2418 bc3e
00000020: cca1 2cbf c2d2 0c3f 4312 273e d572 143e
00000030: 1fcd 90be 42dd 3f3f 3456 2f3f 545d 3a3e
0.28861666 -0.2017241 -0.13838209 -0.6700462 0.53720725 0.20104714 -0.4343258 0.36737168
-0.6743438 0.5500909 0.1631556 0.1449693 -0.28281495 0.7494699 0.6849091 0.18199664

decoder.decoder.weight_ih_l0 f4 [128, 16]
00000000: 3298 e1bd e902 99bd b102 42bd d4ec 11bd
00000010: 8fca ee3d 72fc ec3d 3094 b6bd 77a7 013e
00000020: b131 013e e5a9 1d3e cd17 a43d 0271 a8bd
00000030: efb0 303d fbaf b03d df12 f63c 2346 043e
00000040: e1e4 f2bc 6937 0a3e 0811 2a3e bd38 b8bd
00000050: beac 9cbd 7b12 433e 9e2a 013e 66a7 3bbe
00000060: f5b0 2dbe 5a69 6c3d 6c04 053d 0a9f e4bd
00000070: dbc9 463d 152d a43c 2164 49be 74f1 f93d
00000080: 6876 89bd 0fe3 153d afa6 a2bd 9aad b43c
00000090: 4e6e 5f3d 249c b73d 7438 983d 558f 0d3e
000000a0: 0514 4fbe 2324 efbd d5ad 2dbc d62e 1fbc
000000b0: b7b5 893c a1c9 8dbb 5848 e2bd 614d 5d3e
000000c0: 1dd7 39bc 3e31 2c3d a9c0 023d 52b6 29be
000000d0: e584 f03d 7984 eebd 4dae 513e d734 313e
000000e0: e6e6 41be be4e 083e b746 b9bd 36a1 15bb
000000f0: 8627 dcbc 0328 283d c394 8939 790d a9bd
00000100: 8770 2fbe 5be7 94bd a057 143e e67b 4d3e
00000110: b4d5 1abe 44e1 21be 57a5 dabd 1780 d53d
00000120: 2a41 ab3d 24d8 47bc e09b d23c af9f 0ebd
00000130: 07af 123e 6865 023e 640a fc3c 07b3 e9bd
00000140: f2a6 733b 66c8 e03d 3e6f 293d cddd a1bd
00000150: 9ae6 8bbc 9102 ad3d 3d7f 87bd b5cf 58bd
00000160: 68e0 93bc 1d55 a53d 3bff 2fbc 392f 783d
00000170: b767 59bd 9813 c73d dcdd 22b8 8fe1 1bbe
00000180: 1272 e23d cfca cabd 2831 2dbc 3a07 04be
00000190: b097 d0bd bd22 ca3c 803f bb3d 5924 38bd
000001a0: d217 1a3e 771d 1fbd 951f 093e 5fa0 3a3d
000001b0: 2acd 003e 2483 16bd 1880 163d ec0a ef3c
000001c0: 7139 b0bd 7aaa debd 8958 233e 3344 323d
000001d0: 0b98 4abd 35ca 81bc 363b f73c 1bbd d9bd
000001e0: c956 8f3d 74a9 f73d 8698 fbbd 10b0 75bd
000001f0: 2b37 3b3e 8235 86bd c53a f03d 6c5e 113e
00000200: e456 24bd dd34 563d baa7 113e 93f3 a03d
00000210: 114f a6bc c471 4dbd 02f8 aabd 13c0 ba3d
00000220: d530 a23d 34d0 e83d 86ab 3dbe 12bf 093e
00000230: d00a 963d 2ddc 12be a4d8 053c f579 883d
00000240: 3bbf 7a3c e128 4bbe a70f 933d faf0 e3bd
00000250: bada 413e ce18 83bc f1f7 e13c a3b7 abbb
00000260: 57dc 4abd eed7 923c 1935 c43d 340b ddbd
00000270: df8e 04be 3057 463e e8a6 9f3d 0dd3 863d
00000280: c0cb 3e3c 38a7 d8bd 40b5 9dbc a3b2 443e
00000290: e7d9 abbc d310 283e d9ed 3a3c c362 3abe
000002a0: cfbd 753d 6a5e 843c f725 e0bd eeff 043e
000002b0: 8325 353e 9cff 823d 7818 10be 337d e0bd
000002c0: 1e60 e93c 4de6 10be 228b db3d d00a b83c
000002d0: d487 3e3e fd71 49be 81fe 3d3e 5af9 393e
000002e0: a3d6 c1bc 6ae1 56bd ff99 b03c fdf4 0ebe
000002f0: ecf7 e73d 706c 853d 5b92 b7bd d140 fb3d
00000300: a975 1fbe 45d6 dc3d a222 0c3e d27a 0c3a
00000310: 4ccd 1b3e 129d c23d 738c 643d 7248 e0bd
00000320: 35bf 1abe 0d26 d13c ed1a 933d fca4 733d
00000330: 00aa 7bbd a94f a93d 9165 ffbd 2f25 76bd
00000340: 31f6 ecbd c335 23be 3d1d 013e dfd2 d8bb
00000350: f954 ad3c 56ae a1bd be26 cebd 6d44 1dba
00000360: 38bc 5f3d 0598 9bbb 0ba3 2ebd 224d 49be
00000370: 782e 1ebe 92c6 48be d608 14bd b34e 0cbd
00000380: 690e 073e 3213 52bc 1461 24be fa69 22be
00000390: e5b7 6d3c db3b a2bd 30ba 06bd 6540 303e
000003a0: f75a b8bd fd12 f43c 6f83 54bd ed23 d93d
000003b0: ea36 12be 7665 013d f9b5 33bc ca44 79bd
000003c0: 1629 603a 0f32 553e 1d94 84bd 27fd 14be
000003d0: 62c9 67bd 1765 19be 0727 01be d9cc a9bd
000003e0: c35e f0bd 6b8c 003e bc4c 0e3d b430 b0bd
000003f0: c440 97bd 68db 2f3e 5dd3 1d3e 1bc3 913d
-0.11015357 -0.07471258 -0.047365848 -0.035626248 0.11659729 0.115715876 -0.08914983 0.12661539
0.12616612 0.15396841 0.08012352 -0.082246795 0.043137487 0.086273156 0.030038295 0.1291738
-0.029650154 0.134977 0.1660806 -0.08995197 -0.076501355 0.19050018 0.12613913 -0.18325576
-0.16962035 0.05771766 0.03247492 -0.11163147 0.048532348 0.020041028 -0.19667102 0.12204257
-0.06712037 0.036593493 -0.079419486 0.022055436 0.054548554 0.08965328 0.074326426 0.13824208
-0.2022248 -0.116768144 -0.010600527 -0.009715756 0.016810281 -0.0043270146 -0.11048955 0.21611549
-0.011342791 0.04203915 0.031922016 -0.16573456 0.117440976 -0.11646361 0.20476647 0.17305313
-0.18935737 0.13311288 -0.09046691 -0.0022831685 -0.026874315 0.041053783 0.00026241512 -0.08254523
-0.1713277 -0.0727069 0.14486551 0.20066795 -0.15120584 -0.15808588 -0.10676067 0.10424822
0.083620384 -0.012197528 0.025709093 -0.034820255 0.1432458 0.12733996 0.030766673 -0.114111
0.0037178365 0.10975723 0.041365854 -0.07903633 -0.017077733 0.08447755 -0.06616066 -0.05293246
-0.018051341 0.08072875 -0.010742004 0.06059191 -0.053077426 0.09720534 -3.8830432e-05 -0.15222763
0.110569134 -0.09901964 -0.010570802 -0.12893382 -0.10185182 0.024674768 0.09142971 -0.04495654
0.15048149 -0.03884646 0.13390954 0.045563098 0.12578264 -0.03674616 0.036743253 0.029180013
-0.08604706 -0.108723596 0.15951742 0.04352207 -0.049461406 -0.01584349 0.030179601 -0.10631772
0.06998975 0.120928675 -0.12284951 -0.05998236 0.18282764 -0.065531746 0.117299594 0.14196175
-0.040121928 0.052296508 0.14224139 0.07858958 -0.020301374 -0.050157323 -0.08348085 0.091186665
0.0791947 0.113678366 -0.18522462 0.13451794 0.07326281 -0.14341803 0.008169327 0.066638865
0.015304382 -0.19839813 0.0718072 -0.11129947 0.18931094 -0.016003039 0.027584048 -0.005240397
-0.04952654 0.017925229 0.0958044 -0.107931525 -0.12945126 0.19369197 0.07795507 0.065832235
0.0116452575 -0.105787694 -0.019251466 0.1920877 -0.020977927 0.16412668 0.011409246 -0.18201737
0.05999547 0.016158301 -0.10944741 0.12988254 0.17690091 0.0639641 -0.14071834 -0.1096138
0.028488215 -0.14150353 0.10719897 0.022466093 0.18606502 -0.1967239 0.18554117 0.18161526
-0.023661917 -0.052461065 0.021557806 -0.13960643 0.11326584 0.065148234 -0.08963462 0.12268222
-0.15572228 0.10783056 0.13685086 0.0005358878 0.15215033 0.09502615 0.055798005 -0.10951318
-0.15112002 0.02553084 0.0718287 0.059483513 -0.06144142 0.08267147 -0.12470544 -0.060094055
-0.11570395 -0.15938477 0.1260881 -0.0066169347 0.021158682 -0.0789458 -0.10065983 -0.0005999271
0.05462286 -0.0047483467 -0.04263596 -0.1965833 -0.15447414 -0.19606999 -0.03614124 -0.03425474
0.13189091 -0.012821959 -0.16052657 -0.1586074 0.014509176 -0.07921573 -0.032892406 0.17212065
-0.09001725 0.02979421 -0.051883157 0.106025554 -0.1427876 0.0315909 -0.010968679 -0.060856618
0.0008551044 0.20819877 -0.06473563 -0.14549695 -0.056588538 -0.14979969 -0.12612544 -0.08291025
-0.11736824 0.12553565 0.03474115 -0.086030394 -0.073854 0.1717354 0.1541266 0.071172915

decoder.decoder.weight_hh_l0 f4 [128, 32]
00000000: 5ea2 e73c d73f 033e 29df 2a3e 21bd 2b3d
00000010: edc0 453e b46c bbbd df5e c9bd d3ea d7bd
00000020: 98ce b1bd fae7 bd3d 177b e3bd 5720 64bd
00000030: 519c 03bd dd93 f5bc 3e17 8a3d f754 513e
00000040: 80e7 8c3d 9dd4 b3bd 66f8 9cbd 4e60 0cbd
00000050: 5a50 ef3c e21f 8c3d 0523 fe3b 8f9f 81bd
00000060: 3ee6 bc3d 9bc3 313c 44e5 283d baea 16be
00000070: e80e 553e a1f3 35be d1e3 89be 6b94 433d
00000080: 5fe9 1c3e 454e 3cbd de7c 0c3e 1a73 90bd
00000090: 5e67 9dbd b057 153e 93c5 203e 5d77 c3bc
000000a0: ec80 483d 0ff0 2a3e 8d3f 27be 6b24 e03d
000000b0: fcfa 893d 5e61 75bc 8c4a de3c 33d2 1abe
000000c0: ecd3 10be 9a8d 68be 2d02 073e 36fc b7bd
000000d0: 07d6 123e 46c1 7fbd 2e00 c4bd 6096 abbc
000000e0: aa01 44bd d722 223e 139d 013d 1ce7 ebbd
000000f0: e2ee 3c3e 045f 413d 66fb 1dbe f810 633c
00000100: 0cf1 32be b7d3 90bd 0a9e 1d3e 732f 123c
00000110: 52a8 7dbd 19ad 54bd 0aab 073e 1184 6bbe
00000120: cd87 fb3c 575c cdbd 3019 c23d 05c1 0dbe
00000130: 458e 003e 4207 1bbd 6f24 bebd 3190 c1bd
00000140: 25f9 23be 8513 1bbe e08a 7ebd d4ea 443e
00000150: bbcf 1b3d cddd 403d f64b ae3d 7e99 11be
00000160: adc0 8c3c d1bd 1e3c 88b6 8a3d 00d0 853d
00000170: 15ea ab3d 47c2 a2bd d8e5 e33d 4d28 19be
00000180: 49f4 473c 8848 a4bd c1f8 123e 1518 00be
00000190: 5dfa 993d 204b 9739 4cdc 61bd 3f5b b2bc
000001a0: f264 8abd 880b 2a3d 983c ac3c b5e6 153e
000001b0: 5571 e2bd f966 1d3e 565b c0bd b43e 023e
000001c0: 6746 823d 385c 22bc fa34 d2bd 4a32 b63d
000001d0: b5be 0abe 461c 4a3d 4497 243e 1839 ff3d
000001e0: 367f 4fbc 6fb5 43be 581a 37be 2174 c73c
000001f0: 9f47 943d a420 8ebd 3421 e13d c60a 23be
00000200: d94c fe38 0aba 013e bad4 da3d 24c0 953c
00000210: 0957 853d 4807 aabd 3c88 08be 6cdc f33d
00000220: d2ca d53d 26df 9c3b dbaa febc c9b3 df3d
00000230: 726b 2a3e 9dbc 953c f799 8e3d 762d 213e
00000240: 9577 19be 610c 7e3d 209d bcbc 513c 7ebc
00000250: 562f 9e3d d0c8 97bc a48c cd3c ce2b 45be
00000260: d084 ffbc 2dfd cebd 9f9a fabd e49f 0cbe
00000270: 9832 fc3d c7ce 1b3e 8beb 9c3d ad14 f93d
00000280: edb6 87bc 8554 4b3d 1576 f2bd 7bf5 913d
00000290: bb0c 543e dfa0 54bd 367a 0dbe eea4 dabd
000002a0: 88a6 cb3c 43af 063e c165 48bd b133 d93d
000002b0: 11a2 bbbd de78 1abe dcad 48bd b741 d5bd
000002c0: edc9 443e ab24 6fbb eb01 323e 11fb 09bc
000002d0: 5954 6fba e5ff e83b 9a8b a6bb ddb3 2dbe
000002e0: ab4f a93d 1f70 0c3e 38b7 adbd a618 ccbd
000002f0: 4fd1 51be e469 2c3e 1283 3a3e 5fee 503e
00000300: e571 1b3e 5b56 7a3d 2de9 7dba 486d 3ebd
00000310: 0384 0a3e c383 98bc 8135 7fbc c732 c2bd
00000320: 007b c33d a334 523c 8641 5f3d d87d e33b
00000330: 1ad3 0c3e d9ed ad3b 49b2 b8bd f443 ce3d
00000340: 937f ecbc 6c5f a3bc 9cc7 49bd 2892 e33d
00000350: 6a53 98bd 2fff b53d e6b4 943d 7e8b afbd
00000360: 413b ccbd 4ae2 743d 02d8 07be 9428 623e
00000370: 5a7b 2f3a 1606 393e 1139 ff3d b484 813e
00000380: 842c fbbd 2317 99bd 7d14 3fbb 0f3e 763d
00000390: 8dc9 59bd 3d60 083e 42f8 ab3d 4802 d1bd
000003a0: a47c cbbd 3213 01be 212a 3e3c 57d7 e63d
000003b0: d7fa 0dbd 0064 763d c77f 933d f64a c5bd
000003c0: 758a 8fbd e697 a9bc 88c9 d23d 3103 553e
000003d0: 2a91 33bd e9c7 953d f27b 3d3e 6d57 01bc
000003e0: 336f 873d 2dbe 7c3d 44c5 07be d821 bcbd
000003f0: 9673 97bd 350f 4c3d 6bd5 08be 568d 4dbb
0.028275665 0.12817322 0.16686691 0.041928414 0.19311877 -0.09151593 -0.09832548 -0.10542836
-0.08681983 0.09272762 -0.11107462 -0.055694904 -0.032131497 -0.029977733 0.06742714 0.20442568
0.068800926 -0.08780787 -0.07664566 -0.03427153 0.02921312 0.06842019 0.0077556395 -0.063292615
0.09223603 0.010849859 0.04123427 -0.14737979 0.20806468 -0.17768718 -0.26931623 0.047748964
0.15323399 -0.04597308 0.13719508 -0.07053204 -0.07685731 0.14584231 0.15700369 -0.023860628
0.048951074 0.16693138 -0.16332836 0.10944446 0.067373246 -0.014976827 0.027135156 -0.15119247
-0.14143342 -0.22710267 0.13184424 -0.08983652 0.14339457 -0.06244018 -0.09570347 -0.020945728
-0.04785315 0.15833603 0.03164394 -0.1151869 0.18450502 0.047209755 -0.15427932 0.013859026
-0.17474765 -0.070716314 0.15392318 0.008922446 -0.0619281 -0.05192289 0.1324884 -0.22999598
0.030704403 -0.10027378 0.094774604 -0.13843162 0.12554272 -0.03784872 -0.09284293 -0.094513305
-0.1601301 -0.15144165 -0.06214416 0.19230205 0.038039904 0.047086526 0.08510582 -0.14218709
0.017181719 0.00968881 0.06773096 0.065338135 0.08394257 -0.07947212 0.111278236 -0.1495678
0.012204238 -0.08021647 0.14352705 -0.12509187 0.07518456 0.00028856937 -0.055141732 -0.021772025
-0.06757535 0.041514903 0.021024987 0.14638789 -0.110567726 0.15371312 -0.09392421 0.12719232
0.063610844 -0.009909682 -0.10264011 0.088963106 -0.13549311 0.04934337 0.16073328 0.12462062
-0.012664607 -0.1911218 -0.17881143 0.024347367 0.07240223 -0.069398195 0.10992661 -0.15922078
0.00012125978 0.12668625 0.106851056 0.018280096 0.06510741 -0.0830217 -0.1333322 0.119072765
0.104390755 0.0047873436 -0.03108733 0.10922963 0.1664255 0.018278414 0.0696296 0.15739998
-0.14987023 0.062023524 -0.023024142 -0.01551731 0.07723872 -0.018528372 0.025091477 -0.19254991
-0.03119126 -0.10106883 -0.12236523 -0.13732868 0.123143375 0.15215598 0.07662114 0.12162147
-0.016566718 0.04964115 -0.118389286 0.071269 0.20707981 -0.05191123 -0.13816151 -0.10675989
0.024859682 0.13152795 -0.048925165 0.106055625 -0.09161771 -0.1508517 -0.04899393 -0.10412925
0.19217654 -0.0036490362 0.17383544 -0.008421675 -0.0009129695 0.007110583 -0.00508256 -0.16963144
0.082671486 0.13714646 -0.08482212 -0.09965639 -0.20490001 0.16837269 0.18214062 0.20403431
0.15180166 0.06111751 -0.000968593 -0.046490937 0.13526921 -0.018617516 -0.015576721 -0.09482341
0.09544945 0.012829932 0.054505847 0.006942492 0.13752404 0.0053078947 -0.0901838 0.10071555
-0.028869426 -0.019942962 -0.049262628 0.111118615 -0.07437785 0.08886563 0.07261066 -0.08571528
-0.09972239 0.05978612 -0.13265994 0.22085792 0.0006694101 0.18068728 0.124620564 0.25296557
-0.1226435 -0.07475116 -0.00291565 0.060117777 -0.05317073 0.13317962 0.08396961 -0.10205513
-0.09935883 -0.12604979 0.011606724 0.112715416 -0.034663048 0.06015396 0.07202106 -0.09633438
-0.070088305 -0.020702314 0.10292345 0.20801999 -0.04383961 0.073135205 0.18504313 -0.007894379
0.066130064 0.061704803 -0.13258845 -0.09186143 -0.07395093 0.04981919 -0.13362662 -0.003136476

decoder.decoder.bias_ih_l0 f4 [128]
00000000: 970b f4bb a090 013c 26a5 1d3e c1a4 83bc
00000010: 5f85 15be bdde 2cbd d6ee 023d f231 4a39
00000020: c4b0 b6bd 0b42 a2bd a7b4 1f3d 75df 3f3e
00000030: 8c2d a13d 489f c13c 8cd0 f4bd 44b5 fabd
00000040: 3b21 12be 98d8 163e 6b9d dabd f5c0 f63d
00000050: 56e7 f1ba fe35 103e dea9 c8bd fbdb 013e
00000060: a2e1 ba3d 6e8d fa3d 80a3 c8bd 3af0 463d
00000070: bea2 b1bd 0eb4 b33d 80dc 153e 0ecf 78bd
00000080: 1e9a e5bd a0e2 333e 4748 fabd 8737 d5bd
00000090: 7fb3 f83d 8170 d63d ab5a 3fbd 3b67 f3bd
000000a0: b3fd 4b3e 7f2e 5b3e 116e 383e 5a24 1dbe
000000b0: ac01 383e 4ce1 a6bd 57b0 233e 2d8a 12be
000000c0: 9014 dcbd a9fe 23be 2478 ed3d 1b86 0d3e
000000d0: 07b2 05bd 1b96 a63a c998 543d 26f2 2dbd
000000e0: 1b16 833c 32d0 b7bd bcab e0bd aac5 863e
000000f0: b553 9cbd f9af 3dbd 3f79 5dbd ef0a 9dbd
00000100: 0884 bf3d a8ae 15be 0fa7 28be 5206 fcbd
00000110: dfc6 d13d 00f1 93bd b7f8 e9bd d217 fdbd
00000120: 5f8f 2c3e d633 923d 9c8a 2d3d 45df fc3d
00000130: 6d85 43bc e0c6 053e 8222 f63d e1c9 b1bd
00000140: 91e5 b2bd 2f47 d1bd 2ba2 88bd b215 83bd
00000150: d23d 813b f9a8 15be 3642 263d bb08 22be
00000160: 7645 163e 4987 833d 8074 fc3d 24a9 ccbc
00000170: 6f47 04ba 79aa 00be 9983 033e 73ce a3bd
00000180: 8e46 ff3d 20cc 74bd 6d85 f2bb 1266 f5bc
00000190: d221 b7bd 7aec 9f3d 8752 cabc 44f3 a8bd
000001a0: 55d5 97ba ff7a 4fbd 2537 21be bfa1 0d3e
000001b0: 8673 28bc 8ede f23c 2e7a f3bd 1588 19be
000001c0: 6a62 c03d f129 043e c8a8 92bc 54bc 973c
000001d0: 984d 32bb 9dd4 223e f026 14be 9461 5b3d
000001e0: b4f0 8c3d aa1c f43d a9fd d1bd 66f2 933c
000001f0: 9dda 2fbd fa68 26bd 4af4 cbbd f64e 6d3d
-0.0074476707 0.007908016 0.1539503 -0.016069772 -0.14601658 -0.042204607 0.031966053 0.00019282827
-0.08920434 -0.07922753 0.038990643 0.18737586 0.078700155 0.023635522 -0.1195384 -0.12241605
-0.14270489 0.14731061 -0.10674556 0.120485224 -0.0018455784 0.14083096 -0.097980246 0.12681572
0.09125067 0.12234007 -0.0979681 0.04856894 -0.08673619 0.08774577 0.14634895 -0.060744338
-0.11211036 0.1756692 -0.12220817 -0.104109816 0.12143611 0.10470677 -0.046717327 -0.11884924
0.19920997 0.21404456 0.18010737 -0.15345898 0.17969388 -0.08148441 0.15985237 -0.14310522
-0.107461095 -0.16015114 0.11595181 0.13820688 -0.032640483 0.001270953 0.05190352 -0.04246726
0.016001752 -0.08975257 -0.10970256 0.2632268 -0.07633153 -0.0463104 -0.054070707 -0.07668101
0.09351355 -0.14617407 -0.16469978 -0.12305893 0.1024301 -0.072237015 -0.11424392 -0.12358059
0.16851567 0.07138793 0.042368516 0.12347273 -0.011933667 0.13064146 0.120183006 -0.086810835
-0.087351926 -0.10218655 -0.06671556 -0.064006224 0.003944137 -0.14615239 0.040590487 -0.15823643
0.14674935 0.06422288 0.12326908 -0.024982996 -0.0005046045 -0.1256503 0.1284317 -0.079983614
0.12464629 -0.05976498 -0.0074011595 -0.029955897 -0.089419976 0.07808776 -0.024697555 -0.08249524
-0.0011583964 -0.050654408 -0.15743692 0.13831232 -0.010281449 0.029647138 -0.11888538 -0.14993317
0.09393771 0.12906624 -0.017902747 0.018522419 -0.0027206894 0.15901418 -0.14467978 0.053559855
0.06881848 0.1191953 -0.1025346 0.01805992 -0.042933095 -0.040627457 -0.09958704 0.05793663

decoder.decoder.bias_hh_l0 f4 [128]
00000000: 7cf1 77bd 15bb 89bd e320 213e 87c9 5b3d
00000010: 7d7d 18be d690 0d3e 7911 b9bd 59c0 213e
00000020: 313c 403d b31b ccbd 5866 a4bd 63f7 123e
00000030: 96cc 1ebc da63 8e3d 0496 583e 0f05 203e
00000040: 2ebb 233b 9ea6 c93d 7472 f3bc d06e f93d
00000050: 1cf8 cb3c 171d d5bd 4e07 32bd 529c 463e
00000060: d774 913d 220b 88bc 64bc 5e3d 699a 46bd
00000070: 0a4e 9ebd b2fe 1e3e 5bf3 67bc 6394 a83d
00000080: 823f 66bd 1159 05be 0ef6 4abd 294a 6dbb
00000090: d2b6 8c3c 96f4 c63b 3077 483e f3d6 a53b
000000a0: e6e6 923d f2e0 c53c 9e8e ef3d 6eec 0dbe
000000b0: 4598 f6bc dc82 023e 9b7d 12bd 7e64 043e
000000c0: bed6 2b3e 0fed 8fbd 0254 3bbe 91bb d3bd
000000d0: a710 b5bb 04fb 053e e45c d0bc febc 213e
000000e0: 6fdc 463d a1c9 dbbd bb28 debd 4d87 3f3d
000000f0: 54a3 d83b 8b14 02bd 9048 313e 9c80 113e
00000100: a9b8 663d bc3c f83d 3943 043e 959f 223e
00000110: 4a61 d73c ca7d cebc 01e5 673c 4726 473d
00000120: 2740 11bd 574a 82bd 77f1 d23d c225 e8bd
00000130: 0366 213d c96b 053c 94ff 89bd 3ae1 0cbc
00000140: 43e3 123e fe53 d5bd de21 21bd 7d2a 0a3d
00000150: 0d67 6e3d adb4 50bd 7374 86bc 1221 95bd
00000160: 354f dcbd 223a 85bd 9b07 91bc 0bab 17bc
00000170: e319 db3d 0dcc 313d 132c e9bc 38a1 d8bd
00000180: 672a 863d b431 c63d 59ad 463d 894b 13bd
00000190: 3c17 013e 59ec ec3c ef68 b33d 94b1 e9bd
000001a0: 763b f83d c46f bc3c a209 9e3c e237 35bd
000001b0: 87c4 b93d b0c6 e73d bec1 a9bb 5520 32be
000001c0: a416 15bc 0e4e d5bd ff35 f23d a230 66bd
000001d0: 08df 1e3c 95b7 463d dd5d 01be b304 02be
000001e0: 3d37 5c3d 64fa 9abd 438b 82bd b385 553d
000001f0: 7f97 fc3d 8e5d 37bd 2b5d 473d ef62 8d3b
-0.06053303 -0.06725136 0.15735202 0.05365899 -0.1489162 0.13824782 -0.09036536 0.15796031
0.046932403 -0.09966221 -0.08027333 0.14352183 -0.009692332 0.06952639 0.21150976 0.1562693
0.0024983394 0.09846233 -0.029717661 0.12179339 0.024898581 -0.10405939 -0.043463998 0.19395569
0.071023636 -0.016606871 0.054378882 -0.0484871 -0.077297285 0.15526846 -0.014157142 0.082314275
-0.05621291 -0.13022257 -0.049551062 -0.0036207533 0.01717702 0.0060716374 0.19576716 0.0050610243
0.07172947 0.024155114 0.11697124 -0.13859722 -0.030101905 0.12745231 -0.035764318 0.1292896
0.16781136 -0.07027637 -0.18293765 -0.1033851 -0.0055256668 0.13084036 -0.025434919 0.15794751
0.048550066 -0.10731817 -0.108476125 0.046759892 0.006611267 -0.031757873 0.17312837 0.14209217
0.05632845 0.12120959 0.12916268 0.15881188 0.026291508 -0.025206465 0.01415372 0.04862049
-0.03546157 -0.063618354 0.10299962 -0.11335327 0.039403927 0.008143374 -0.06738201 -0.00859862
0.14344506 -0.10416411 -0.03933894 0.033731926 0.058203746 -0.050953556 -0.01641295 -0.07281698
-0.10757295 -0.065052286 -0.017703822 -0.009257088 0.10698297 0.04340749 -0.028463399 -0.10577625
0.06551056 0.09677449 0.04850516 -0.035960708 0.1260652 0.028921293 0.08760249 -0.114108235
0.12120716 0.023002513 0.019291703 -0.044242747 0.09070688 0.113171935 -0.0051805666 -0.17395146
-0.009099636 -0.104152784 0.11826705 -0.056198724 0.0096967295 0.04851492 -0.12633462 -0.12697105
0.053763617 -0.075672895 -0.06374218 0.05212946 0.12333583 -0.044766955 0.048672836 0.0043147723

decoder.spatial_embedding.weight f4 [16, 2]
00000000: 7aa9 8d3f 08f4 b13e 3986 85be 422a e83f
00000010: 80f7 93bf db38 3a3f cbe2 9ebf 714c 46bf
00000020: 1c82 bbbe 979b 843e 846f 393f 669c f6bf
00000030: 696a 0fbe dd6a 313e 195d 25bf 8b10 d93f
00000040: a33f 29bf d8d7 d53f 3e2c 3dbf fb41 d63f
00000050: d2fe 803f 740c c9be 2707 1ac0 4f5e 2f3f
00000060: 1e26 ffbe a280 283c 6757 a6be 935a 373f
00000070: a2b1 63bf a669 613f 2ea4 f23e 3225 f0bf
1.1067345 0.34756494 -0.26078966 1.8137896 -1.1559906 0.72743005 -1.2412962 -0.7746039
-0.36622703 0.25899956 0.72435784 -1.9266479 -0.14005436 0.17325921 -0.6459518 1.6958174
-0.66112727 1.6706495 -0.73895633 1.6738886 1.0077765 -0.39267313 -2.4066865 0.6850328
-0.4983377 0.010284575 -0.32488558 0.7162258 -0.8894292 0.8805183 0.47390884 -1.8761351

decoder.spatial_embedding.bias f4 [16]
00000000: 63b1 e83d 9ff2 a6be 4bb6 b5be c726 05be
00000010: 19d3 e33d 5d4b 06bf 79da 233f c07b 273f
00000020: f6dd e3be 9b66 873e 9d21 46bd 59fc 2c3f
00000030: eb43 1c3f f1e1 993e edd2 933c 9c19 c93e
0.11361959 -0.3260698 -0.3549064 -0.13003074 0.11124248 -0.52458745 0.6400524 0.654232
-0.4450528 0.2644547 -0.0483719 0.6757255 0.61041135 0.30055192 0.018044913 0.3927735

decoder.hidden2pos.weight f4 [2, 32]
00000000: 799c 8fbd 8a99 48bf d805 8ebe 77b8 e3bd
00000010: 8151 f3bc a916 05bf 80d6 90be db1b 3e3e
00000020: afd9 c3bd a710 133f 5037 05be 1bfa 013f
00000030: 0757 d1bd 8531 90be 8530 d73e 4f82 fdbd
00000040: 81b6 673e f1a7 4a3e b8e3 2a3e 4e77 92be
00000050: 1002 c9be 9c53 1b3c 3fdd 863e b852 afbe
00000060: c71d 113d 3ba7 df3e c8d2 323e 5cb9 fe3d
00000070: 1271 423e 9283 95bc 5f33 d4bd 64a8 f73c
00000080: 4ff7 cbbd 5a78 26be 6920 88bb a8dd 7ebe
00000090: 5463 56bd 3f4c 4ebd f8a0 c4be 886a 88be
000000a0: 0d6f 6bbe 3a69 393d e2b7 07bf 8e4d 6ebe
000000b0: 01a5 0bbf 37ee e5be ab83 e5bd ea46 b13e
000000c0: e347 3c3e 22ce 9dbe c9b5 65be c78a 93be
000000d0: ca4c 6bbe 5747 efbe 5039 f0bd 2ed8 bdbe
000000e0: 3944 513e 6dce 82bd 4cda cb3e 7a83 40bd
000000f0: 710c 703e bd46 93be a00e 9c3e 7281 a7be
-0.07012267 -0.7835928 -0.27738833 -0.11119168 -0.02970195 -0.519877 -0.2828865 0.18565314
-0.09563004 0.57447284 -0.13009381 0.50772256 -0.10221677 -0.2816278 0.42029205 -0.1237837
0.22628213 0.19790627 0.1668843 -0.28606647 -0.39259386 0.009480383 0.26340672 -0.34242797
0.03542879 0.43682274 0.17463219 0.12437698 0.18988445 -0.018251214 -0.10361361 0.030231662
-0.0995928 -0.16256848 -0.004154254 -0.24889243 -0.05234082 -0.050365683 -0.3840406 -0.26643777
-0.22991581 0.045266367 -0.5301496 -0.23271772 -0.5454865 -0.44908306 -0.11206754 0.34624416
0.18386798 -0.3082133 -0.22432627 -0.28816816 -0.22978511 -0.46734115 -0.117296815 -0.37078995
0.20436181 -0.06387029 0.39814985 -0.047000386 0.23442246 -0.28764907 0.30479908 -0.32715946

decoder.hidden2pos.bias f4 [2]
00000000: c15e b33d d233 963d
0.08758307 0.07334103

mlp_decoder_context.0.weight f4 [64, 32]
00000000: 1054 7b3d 21d0 5db9 91bc 39bd 3bd1 0bbe
00000010: 7a28 7fbd 1e40 043f ca5e 133f 8d6d 02bf
00000020: cf39 e23e 857f 96be 67c7 70be a4ab 7d3e
00000030: 0872 cebc c591 093e 7ca2 8ebd adae b13d
00000040: 2a2b 81be ce74 833e 9d79 1cbe a845 b53d
00000050: 0769 d43e c13a 05bf 09d4 a4be 6f63 7c3e
00000060: d5ad 3d3e 1eeb 4ebd 3abb 9b3e a555 633e
00000070: 7bb2 a8bd e4d1 9abe 6b01 4c3e af2a 183d
00000080: 1069 03be 338c 36be 2653 88bd 83e0 07bf
00000090: 4947 d4bb 260e b0be 6c99 ac3e 55aa e73d
000000a0: 719a bbbe 734f c73e e5f3 d2bd 635a 7c3c
000000b0: bd0c 833e e147 143e b855 563e 8972 cabe
000000c0: e7a8 bb3d d197 0b3d c865 0c3c 4d90 7bbe
000000d0: b20e 073f 2c12 afbe d314 293e 91c8 bf3d
000000e0: 3576 f33e 9ba1 c6bd ed48 cebe 919f 09be
000000f0: 1e8e c9be 9334 11bd 850e e83d 81c6 e0bd
00000100: c6fc 13bf 01c3 66be 850c 9b3d 7fa5 b93e
00000110: c30c a7be 5eb6 81be 3185 8fbd ee1f 5f3d
00000120: 9465 d53d 2eeb a1be f25f 62bd 422e 353e
00000130: 66b4 053e 5545 ac3e e254 ad3d 6690 563e
00000140: 14e0 4f3d 0558 25be 1f35 9f3d 43f7 313c
00000150: a908 9bbe a0fd 69be da40 8ebe 9d13 a33d
00000160: 1a76 72bc 1b92 4b3e 4557 6b3e 611f 583e
00000170: 1fbc c93d 0071 71be f5dc 9ebe a3ab c9be
00000180: f11e cebb 41e9 103f c729 643d 5f9b 9bbb
00000190: f2dd 783e 121b fe3d ac31 023f f252 003f
000001a0: b576 49be 9316 20be ad93 75be 6ae8 82bd
000001b0: a39b 09bf c88f 01be 0df4 c93b 945f c1bd
000001c0: 534c a6bc 1287 4e3d adfd 8f3e 1a9a 77bd
000001d0: 3170 803e 8da4 283f 0013 68be 7a71 bdbc
000001e0: e5fb ca3e 276f 4c3c e127 e1be b29f 93be
000001f0: 587d f9bd f6c7 78be a494 8bbd 9352 51be
00000200: f2b5 d33e 90a8 0cbe 8e43 3c3d aed0 5dbd
00000210: 0034 38be 0523 cb3e 9810 eb3c a239 04bf
00000220: 13e9 f53e d135 a0bd 358e cabc d69c 563e
00000230: 021f e63e 43ac 0e3d fffd 133e 67c0 cfbd
00000240: 4e05 783c 1186 a7bd 544d 343e f3e0 22bf
00000250: 94eb ca3c 77c4 e8bd 69ed 9ebe 4fee 683d
00000260: 3c91 b83e 3948 44bd ed0c e8be 1467 df3d
00000270: 1125 60bd 8cbd bcbe 0e8f 953c 5cbe f63d
00000280: 9eee 853e 6e7c 0abe b427 4ebe 886f 4dbc
00000290: e776 abbd 15d5 21bd 3797 eb3e 2a12 133e
000002a0: 5dcb 9c3d 7ae2 8dbe fb09 24be 0a9a 23be
000002b0: 5213 333e e1fb 5cbe 7d8e 693e a9ee b43c
000002c0: ec4c b8be 94cc 3cbe 949f 24be 8255 a33e
000002d0: afa5 fabe 15b1 1e3b 8e24 05be 7d03 803e
000002e0: 1811 7abd abd7 413e 01e9 babe 97cf 863e
000002f0: c94d 73be 190e 053c deb9 e7bc 22bc 443d
00000300: 9b21 473e 1d66 c9bd da03 02be 4276 033b
00000310: 70e8 d1be 643d cb3d 72f7 edbd 9229 3c3e
00000320: 4a8d 12be 5f3a 16bf c33a 5abd b6b1 223e
00000330: 10cd 3abd fe85 053f 820e ed3e d7c0 12bf
00000340: 83f0 2cbe a843 c0bd 52b9 2b3e 7614 d5bd
00000350: 6725 283e 3639 c13e 3a78 ca3c aa21 11be
00000360: 1e0e 4bbd 0799 89be f8fe 95bd cf73 7abe
00000370: fc8f c93d 1c4d 9abd 0b53 8b3e aa9c da3e
00000380: d17d 5abe 8d83 243e 2e34 25bf b466 fcbc
00000390: 4ff0 dd3c c398 cd3c 6ccd 293e c9df 1fbe
000003a0: b6ec fcbd f5fc fabc 2f99 8fbd 873f 653e
000003b0: 19c5 853d 799f 9c3e 5f1c 8a3e f944 c63d
000003c0: cdc9 c0be 4475 383d 5777 0c3f afef a73e
000003d0: 2ccd 5b3d 3e1a 5ebe 4f28 673e 2b71 bf3e
000003e0: 8904 c7be 8d60 84bd 73da 81be e347 2dbd
000003f0: 3705 52bd 70f3 f9bc 377e a03e 78fc 8d3d
0.061359465 -0.00021153736 -0.045345847 -0.13654034 -0.06229446 0.51660335 0.5756651 -0.5094841
0.4418473 -0.29394165 -0.23513566 0.24772507 -0.025200859 0.13434513 -0.06964585 0.08675895
-0.25228244 0.25675052 -0.15280767 0.088511765 0.4148638 -0.52042776 -0.3219302 0.24647306
0.18523343 -0.050517194 0.3041628 0.2220064 -0.082371674 -0.3023826 0.19922416 0.03715008
-0.12833047 -0.1782692 -0.06656484 -0.5307695 -0.0064782244 -0.34385794 0.33710802 0.11311785
-0.36641267 0.38927802 -0.103004254 0.015402409 0.25595656 0.14480545 0.20931137 -0.39540508
0.09163075 0.03408033 0.008569188 -0.24566765 0.527568 -0.34193552 0.1651185 0.09364427
0.47551122 -0.096987925 -0.40290013 -0.13439776 -0.3936624 -0.03545053 0.113308944 -0.109753616
-0.57807577 -0.22535326 0.07570747 0.36259076 -0.32626924 -0.25334448 -0.07007826 0.05447381
0.10419765 -0.3162474 -0.05526728 0.17693427 0.13057098 0.33646646 0.08463456 0.20953521
0.050750807 -0.16146858 0.07773804 0.010862174 -0.30280045 -0.22850657 -0.27783853 0.07962725
-0.014798665 0.19879954 0.2298251 0.2110572 0.098503344 -0.23578262 -0.31027952 -0.3938876
-0.0062903096 0.5660592 0.055703904 -0.0047487463 0.24303415 0.12407507 0.50857043 0.50126565
-0.1967419 -0.15633611 -0.23982115 -0.06391986 -0.5375311 -0.12652504 0.0061631263 -0.09442058
-0.020300066 0.05042178 0.28123227 -0.060449697 0.25085595 0.65876085 -0.22663498 -0.023125399
0.39645305 0.012477673 -0.43975738 -0.28832775 -0.121821105 -0.24295029 -0.0681546 -0.20441656
0.4134975 -0.13736176 0.045962863 -0.05415409 -0.17988586 0.39675155 0.028694436 -0.5165044
0.48029384 -0.07822765 -0.024726013 0.20958266 0.44945532 0.03483225 0.1445236 -0.1014412
0.0151379835 -0.08179868 0.17607623 -0.63624495 0.024770536 -0.11365598 -0.31040505 0.056867894
0.36048305 -0.04792044 -0.45322362 0.109083325 -0.05472285 -0.36863363 0.01825669 0.12048027
0.26158613 -0.13524029 -0.20132333 -0.012538798 -0.08372288 -0.03950985 0.46013805 0.14362398
0.07655976 -0.2771185 -0.16019432 -0.1597673 0.17487839 -0.21580459 0.22808261 0.022086458
-0.35996187 -0.18437415 -0.16076499 0.31901175 -0.48954532 0.0024214436 -0.13002226 0.2500266
-0.061051458 0.18929927 -0.36505893 0.26330253 -0.23760141 0.008121037 -0.02828687 0.04803098
0.19446413 -0.0983393 -0.12696782 0.00200595 -0.40997648 0.09923819 -0.11619462 0.18375233
-0.1431171 -0.5868282 -0.053278696 0.15888104 -0.04560572 0.5215758 0.4630013 -0.573255
-0.16888623 -0.093879044 0.16769913 -0.10404293 0.16420518 0.3773896 0.024715532 -0.14172998
-0.04957401 -0.26874563 -0.07324022 -0.2445824 0.09841916 -0.07534239 0.27211794 0.4269765
-0.21337058 0.16065808 -0.64532745 -0.030810691 0.027092127 0.025097257 0.16582268 -0.15612711
-0.123498365 -0.030638197 -0.07011639 0.22387515 0.06531734 0.30590418 0.2697477 0.09681124
-0.37653962 0.04503371 0.548696 0.32800052 0.053662464 -0.21689698 0.2257397 0.37391028
-0.38870648 -0.06463728 -0.25361976 -0.042304885 -0.051274505 -0.030511588 0.31346294 0.0693292

mlp_decoder_context.0.bias f4 [64]
00000000: 031a dc3c 15a1 ecbd f5a7 b9bc 44f1 25be
00000010: b68c 503e 0ec4 34be c11b b33d 1b77 9c3c
00000020: d7fa e93d b0e5 ce3d b0ea c2bc 16a1 b13d
00000030: 81b5 053d 5fa3 84bc 5679 8c3d 05a7 da3d
00000040: 4cf2 b3bd 7a82 373d f414 34be 3026 07be
00000050: 4a76 78bd 6567 4e3d 9161 bd3c a02e f8bd
00000060: 5e90 263e 199e 7bbd cab5 cf3a 8c02 133e
00000070: 4435 bf3d b04a 2b3e 83c0 a33d f952 7ebc
00000080: afcb d1bd 2c7c e6bd fd41 5f3c 766c 82ba
00000090: 99f5 4abe 3bf7 28be 532e 973c 62aa 483e
000000a0: 12db 1dbe e2c7 4cbe 5bf9 eabd 716e ba3c
000000b0: 9c47 0dbe 6402 153e af66 883d 2dc3 203e
000000c0: c9fd 13be 9a27 b73b 8eb8 a13d ffad f93d
000000d0: e8f6 db3d 0927 593c 4b37 2dbe d2ea 75bd
000000e0: fd38 c13d 1237 473e cf64 1b3e cf4e 9fbd
000000f0: 8ec1 4a3d 9e44 d63d 7148 abbd 943e 0d3e
0.026867872 -0.115541615 -0.022663096 -0.16205317 0.20366177 -0.17652914 0.08745528 0.019099763
0.11424797 0.10102403 -0.023793548 0.08673303 0.0326438 -0.016191183 0.068590805 0.10676388
-0.08786449 0.044802167 -0.17586118 -0.13198161 -0.060659684 0.050391573 0.023117812 -0.12118268
0.16266009 -0.06143007 0.0015847024 0.1435644 0.093363315 0.1672771 0.07995703 -0.015522712
-0.10243928 -0.11254153 0.013626573 -0.0009950537 -0.1982025 -0.16500561 0.018454706 0.19596246
-0.154156 -0.19998124 -0.11473342 0.02275774 -0.13796848 0.14551693 0.0666021 0.15699454
-0.1445228 0.0055894377 0.07896529 0.1219139 0.10740453 0.013253936 -0.16915624 -0.060038395
0.09434698 0.19454601 0.15175174 -0.077787034 0.049500994 0.104623064 -0.083634265 0.13793403
