scripts/models/sgan-p-models/eth_12_model.pt (torch_old, 189940 bytes, 24 tensors)

encoder.encoder.weight_ih_l0 f4 [128, 16]
-0.008175297 -0.12574296 -0.11568201 0.108247556 0.13003778 0.10057266 -0.09165974 -0.13994257
-0.00905112 -0.015672227 0.12763697 -0.11096508 -0.10485368 -0.10138129 -0.1790888 0.104260616
-0.0008975982 -0.016692547 -0.069907025 0.072251 -0.03365283 -0.03774086 0.06493532 -0.00536847
0.1961326 -0.01083585 0.14271863 -0.04147648 -0.105983034 0.050461207 0.09985518 0.02865061
-0.08881342 0.030215882 0.0929039 0.017033655 -0.12248797 0.012282324 -0.038999066 0.08198013
0.12079831 -0.033473592 0.034239292 -0.027543562 -0.077806816 0.041009642 -0.014169601 0.04683419
-0.018482575 -0.23352386 -0.08365858 0.13227682 -0.04629288 0.19333827 0.16412468 0.14033335
0.16268101 0.14909768 -0.027424378 0.06577085 0.22538097 -0.015059667 -0.14214805 0.12885965
-0.12254843 -0.09763452 0.23163317 -0.17551634 0.02726584 0.26049334 0.24732982 0.17440943
-0.044939943 -0.12454174 0.093878895 -0.19518149 0.14606471 -0.13417429 -0.054950826 0.23702392
-0.14456667 -0.15976429 -0.11164993 0.006581007 -0.026987648 0.02537532 0.056726143 0.0055725407
-0.08349094 -0.12892112 0.030688526 -0.0653954 0.21019007 0.05729721 0.06206572 0.013063832
-0.13663338 0.039586496 0.14382154 -0.17457435 0.08242491 0.098563276 -0.043777775 0.044842444
-0.10150674 0.057596516 0.14068648 -0.033441424 0.05522053 0.0016040499 0.103733905 -0.022695268
-0.17793022 0.16072524 -0.10973747 0.11259896 0.14444035 0.10017959 0.20611499 -0.12993293
0.029265605 -0.18884808 0.14744197 -0.010333 0.0869931 0.033446275 0.09156756 -0.15965907
-0.0052946904 0.1030976 0.16799898 0.10099374 -0.0029500853 0.09181643 -0.17569405 -0.23193088
0.09940943 -0.11167633 0.09423752 0.060442574 -0.11414639 0.06118033 0.10949728 -0.124962896
0.14084041 0.010544884 0.09274485 0.19224726 0.0454918 0.1775198 0.046350073 -0.11038187
-0.12952746 -0.059868935 -0.13097024 -0.07931373 0.15402834 -0.015514414 -0.11053378 -0.10994255
0.07960964 -0.027324753 0.17197792 0.07060382 0.11353476 0.03783765 -0.10183794 0.21244624
-0.047104176 0.057522137 0.11405053 -0.11910849 -0.023943912 -0.16573714 0.04460079 0.20497553
0.045687165 -0.09133753 -0.10896289 -0.15820771 -0.041342933 -0.05608365 0.18695685 -0.1151716
-0.0820962 -0.13758293 0.14707822 -0.12096649 -0.1834514 -0.021233868 0.13581175 -0.0891513
0.040506832 -0.0899407 0.15319218 -0.14764717 0.1894515 -0.03894588 0.10806739 -0.02369462
0.026615389 0.022981668 0.15391953 0.0041623944 0.02362698 -0.16184033 0.0631742 0.04523951
-0.043723505 -0.123296104 0.16705641 -0.087689504 0.19940758 0.13710955 0.15242033 -0.05232402
-0.060034044 0.15013966 -0.13699573 -0.1319628 0.21111456 0.11840897 0.042532086 -0.042284504
-0.047853354 -0.14542761 0.12686548 0.14361514 -0.1589587 0.100138105 -0.1573097 -0.04166314
0.109806664 0.17717637 -0.07769099 -0.068649955 0.13460484 0.1502536 -0.07471582 0.16648069
-0.16224523 -0.18913467 0.13318373 -0.008263855 -0.041232932 -0.11077501 0.09157581 0.15192458
0.11773991 0.15785122 0.16084832 -0.076247126 0.16638039 -0.11143503 -0.18073396 0.0007428602
00000000: aef1 05bc c3c2 00be b1ea ecbd e5b0 dd3d
00000010: a028 053e 0af9 cd3d 1ab8 bbbd 1b4d 0fbe
00000020: 264b 14bc 0b63 80bc 44b3 023e a941 e3bd
00000030: 87bd d6bd fea0 cfbd 0e63 37be 9786 d53d
00000040: cc4c 6bba cfbe 88bc 6a2b 8fbd 55f8 933d
00000050: 8dd7 09bd 2996 1abd cffc 843d fee9 afbb
00000060: fcd6 483e d988 31bc d524 123e 3ee3 29bd
00000070: a20d d9bd 69b0 4e3d df80 cc3d afb4 ea3c
00000080: cfe3 b5bd 4c87 f73c 6644 be3d 2a8a 8b3c
00000090: f9da fabd cd3b 493c 7cbd 1fbd 33e5 a73d
000000a0: 1b65 f73d 9b1b 09bd 803e 0c3d 09a3 e1bc
000000b0: 2e59 9fbd baf9 273d 9d27 68bc 35d5 3f3d
000000c0: c568 97bc e120 6fbe 3155 abbd 9373 073e
000000d0: 9a9d 3dbd 78fa 453e 4d10 283e 8cb3 0f3e
000000e0: da95 263e 10ad 183e 17a9 e0bc deb2 863d
000000f0: 45ca 663e d2bc 76bc 428f 11be c9f3 033e
00000100: acfa fabd 9bf4 c7bd 3f31 6d3e 8eba 33be
00000110: 9c5c df3c 625f 853e 0744 7d3e 6398 323e
00000120: f212 38bd bd0f ffbd 9443 c03d a8dd 47be
00000130: fd91 153e fc64 09be 1e14 61bd 66b6 723e
00000140: 4909 14be 4099 23be b8a8 e4bd 7da5 d73b
00000150: 3315 ddbc e7df cf3c ac59 683d dc99 b63b
00000160: 4cfd aabd e603 04be 8166 fb3c 06ee 85bd
00000170: 113c 573e 7bb0 6a3d a038 7e3d af09 563c
00000180: 9fe9 0bbe 7325 223d f445 133e 9ec3 32be
00000190: 64ce a83d 8bdb c93d 5350 33bd b6ac 373d
000001a0: c4e2 cfbd 53ea 6b3d 1e10 103e e0f9 08bd
000001b0: ec2e 623d fc3e d23a 7172 d43d 6deb b9bc
000001c0: 5733 36be 2895 243e 0abe e0bd 499a e63d
000001d0: 2ce8 133e f52a cd3d cf0f 533e 230d 05be
000001e0: 6cbe ef3c 6461 41be 07fb 163e be4b 29bc
000001f0: 7029 b23d f6fe 083d c687 bb3d ab7d 23be
00000200: 157f adbb d624 d33d ed07 2c3e ced5 ce3d
00000210: 3856 41bb 410a bc3d 24e9 33be 4a7f 6dbe
00000220: 2c97 cb3d 8fb6 e4bd 9aff c03d a292 773d
00000230: 95c5 e9bd 3a98 7a3d 1c40 e03d 8cec ffbd
00000240: 7838 103e 73c4 2c3c 03f1 bd3d 77dc 443e
00000250: 9c55 3a3d c0c7 353e 93d9 3d3d e40f e2bd
00000260: d9a2 04be 2139 75bd 101d 06be 3d6f a2bd
00000270: 9bb9 1d3e 2b30 7ebc 895f e2bd 8f29 e1bd
00000280: 610a a33d 29d8 dfbc fb1a 303e bc98 903d
00000290: ea84 e83d a7fb 1a3d 6990 d0bd 828b 593e
000002a0: 4ff0 40bd 559c 6b3d 5393 e93d 27ef f3bd
000002b0: 0626 c4bc ffb6 29be 51af 363d 1be5 513e
000002c0: 7722 3b3d 2c0f bbbd f027 dfbd 3401 22be
000002d0: 3557 29bd f8b7 65bd 9e71 3f3e 16df ebbd
000002e0: 0d22 a8bd 8ae2 0cbe ac9b 163e 47bd f7bd
000002f0: afda 3bbe a6f2 adbc 3c12 0b3e f594 b6bd
00000300: 7eea 253d d432 b8bd 69de 1c3e d230 17be
00000310: 93ff 413e b785 1fbd 7052 dd3d 381b c2bc
00000320: 8408 da3c 0d44 bc3c 159d 1d3e b264 883b
00000330: 5e8d c13c 79b9 25be 7a61 813d 104d 393d
00000340: 6b17 33bd ab82 fcbd d610 2b3e 8e96 b3bd
00000350: 8031 4c3e 7266 0c3e 1314 1c3e b651 56bd
00000360: 42e6 75bd 36be 193e 9c48 0cbe 4221 07be
00000370: 6a2e 583e 6780 f23d 2036 2e3d 8432 2dbd
00000380: e101 44bd faea 14be 06e9 013e d90f 133e
00000390: 12c6 22be 3515 cd3d cb15 21be f8a6 2abd
000003a0: 51e2 e03d b96d 353e 741c 9fbd 5998 8cbd
000003b0: dad5 093e 14dc 193e 9c04 99bd ea79 2a3e
000003c0: 9d23 26be 85ac 41be 5161 083e 1f65 07bc
000003d0: dde3 28bd 02de e2bd 198c bb3d 1e92 1b3e
000003e0: 9f21 f13d c0a3 213e 6cb5 243e 7427 9cbd
000003f0: 9f5f 2a3e 0d38 e4bd 5312 39be 81bc 423a

encoder.encoder.weight_hh_l0 f4 [128, 32]
-0.18996878 -0.18876179 0.10098589 0.16598317 -0.0987586 0.014630324 0.048944864 -0.1123697
-0.08695884 0.0906966 0.13243417 -0.10089504 0.121404715 -0.09604868 0.2514603 0.13974653
-0.0694862 0.013883699 -0.12248394 -0.013994463 0.098315604 0.09602227 -0.009449881 0.0867258
-0.05174482 -0.06193167 -0.10320815 -0.0053132875 0.084336706 -0.19586757 -0.14013131 0.11895152
-0.051507346 -0.038117096 0.1255913 -0.12070336 0.10994729 -0.1572731 -0.040683657 -0.15741277
0.006152129 -0.02976723 -0.257372 0.052820515 0.07659689 -0.054685887 0.055948935 -0.040981576
-0.08350624 -0.0725165 -0.009993501 -0.19667931 -0.021904211 -0.16494471 -0.06697804 0.15487911
0.056968264 -0.18710445 -0.09142728 0.2374272 -0.17279403 -0.24671093 0.012324908 0.07208159
-0.029905127 0.10940211 -0.12521416 -0.033706363 -0.08133491 -0.13474388 -0.10418447 0.04330536
0.093582116 -0.14208275 -0.036281124 -0.11453425 0.10076549 0.09987768 0.08785099 0.12763634
-0.022594634 -0.08484752 0.023461048 -0.0028387697 -0.08735428 -0.1047253 -0.076912165 -0.008925164
0.101545446 -0.06996371 -0.14729653 0.058043703 -0.069763646 -0.11836809 0.1798861 0.2296993
-0.029899027 -0.13576925 -0.03909096 0.06068216 -0.10061305 -0.14947122 0.088603124 -0.011397325
-0.13006292 -0.09295081 0.17177664 -0.004683811 0.021750432 0.04992399 0.2703983 0.016525215
0.0361541 -0.13262695 0.101141326 -0.11873444 -0.15200178 -0.1316006 0.05567715 -0.11848476
0.10997159 0.03755737 -0.15415569 -0.02271191 -0.16786529 0.10036745 0.056664128 0.06636584
-0.24232367 -0.16826205 0.07403774 -0.2403208 0.06532106 -0.11220634 -0.30196363 0.032581035
0.011266698 -0.08852025 0.17455183 0.14298241 0.12917447 0.02030087 0.140889 -0.15308279
0.10653223 -0.06465013 0.017816512 -0.07945858 0.10207421 0.07194074 -0.11273133 0.24573973
0.12305521 0.05127323 -0.23124821 -0.1816773 -0.18350832 -0.10397758 0.0140161505 0.20322073
-0.05487068 0.059933715 -0.08803951 -0.13985129 0.16201752 0.027485745 0.07735805 -0.03374734
0.06873701 0.046547532 0.055201754 0.057996478 0.077389434 0.061871115 -0.15750842 0.041495092
0.18156216 0.06021718 0.038921885 -0.018208286 -0.030318879 0.12548305 0.0009833896 0.18543944
0.21150091 -0.042338826 -0.030825425 -0.02303748 0.1379633 -0.03159761 0.13199769 -0.09281712
-0.042941354 -0.071893334 0.11291918 0.034823786 -0.008192928 -0.15713336 -0.027564067 0.06674231
0.10704146 -0.14008352 0.09843207 -0.052946188 -0.10221274 -0.027512435 0.251512 -0.10558251
0.015828533 -0.04504189 0.08140809 0.06611825 0.051526435 -0.15876195 0.1739855 -0.08714162
0.19936593 -0.00024991107 -0.13159402 0.0454248 0.042120013 0.028065555 -0.041481607 0.19132091
-0.1469035 -0.17805155 0.15662347 0.071527675 0.042032804 0.058762487 0.03852845 0.084115535
0.1144331 -0.14606659 0.007886497 -0.15525971 0.055456907 -0.008557454 0.18552175 -0.105562605
0.07705817 -0.182406 0.11194477 0.032144565 0.033247206 -0.007265971 -0.029886711 0.09182729
-0.033409737 0.053425696 0.05565392 -0.10121682 -0.08149486 -0.05127773 0.18910614 0.051996887
00000000: 2d87 42be c54a 41be b1d1 ce3d 7ef7 293e
00000010: f341 cabd 07b4 6f3c 697a 483d 1622 e6bd
00000020: 7a17 b2bd 24bf b93d d39c 073e 0fa2 cebd
00000030: 09a3 f83d 2cb5 c4bd 68bf 803e b719 0f3e
00000040: c84e 8ebd 7478 633c dcd8 fabd 0849 65bc
00000050: b159 c93d 53a7 c43d acd3 1abc 4c9d b13d
00000060: 60f2 53bd 10ac 7dbd cb5e d3bd 161b aebb
00000070: b9b8 ac3d 8291 48be 957e 0fbe db9c f33d
00000080: 5ef9 52bd ac20 1cbd 019b 003e 5333 f7bd
00000090: 0b2c e13d 330c 21be e8a3 26bd d030 21be
000000a0: cc97 c93b 68da f3bc 43c6 83be 535a 583d
000000b0: d5de 9c3d 4ffe 5fbd b62a 653d 4cdc 27bd
000000c0: 5205 abbd 8883 94bd c8bb 23bc 4d66 49be
000000d0: 7670 b3bc 44e7 28be c82b 89bd a198 1e3e
000000e0: 8e57 693d 4f98 3fbe 3a3e bbbd 1e20 733e
000000f0: ebf0 30be caa1 7cbe 69ee 493c 839f 933d
00000100: 99fb f4bc 370e e03d 2438 00be af0f 0abd
00000110: eb92 a6bd 4dfa 09be ab5e d5bd f660 313d
00000120: fba7 bf3d 247e 11be 849b 14bd ef90 eabd
00000130: 235e ce3d ab8c cc3d 38eb b33d 1ab3 023e
00000140: 6218 b9bc 89c4 adbd 6231 c03c a70a 3abb
00000150: cde6 b2bd 387a d6bd 2084 9dbd da3a 12bc
00000160: 0ff7 cf3d 2249 8fbd e7d4 16be 3cbf 6d3d
00000170: 3ee0 8ebd f86a f2bd 1034 383e 4b36 6b3e
00000180: ceee f4bc 1807 0bbe d81d 20bd db8d 783d
00000190: 370e cebd fc0e 19be 8e75 b53d d9bb 3abc
000001a0: 372f 05be ff5c bebd 37e6 2f3e a87a 99bb
000001b0: f62d b23c 197d 4c3d a571 8a3e e35f 873c
000001c0: 5216 143d 5ccf 07be 2f23 cf3d 0b2b f3bd
000001d0: 5ba6 1bbe 4fc2 06be b90d 643d 23a8 f2bd
000001e0: c938 e13d c2d5 193d fdda 1dbe 540e babc
000001f0: e1e4 2bbe 738d cd3d a518 683d d0ea 873d
00000200: b223 78be e34c 2cbe 19a1 973d a816 76be
00000210: 0cc7 853d 70cc e5bd fa9a 9abe b173 053d
00000220: f597 383c 1b4a b5bd b7bd 323e fb69 123e
00000230: 5046 043e 034e a63c 3545 103e bcc1 1cbe
00000240: 922d da3d 4a67 84bd eff3 913c 2ebb a2bd
00000250: 490c d13d ab55 933d afdf e6bd 32a3 7b3e
00000260: 5f04 fc3d e103 523d 55cc 6cbe 9d09 3abe
00000270: 9be9 3bbe 33f2 d4bd ffa3 653c 1819 503e
00000280: 14c0 60bd 0e7d 753d 0f4e b4bd 2d35 0fbe
00000290: ece7 253e c929 e13c e66d 9e3d a73a 0abd
000002a0: fdc5 8c3d a0a8 3e3d 3c1b 623d b78d 6d3d
000002b0: 5a7e 9e3d 916c 7d3d e349 21be c2f6 293d
000002c0: 6eeb 393e 4aa6 763d 8e6c 1f3d 8b29 95bc
000002d0: 4c5f f8bc a17e 003e 14e5 803a d6e3 3d3e
000002e0: b293 583e 7a6b 2dbd 9a85 fcbc 19b9 bcbc
000002f0: 4046 0d3e 7f6c 01bd 672a 073e e716 bebd
00000300: 46e3 2fbd d03c 93bd 2c42 e73d 63a3 0e3d
00000310: a13b 06bc 91e7 20be 0ace e1bc 31b0 883d
00000320: 8e38 db3d 0e72 0fbe c196 c93d 1ade 58bd
00000330: ea54 d1bd c261 e1bc 2ec6 803e a53b d8bd
00000340: d7aa 813c d87d 38bd 49b9 a63d 0169 873d
00000350: 620d 533d 7e92 22be 4129 323e 4e77 b2bd
00000360: 9526 4c3e 7f06 83b9 95c0 06be 5b0f 3a3d
00000370: 0986 2c3d bce9 e53c 9ee8 29bd a1e9 433e
00000380: df6d 16be 2553 36be e761 203e 1a7d 923d
00000390: 972a 2c3d efb0 703d 02d0 1d3d c444 ac3d
000003a0: e75b ea3d 7b92 15be 5e36 013c 67fc 1ebe
000003b0: c826 633d 9034 0cbc 6af9 3d3e 3531 d8bd
000003c0: add0 9d3d a3c8 3abe 4d43 e53d 05aa 033d
000003d0: 392e 083d 6217 eebb fad4 f4bc f20f bc3d
000003e0: a6d8 08bd e7d4 5a3d 5df5 633d c44a cfbd
000003f0: c7e6 a6bd 9908 52bd 0aa5 413e b0fa 543d

encoder.encoder.bias_ih_l0 f4 [128]
-0.150907 0.054745127 -0.10845832 0.19060127 -0.0018080093 0.21200323 0.19010064 -0.032348495
0.050233256 -0.010949223 0.0037477296 0.14700426 0.14610313 0.13239715 -0.14379324 0.07087694
0.19128348 0.114357606 0.05960794 0.13435227 -0.008600721 -0.058853593 -0.049113262 0.051715337
0.21093397 0.05155858 -0.10863216 0.020392895 0.10799964 0.007383148 0.03822587 -0.00090655894
0.046678584 -0.08403822 -0.16478404 0.08884906 -0.11192236 0.072059795 -0.09378919 -0.13875127
0.0906228 0.032021545 0.09858169 0.11215863 -0.12588494 -0.08213192 0.16106753 -0.14716363
0.11533016 -0.11321049 0.004758248 -0.09838098 -0.043825332 0.031572122 0.15421472 0.060183633
0.11284819 -0.111384645 0.07222522 0.17810604 0.049477153 0.044697892 -0.029622592 -0.132448
-0.18102753 0.12874143 0.08928196 -0.05060763 0.06456278 -0.07456277 -0.052201886 -0.03271073
-0.17348213 0.019222392 0.17493305 0.11408857 -0.020906685 0.1196518 -0.16768949 0.07312465
0.10212125 0.07454781 -0.026659911 0.030720433 -0.014087934 0.024121342 -0.15996745 0.13704903
-0.010459655 -0.14129215 -0.029096493 -0.11977721 0.10007479 0.1426024 -0.06361915 -0.13993357
-0.0610963 0.014790288 0.21942915 -0.04672424 0.05358759 -0.073669344 0.019854687 0.054661937
0.03325558 0.094355404 0.19101585 0.18752462 0.06414942 0.11207595 -0.109043 0.08975519
-0.10461395 0.021780143 0.24715321 0.2011909 -0.055492476 -0.061828796 0.23361976 -0.048529252
-0.080419905 0.1940846 -0.042204913 -0.022426536 0.120125085 0.10143394 0.024955496 -0.105941035
00000000: 5d87 1abe 6d3c 603d 651f debd fb2c 433e
00000010: bafa ecba 6017 593e bea9 423e db7f 04bd
00000020: 63c1 4d3d 5f64 33bc 789c 753b 4988 163e
00000030: 0f9c 153e 1e93 073e 893e 13be ee27 913d
00000040: d1df 433e 5234 ea3d 7527 743d a493 093e
00000050: 0aea 0cbc 7710 71bd fd2a 49bd 76d3 533d
00000060: 13ff 573e 172f 533d 8a7a debd 000f a73c
00000070: ea2e dd3d 56ee f13b bb92 1c3d 24a6 6dba
00000080: 0b32 3f3d 3b1c acbd 26bd 28be 7ff6 b53d
00000090: 8d37 e5bd 1694 933d 8c14 c0bd d014 0ebe
000000a0: 7298 b93d 0629 033d 32e5 c93d 6cb3 e53d
000000b0: fbe7 00be c834 a8bd e3ee 243e 10b2 16be
000000c0: 3832 ec3d e7da e7bd 14eb 9b3b f87b c9bd
000000d0: 3182 33bd c551 013d 77ea 1d3e 1d83 763d
000000e0: f41c e73d a21d e4bd d1ea 933d 6e61 363e
000000f0: 8ea8 4a3d 2315 373d 14ab f2bc 73a0 07be
00000100: 485f 39be cbd4 033e 76d9 b63d f249 4fbd
00000110: 7e39 843d 5eb4 98bd a5d1 55bd b0fb 05bd
00000120: 4da5 31be 4778 9d3c a621 333e 45a7 e93d
00000130: 7f44 abbc 010c f53d cbb6 2bbe 60c2 953d
00000140: f224 d13d 86ac 983d e365 dabc 6ba9 fb3c
00000150: 14d1 66bc 1f9a c53c 82ce 23be 9556 0c3e
00000160: f95e 2bbc e4ae 10be c55b eebc c14d f5bd
00000170: 03f4 cc3d 5d06 123e c24a 82bd bf4a 0fbe
00000180: 1d40 7abd f752 723c 09b2 603e eb61 3fbd
00000190: a97e 5b3d f4df 96bd 4ca6 a23c 32e5 5f3d
000001a0: 0137 083d 683d c13d a999 433e 7406 403e
000001b0: c560 833d 1388 e53d f051 dfbd 92d1 b73d
000001c0: d73f d6bd 456c b23c bb15 7d3e fd04 4e3e
000001d0: 144c 63bd 3140 7dbd 053a 6f3e 9cc6 46bd
000001e0: 31b3 a4bd 1dbe 463e 0fdf 2cbd dbb7 b7bc
000001f0: 2404 f63d 99bc cf3d 786f cc3c 9df7 d8bd

encoder.encoder.bias_hh_l0 f4 [128]
0.030103037 0.050340332 -0.06278411 -0.06490445 0.28277802 0.0070142127 -0.08597047 0.050825417
-0.14793162 -0.1401464 0.2107466 -0.011169255 -0.113429666 -0.0518909 0.13922754 -0.10493245
0.08335313 -0.15442063 0.0069299615 0.0045333575 0.12466423 -0.010003606 -0.048731674 -0.009830482
-0.055009216 0.04381306 -0.07083452 0.13872199 -0.027093481 0.0881904 -0.10954881 0.207682
0.13789476 -0.023570614 0.10100444 -0.01438695 -0.22837216 -0.10006772 -0.044353347 -0.034572974
0.14564152 -0.15258504 0.109406434 0.14022435 0.05322744 0.082912445 0.15638079 -0.007993576
0.17640248 0.052548956 0.14118136 -0.1399703 -0.10280561 0.07452516 -0.119889185 -0.0406704
0.16167812 0.07435184 -0.06543577 0.15080678 0.11639846 0.02049363 -0.20512965 0.119935356
-0.025859302 -0.08738388 0.0033967027 -0.020930057 0.027683176 -0.14359164 -0.15776557 0.01388292
-0.039762083 0.050194964 -0.07738192 0.015454625 0.13667583 -0.05166136 0.10914029 -0.17729712
0.12011652 0.023633368 -0.21665259 0.013973198 0.09044021 -0.10699924 0.09042349 0.23239797
0.09840954 0.002743246 0.05388684 -0.05757331 -0.17709944 -0.07281109 -0.15888676 0.1358431
0.029496085 -0.044473838 -0.05697727 0.072777055 0.21324518 -0.051138766 0.21476834 0.033005677
0.07831918 -0.030382622 0.15809561 0.21959743 -0.07966477 0.18072562 0.043875735 0.16198255
-0.05210568 0.048724167 0.24949414 -0.08283303 0.16071697 0.21881136 0.24778476 -0.069648005
0.114347026 0.063259564 0.011305493 0.17010094 0.026806526 0.1634705 0.021222113 -0.013289627
00000000: a59a f63c aa31 4e3d f594 80bd a0ec 84bd
00000010: 48c8 903e 7bd7 e53b 4911 b0bd 502e 503d
00000020: 637b 17be 8a82 0fbe f5cd 573e 40ff 36bc
00000030: d04d e8bd 8d8b 54bd aa91 0e3e d3e6 d6bd
00000040: 0cb5 aa3d 7120 1ebe bb14 e33b 8f8c 943b
00000050: f64f ff3d 2ae6 23bc dd9a 47bd 0810 21bc
00000060: 5851 61bd 5375 333d b011 91bd 230d 0e3e
00000070: 26f3 ddbc 2b9d b43d 205b e0bd 97aa 543e
00000080: 4934 0d3e 2917 c1bc 6adb ce3d 3eb7 6bbc
00000090: 64da 69be 4ef0 ccbd dbab 35bd 649c 0dbd
000000a0: 0d23 153e 413f 1cbe 7b10 e03d f996 0f3e
000000b0: 0405 5a3d 00ce a93d 4922 203e 7df7 02bc
000000c0: daa2 343e 933d 573d d991 103e 6054 0fbe
000000d0: bf8b d2bd a6a0 983d 7688 f5bd 0196 26bd
000000e0: f38e 253e c745 983d 3003 86bd 186d 1a3e
000000f0: 5162 ee3d 42e2 a73c 820d 52be aba0 f53d
00000100: e3d6 d3bc 52f6 b2bd 379b 5e3b 8375 abbc
00000110: d4c7 e23c b009 13be 4c8d 21be 3075 633c
00000120: 91dd 22bd 3c99 4d3d 697a 9ebd 6535 7d3c
00000130: c0f4 0b3e dd9a 53bd f284 df3d 608d 35be
00000140: a6ff f53d c49a c13c 2dda 5dbe d7ef 643c
00000150: b838 b93d 6b22 dbbd f32f b93d bcf9 6d3e
00000160: f18a c93d 08c8 333b 72b8 5c3d fed1 6bbd
00000170: 8e59 35be fb1d 95bd 36b3 22be 741a 0b3e
00000180: c6a1 f13c 332a 36bd ff60 69bd 230c 953d
00000190: f25c 5a3e e276 51bd 3bec 5b3e f630 073d
000001a0: ce65 a03d fae4 f8bc d1e3 213e 26de 603e
000001b0: 4827 a3bd 2310 393e 0bb7 333d c1de 253e
000001c0: c46c 55bd fe92 473d 647b 7f3e 5da4 a9bd
000001d0: fd92 243e 1610 603e 4abb 7d3e 9da3 8ebd
000001e0: c62e ea3d 3b8e 813d ad3a 393c f12e 2e3e
000001f0: 5c99 db3c d064 273e ffd9 ad3c bcbc 59bc

encoder.spatial_embedding.weight f4 [16, 2]
-0.2428997 -1.6379198 1.0747312 0.46487448 0.98126346 1.1508777 -1.0767117 -0.6154055
-0.048606783 -0.19977553 -0.9685015 -0.28334036 0.4323712 -2.0202737 -0.07719493 -2.2866588
1.4300208 0.4607841 -0.91210324 -0.64072526 0.8540066 -1.2835437 -2.2909966 -0.056026492
-0.81897366 -1.4068778 -1.2709311 -0.20103492 -0.0771195 0.77278966 -2.5725164 -0.33055806
00000000: b3ba 78be 5ba7 d1bf cb90 893f 0704 ee3e
00000010: 1534 7b3f f64f 933f b0d1 89bf 378b 1dbf
00000020: e817 47bd f591 4cbe b7ef 77bf fd11 91be
00000030: c25f dd3e 2a4c 01c0 6018 9ebd 9e58 12c0
00000040: ec0a b73f e5eb eb3e 997f 69bf 9206 24bf
00000050: 2da0 5a3f 294b a4bf b09f 12c0 097c 65bd
00000060: 42a8 51bf 9214 b4bf dfad a2bf 19dc 4dbe
00000070: d4f0 9dbd 8bd5 453f 1ca4 24c0 e83e a9be

encoder.spatial_embedding.bias f4 [16]
-0.6758059 -0.4017241 0.52024394 -0.24428211 0.13727623 0.4899441 0.33645445 0.09472553
0.2030827 0.044412713 0.718002 -0.43193743 0.4521063 -0.5297094 -0.53987396 0.24991295
00000000: 9e01 2dbf c8ae cdbe b52e 053f 1725 7abe
00000010: 2492 0c3e f4d9 fa3e c243 ac3e 75ff c13d
00000020: e9f4 4f3e 1bea 353d fbce 373f e726 ddbe
00000030: 7a7a e73e 099b 07bf 2e35 0abf 2ee9 7f3e

decoder.decoder.weight_ih_l0 f4 [128, 16]
0.08793387 -0.09638217 0.09331457 -0.07570272 -0.11488685 0.0952962 0.16671339 0.079063565
-0.08015984 0.14956962 0.064473346 0.124008656 -0.043532595 -0.11149576 -0.118138894 0.037726298
-0.042897895 -0.13289991 -0.008995896 0.16071546 -0.10837115 -0.17017046 0.09342333 0.16815403
-0.019764092 -0.11584032 0.07812671 -0.09115412 -0.08484474 0.12713157 0.017923167 0.059409462
-0.018939544 0.124777324 0.17454332 -0.053014882 -0.032782644 0.09333899 -0.018022502 -0.12807885
0.072519556 0.115470216 0.14070447 0.15020902 -0.07532414 0.02308444 0.057130177 -0.10865121
0.13120638 -0.017454803 0.07672371 -0.1719589 -0.17568576 0.15294057 0.027576424 -0.1720426
0.1299399 -0.13848041 0.13761742 0.023573035 -0.07461827 0.039585974 -0.14601849 -0.033083558
-0.042452183 0.019573318 -0.07715437 0.13353546 -0.052504376 0.09504673 0.061250295 -0.20983845
-0.021819582 0.06758984 -0.19194661 -0.04810438 0.0038887258 -0.042638477 -0.030506464 0.004148408
-0.10788864 0.16180998 0.061167367 0.06270257 0.06149062 -0.06837858 -0.15392625 0.1363527
0.1437393 -0.1351271 0.18633014 0.18410695 -0.11419984 0.061847173 0.16473503 -0.1724842
-0.12809166 0.042182773 -0.07634455 -0.13811538 -0.0047017303 0.096299596 0.10717223 -0.18840793
-0.07345016 -0.049080495 -0.039980028 -0.04520424 -0.1805787 -0.15541191 -0.116517484 0.10693639
0.06347795 0.04801332 0.075352155 -0.032409407 -0.13953817 0.049786374 0.08615884 0.13127406
-0.045758028 0.18599808 -0.12200012 0.17700878 0.02752672 0.015665676 0.1331692 -0.016555179
-0.00977149 0.11295813 -0.07648949 0.0012109389 -0.05321874 0.052437175 0.014067698 -0.04030374
-0.07104961 0.040979102 0.08660597 -0.07443696 -0.13943215 0.009041594 0.11159192 0.048112515
0.17668441 0.12169741 -0.052549206 0.13536848 0.009139925 0.09357813 -0.098343834 -0.041883297
-0.06825271 -0.083407044 0.023762288 -0.008459282 0.01922414 0.13193513 -0.03914286 -0.0645297
-0.055079643 -0.07969997 -0.14582318 0.17555968 0.13094871 -0.1480256 -0.048430346 0.06905722
-0.042213418 -0.17806323 0.14019528 0.06465747 0.07278606 0.0011335525 -0.024206785 -0.1831215
0.15023783 0.09084565 -0.066980466 0.09122806 0.018148165 -0.028895559 0.15996481 0.115328595
-0.18187875 0.012627821 -0.16930024 0.17654873 0.0741575 0.031749412 -0.1071618 0.0033399675
0.0036197407 0.058395848 -0.023026315 -0.09498106 -0.011609447 0.09148385 0.06482178 -0.010166753
-0.03596702 0.07099497 -0.10675398 -0.10382156 0.12666251 -0.102850996 0.11806951 -0.14252433
-0.07868771 0.047335826 0.103238896 -0.09515665 -0.077268615 0.021223685 -0.013183172 -0.016782891
0.011933802 0.14070952 0.043201663 -0.11598358 0.16387293 -0.050573677 -0.058367427 0.025702544
0.107199535 0.097428836 0.050329324 -0.12796757 0.016019192 0.0062222374 0.11290329 -0.03179753
-0.10655341 0.08901516 -0.13248286 0.14582233 0.014096239 -0.04826041 -0.07031948 -0.1618586
0.08253482 0.13858442 -0.002072354 0.088687465 0.1942651 -0.05703556 -0.13461955 0.1816734
0.17974892 -0.063068226 -0.008992395 -0.09971742 -0.07951092 0.06487716 -0.042212848 -0.12726732
00000000: ac16 b43d 0464 c5bd b61b bf3d 070a 9bbd
00000010: cc49 ebbd a72a c33d eab6 2a3e 14ec a13d
00000020: d82a a4bd c728 193e 9a0a 843d 40f8 fd3d
00000030: 3c4f 32bd e457 e4bd cef2 f1bd e486 1a3d
00000040: b4b5 2fbd ea16 08be 8663 13bc 9892 243e
00000050: b2f1 ddbd 2a41 2ebe bb54 bf3d 9230 2c3e
00000060: 4ee8 a1bc b13d edbd e600 a03d 03af babd
00000070: 14c3 adbd c72e 023e 9bd3 923c 5657 733d
00000080: 1a27 9bbc 418b ff3d 7cbb 323e 2226 59bd
00000090: 1847 06bd 8328 bf3d eda3 93bc 1a27 03be
000000a0: 2285 943d a67b ec3d d514 103e 65d0 193e
000000b0: 8b43 9abd 941b bd3c 5501 6a3d 8784 debd
000000c0: f75a 063e 60fd 8ebc 5221 9d3d fe15 30be
000000d0: f8e6 33be 749c 1c3e f4e7 e13c ef2b 30be
000000e0: f70e 053e cfcd 0dbe 95eb 0c3e 3d1c c13c
000000f0: 77d1 98bd e724 223d df85 15be a082 07bd
00000100: 57e2 2dbd 3958 a03c 1c03 9ebd 85bd 083e
00000110: d40e 57bd dca7 c23d 97e1 7a3d e4df 56be
00000120: fbbe b2bc 8b6c 8a3d a78d 44be 1909 45bd
00000130: fed9 7e3b afa5 2ebd b1e8 f9bc 5eef 873b
00000140: b8f4 dcbd 84b1 253e a28a 7a3d 346a 803d
00000150: 97dd 7b3d 120a 8cbd d89e 1dbe 0ba0 0b3e
00000160: 6530 133e c25e 0abe 54cd 3e3e 8886 3c3e
00000170: 9be1 e9bd 7653 7d3d 4db0 283e b39f 30be
00000180: 762a 03be d8c7 2c3d 885a 9cbd 1e6e 0dbe
00000190: f910 9abb b938 c53d 1d7d db3d 02ee 40be
000001a0: 0a6d 96bd a108 49bd 19c2 23bd 1528 39bd
000001b0: 9fe9 38be 4d24 1fbe b8a0 eebd 7701 db3d
000001c0: ba00 823d 9da9 443d 3b52 9a3d babf 04bd
000001d0: 18e3 0ebe ccec 4b3d 0c74 b03d b56c 063e
000001e0: c56c 3bbd 4876 3e3e 33db f9bd ca41 353e
000001f0: b77f e13c 4e55 803c 825d 083e ba9e 87bc
00000200: 9918 20bc 9856 e73d 86a6 9cbd 5eb8 9e3a
00000210: e5fb 59bd 5dc8 563d 347c 663c 8915 25bd
00000220: 7582 91bd b4d9 273d 795e b13d 6872 98bd
00000230: 4dc7 0ebe 3223 143c 4e8a e43d a111 453d
00000240: c2ec 343e 7e3c f93d d63d 57bd 099e 0a3e
00000250: a0bf 153c e4a5 bf3d 7e68 c9bd d28d 2bbd
00000260: 14c8 8bbd 50d1 aabd 21a9 c23c cd98 0abc
00000270: f27b 9d3c 011a 073e 4354 20bd 2628 84bd
00000280: 319b 61bd bd39 a3bd ac52 15be ebc5 333e
00000290: 6b17 063e 0694 17be e65e 46bd df6d 8d3d
000002a0: fae7 2cbd 3556 36be 5a8f 0f3e 236b 843d
000002b0: dc10 953d b693 943a 4f4d c6bc 3484 3bbe
000002c0: f2d7 193e 490d ba3d 0e2d 89bd c7d5 ba3d
000002d0: 76ab 943c 61b6 ecbc d1cd 233e 6631 ec3d
000002e0: 6c3e 3abe ece4 4e3c 0b5d 2dbe 31c9 343e
000002f0: e3df 973d ac0b 023d a577 dbbd 5be3 5a3b
00000300: 2c39 6d3b 7c30 6f3d afa1 bcbc 6e85 c2bd
00000310: 8d35 3ebc e25b bb3d 48c1 843d 7492 26bc
00000320: 2752 13bd d065 913d d5a1 dabd 66a0 d4bd
00000330: d1b3 013e 8ba3 d2bd 6dce f13d e6f1 11be
00000340: 0627 a1bd 36e3 413d ea6e d33d 7de1 c2bd
00000350: 023f 9ebd 4bdd ad3c 3bfe 57bc 467c 89bc
00000360: fe85 433c 2816 103e 3af4 303d cd88 edbd
00000370: 4ece 273e 5826 4fbd af12 6fbd 248e d23c
00000380: 6e8b db3d c588 c73d 1f26 4e3d ee09 03be
00000390: ae3a 833c e9e3 cb3b d739 e73d 203e 02bd
000003a0: ad38 dabd 954d b63d 96a9 07be 7352 153e
000003b0: e9f3 663c b5ac 45bd a903 90bd 43be 25be
000003c0: 0408 a93d 13e9 0d3e 55d0 07bb c6a1 b53d
000003d0: 6eed 463e 1f9e 69bd b5d9 09be 9708 3a3e
000003e0: 1a10 383e ea29 81bd d754 13bc a638 ccbd
000003f0: 9fd6 a2bd 51de 843d 61e7 2cbd 5d52 02be

decoder.decoder.weight_hh_l0 f4 [128, 32]
0.05121814 -0.08660074 -0.018767383 0.01676872 0.0760892 -0.0019465567 -0.20406942 -0.07826949
0.12148259 -0.176946 -0.14655365 -0.17642754 -0.109602824 0.065392725 0.06276786 -0.17966968
0.20178294 -0.052949227 -0.10201301 0.1609046 -0.13929303 0.06743717 -0.13879123 -0.14001618
-0.067552716 -0.108638845 0.029529247 0.11987542 0.10208468 -0.087985456 0.06726454 0.043181248
0.16064176 0.123504736 0.19811867 0.1386064 0.07352256 -0.11711805 -0.07513643 0.14073792
0.10103839 0.16775858 0.07014407 -0.037703294 -0.21948697 -0.057684656 0.17312561 -0.16074197
0.16310121 -0.12698492 0.02797106 0.081664704 0.14732474 0.16089419 0.051258344 0.0013690265
-0.06251058 -0.11513886 0.24168599 0.06909526 0.032767035 -0.11878983 0.017748501 0.19920136
0.11054179 0.1166768 0.104235314 0.029386437 -0.024446031 0.20693228 -0.11605862 0.002607829
-0.0067436937 0.039861236 -0.12552784 0.061809942 0.021961857 -0.14615107 0.230355 -0.046625476
0.18736464 -0.06737438 0.01603537 -0.030565556 0.10634405 0.025559405 -0.06607249 0.057602488
0.029826935 0.09061956 0.02498944 -0.26984072 -0.06424505 -0.063940704 -0.04914156 0.0027878156
-0.10141478 -0.1771453 0.068172134 -0.008119158 0.046193887 -0.16747363 0.18090466 -0.16127878
0.1250527 0.17525955 -0.049821727 -0.096666194 -0.1182968 -0.045108806 0.016107405 -0.060854636
0.016124075 -0.111756526 0.022136569 0.10483416 -0.06255494 0.013665632 0.04224763 0.19101912
0.19102404 0.13064797 -0.0052084103 -0.10116159 -0.0037510823 0.075323835 -0.0038450202 0.022908824
0.037266754 -0.044245534 -0.03276693 0.15677764 0.15125751 0.015418475 0.09956539 -0.053884886
-0.009014422 0.050263792 -0.14701813 0.17981113 -0.056414884 0.11104946 -0.033095997 -0.22834258
0.11935247 -0.1370888 0.15818483 -0.071285345 -0.06325661 -0.0648716 0.058713138 -0.04392005
0.011630847 -0.12636814 0.03207222 0.052482307 0.056604408 0.090624906 -0.07240731 0.142697
0.028621275 0.07298976 -0.17377979 0.13885275 -0.104188845 0.10260932 -0.11039202 0.049569465
-0.16354138 0.06838829 -0.13295336 -0.028116219 -0.024369208 0.18338801 -0.10772894 0.031240834
-0.038086288 0.053367395 0.13757977 0.08301291 0.14780599 -0.16500919 0.08964643 0.08606473
-0.013468532 -0.12227849 -0.0075061633 -0.11394559 -0.14169873 -0.11474554 -0.029256621 -0.13836761
-0.04856463 -0.21085794 -0.08333634 -0.0302324 0.055852342 -0.05931368 0.18481438 0.12759759
-0.034349747 0.08517826 -0.18492211 -0.07152911 0.042039912 -0.083770856 0.12782595 -0.09780101
-0.114630945 -0.011042314 0.14063965 -0.1419916 -0.027189793 0.07816805 0.12436589 -0.12956585
-0.03661045 -0.056338504 0.27097842 -0.11447856 0.07484605 -0.035530463 -0.09792981 0.11968084
-0.16194507 -0.14299807 0.10239629 -0.06130432 0.18363869 0.0030381735 0.10074895 0.0859797
0.09029024 -0.045542095 -0.055435117 0.06367308 0.07914203 -0.10026472 0.114930466 0.11865149
0.22067983 -0.1568129 0.030326735 0.15065955 -0.04173974 -0.10197574 0.06074678 -0.07355352
0.023158869 0.08556418 0.0027119345 -0.003325202 -0.09455623 0.14672461 0.039435662 -0.009766604
00000000: 1dca 513d bb5b b1bd 0ebe 99bc 8e5e 893c
00000010: a8d4 9b3d 9b23 ffba 93f7 50be c14b a0bd
00000020: ddcb f83d 5531 35be 2912 16be 6ca9 34be
00000030: 7277 e0bd 9fec 853d 708c 803d 54fb 37be
00000040: 30a0 4e3e 4ae1 58bd 32ec d0bd 2dc4 243e
00000050: d5a2 0ebe 801c 8a3d 4a1f 0ebe 6760 0fbe
00000060: 1459 8abd 0b7e debd 52e7 f13c 3f81 f53d
00000070: c611 d13d b831 b4bd fec1 893d d2de 303d
00000080: 467f 243e 0df0 fc3d 9fdf 4a3e d6ee 0d3e
00000090: ff92 963d 97db efbd 21e1 99bd 9a1d 103e
000000a0: 37ed ce3d e8c8 2b3e b2a7 8f3d c56e 1abd
000000b0: 31c1 60be bf46 6cbd d747 313e 8b99 24be
000000c0: 0104 273e 5608 02be 9023 e53c d33f a73d
000000d0: 4cdc 163e 72c1 243e 45f4 513d e870 b33a
000000e0: 8c05 80bd eccd ebbd 887c 773e d181 8d3d
000000f0: ba36 063d 1548 f3bd 4e65 913c 71fb 4b3e
00000100: bc63 e23d 3ff4 ee3d 5379 d53d d3bb f03c
00000110: 0b43 c8bc 0ee6 533e 24b0 edbd 1ce8 2a3b
00000120: 34fa dcbb 8945 233d 5f8a 00be 6c2c 7d3d
00000130: 5ae9 b33c a0a8 15be 2ee2 6b3e 5bfa 3ebd
00000140: 84dc 3f3e 94fb 89bd 9c5c 833c 9e64 fabc
00000150: e9ca d93d f561 d13c 0351 87bd 96f0 6b3d
00000160: 9e57 f43c bf96 b93d a7b6 cc3c 9028 8abe
00000170: e992 83bd 58f3 82bd a948 49bd c9b3 363b
00000180: 8db2 cfbd 9465 35be d59d 8b3d 3806 05bc
00000190: cd35 3d3d 357e 2bbe 123f 393e 4426 25be
000001a0: d10d 003e 3d77 333e de11 4cbd edf8 c5bd
000001b0: 9845 f2bd 03c4 38bd adf3 833c b642 79bd
000001c0: a316 843c 9be0 e4bd c057 b53c 4bb3 d63d
000001d0: ce1c 80bd d1e5 5f3c da0b 2d3d 849a 433e
000001e0: ce9b 433e 95c8 053e 50ab aabb cf2d cfbd
000001f0: b8d4 75bb 6243 9a3d bcfc 7bbb 49ab bb3c
00000200: 06a5 183d ce3a 35bd 9e36 06bd 518a 203e
00000210: 40e3 1a3e c59d 7c3c f0e8 cb3d 66b6 5cbd
00000220: 3ab1 13bc 68e1 4d3d ec8b 16be 6920 383e
00000230: 4b13 67bd e66d e33d ab8f 07bd a3d2 69be
00000240: 116f f43d 0261 0cbe 34fb 213e 0dfe 91bd
00000250: ae8c 81bd 67db 84bd 307d 703d 83e5 33bd
00000260: 4f8f 3e3c a666 01be 295e 033d b0f7 563d
00000270: 06da 673d 8d99 b93d 494a 94bd 2a1f 123e
00000280: 2a77 ea3c a87b 953d 54f3 31be 6a2f 0e3e
00000290: f660 d5bd d624 d23d 3615 e2bd 5a09 4b3d
000002a0: 6477 27be 290f 8c3d ed24 08be fc53 e6bc
000002b0: efa1 c7bc 11ca 3b3e fea0 dcbd c7ec ff3c
000002c0: 5e00 1cbd c597 5a3d b6e1 0c3e ac02 aa3d
000002d0: 745a 173e 2bf8 28be 8c98 b73d b542 b03d
000002e0: 1eab 5cbc 256d fabd 43f6 f5bb 4e5c e9bd
000002f0: 7919 11be b6ff eabd 95ab efbc 3db0 0dbe
00000300: b5eb 46bd 25eb 57be 3eac aabd f0a9 f7bc
00000310: 6dc5 643d e7f2 72bd fb3f 3d3e f1a8 023e
00000320: 52b2 0cbd f171 ae3d 395c 3dbe db7d 92bd
00000330: 0b32 2c3d 0e90 abbd cee4 023e e54b c8bd
00000340: a1c3 eabd d2ea 34bc d703 103e 3f66 11be
00000350: 21bd debc 9216 a03d 8bb3 fe3d e9ac 04be
00000360: d7f4 15bd 34c3 66bd afbd 8a3e bc73 eabd
00000370: e348 993d 6488 11bd 6d8f c8bd 3a1b f53d
00000380: eed4 25be 166e 12be 25b5 d13d 3d1a 7bbd
00000390: c80b 3c3e 181c 473b 7755 ce3d 2016 b03d
000003a0: 17ea b83d 598a 3abd ef0f 63bd 0867 823d
000003b0: 3715 a23d 9757 cdbd aa60 eb3d 8dff f23d
000003c0: e5f9 613e 9093 20be c66f f83c 7f46 1a3e
000003d0: 4af7 2abd a8d8 d0bd 9ed1 783d 3aa3 96bd
000003e0: abb7 bd3c 463c af3d b6ba 313b a2eb 59bb
000003f0: b2a6 c1bd fa3e 163e 4a87 213d 1b04 20bc

decoder.decoder.bias_ih_l0 f4 [128]
0.061842613 -0.1498698 0.010919001 0.08265354 -0.032925986 -0.16210356 0.08383502 0.014109753
0.093421854 -0.10554587 -0.09522591 0.14559354 0.048689075 0.1426069 0.14857957 0.11823472
0.09565566 -0.109472215 0.15350693 0.19823684 0.1531405 -0.014946978 -0.06438103 0.10915668
-0.026351988 0.16261193 -0.035004232 0.18559991 0.06787778 0.14668372 0.015293944 0.11095552
0.10669664 -0.01419112 0.05134345 -0.018095465 0.15092096 0.029661855 0.10770753 -0.04459043
-0.1042071 0.09830486 0.20864592 -0.053887688 0.043950286 0.079627894 -0.029295798 0.18512532
-0.0034255513 -0.11688982 0.19148995 0.18570821 -0.14978416 0.021044843 0.15255497 0.12988526
0.033682056 0.16301844 0.016678322 0.08008342 0.14674921 -0.03471066 0.04248734 -0.01623795
0.08943572 -0.107982345 -0.073924646 -0.04098452 0.047554728 0.08341603 -0.00661734 -0.15077956
0.12547164 0.0797991 -0.0039476478 -0.001714111 0.040916283 -0.10575703 0.10288462 -0.19264312
0.00583695 -0.041466936 -0.10940825 -0.061504565 -0.087420925 0.068959035 -0.08995384 -0.14376158
-0.05997276 -0.08566565 -0.02588306 -0.10960618 -0.09203523 0.07677357 0.031140307 0.026241088
0.093818866 -0.039128505 0.22150245 -0.09057461 -0.011932777 0.003304687 -0.113889016 -0.07925794
0.12766357 -0.1244134 0.031417705 -0.04264942 0.19768202 -0.06356342 0.13059339 0.19828129
-0.088264816 -0.0473077 0.09378554 0.19932592 0.042219948 0.045842584 -0.10009601 0.023956358
0.029642029 0.0121424785 -0.15390168 -0.03491455 0.054683153 0.03329216 -0.02713951 0.17483874
00000000: ae4e 7d3d 7877 19be 9ce5 323c 4246 a93d
00000010: 66dd 06bd 7afe 25be b2b1 ab3d 982c 673c
00000020: f553 bf3d 6f28 d8bd cd05 c3bd 7916 153e
00000030: 326e 473d 8b07 123e 3e25 183e 0b25 f23d
00000040: 1de7 c33d f832 e0bd ec30 1d3e 99fe 4a3e
00000050: ddd0 1c3e 2be4 74bc 34da 83bd 8a8d df3d
00000060: 20e0 d7bc be83 263e 9960 0fbd e70d 3e3e
00000070: 8103 8b3d 4234 163e 7393 7a3c a63c e33d
00000080: c583 da3d df81 68bc 824d 523d f13c 94bc
00000090: 068b 1a3e 6bfd f23c c495 dc3d 74a4 36bd
000000a0: 886a d5bd 0f54 c93d 47a7 553e 56b9 5cbd
000000b0: 3705 343d f313 a33d befd efbc 7e91 3d3e
000000c0: 377f 60bb ee63 efbd f115 443e 4b2a 3e3e
000000d0: 0561 19be 3c66 ac3c 5f37 1c3e a400 053e
000000e0: 32f6 093d 4eee 263e faa0 883c c702 a43d
000000f0: 6d45 163e c42c 0ebd 3407 2e3d 7305 85bc
00000100: 132a b73d d925 ddbd ce65 97bd 62df 27bd
00000110: bfc8 423d 06d6 aa3d 45d6 d8bb f565 1abe
00000120: a37b 003e b66d a33d 455b 81bb 05ac e0ba
00000130: d597 273d 2497 d8bd 2cb5 d23d 3d44 45be
00000140: e343 bf3b 3cd9 29bd 6f11 e0bd 36ec 7bbd
00000150: be09 b3bd 653a 8d3d b839 b8bd 3c36 13be
00000160: ffa5 75bd 7971 afbd b608 d4bc 3479 e0bd
00000170: f77c bcbd 763b 9d3d f519 ff3c 8df7 d63c
00000180: 1b24 c03d 3645 20bd 8ad1 623e 2e7f b9bd
00000190: b281 43bc 7393 583b a53e e9bd fd51 a2bd
000001a0: 3dba 023e 74cc febd daaf 003d 29b1 2ebd
000001b0: 286d 4a3e 8a2d 82bd 46ba 053e 400a 4b3e
000001c0: 2fc4 b4bd b8c5 41bd a212 c03d 181c 4c3e
000001d0: d3ee 2c3d 6fc5 3b3d 23ff ccbd 2040 c43c
000001e0: d7d3 f23c 3ff1 463c 6798 1dbe 8f02 0fbd
000001f0: 71fb 5f3d 5c5d 083d ad53 debc ed08 333e

decoder.decoder.bias_hh_l0 f4 [128]
0.028193826 -0.12367321 0.008426602 0.18297802 -0.14441283 -0.13646676 0.122671016 0.043744456
0.12584825 0.03386898 0.053963598 0.012583729 -0.031713348 -0.0072632194 0.031570174 -0.06803674
0.051825237 0.10420253 0.13021654 0.10821314 -0.04088914 -0.03605198 -0.024363847 0.014090079
-0.09080505 -0.053221248 0.16082981 0.10076003 -0.040312096 0.09739876 0.19776797 -0.12981927
0.006139953 0.2125077 0.2447565 0.19547735 0.016201122 0.004981309 0.20350969 0.11800902
-0.06102726 -0.12943275 0.20763426 0.1421835 0.12972683 -0.07923216 0.018960422 -0.004014329
-0.01600238 -0.03282493 -0.015663914 -0.01690883 0.15682442 -0.15407498 -0.14944923 0.03355179
-0.023132613 0.15318604 -0.060306408 -0.045626637 0.18056582 -0.10550374 0.23167387 0.014460945
-0.16971901 0.01511268 0.09788863 -0.012517034 0.034113854 0.02712509 -0.01746344 0.10426443
0.11509221 -0.18068966 -0.01668719 0.084970385 0.135534 0.071530655 -0.08577538 -0.11226587
0.13728438 -0.05278798 -0.02756919 0.13955095 -0.010614709 0.117822655 0.09295096 0.037191097
-0.11416595 -0.0062953997 -0.08674562 0.15294944 0.17675586 -0.019275835 0.049787406 -0.066396445
-0.09961383 -0.08852031 0.14236078 0.12219081 -0.099366896 0.1315674 0.028831735 -0.049660046
-0.07812998 0.015057905 -0.013228636 0.15508777 0.014587069 -0.06177707 -0.036795076 -0.105590045
-0.14048932 -0.054887738 -0.051389504 -0.06818279 0.100193284 0.1784071 0.14807428 -0.02599494
-0.0688095 0.051852785 0.07578066 0.10443418 0.15928712 -0.039693065 -0.063718215 0.00017284222
00000000: bdf6 e63c 6148 fdbd bb0f 0a3c 975e 3b3e
00000010: f5e0 13be f1bd 0bbe f13a fb3d 632d 333d
00000020: 5dde 003e 33ba 0a3d ef08 5d3d fc2b 4e3c
00000030: dbe5 01bd 4d00 eebb ba4f 013d d956 8bbd
00000040: b346 543d 2368 d53d 7c57 053e da9e dd3d
00000050: 5f7b 27bd 3eab 13bd b196 c7bc 13da 663c
00000060: 00f8 b9bd 86fe 59bd 92b0 243e 465b ce3d
00000070: 4c1e 25bd 0079 c73d b083 4a3e 58ef 04be
00000080: a931 c93b 9e9b 593e 73a1 7a3e 372b 483e
00000090: 37b8 843c 403a a33b d864 503e b7ae f13d
000000a0: b8f7 79bd 058a 04be 139e 543e 8d98 113e
000000b0: 1cd7 043e 7844 a2bd e352 9b3c a28a 83bb
000000c0: 6c17 83bc 6f73 06bd 9c51 80bc 6384 8abc
000000d0: 9596 203e d5c5 1dbe 3809 19be 9a6d 093d
000000e0: 9b80 bdbc cddc 1c3e da03 77bd ffe2 3abd
000000f0: 3fe6 383e 5812 d8bd ea3b 6d3e 99ed 6c3c
00000100: d2ca 2dbe 2d9b 773c d679 c83d 3f14 4dbc
00000110: f8ba 0b3d 7035 de3c 7d0f 8fbc 9788 d53d
00000120: 77b5 eb3d b606 39be 93b3 88bc f404 ae3d
00000130: 6dc9 0a3e aa7e 923d 01ab afbd a6eb e5bd
00000140: 4794 0c3e 3538 58bd c8d8 e1bc 72e6 0e3e
00000150: 51e9 2dbc 014d f13d 135d be3d b155 183d
00000160: d6cf e9bd a449 cebb b0a7 b1bd c79e 1c3e
00000170: 7dff 343e 5be8 9dbc e1ed 4b3d dcfa 87bd
00000180: 5602 ccbd 234a b5bd 06c7 113e 2d3f fa3d
00000190: df80 cbbd 9bb9 063e 8830 ec3c 5568 4bbd
000001a0: 9c02 a0bd 6eb5 763c ecbc 58bc 54cf 1e3e
000001b0: 9afe 6e3c f409 7dbd 6fb6 16bd 983f d8bd
000001c0: 6fdc 0fbe f7d1 60bd cd7d 52bd 6ba3 8bbd
000001d0: 2332 cd3d 5ab0 363e c9a0 173e 57f3 d4bc
000001e0: ffeb 8cbd 9663 543d e432 9b3d 96e1 d53d
000001f0: 2a1c 233e 3295 22bd b27e 82bd fb3c 3539

decoder.spatial_embedding.weight f4 [16, 2]
1.0549959 0.1589225 0.95514613 -1.2978002 0.064979866 1.5808792 0.5637333 2.4638438
0.9718664 0.041641634 -0.65960175 -0.0932909 0.9907841 -1.2039936 -0.58699816 2.1196392
-0.23688285 1.0593078 -0.5881098 0.43823972 0.19042945 0.49684566 0.1265934 -0.42064428
-0.8557086 1.1409177 0.0064570517 -1.3573312 0.3399754 1.3698232 -0.8637577 0.47592518
00000000: 1b0a 873f 94bc 223e 7584 743f 511e a6bf
00000010: 2a14 853d 405a ca3f d350 103f 9eaf 1d40
00000020: 3dcc 783f 6b90 2a3d a9db 28bf 4d0f bfbd
00000030: 07a4 7d3f 761c 9abf 8345 16bf 2ba8 0740
00000040: 6b91 72be 6697 873f 5d8e 16bf f560 e03e
00000050: f0ff 423e 8e62 fe3e b3a1 013e b05e d7be
00000060: b80f 5bbf 9709 923f ad95 d33b 07bd adbf
00000070: 4111 ae3e 5e56 af3f 3a1f 5dbf 77ac f33e

decoder.spatial_embedding.bias f4 [16]
-0.3448073 -0.20849016 0.044012934 -0.44228166 -0.16294238 -0.6417269 -0.36759537 -0.3359272
-0.4565844 0.11572962 -0.19648802 0.6560611 0.27271676 -0.62267864 -0.34680638 0.24262002
00000000: 958a b0be 727e 55be e846 343d be72 e2be
00000010: 5eda 26be 3748 24bf 7635 bcbe a6fe abbe
00000020: 6ec5 e9be a703 ed3d 2834 49be 9ff3 273f
00000030: 88a1 8b3e de67 1fbf 9b90 b1be 6271 783e

decoder.hidden2pos.weight f4 [2, 32]
-0.20717812 -0.19310912 -0.04755952 0.5192999 0.18063338 -0.23736528 -0.09505569 0.22699949
-0.030988801 -0.59208274 0.3097359 -0.21888664 -0.4508745 -0.44756582 -0.11479177 -0.0429388
-0.095504984 0.19220701 -0.07175608 -0.1795078 0.09026291 -0.13383803 0.09167293 -0.093381695
0.08979025 0.1643702 -0.27666032 -0.095186755 -0.08371289 -0.1513048 0.16682807 -0.20522448
0.3006118 -0.33445776 -0.09523594 0.007147929 0.32395768 -0.13198227 -0.11103319 0.11725002
-0.046914868 0.08756956 0.0021765775 -0.0048261974 -0.22788374 0.21492696 -0.08418593 -0.19735476
0.15623388 -0.064751826 -0.21904016 0.078793555 0.23053415 -0.28643566 0.5170375 -0.07846598
0.12753333 0.06855929 0.21615753 0.21450964 0.30767575 0.2560532 -0.34189323 0.25324485
00000000: 8026 54be 66be 45be c5cd 42bd d7f0 043f
00000010: f5f7 383e e20f 73be 8fac c2bd 8e72 683e
00000020: 3adc fdbc bc92 17bf b495 9e3e d223 60be
00000030: 06d9 e6be 5927 e5be f317 ebbd 98e0 2fbd
00000040: 1e98 c3bd ead1 443e daf4 92bd e5d0 37be
00000050: c3db b83d d60c 09be 04bf bb3d e73e bfbd
00000060: f3e3 b73d a950 283e 6ca6 8dbe 46f1 c2bd
00000070: aa71 abbd a5ef 1abe fad4 2a3e 5e26 52be
00000080: cae9 993e 0c3e abbe 0f0b c3bd 2d39 ea3b
00000090: c8dd a53e 5c26 07be 5e65 e3bd c720 f03d
000000a0: ce29 40bd ab57 b33d e9a4 0e3b 1425 9ebb
000000b0: 5b5a 69be d015 5c3e ac69 acbd 5e17 4abe
000000c0: c6fb 1f3e 9b9c 84bd 104c 60be 845e a13d
000000d0: 2511 6c3e b2a7 92be 925c 043f c6b2 a0bd
000000e0: 1998 023e d068 8c3d 6658 5d3e 6aa8 5b3e
000000f0: ad87 9d3e 6819 833e a10c afbe 4fa9 813e

decoder.hidden2pos.bias f4 [2]
0.16113494 -0.13129883
00000000: 8f00 253e 3373 06be

pool_net.spatial_embedding.weight f4 [16, 2]
0.3745403 -0.99742645 1.0334576 -0.6023846 1.9612062 0.9520902 -0.2960903 -1.4400537
1.3573238 -0.02186492 -1.0776348 -1.0786364 1.1929705 -2.2932687 0.18278554 0.87680554
0.8563755 0.28919193 -0.12595274 -2.3950567 0.039582685 -0.7941867 -0.046680506 2.5972645
0.37955466 -1.8865863 1.6023934 -0.55635595 0.46687758 -1.4801956 0.070093475 -0.5992718
00000000: bfc3 bf3e 5757 7fbf 5748 843f e135 1abf
00000010: ce08 fb3f 2fbc 733f 2699 97be ae53 b8bf
00000020: c9bc ad3f 101e b3bc f0ef 89bf c210 8abf
00000030: 42b3 983f eac4 12c0 222c 3b3e 5476 603f
00000040: 6d3b 5b3f f710 943e c1f9 00be 9c48 19c0
00000050: 7421 223d d24f 4bbf 0f34 3fbd 9539 2640
00000060: fd54 c23e a97b f1bf 3a1b cd3f 586d 0ebf
00000070: 940a ef3e 0d77 bdbf 2b8d 8f3d e069 19bf

pool_net.spatial_embedding.bias f4 [16]
0.42057848 -0.23686998 -0.3080372 0.010789288 0.10577932 0.21703248 0.2757838 -0.3427395
-0.017032769 -0.33625498 -0.7363035 -0.6441466 -0.034388755 -0.5667626 -0.47092527 -0.6431015
00000000: 1056 d73e 0b8e 72be 0db7 9dbe 8ec5 303c
00000010: d4a2 d83d c33d 5e3e 8933 8d3e 8d7b afbe
00000020: 4e88 8bbc 9d29 acbe 637e 3cbf cbe6 24bf
00000030: 39db 0cbd 5b17 11bf 1e1d f1be 4da2 24bf

pool_net.mlp_pre_pool.0.weight f4 [512, 48]
-0.25761977 -0.14731479 0.23837106 -0.12107051 -0.3444959 -0.23612453 -0.0026330512 -0.3838757
-0.1915693 -0.12021889 0.07841615 0.17294748 -0.30841133 -0.04263071 0.28900117 0.11199408
-0.080426775 -0.06939739 -0.06306084 0.13903084 -0.1736168 -0.12350297 0.15441784 -0.2423591
0.0063210614 0.4167747 0.15968885 0.20331155 -0.46780258 0.08361089 -0.30671653 0.4319318
-0.32753244 0.11272448 -0.0484642 0.28052747 0.41286543 0.52266145 0.22087713 0.032982558
0.39185297 -0.10316883 -0.15737249 0.08852642 0.19676594 0.17010193 0.02265354 0.3301561
0.22842966 0.19741835 0.1033628 -0.170638 0.012440386 -0.057460327 -0.018057536 0.031602237
0.29883492 0.010616207 0.03810791 -0.23473834 -0.14484084 -0.18836758 -0.10346322 -0.044380967
-0.087961584 0.23508954 -0.19076188 0.04949311 0.18704286 0.1442014 0.021094663 0.0832067
0.20639826 0.16294408 -0.055119872 -0.0732574 0.2294221 0.18133128 -0.20620722 0.06697419
-0.054021034 -0.30421394 -0.085872516 0.24572434 -0.10696043 0.0027903595 -0.078054406 0.54731745
-0.1552878 0.40698314 0.21632303 0.0940993 0.083319955 -0.104932874 -0.24217631 0.03404481
0.011710784 -0.54897255 -0.28720418 -0.33008695 0.23256443 -0.26807818 -0.2121443 0.15717402
-0.013277258 0.3386184 -0.26731655 0.063090876 -0.21811146 0.21593732 0.0578385 -0.025947914
0.093806 0.22019546 -0.12996472 -0.049159262 0.23495518 0.19048241 0.53619707 -0.266138
-0.014662723 0.42282355 0.16665228 0.0035867603 -0.11402502 -0.2326633 0.63509 -0.17230242
-0.074216396 -0.07058708 -0.1777285 -0.006128923 -0.1324934 -0.3443601 0.3829236 0.076106936
-0.179264 0.101555064 0.005072337 -0.086044274 -0.45322093 0.14185478 -0.1945208 0.62498677
0.27627647 -0.07306067 0.031543 -0.2596679 -0.20037745 -0.27257615 -0.11714612 -0.10984838
0.060118355 0.18199046 0.1551454 0.15613055 -0.10137475 -0.082689695 0.10114463 0.13799275
0.15940769 0.05378568 -0.2531499 0.33081278 0.34229988 0.12517309 -0.27321085 -0.13678952
-0.0023169015 -0.29408577 -0.10876248 -0.034398537 0.37628403 0.32325968 0.2116618 0.37888724
0.2571704 0.051771592 0.21858461 -0.2919248 -0.105255194 -0.010744139 -0.26186055 0.09488906
-0.16149409 -0.029370142 -0.10375557 0.065868445 -0.1290479 0.052134607 0.10335168 0.0573902
-0.30847332 -0.14139909 -0.22538424 0.20325686 -0.08285662 -0.14726563 -0.397242 0.44658276
0.014050167 0.19259688 -0.2907425 -0.06780077 0.24016011 -0.09109797 -0.0050288644 0.2776035
-0.029325955 -0.073210895 -0.15828878 0.1573793 0.047742072 0.18562154 -0.17698757 -0.2894132
-0.18577485 0.12928551 -0.09440135 0.25334355 -0.25680855 0.32742712 -0.058629826 0.2793816
-0.064672016 -0.1132835 0.15393569 -0.03381181 0.3516724 -0.037692543 -0.13956329 -0.3800653
0.040652215 -0.20890984 0.37934372 -0.07454885 0.37800744 0.04919499 0.21652606 -0.041569773
-0.013045268 -0.0048628976 -0.2125227 0.0066835415 -0.03857398 -0.22153619 -0.17884716 0.18406457
-0.1752349 -0.24623987 0.3418149 0.2433405 -0.2562789 -0.012171737 0.19480927 -0.31185755
00000000: bde6 83be b0d9 16be 8b17 743e d1f3 f7bd
00000010: c461 b0be a1ca 71be 458f 2cbb 5b8b c4be
00000020: be2a 44be 5235 f6bd a598 a03d 2519 313e
00000030: 17e8 9dbe 8a9d 2ebd f6f7 933e 275d e53d
00000040: cbb6 a4bd 3820 8ebd 0b26 81bd 1a5e 0e3e
00000050: 9ac8 31be 20ef fcbd b61f 1e3e fc2c 78be
00000060: e820 cf3b 7e63 d53e 7985 233e e730 503e
00000070: d283 efbe 303c ab3d f309 9dbe 2a26 dd3e
00000080: 55b2 a7be 18dc e63d 6682 46bd 4ca1 8f3e
00000090: 1963 d33e 24cd 053f 9d2d 623e b818 073d
000000a0: f4a0 c83e 2e4a d3bd 4126 21be 574d b53d
000000b0: 037d 493e 332f 2e3e eb93 b93c 380a a93e
000000c0: 77e9 693e 0928 4a3e e0af d33d babb 2ebe
000000d0: c3d2 4b3c 855b 6bbd 66ed 93bc 5971 013d
000000e0: e400 993e 99ef 2d3c 0a17 1c3d 3f5f 70be
000000f0: 2851 14be 6ee3 40be 86e4 d3bd d1c8 35bd
00000100: 3425 b4bd 50bb 703e 1557 43be 4ab9 4a3d
00000110: 2a88 3f3e 88a9 133e b7ce ac3c 4668 aa3d
00000120: 115a 533e d0da 263e 60c5 61bd fa07 96bd
00000130: a1ed 6a3e e8ae 393e fc27 53be c429 893d
00000140: 2945 5dbd eec1 9bbe eedd afbd 299f 7b3e
00000150: 120e dbbd 77de 363b fdda 9fbd ff1c 0c3f
00000160: c403 1fbe 1860 d03e c983 5d3e 22b7 c03d
00000170: a7a3 aa3d 0ce7 d6bd 11fd 77be 9272 0b3d
00000180: 97de 3f3c 7789 0cbf 6d0c 93be 2801 a9be
00000190: 5f25 6e3e 8b41 89be 5b3c 59be 3af2 203e
000001a0: db88 59bc 645f ad3e b7dd 88be ca35 813d
000001b0: 9c58 5fbe ac1e 5d3e 10e8 6c3d b890 d4bc
000001c0: 5c1d c03d eb7a 613e 7915 05be 395b 49bd
000001d0: 1798 703e d20d 433e 3644 093f 3d43 88be
000001e0: eb3b 70bc 547c d83e e5a6 2a3e da0f 6b3b
000001f0: f385 e9bd 4a3f 6ebe 4295 223f 0c70 30be
00000200: c4fe 97bd f68f 90bd 76fe 35be 22d5 c8bb
00000210: 5aac 07be f84f b0be 900e c43e f4dd 9b3d
00000220: fb90 37be 1afc cf3d d935 a63b fb37 b0bd
00000230: 930c e8be 6142 113e 7630 47be 22ff 1f3f
00000240: 1c74 8d3e d5a0 95bd 3c33 013d 31f3 84be
00000250: bf2f 4dbe 1a8f 8bbe 4eea efbd 30f8 e0bd
00000260: aa3e 763d b55b 3a3e 70de 1e3e b0e0 1f3e
00000270: 919d cfbd 3759 a9bd ea24 cf3d f94d 0d3e
00000280: c53b 233e 604e 5c3d dd9c 81be 4b60 a93e
00000290: ee41 af3e 602d 003e 4be2 8bbe 8d12 0cbe
000002a0: 28d7 17bb 6992 96be ddbe debd 7be5 0cbd
000002b0: 4da8 c03e 4b82 a53e dfbd 583e 82fd c13e
000002c0: d7ab 833e 730e 543d a5d4 5f3e 2b77 95be
000002d0: 0990 d7bd 2f08 30bc 9612 86be 3255 c23d
000002e0: b55e 25be a799 f0bc cd7d d4bd 09e6 863d
000002f0: 2225 04be 198b 553d 0caa d33d fd11 6b3d
00000300: 37f0 9dbe ecca 10be 20cb 66be 9122 503e
00000310: bbb0 a9bd cdcc 16be 4e63 cbbe 7fa6 e43e
00000320: ac32 663c 1e38 453e 33dc 94be 21db 8abd
00000330: 88ec 753e 9391 babd 2cc9 a4bb 0c22 8e3e
00000340: fc3c f0bc 98ef 95bd 7416 22be 0a28 213e
00000350: 318d 433d 9313 3e3e 3b3c 35be f82d 94be
00000360: c33b 3ebe 6c63 043e 7f55 c1bd 3fb6 813e
00000370: 697c 83be 87a4 a73e d425 70bd 1b0b 8f3e
00000380: c372 84bd 2e01 e8bd 51a1 1d3e 417e 0abd
00000390: 680e b43e 7f63 1abd aee9 0ebe eb97 c2be
000003a0: f082 263d 76ec 55be 5739 c23e 11ad 98bd
000003b0: 318a c13e b080 493d 02b9 5d3e 1145 2abd
000003c0: d2bb 55bc f158 9fbb 8d9f 59be 9c01 db3b
000003d0: c0ff 1dbd 62da 62be b623 37be 6c7b 3c3e
000003e0: c770 33be 4e26 7cbe 5d02 af3e 412e 793e
000003f0: fd36 83be f76b 47bc 157c 473e cbab 9fbe
