scripts/models/sgan-p-models/eth_8_model.pt (torch_old, 190150 bytes, 24 tensors)

encoder.encoder.weight_ih_l0 f4 [128, 16]
00000000: 2a59 163e bee9 84bd 3255 003e 7c5e 093e
00000010: 7d39 96bc 7956 9d3d e38f 033e 5396 093e
00000020: 4bd8 5cbd 5384 fabd 4b34 e0bd b11d 2abe
00000030: cf8d f53d 2aa6 82bd d9c5 dc3d 0fd3 31be
00000040: cc4c f43d 764f 363d 35d9 1a3d da2e 54bc
00000050: ed23 953d ecee 5b3d 8cfc e1bc 757a 1e3d
00000060: 5a99 b7bd 0174 2b3e a3f1 25bd 86ce db3c
00000070: 4e6c 26bd edea 0e3e b3b7 22bb 1d91 cfbd
00000080: 781e 49bc ba21 c8bd 3d46 20be 5e92 0abd
00000090: 26e1 1a3e 0fda a53d d3a5 8b3d 670d c8bc
000000a0: c498 8abd a93a fabd 5159 b9bd 2956 eebd
000000b0: 4965 babd f29e 8f3d 35d0 d03d 4f64 17be
000000c0: 53cc 033e 29f5 353e dd90 053e c466 e83d
000000d0: 4149 703d 5008 c5bd b390 8dbd fc83 e3bc
000000e0: f8aa 443d 50d2 14bd cbc4 703c 9ccd 423e
000000f0: ba11 a03c 85d9 febc cb29 da3c e9bb 873d
00000100: 9c36 b93c 5d5e c3bd e8ee dd3c f980 9d3d
00000110: 892f bcbc 8d0d 70bb ed30 26be 8531 dd3c
00000120: a132 1bbe 4844 eb3c c8f9 16be 6a15 60bd
00000130: 5706 d3bd f7c1 5cbc d7a5 123e ce44 e13d
00000140: c102 9cbd fe28 efbd 7a21 5ebd 52e0 f4bd
00000150: c872 433e 43b6 133e a7cb 2bbe 55ed 2c3e
00000160: b44e 013b a83a e43d 4fb0 90bd 2207 173e
00000170: 40a6 90bd ad83 adbd 76e9 c7bd c6ec 9dbd
00000180: b07e 7dbd afbf 433c b7a3 a23d ac8e 113d
00000190: 7e8e e23c 9029 1d3c ce80 22bd 2f6c af3d
000001a0: 3dcd 9abd dee5 253d 87fb 22bd 187d 3bbd
000001b0: f807 2fbd 2a91 a5bd 1f2e 36bc 57c3 09be
000001c0: 1c19 1dbd 370d 27bd f790 15be 34ac 333e
000001d0: f566 ee3d b54a 50bd e73c 1bbe 5d65 253e
000001e0: ffe6 da3b 56a3 ff3d ed5d 9a3b 6705 103d
000001f0: a77f 88bd 73b2 d9bb 8a81 adbd a970 c3bd
00000200: 83eb f0bd 08bb 6dbd ca73 0d3e f4b2 9fba
00000210: cd0b 88bd 47dc 7cbd c7d3 0f3d 4701 653e
00000220: 07a3 0bbe a71e 543e ab08 013e ad1a c0bd
00000230: 0d8e 64bd c9ff 60be 059c 2ebd 68f9 953d
00000240: 0a6c ca3c f53b 383e d464 2dbe fde9 ad3d
00000250: 2524 6fbc d872 9cbd e08e 3e3e e51d 4f3e
00000260: 331d 4dbe 6b92 a83e e587 8fbc 64bf c13d
00000270: 3b5b c0bd dcbc 533d 6939 6cbd f1d1 09be
00000280: 048a 58be f4ba 0d3e db55 483e 6d7e 083e
00000290: db17 93bd 4ec6 263e 1b64 c1bb f17b f33d
000002a0: 792a 8abd 3ac7 efbb 880b f33c 3ffc 4a3d
000002b0: 09fa 41be 9488 ca3d 03f9 a83b 64a5 603d
000002c0: 8812 a33d 747a 7dbd ef05 7a3d dd4a 92bd
000002d0: 314f 2cbe 1123 233e b29c 40be 04aa 7c3c
000002e0: 335e 6d3d 5a9d 52bc 3c9a 9bbd b8dd a53d
000002f0: b08a 04be 4b8e 1dbe d259 1fbe 4bb1 213d
00000300: 32d3 383d 7a0f 8cbd a48d 55bd f90a 703e
00000310: ff92 783e 7d81 ae3d 1aad c53d 295a 173e
00000320: 4ee6 ac3d b105 c33d b58e 303e eab5 d2bd
00000330: 6b2e 4a3b 6186 02bd 0894 50be 303a c93d
00000340: b4c3 a13d ffeb d5bd d1c5 503d ef2a 763e
00000350: 467f eb3d ac64 513d 06c6 1a3d 5ecf 64be
00000360: bccb a6bc 54e7 18be dd7d 233e fab9 863d
00000370: 6fef e7bc 22dd 71bd 59d9 41bc df00 eebd
00000380: 5d5c f23d f140 513e 6d5c 94bd 4075 5ebd
00000390: 620a b13b 8fc3 01bd 8666 553e 7f03 63bd
000003a0: 8a69 45bd ba8c 5dbd f2fd d2bd 6120 ad3c
000003b0: bc72 cfbc 5128 06be c911 4cbd 2dbf 083e
000003c0: cdfe a33d e55d cabd b3b5 9ebd 0de2 173e
000003d0: bee8 bebd 5bb4 c03d 3194 cd3d 0e6b 743d
000003e0: 37df 31bb c478 503c 6625 4cbd e68e 80bd
000003f0: 5951 1cbe b1b0 12be d4aa 3a3e eba8 a03d
0.14682451 -0.06489895 0.125325 0.13414949 -0.01833796 0.07682509 0.12847857 0.1343625
-0.05391721 -0.1223227 -0.10947474 -0.16612889 0.119899385 -0.063793495 0.10779924 -0.17365669
0.1192871 0.044509374 0.0378048 -0.012950623 0.07282243 0.05369465 -0.027586244 0.038691003
-0.08964796 0.1674347 -0.040513646 0.026831876 -0.04063063 0.13956805 -0.0024828732 -0.101351
-0.012275331 -0.09772058 -0.15651794 -0.033830993 0.1512495 0.08098232 0.06818738 -0.024420453
-0.06767419 -0.1221822 -0.09050239 -0.116375275 -0.0910135 0.07012738 0.10195962 -0.14784358
0.12870912 0.17769302 0.13043542 0.11347726 0.05866361 -0.09620726 -0.06912365 -0.027772896
0.04801461 -0.036333382 0.014695357 0.19023746 0.019539703 -0.03110958 0.026631257 0.06627638
0.022609048 -0.09539483 0.027091458 0.07690615 -0.022971885 -0.003662917 -0.16229601 0.027001152
-0.15156032 0.028719082 -0.14743721 -0.054707922 -0.103039436 -0.013473979 0.14321075 0.109994516
-0.07617713 -0.116777405 -0.054231144 -0.11956848 0.19086754 0.14424996 -0.16776906 0.1688741
0.0019730749 0.11144 -0.07064878 0.14748815 -0.0706296 -0.08472381 -0.09761326 -0.077111766
-0.061888397 0.011947556 0.079413824 0.035536453 0.027655836 0.009592429 -0.03967362 0.08565556
-0.07558677 0.04050242 -0.039790656 -0.045773596 -0.04273221 -0.080843285 -0.011119395 -0.13453422
-0.038354024 -0.040784087 -0.14606081 0.17546159 0.11640731 -0.050852496 -0.15159951 0.16151948
0.006680369 0.12482326 0.004710904 0.035161402 -0.06664973 -0.0066435873 -0.08471973 -0.095429726
-0.1176367 -0.058039695 0.13813701 -0.001218407 -0.06642876 -0.06173351 0.035114076 0.22363769
-0.13636409 0.20714818 0.12600963 -0.09380088 -0.055799533 -0.21972574 -0.04262926 0.07322961
0.02470972 0.17991622 -0.16932994 0.08491895 -0.01459602 -0.07639092 0.1860919 0.20226248
-0.2003067 0.32924208 -0.017520854 0.09460333 -0.09392401 0.051693782 -0.057671938 -0.13458993
-0.21146399 0.13840848 0.19564001 0.13329478 -0.071822844 0.16286585 -0.005901826 0.11888874
-0.06746382 -0.007317451 0.029668584 0.049556967 -0.18943037 0.098893315 0.0051566376 0.05484523
0.07962519 -0.06188436 0.061040815 -0.07143185 -0.16827084 0.15931346 -0.18809775 0.015421394
0.057951164 -0.012854898 -0.07597777 0.0809893 -0.1294353 -0.15386312 -0.15561607 0.03947572
0.045123287 -0.068388894 -0.052137032 0.23441686 0.24274825 0.08520792 0.09652157 0.14780487
0.08442365 0.0952257 0.17241938 -0.102886036 0.0030850421 -0.031866435 -0.2036897 0.098255515
0.078986555 -0.10445403 0.050969902 0.24039815 0.11498885 0.0511214 0.037786506 -0.2234473
-0.02036082 -0.14931995 0.15965982 0.06578441 -0.028312413 -0.05904878 -0.011831605 -0.1162126
0.11834023 0.2043493 -0.07244191 -0.054311037 0.005402849 -0.03168064 0.20839891 -0.055423256
-0.048196353 -0.054089285 -0.103023425 0.021133604 -0.025323264 -0.13101317 -0.04982165 0.13354178
0.08007584 -0.0988119 -0.077495 0.14832325 -0.09321736 0.094094 0.10038031 0.059672408
-0.0027141103 0.012724105 -0.049840353 -0.06277256 -0.15265407 -0.14325215 0.18229228 0.078447185

encoder.encoder.weight_hh_l0 f4 [128, 32]
00000000: 0707 2fbe f94a 3d3d 3d5f a43d e482 04be
00000010: e28e 58bd 775a 1cbe 4c1f 1e3e c9b4 9eb9
00000020: 4cce 253e fa54 4dbe 6561 183e ca55 b2bd
00000030: 75ca 1e3e 9608 c5bc 6c99 adbd ac7d 7bbd
00000040: 3100 f33d ca7c b63d 15c4 143e 9e73 923d
00000050: 9cfa 1d3e 50f6 bfbd d1d7 2f3e 6d33 8cbd
00000060: 5bc5 24be 51eb e0bd ce17 ba3d 0605 8f3d
00000070: 2db8 f7bd 7bf6 193e e7f5 363e a878 fabd
00000080: 00b1 5fbe ca80 01be 247c a3bd b5e0 013e
00000090: 17b4 e8bd 5beb 31be b398 3dba 5251 a13d
000000a0: df23 8bbd 666d 85bd abc0 453e 9413 ef3d
000000b0: 989d 60bd 0ea9 ff3d 2b7b 1dbd 753e 913d
000000c0: f6c3 453e 09c3 dfbd db17 edbd 2d8d 5ebe
000000d0: 7461 bd3c 14ed ad3b 9054 803d 38e6 34bd
000000e0: 44e4 8cbd 78cc 21be 8b76 423e f15e 4ebd
000000f0: 6180 a93c d24c 52be 6990 563e 3a8a 17bd
00000100: 9c2d 6abc d146 aa3c dc8b 2cbe 2181 9abd
00000110: f9bc 37be 3836 203e afc2 09be b801 68bd
00000120: 06a7 b53d 5182 573d ae1d 003e a87a 4bbd
00000130: 551e 46bd 81a4 163d d279 d1bd 79ea 2c3e
00000140: 1fed ab3c 60a7 3abe 0a33 7fbb 1c1a b13d
00000150: fb63 683e e89f 44be ab35 1e3d 1ded fb3c
00000160: 32db 4a3e df99 a4bd d9e1 103e f3ac 243e
00000170: a812 dbbd 2231 7dbc eb98 e5bd 09a3 7fbd
00000180: bd99 d6bc f478 653e 2022 293e a966 d53d
00000190: 84cb 263d c4da c03d 455d 553d 6bb7 05be
000001a0: 9167 603c a178 133c 0109 493e baf5 20be
000001b0: e168 033e 2e7e 87bb 5ac7 d9bc 2582 02be
000001c0: 0f93 8cbd e068 533e 20f8 0f3e 47cf 8fbd
000001d0: 4d0b 84bd 35a1 1abe 4c21 05bc dfaa d1bd
000001e0: 97df af3d b44c a3bd 21ef bdbd 58e3 ecbc
000001f0: e6ee 7dbd 18ca b73d 1318 c7bd 482e a8bd
00000200: f966 ee3c 6791 263e db4f 0c3d 37f7 e1bd
00000210: f970 ec3d eb26 8f3d 6b94 473e a3e8 6d3d
00000220: e123 ce3c bf6c aa3d 5fff ccbd 76f3 f1bd
00000230: b485 ae3d efeb 4ebd 4271 dd3d d036 74bd
00000240: 3c48 3ebd 1406 23bd 50d8 b3bd 5e30 d73d
00000250: 9221 afbd 44cf 6f3d bd3d d9bd a8ca 68bd
00000260: dbef ac3d bafd 123e 5d59 183e 08a7 363e
00000270: 8c48 95bd 6436 b1bc f2e6 b7bc 2f40 78bd
00000280: ca5e b33b 0a48 723d a778 413d 0a57 da3d
00000290: 00d5 4ebd 8eb3 a2bc 6082 2bba 871d 99bd
000002a0: 603e b93d 372c 6bbd 0c9f 5c3e eb07 053e
000002b0: 60d3 cd3c 9a58 a1bd 2bd0 14be fda3 a2bc
000002c0: 3cd8 473e da4e 25be 4dc9 1c3e 7037 cebd
000002d0: 2ddc fa3b 91b7 ed3d 93e4 7b3c 0485 cd3c
000002e0: 96ab 153e 4cda 78bd bf9f 243e 33a4 bfbc
000002f0: 4e2b ab3d 9221 02be fc6a 083c 9f4e 3cbb
00000300: b142 20be 4544 103e 017a 2b3e c5dc 513e
00000310: b33f 38be 31cd aa3c 23b3 30be f271 543d
00000320: 71dc 003e c7eb 5d3e 2e22 423d 8a14 01be
00000330: 604f 253d ea32 28be e065 ea3d 4eba 14be
00000340: 5b7f f3bd ad67 3cbe 456e 9f3d 0af3 f8bd
00000350: a4fb 9b3e 46ca da3d f90a 7fbe cf30 21bd
00000360: 2b04 dbbd 7617 dcbd 36c0 afbc 50e2 43be
00000370: c3cf 963d ee86 60bd 2ecc a1bd c91d 763e
00000380: db5a fd3d 7b02 35bd 9b0c 923d f68d ffbd
00000390: bc22 86bd 11e0 25be 75a2 e73b c354 ccbd
000003a0: 4155 d8bd e47f 473c 8b98 c53d 6e33 87bd
000003b0: 6e2d 473d d599 1bbe cd62 0b3d c100 9a3d
000003c0: c911 063d b50f c13d 86ce ccbd 4f29 06be
000003d0: 3968 d43d a9f6 9cbd 4034 a83d 788c a6bd
000003e0: d9a5 54bd 8914 ae3d 25a0 5b3d d154 c4bd
000003f0: b91b e8bd a5f8 24be 7442 91bd 0932 86bd
-0.17092524 0.046214078 0.08025978 -0.12940556 -0.05287064 -0.15268885 0.15441626 -0.00030270804
0.16191977 -0.20051947 0.14880903 -0.08707769 0.15506919 -0.024051946 -0.084765285 -0.061399147
0.11865271 0.089105204 0.14527924 0.071509585 0.15427631 -0.09373152 0.17172171 -0.06845746
-0.1609091 -0.10982383 0.09086572 0.0698338 -0.120956756 0.15035431 0.17867242 -0.122300446
-0.21844864 -0.12646785 -0.07982662 0.12683375 -0.113624744 -0.17374937 -0.0007232532 0.07876839
-0.06793951 -0.06515007 0.19311778 0.11673656 -0.054837793 0.124834165 -0.03844754 0.07091991
0.19313034 -0.10925872 -0.11576816 -0.21733542 0.023117758 0.005307803 0.06266129 -0.044164866
-0.06879476 -0.15800655 0.18990533 -0.050383512 0.020691099 -0.20537117 0.20953526 -0.036997057
-0.014293101 0.020785721 -0.16850227 -0.07544161 -0.17943181 0.15645683 -0.13453172 -0.056642264
0.08869748 0.052614514 0.12511322 -0.04967752 -0.04836877 0.036777977 -0.102283135 0.16886319
0.020987092 -0.18227911 -0.0038940334 0.08647558 0.2269439 -0.19201624 0.0386254 0.030752713
0.19810179 -0.08037161 0.14148654 0.160816 -0.10696918 -0.015453609 -0.112108074 -0.06241134
-0.026196355 0.22409421 0.16516924 0.104199715 0.04072143 0.09416726 0.052090902 -0.1305825
0.013696567 0.009000928 0.19632341 -0.15718737 0.12832977 -0.004134915 -0.026584316 -0.12744959
-0.06863987 0.20645475 0.14059496 -0.07021957 -0.06447468 -0.15100558 -0.008125614 -0.10237669
0.08587568 -0.07973614 -0.09274126 -0.028917 -0.06199541 0.08974093 -0.09721389 -0.082119524
0.029101836 0.16266404 0.034255844 -0.110334806 0.11544985 0.06989845 0.1949021 0.058083188
0.025163593 0.08321523 -0.10009646 -0.118140146 0.085215956 -0.050517973 0.10812618 -0.059622586
-0.046455607 -0.03980072 -0.08781493 0.10507272 -0.08551325 0.058547273 -0.10607479 -0.056833893
0.08444186 0.14354602 0.1487784 0.17837155 -0.07289228 -0.02163238 -0.02244899 -0.060608085
0.005473946 0.059150733 0.047234204 0.10661133 -0.0504961 -0.019861009 -0.000654256 -0.07476335
0.090451 -0.057415213 0.21545047 0.12991302 0.025125206 -0.078782275 -0.14532535 -0.019853586
0.1951608 -0.1614336 0.15311165 -0.100691676 0.0076556415 0.11607278 0.015374321 0.02508784
0.14616236 -0.06075506 0.16076563 -0.023393726 0.08357869 -0.12708119 0.008326288 -0.0028733385
-0.15650441 0.14088543 0.1674576 0.20494373 -0.1799305 0.020849796 -0.17255835 0.05186648
0.12584092 0.21671973 0.047395878 -0.12605491 0.0403589 -0.16425672 0.11445212 -0.14524195
-0.118895255 -0.18398924 0.07784704 -0.12155731 0.30465424 0.10683112 -0.2490653 -0.039353188
-0.10694154 -0.10746662 -0.021453958 -0.191293 0.07363846 -0.05481618 -0.07900272 0.240348
0.12370845 -0.04419182 0.071313106 -0.12478249 -0.06549594 -0.16198756 0.007068927 -0.099771045
-0.10563136 0.012176488 0.09648236 -0.06601606 0.04862731 -0.15195401 0.03402977 0.07519675
0.032731805 0.09426824 -0.10000329 -0.13101695 0.103714414 -0.07664234 0.08213091 -0.08132261
-0.051915977 0.085000105 0.053619523 -0.0958649 -0.11333413 -0.16110475 -0.07092753 -0.06552512

encoder.encoder.bias_ih_l0 f4 [128]
00000000: d577 6abd f824 bc3c 21af 3f3e bf7a 043d
00000010: 8f7b f83d 81d0 a33d f988 debd 8705 e33d
00000020: 004c 303c 881b 443e 2b4d a83d 910f b13d
00000030: 6cc8 2c3d cc97 423e 7c7a e63d c836 65bc
00000040: 75ef ed3d 908a 2e3e 5bda ef3c d4b9 96bd
00000050: 9af5 963d 4e93 d83c 5884 b73d 52c3 613d
00000060: 0bce 6b3e 0b2c f93d 8fc1 ddbd bb7d 1b3e
00000070: f6dc 713d 193c 743d ee90 213e ee9d 033e
00000080: e3a3 873c 5f70 e43c a14c 2bbe cdb0 e6bd
00000090: 2bf8 e33d 4672 39bd e3f4 ce3d 4b0e a33d
000000a0: d077 243e ac5b 453d d587 91bd cb3f db3a
000000b0: 1734 2e3e 434f 193c 0d4c 99bd a4ae 053e
000000c0: f9f2 8c3d 100f 98bd 0293 e5bd f0e9 54bd
000000d0: 8a54 33bc 7aee 3fbd fffe 473d 7026 a6bc
000000e0: fede 44bd 7041 5b3d 9567 8cbc efe0 d83c
000000f0: a56b 34bd c829 07be b6de e43c 7738 513e
00000100: 07ba 41bd 5a21 343e e490 e53c 6624 03be
00000110: e3a8 3e3c df3c d23b ee8c 1b3e 5a19 05be
00000120: d9c4 143e cc50 9bbd 0eda 093e a70d 1bbe
00000130: 3cff 57bd f7bf 4cbe d183 f63d ff63 193e
00000140: f431 c73d f8da 95bd ff00 8abd d0fa e6bc
00000150: 7090 02bd 9b49 b63c 7f59 5abd 6ec6 84bb
00000160: 5cad 02be 901e 9abc ee34 dd3d 66fb fa3d
00000170: b676 c2bd 3961 9abb fb8e d9bc 59a3 fb3c
00000180: 5ec8 203d fe7a 10be 80c5 c8bd 93d0 583e
00000190: 7519 cc3d 628c a83d bdb3 e8bd a651 c93d
000001a0: 7804 ef3d c90b 7e3e 9925 c23d 68e8 14bd
000001b0: c5b5 453e 0756 91bd 0582 3dbd 8556 82bd
000001c0: 9d4c ab3d 429f 033e 6437 9fbd 54f7 3c3e
000001d0: 3ae0 a23d 9391 7b3d 856c 823d 0db1 07bd
000001e0: 6e37 b9bc b3cc f4bc 10bf 6c3e 9680 78bd
000001f0: 7a77 823c 1c99 b23d bf40 323e 2b13 063c
-0.057243187 0.022966847 0.1871915 0.032343622 0.12132942 0.07998753 -0.10865969 0.11085039
0.010760307 0.19151127 0.082178436 0.08645547 0.042183325 0.19003218 0.11253831 -0.013990112
0.116179384 0.17045045 0.029278925 -0.07359663 0.073710635 0.026437428 0.089607894 0.055117913
0.23027818 0.12166604 -0.10827934 0.15184681 0.059048615 0.059627626 0.15777943 0.12853214
0.01655764 0.027885614 -0.1672845 -0.11264191 0.11131319 -0.045274995 0.10105302 0.079617105
0.1606133 0.04818313 -0.07105986 0.0016727386 0.17012058 0.009357276 -0.07485209 0.13054901
0.06882281 -0.07424748 -0.1120968 -0.051980913 -0.010945449 -0.04685829 0.048827168 -0.020282
-0.048064224 0.053529203 -0.017139236 0.026474444 -0.04404797 -0.13199532 0.027938228 0.20431696
-0.04729655 0.17590848 0.02802319 -0.12806854 0.011636945 0.006415948 0.15190479 -0.12997952
0.14528216 -0.0758377 0.13462088 -0.15141927 -0.052733645 -0.19995104 0.12036861 0.14979552
0.09726325 -0.073171556 -0.06738471 -0.028195769 -0.031876028 0.022251895 -0.053308006 -0.004051975
-0.12761444 -0.018813401 0.10801111 0.12254982 -0.094952986 -0.004711297 -0.026557436 0.030717539
0.039253585 -0.14109418 -0.09803295 0.21173315 0.09965793 0.08229901 -0.11362407 0.09830026
0.11670774 0.24809183 0.094798274 -0.036354452 0.19307621 -0.070964865 -0.046266574 -0.063641585
0.08364222 0.12853721 -0.07774237 0.18453723 0.07952924 0.061418127 0.06368355 -0.033127833
-0.022609439 -0.029882764 0.2311976 -0.060669504 0.015926111 0.087206095 0.17407511 0.008183281

encoder.encoder.bias_hh_l0 f4 [128]
00000000: 4d1b 243e 736c a63c a8ae 1e3e 810f 653d
00000010: c14d c93d 88c8 3fbc bd30 353e 5813 bdbd
00000020: 066d 1dbd 0d30 a23e d7c6 06be a19a a13b
00000030: 629e 9bbd 6578 0d3d e1e5 033e 4ce0 3a3e
00000040: f8d9 e7bd 9216 a13d 89ef f63d 2321 523e
00000050: fc4f 0d3e fa52 633e 7483 29bb 6d1f c73d
00000060: 8626 6d3e f7b2 a0bc 92c8 073e 528b 6bbd
00000070: 421c 8ebd ff9e 033e 6178 05be 3733 543d
00000080: ec94 e83d f44f e33d 8b6f 2f3e bd65 09bd
00000090: 1796 0fbe 49a0 973d a1e7 fb3d 6827 f9bd
000000a0: 505b fbbd 1c2e 19be 7ceb 6a3c 9534 f3bd
000000b0: cbdf 553d c048 f3bd ca63 c9bc f72a af3d
000000c0: 4bb0 44bd 4d4b 32bd 6b4b 293e ab68 563e
000000d0: 3f54 1b3e 716f 003e 9309 a0bb a720 aaba
000000e0: 790b eebd f207 193e 0b0d 563e ae6e a2bd
000000f0: ae44 b03a 6179 d53c 4180 553d f912 0c3e
00000100: a116 b13d 0cd4 e03d fc34 fc3d e443 553e
00000110: b17b f53d d28a d6bd 3569 2e3e f26b 5cbd
00000120: b8d3 e53b ce9e 2ebe 0e80 f53d f8aa a83c
00000130: 9c76 1dbe 5638 713c 38c7 a53d dda4 843c
00000140: f213 70bd b372 943d baa9 233d a6ef 1fbc
00000150: 9f8a ab3b 3c2f f1b9 964b b3bd c2e2 b03d
00000160: f54b 7bb9 064c 0f3e 393a ca3d e855 ebbc
00000170: c9d3 20be 2e6c b6bd e560 e93c 89f7 133c
00000180: b3bc 1c3e 9351 033e c9ff e8bd 4ab4 fa3d
00000190: 4550 a5bc beed 8d3d 8fb0 ba3d e126 a5bd
000001a0: 77c2 643e b56d 633e 36c8 00be 4e1a b33c
000001b0: 1b9e b5bc 8cc6 a3bd 6267 aebd 00c6 373d
000001c0: 0718 403e 816c 85bd c3c4 593e 3858 11bc
000001d0: e30b 083e f082 f53c de0d 3a3e 1df1 99bd
000001e0: 79d7 72bd 686a c5bd 9492 5d3e 53e2 613e
000001f0: 7815 623e 6394 d3bd c1fd 65bd dc1d 393e
0.1602604 0.020315384 0.15496314 0.05592299 0.098292835 -0.011705525 0.17694373 -0.09232205
-0.03843405 0.31677285 -0.13161789 0.0049317633 -0.075985685 0.034538645 0.1288066 0.18249625
-0.11320871 0.07865633 0.120574065 0.20520453 0.13800043 0.22199622 -0.0025865706 0.09722791
0.23159227 -0.019616587 0.13260105 -0.057505913 -0.069389835 0.12853621 -0.13034202 0.051806655
0.113565296 0.11099234 0.17132394 -0.03354429 -0.14022098 0.07403619 0.12300039 -0.12165719
-0.12273276 -0.14958996 0.01433837 -0.118752636 0.05221538 -0.1187911 -0.024583716 0.08553117
-0.04801969 -0.043528844 0.16532676 0.20938365 0.15168856 0.12542512 -0.004883954 -0.0012979702
-0.11623282 0.14944437 0.20903413 -0.07931267 0.0013448203 0.026058855 0.052124266 0.13679112
0.08646894 0.10977945 0.123147935 0.2082668 0.11986483 -0.104756966 0.17032321 -0.053813882
0.007013764 -0.17052767 0.11987315 0.020589337 -0.15377277 0.014722904 0.080946386 0.016191894
-0.05861277 0.0724844 0.039956786 -0.0097617265 0.005235031 -0.00046002294 -0.08754651 0.086370006
-0.00023965522 0.13993844 0.09874386 -0.028727487 -0.1570579 -0.089073524 0.028488586 0.009031185
0.15306358 0.12824087 -0.11376912 0.12241419 -0.020179877 0.06930111 0.09115707 -0.08064056
0.22339807 0.22209819 -0.12576374 0.021863129 -0.022170117 -0.07996854 -0.085158125 0.044866562
0.18759166 -0.06514836 0.21266465 -0.008871131 0.13285784 0.029969662 0.18169352 -0.07516692
-0.059287522 -0.09639436 0.21637946 0.22058992 0.22078502 -0.10331037 -0.0561502 0.18077797

encoder.spatial_embedding.weight f4 [16, 2]
00000000: 9848 c7bf e297 a3bf c474 283f 2507 a039
00000010: ab14 ed3f 93d7 133e 1e9a 2c3f 1dff 40be
00000020: c743 9bbe 130c c23f 1ac4 bb3e 5bbb 253f
00000030: 4aaf 60bf 7e46 46bf 1a59 8c3f 1328 0140
00000040: c18b 443d d480 fb3d 0643 dcbd 9cda ae3f
00000050: 1e97 a43f 6016 82be 766a 793f af67 173d
00000060: 505a 2ebe eb22 b33e cdaf 5fbf 39b2 5fbf
00000070: 9c64 c9bf 3a06 863f 94e9 bfbf 7769 a43f
-1.5569029 -1.2780726 0.6580317 0.000305229 1.8521932 0.14437704 0.67422664 -0.18847318
-0.30325148 1.5159935 0.3667305 0.64739007 -0.8776747 -0.7745131 1.0964692 2.018071
0.047984842 0.122804314 -0.10754971 1.3660464 1.2858617 -0.25407696 0.9742807 0.036964115
-0.17026639 0.34987578 -0.87377626 -0.8738132 -1.5733829 1.047065 -1.4993157 1.2844685

encoder.spatial_embedding.bias f4 [16]
00000000: 7010 8fbe 2cf5 a13e 35fa 02bf fd80 423f
00000010: b0d3 233f a77a f43c 57fb 9a3e 3d21 113f
00000020: 2f3a 37bf 752d fb3e a928 113f 0382 dc3c
00000030: a7ae 65be b3a0 9ebe 3214 e8be a184 9dbe
-0.27942228 0.31632364 -0.51163036 0.7597807 0.63994884 0.029843641 0.30269882 0.5669134
-0.71573156 0.49058118 0.5670267 0.026917463 -0.22429906 -0.3098198 -0.45327908 -0.3076525

decoder.decoder.weight_ih_l0 f4 [128, 16]
00000000: b6d9 013d a561 d7bd c74b 06be 338a 223d
00000010: 77b7 cd3c dba4 22bd 765c 0d3e cf51 1cbe
00000020: 7caa 10be 826b 08bd d780 053e ae96 743d
00000030: 3f8a b7bd b42f 0ebe 1262 1d3d db5c 9dbd
00000040: 7d85 03be 47b1 60bb 745a adbd 5c4e 0b3e
00000050: 45f9 fd3d dd12 93bd 4007 87bd 10cd a8bc
00000060: 4605 2a3e 4914 e0bd 8476 203e 0609 383e
00000070: 7fd4 8dbd f592 f53d 2fb8 b7bd 3481 f4bd
00000080: 546b 813d 7d4e 2dbe 450b aa3b b8e0 aabd
00000090: 509b 0fbe 6175 f0bd 03fb 333e c776 d3bc
000000a0: cfd3 613e eace 013d 9890 b83d c8bb ed3c
000000b0: da14 9b3d d6a5 493e c074 1cbe 57fd c1bd
000000c0: 9730 843d ccf4 543d cc8d 6e3c d063 95bd
000000d0: 3d7b 3fbe 18de a1bd c445 1bbe a450 b73d
000000e0: 9e53 24bd 33f1 bcbd a9d8 09be 3468 26be
000000f0: 4d75 86bc a9e4 033d f50d cebd 8a94 0fbc
00000100: 4ce8 b2bd 88f9 903d 7941 11be 2ed2 0f3e
00000110: e1e4 113d dd7b 4f3e aa00 ddbd 2f0d 32be
00000120: 49a2 173e 555b 04bd da2b bcbd 0b72 b3bc
00000130: 8c46 eabd b8d2 66be 76b8 fabd a426 ca3c
00000140: ac6c 9f3d fb86 1ebe 076e 09bd df6c 983d
00000150: 51ea 3bbe 443a 883d b674 96bd e69d 3a3e
00000160: 2dbf 073e 8eac e1bd 40c5 c6bd 3ca3 213e
00000170: 2514 da3d 8a8d bebd 2efc ff3d 3c2c e83d
00000180: ac32 25be e5e6 b5bd 34e7 3fbd 2556 b63d
00000190: 8462 1cbe e837 d23d b5c8 cb3d 89fa d9bd
000001a0: 43ed d93c cf1b 863d c057 62bd 355f 58bc
000001b0: 6ce5 483e abc6 11be 5173 bf3d 1424 bbbb
000001c0: 060c 63be a8c8 52bc 8de4 053e 4dee df3d
000001d0: aa57 c1bc 6b7b 59be 5114 26bc 6072 833d
000001e0: 6356 4c3d 6741 4a3e 9456 a4bd 82cd 723d
000001f0: 9b19 81bd 4b18 cfbd 40f2 1c3e 2823 b73d
00000200: 38fe edbd 7278 46bd 8d13 2cbd ad3f e53d
00000210: 7ed2 3fbd 7f00 1fbe b1b6 fdbc daa7 823c
00000220: 05be 1dbe d7ab 46bc 903f e3bd 03fd a8bd
00000230: c581 0bbd 515c cdbd e375 a3bd 3480 e23d
00000240: 45b8 26be 617d 09be e9fb 3a3c 2703 4f3e
00000250: 7847 0ebe 889f cabd 162e 44bd 7e95 083e
00000260: b12e cdbd 2fd1 ed3c 067b cc3c 912f 203e
00000270: b451 e73d 4751 a33d 5e80 1c3e 6f50 18be
00000280: 5dc1 a5bd 0b11 f33d e548 0d3e 059d a0bd
00000290: 5c0b 1abe 8d34 dc3d 3182 f53d 11a7 783d
000002a0: 33a5 13be 21f8 a9bd e5bd a3bd 025c 903d
000002b0: 9044 2c3e 18b5 983d 0832 3c3e 2619 993d
000002c0: f1c2 a93d 2df5 633d b619 16be fbf5 3cbd
000002d0: 7b2b f33d eff3 09bd 4fef 133e 88e1 f93d
000002e0: be07 7a3d 9b7a 1fbe c083 b5bd 55b2 ef3c
000002f0: eee3 bcbd 7683 1bbe 0472 a1bd 6ab9 17be
00000300: 873e a9bc 44b7 103e 4299 e43d 2035 94bd
00000310: d48e 2abe 6d63 94bd ca95 5e3d d50e ca3d
00000320: 4db5 25be 3e45 a03c 4356 153e 2dec d53d
00000330: afb1 273d 3c60 f83d 6eec 9f3d d099 013e
00000340: a0c6 9f3b 8f6e 0cbd df91 53bd 395c 02be
00000350: db57 cf3d 4560 a23d 48ef 0abe ca9c dbbc
00000360: 2c8a f33d f3c0 703d 9417 e03d ea2f e2bd
00000370: c46b 033d 10be 0ebe 706d a0bd 704b 943d
00000380: 057d 273e 2cdb 633e 2ffc 873d 6249 28be
00000390: 13f5 a03b dba5 623e ba1e 86bd 2a77 983d
000003a0: fdbc 9fbc 74e8 d8bd 8068 1fbe c791 2fbd
000003b0: c5a5 373d e645 ebbd 06bb b8bd 1fba e23d
000003c0: c7ff 5cbe 8b34 07bb 67cc 3abd eb73 05be
000003d0: 0216 d43d 70b5 ef3c a906 503e 2939 273e
000003e0: be77 0f3e 85ea 2d3e 9bfe 913d 93fc 873d
000003f0: 1b5c a7bd 9a0b 5f3d ae46 603d f56e 16bd
0.031701766 -0.10516671 -0.13114844 0.03968258 0.025111897 -0.039708 0.13804802 -0.15265583
-0.14127535 -0.033305652 0.1303743 0.05971401 -0.08961915 -0.13885385 0.038423605 -0.076837264
-0.1284389 -0.0034285353 -0.08464518 0.1360411 0.1240106 -0.07181332 -0.0659318 -0.020605594
0.16603574 -0.10941369 0.1567021 0.17972192 -0.06925296 0.119909205 -0.08970677 -0.11938706
0.06319299 -0.16924472 0.0051893317 -0.08343643 -0.14024091 -0.11741138 0.17576222 -0.025813473
0.22053455 0.03169147 0.09011954 0.029020205 0.075723365 0.19692168 -0.15278912 -0.09472149
0.0645458 0.05199127 0.014560174 -0.07294428 -0.18699355 -0.07903689 -0.15163332 0.08950928
-0.040118806 -0.092256926 -0.13461556 -0.16250688 -0.016413355 0.03220049 -0.10061256 -0.008763442
-0.08735713 0.07078844 -0.14185132 0.14045021 0.035618667 0.20262094 -0.10791142 -0.17387842
0.14808 -0.032313664 -0.091880515 -0.021904966 -0.11439237 -0.2254132 -0.122422144 0.024676628
0.077843994 -0.15481178 -0.033552196 0.074426405 -0.18351103 0.06651738 -0.073464796 0.18224296
0.13256522 -0.1101924 -0.09705591 0.15784925 0.106483735 -0.0930434 0.12499271 0.11336562
-0.16132611 -0.0888193 -0.04685135 0.089031495 -0.15271956 0.102645695 0.09950391 -0.10643489
0.026602393 0.06548273 -0.055259466 -0.013206293 0.19618767 -0.14235942 0.09348167 -0.005711088
-0.22172555 -0.012865223 0.13075466 0.10934124 -0.023601372 -0.21238486 -0.01013668 0.064183
0.049887072 0.19751512 -0.08024326 0.05927802 -0.06303712 -0.101120554 0.15326786 0.089422524
-0.11620754 -0.04845471 -0.042010833 0.11193786 -0.0468316 -0.15527533 -0.030970903 0.015949178
-0.15404518 -0.012125931 -0.11096108 -0.08251383 -0.034059305 -0.100273736 -0.079814695 0.11059609
-0.16281231 -0.13426735 0.011412599 0.20216046 -0.1389445 -0.098937094 -0.047895513 0.13338277
-0.10018671 0.02903041 0.024961006 0.15643145 0.112948805 0.07974487 0.15283343 -0.14874433
-0.08093522 0.11868485 0.13797338 -0.07842449 -0.15043396 0.10752211 0.11987723 0.060706202
-0.14418487 -0.0829928 -0.07995204 0.07048799 0.1682303 0.07456416 0.1837846 0.074755
0.08289135 0.05565374 -0.14658245 -0.046133023 0.118735276 -0.0336799 0.14446758 0.1220122
0.06104254 -0.15574114 -0.0886302 0.02925984 -0.09223162 -0.15186867 -0.07883075 -0.14816824
-0.020659698 0.1413241 0.11162044 -0.07236695 -0.16656047 -0.072455265 0.05434207 0.0986611
-0.16182442 0.019564267 0.14583687 0.104454376 0.040940937 0.1212773 0.07808767 0.12656331
0.004875973 -0.034285124 -0.051652785 -0.12730493 0.10124179 0.07928518 -0.13567841 -0.026808161
0.118915886 0.05877776 0.10941997 -0.11044295 0.032085195 -0.1393969 -0.078333735 0.07240951
0.16356285 0.22251576 0.06639897 -0.16434243 0.0049120276 0.22133581 -0.065488294 0.07444604
-0.019499296 -0.10591212 -0.15567207 -0.042863633 0.044835825 -0.114879414 -0.09020047 0.11070656
-0.21581946 -0.0020630683 -0.04560509 -0.130325 0.1035576 0.02926132 0.2031504 0.16330399
0.14010522 0.16983993 0.0712864 0.066399716 -0.081718646 0.054454423 0.054754905 -0.03672691

decoder.decoder.weight_hh_l0 f4 [128, 32]
00000000: 6a96 d23b 5c60 e3bc 8ae1 00bd 1bd8 91bc
00000010: d484 74bd d31e 2abe 2d23 29be 339b bebd
00000020: a6be eb3d 2c34 323e 16cd 013e cf0f 7d3d
00000030: c7a1 f1bd 541a a93d 0d0c d53d 1e68 223e
00000040: 0698 4ebd 4228 1abe 7adc 103e 412d d03d
00000050: ba37 3f3e cbab 93bd a5dd 333b dbcf c33d
00000060: 2990 113c 0e1c f03d f3d3 3d3c a45e bbbd
00000070: 528c 3fbe 07ba 593e e3fd 143e 80f9 74be
00000080: ca4e d6bc 0a7e 42bd 3d68 3dbe d4ca 4abe
00000090: e510 0abc 4c07 793e 4f2a 02bc be8c 01bc
000000a0: 6e91 13be 6f88 d63c fe1b f2bd 219f 7abe
000000b0: c77f 4abd 11cf 26bd dad0 c53c e019 003e
000000c0: 5e03 3c3d 3edc ab3d d97d 473d f772 3b3c
000000d0: 071b 2bbe a318 0dbe 3531 b3bd 2eb7 2ebe
000000e0: 3d97 9bbe 4213 05bd 5c04 c6bd 23c5 9c3d
000000f0: be37 09bd c02b f83d 8d8b 7ebe 664b 263e
00000100: 76d2 4a3e 1fb9 6f3d b243 08be 77a2 173e
00000110: 9029 85bd 0a46 e9bb ba3f e93d 85ab 2b3d
00000120: 7490 423e 6b77 b1bd 8e2b 85bd b75f 393e
00000130: 8779 36be 6bc9 7a3d 4132 a03d 4357 7fbd
00000140: 4d5f 6f3d c36d 73bd ba13 693d 8b7e 3ebb
00000150: 4129 7bbd 3eab ec3c 9edc c83b 7282 d83d
00000160: db34 11be 267c 97bd 1a6d c83d a596 fbbd
00000170: 4fb9 ddbd 32a1 4d3d 7a62 dc3d 1997 203e
00000180: f837 463e 8fb4 48bd cfaf 9e3c 4ca8 393e
00000190: f251 53be 6ba0 2cbe 355e 21be 19f1 c4bd
000001a0: e2f4 a13b b132 8b3d c799 d03d cdcc 2d3e
000001b0: 0f00 0d3d 1a2d 23bd 7152 5f3d 96c8 fdbd
000001c0: 5dfb c63c 84cc f1bb 8aad 84bc 2434 a3bd
000001d0: 2476 8c3d f096 f13d 20c5 07be 7a6e 47bd
000001e0: ef9e f43c 0a50 bcbd 89a5 a43d 0587 47be
000001f0: 383f af3c 9b8a 0b3d 9055 883d 1955 46be
00000200: 3e9a 0ebe aa3c 97bd 2939 d43d a42d 363d
00000210: 3c22 d13d e29f b93c 3925 993d 0d24 3abc
00000220: 0355 13be 15f9 a73d 7f1e 02be 9f8f e53d
00000230: da9d ac3d a06a b83d a5ec 44bd 47a6 e63d
00000240: 817a dbbd a3f5 533e eb86 69be b2f7 21be
00000250: 9e17 213d 5973 6abe a4b6 683d e8df e33d
00000260: 97db e63c c6a5 9e3b 5672 cfbd 6c5c b5bd
00000270: f54e 62be 8216 f2bd 72b5 413d 98e1 38be
00000280: ae2f a4bd 12eb 0f3e 9134 c13d 71df a4bc
00000290: 8bc4 113e ed79 febd dbf1 273e 8851 4a3d
000002a0: cc0b e33d 0602 70bd 7a12 1fbe ff0d a43d
000002b0: 74ed 0f3e d9f9 1ebe 4137 d239 b697 75bd
000002c0: f4fa 503d 6eaa ce3d 985a dc3c 847b 333d
000002d0: 3bed efbd 240d a23d f18f 473e 6f87 dc3d
000002e0: 56d6 1fbd e5f6 e53d b4fb 44be 523b 54be
000002f0: 300b 81bc 7694 e03d ca80 37be 0fb1 d93d
00000300: 700d 27be d21a 1b3e 3b3b a83c b8b8 a2bd
00000310: e448 e3bc 961e 57be c17f 5dbd 2c74 c13d
00000320: b618 f1bd c3a8 05be 7c22 b1bd d585 29be
00000330: 0372 033e 29af 5bbd 1eae c1bc 1765 24be
00000340: edf5 643c a943 acbd 3157 2a3e 2a4f 10be
00000350: 9115 9cbc ea5c 103e d789 563d 2e83 073d
00000360: 1b70 dfbc 9fe5 d5bc 79f0 13be e1d0 c3bd
00000370: fab7 663d eebf 983d a7ed 2bbe 814b a6bc
00000380: 091e 0dbe 08c9 253e 3b47 ecbd ceac a2bd
00000390: 679a d4bc be7a 54be eb55 26bd 5d8d d43d
000003a0: 77fe 82be e375 523e 5f74 ca3a 7c45 ae3d
000003b0: 56b9 28bd 01c5 fabd 2539 8b3d 27ab bdbc
000003c0: 36e2 8d3d c09a 593e 8524 77bd 9af6 03be
000003d0: b2cb 293e add2 793c ae6a 00be 8ec8 e63c
000003e0: cfb8 66bb 8cd6 34bd b78d 243c d5dc a4bc
000003f0: 79e9 0fbe 94e6 68be 367e 023d 75df 723d
0.006426622 -0.027755909 -0.03146509 -0.017803242 -0.059696987 -0.16613321 -0.16517325 -0.09306946
0.11510973 0.17402714 0.1267589 0.061782654 -0.11798435 0.08256975 0.10402689 0.1586003
-0.05043795 -0.1505442 0.14146605 0.101648815 0.18673602 -0.07210501 0.0027445343 0.0956113
0.008884468 0.11724101 0.011586177 -0.09148911 -0.18705872 0.2126237 0.14549975 -0.23923302
-0.026160616 -0.04748348 -0.18496795 -0.19803935 -0.0084268795 0.2431919 -0.0079446575 -0.007907091
-0.14410946 0.026188103 -0.11821745 -0.24474765 -0.049438264 -0.040724818 0.02414744 0.1250987
0.04590165 0.08391617 0.048704002 0.011440984 -0.16709529 -0.1377893 -0.0874962 -0.17062065
-0.30388823 -0.03248907 -0.096688 0.07654788 -0.033500426 0.1211772 -0.24857922 0.162397
0.19806847 0.058526155 -0.13307074 0.14808069 -0.06502068 -0.007118945 0.11389108 0.04191162
0.19000417 -0.08665355 -0.06502448 0.18102919 -0.17819797 0.061227243 0.07822085 -0.06233908
0.058440495 -0.05943085 0.05690358 -0.0029067125 -0.06131864 0.028890248 0.0061298152 0.105717555
-0.14180319 -0.07396726 0.097864345 -0.122845925 -0.108263604 0.050202556 0.107609704 0.15682639
0.19357288 -0.04900032 0.019370941 0.18130606 -0.20636728 -0.1685807 -0.15758593 -0.09616298
0.0049425224 0.06796778 0.10185581 0.16972657 0.034423884 -0.039837934 0.05452198 -0.12391774
0.024289781 -0.0073791165 -0.016196031 -0.079689294 0.06858471 0.11796367 -0.13258791 -0.048689343
0.029860942 -0.09194954 0.08039386 -0.194851 0.02139245 0.03406773 0.06656945 -0.193684
-0.13926026 -0.073846176 0.10362465 0.04447712 0.10211608 0.022659246 0.07477803 -0.011361134
-0.14387898 0.082018055 -0.12706946 0.11209034 0.08428545 0.09004712 -0.048077244 0.11262184
-0.10716725 0.20699172 -0.22805373 -0.15817145 0.039329164 -0.22895564 0.056814805 0.11126691
0.02818088 0.004841539 -0.1012923 -0.08855519 -0.22100432 -0.11820699 0.04729218 -0.18054807
-0.08016907 0.14054516 0.09433854 -0.020126076 0.14235131 -0.12425599 0.16400854 0.04939416
0.110862345 -0.05859568 -0.15534392 0.08010482 0.14055425 -0.15524997 0.0004009549 -0.059959136
0.051020578 0.10091101 0.026898667 0.043818966 -0.1171517 0.079126626 0.19488503 0.107680194
-0.039022766 0.11228732 -0.19236642 -0.20725754 -0.015752405 0.10965817 -0.17920223 0.10629474
-0.1631372 0.1514695 0.020536056 -0.079453886 -0.027744718 -0.21007761 -0.054076914 0.09445986
-0.11772291 -0.13052659 -0.086491555 -0.16554959 0.12836461 -0.053633843 -0.023642596 -0.16054188
0.013974649 -0.08411343 0.16634823 -0.14092699 -0.019053252 0.14097944 0.052377548 0.033084087
-0.027275136 -0.026110468 -0.14447202 -0.09561325 0.056327797 0.07458483 -0.16789876 -0.020299675
-0.13780989 0.16189969 -0.11537024 -0.07943116 -0.025952531 -0.20749947 -0.04060928 0.103785254
-0.25584766 0.20552783 0.0015446058 0.08509347 -0.041192375 -0.12244607 0.06798009 -0.0231529
0.06927912 0.21250439 -0.060337562 -0.1288704 0.1658161 0.015247983 -0.12540695 0.028171804
-0.003520537 -0.04414992 0.010043553 -0.020124832 -0.14053907 -0.22744209 0.031858645 0.059295136

decoder.decoder.bias_ih_l0 f4 [128]
00000000: 8b32 303b 8fba 853c 1e57 f23d 7cac 5d3b
00000010: 9b26 213e 19dd d53c 35a8 84bc c9c5 d8bd
00000020: d69c 2b3e 5abb 563e 0927 50bd c6c7 a9bc
00000030: 3c1c 02bd 7efc b23d dadf 913d a576 363d
00000040: 0b22 0cbe ba0d 03be f0eb 5dbc 0792 39be
00000050: a295 debc 7385 0f3e f883 9939 b083 cdbd
00000060: 86c3 a43d fa21 d33d 820e 213e 6c2a bbbd
00000070: 4093 91bc ade5 893d 6a7f 15be 88a0 903d
00000080: 37b8 b03d ab8b 2b3e d9c5 0dbe 581b dd3c
00000090: b98d 7a3d 635b 7fbd 637a 8d3d 1aa6 34bd
000000a0: 69f5 dabd 7135 4f3d 461e c3bd 3fe5 b2bc
000000b0: 1fbb 133e 683f 9fbd e541 003d 36d2 ddbd
000000c0: 28ea 67bc 589c 05be 31ed 9a3d fd5a 14bc
000000d0: dcff 063d 286d 453e 36c8 ec3d 1e3d 1c3e
000000e0: 4726 11be e012 42bc 09fb 073e eab3 623c
000000f0: 9de4 a63c 2ed3 253e 05b2 a33a e00f 20bc
00000100: d056 08be 8beb fabd e332 af3d 73ae 8c3d
00000110: 588c 9c3d bac6 c23c 1f7c f9bd 3128 403d
00000120: 2c78 df3d f5d0 11be 590a 203c 0c80 0c3d
00000130: e8c2 a0bc b5e5 b4bd 12ce 193e b37f 703d
00000140: 347c 9139 f751 013e 5b37 2abe b5af 1ebe
00000150: 6820 043e 372a 20be edda 4cbd 113a bf3d
00000160: 5ae8 003c 0025 07be 7614 a4bd 413a 023e
00000170: fae7 d13b f59c 1c3e c5a8 95bd 4871 c1bd
00000180: 037e fb3c b128 19be 94e9 9cbc 14f1 903c
00000190: 380f 5b3d c813 3c3e d322 b7bd 6b63 5abc
000001a0: 0857 8ebd 603f 803c 49d2 933d 0dbc 3f3e
000001b0: a7c3 09be c928 39bd 851e 973d 35f9 3ebb
000001c0: cf7b 19bd 3703 2c3e d665 3f3d ed87 1a3e
000001d0: 422f 99bd 3187 dcbd 47f9 17be bd94 f1bd
000001e0: caab 233e 41df 273d a894 8a3d b4ff 753d
000001f0: acdd b9bc 5740 0e3d 7ba2 353c ecae 8ebc
0.0026885595 0.01632431 0.118330225 0.0033824733 0.15737383 0.026106404 -0.016193489 -0.105845995
0.16759047 0.20969906 -0.050818477 -0.020725142 -0.031765208 0.08739565 0.071227744 0.044546742
-0.13684861 -0.12798205 -0.013545021 -0.18122111 -0.02717096 0.1401575 0.00029280758 -0.10034883
0.08045106 0.10309215 0.1572819 -0.09138951 -0.01777041 0.0673326 -0.14599386 0.07061869
0.08628886 0.16752498 -0.13845004 0.026990578 0.061170314 -0.062343013 0.06908109 -0.04410372
-0.106913395 0.050588075 -0.095272586 -0.021837829 0.1442685 -0.07775766 0.031312842 -0.1083111
-0.014154948 -0.13047922 0.07564772 -0.009054896 0.03295885 0.19279921 0.11561625 0.1525769
-0.14174758 -0.01184532 0.13279356 0.01383684 0.020372683 0.1619384 0.0012488967 -0.00976941
-0.13314366 -0.122519575 0.08554628 0.06869211 0.07643956 0.0237764 -0.12181877 0.04691333
0.10911593 -0.14239867 0.009768092 0.034301803 -0.019624189 -0.08832876 0.15020016 0.058715533
0.00027749094 0.12628923 -0.16622679 -0.15496714 0.12902987 -0.15641104 -0.05001347 0.09337247
0.007867897 -0.13197708 -0.08011715 0.12717535 0.0064058276 0.1529425 -0.07307581 -0.09445435
0.030699736 -0.14956929 -0.019154347 0.01769308 0.05348131 0.18366921 -0.08942189 -0.013329367
-0.06950194 0.01565522 0.07217843 0.1872408 -0.13453542 -0.04520491 0.07378868 -0.0029140238
-0.03747159 0.16798101 0.046727978 0.15090914 -0.07479717 -0.10767973 -0.14841186 -0.11795948
0.15983501 0.040984396 0.06766635 0.06005831 -0.02268871 0.034729328 0.011086102 -0.017417394

decoder.decoder.bias_hh_l0 f4 [128]
00000000: 1225 67bd 46f5 0cbe 912b 05bd 91c6 c43d
00000010: 3f13 0abe eac7 82bd 75cd 8abd 924c e13d
00000020: ebaf a7bc 1866 c9bc 30ba d5bd 9127 203e
00000030: 6431 463e 6ccd 773c 7b18 04be 2d92 ff3d
00000040: 57c9 2f3e f68c e43b 6d7b b23d 3916 98bd
00000050: a858 6fbd 2ada 23be bd2d 13be d92c 13be
00000060: 2c14 863d de0b 1ebe 9ece 9b3d 0ee0 0fbd
00000070: 07ef 5fbd 15a1 14bd 7f86 19be 9302 f93d
00000080: be43 363d f9b8 9e3d 47a7 263c fa3e 463e
00000090: e44e 933c 4a4b 12bd 7d2c e8bd 067d 553e
000000a0: cdd1 ffbd 3797 c4bd 5014 15be 4bc1 18bd
000000b0: c6bf cb3d 5de9 52bd 5479 d13c 5c7e 5cbd
000000c0: ae09 5ebd 292a 053e 77b8 0b3e c680 1bbe
000000d0: a64c 4e3b 65d6 313c a7dd 3f3e c2fe 6b3d
000000e0: 1445 2bbd b11b 19bd 4fbd cc3d c726 a6bd
000000f0: ddc1 11bd 5a6d 4dbd 0a77 813d aa97 5d3c
00000100: 04ec e13d 52a7 f4bd 8757 a53d cb20 b1bd
00000110: 25a9 1f3d 1dd8 13be 6aae fe3c 118c ec3c
00000120: 9c01 33be ab93 163e 8152 95bd 871a e2bd
00000130: 5613 cd3c 4e48 9fbd b9e7 913d 7e7b d23d
00000140: de5d d03d 0199 823d c7ad da3d 0c54 ee3d
00000150: 4712 38be b9e0 39bd 435f 1bbe df34 393e
00000160: 94b7 963d 62b9 10be fe87 d73d 76d4 ebbd
00000170: e6da b83d 2b0d 08be 96bb c53d a4ca 673c
00000180: 5bd6 0fbe b6a3 053e 31da a13d ce84 2e3e
00000190: 4e49 2b3c b445 d93d f4df de3c 3261 643d
000001a0: 0eb3 9c3d be92 01be 152c fdbb 7d69 24bd
000001b0: 2d8b c43d c311 4cbd 17a1 c9bd 97e7 383e
000001c0: ce87 193e d8f5 12be 88ab 7a3e aa5c 0ebe
000001d0: 8e2f c4bd 33de 123d 9c0e 11be eb12 173e
000001e0: 1ed4 0cbe 2276 09be f433 6dbd 1cfc 013e
000001f0: 5618 d03d 8b50 293e 1891 0a3e 805f 043e
-0.056431837 -0.1376544 -0.03251225 0.09608186 -0.13483904 -0.06385787 -0.06777469 0.11000933
-0.020469626 -0.024584815 -0.10435903 0.15640093 0.19354779 0.01512466 -0.12899964 0.12479053
0.17166649 0.0069748117 0.08714948 -0.07426114 -0.05843416 -0.16001192 -0.14372917 -0.14372577
0.06546816 -0.15434214 0.076077685 -0.035125785 -0.054671314 -0.036286432 -0.14992712 0.12158694
0.044498198 0.077501245 0.010171718 0.19359961 0.017981954 -0.035716332 -0.113366105 0.20848474
-0.12491188 -0.095991544 -0.1455853 -0.037293714 0.09948687 -0.051492084 0.02557055 -0.053831443
-0.05420845 0.13004364 0.13644587 -0.15185842 0.0031478791 0.010854338 0.18736897 0.057616003
-0.041813925 -0.037379924 0.09997045 -0.08112865 -0.035585273 -0.050153114 0.06321533 0.013524929
0.110313445 -0.11945976 0.08073335 -0.08648833 0.03897967 -0.1443791 0.031089026 0.028875383
-0.17481083 0.14704768 -0.07291127 -0.11040216 0.025033634 -0.07777463 0.07124276 0.102774605
0.10174154 0.063768394 0.10677677 0.116371244 -0.17975722 -0.045380328 -0.15173058 0.18086575
0.073592335 -0.14133218 0.10523985 -0.11515133 0.090261266 -0.13286273 0.0965492 0.014147434
-0.14046614 0.13050732 0.07902945 0.17042848 0.010454489 0.10608998 0.027206399 0.055756755
0.076513395 -0.12653634 -0.0077262023 -0.040139664 0.09596858 -0.049821626 -0.098451786 0.18057095
0.14993212 -0.14351594 0.24479496 -0.13902536 -0.09579383 0.035856437 -0.1416573 0.1475331
-0.13752791 -0.1342397 -0.057910874 0.12693828 0.10160892 0.16534631 0.13531911 0.12927055

decoder.spatial_embedding.weight f4 [16, 2]
00000000: 3fb3 ffbd 418e cc3f 4456 b6be 111a 613f
00000010: edb5 973d 2181 54bf 38bd 853e 27c7 b13e
00000020: 5ddf 37be 1a14 223f 7158 a4be 8c3d 773e
00000030: 3594 393f 749a e63e b9de 613f e624 0440
00000040: 4fbc 323f 6203 c73f a329 f7bc 7cc4 afbf
00000050: a563 333f be25 06be af39 453f f6a7 61be
00000060: 8e0c f7be 179e 2bbf 07c2 de3f 79ba 433f
00000070: 05f7 87be 6bd9 27c0 19ec 1ebf 8f18 68bf
-0.1248536 1.5980912 -0.3561269 0.879304 0.074077465 -0.83009535 0.26120925 0.34722254
-0.179563 0.6331192 -0.32098725 0.24144572 0.7249177 0.45039713 0.8823047 2.064752
0.69818586 1.5547907 -0.030171221 -1.3731837 0.7007392 -0.13100335 0.77041143 -0.22036728
-0.48251766 -0.670381 1.7402962 0.7645641 -0.26555648 -2.6226451 -0.62079006 -0.90662473

decoder.spatial_embedding.bias f4 [16]
00000000: 5d29 abbd c40e 1e3d 2e15 8d3e d05e 253f
00000010: 7458 90be 3143 bdbd e616 ca3e 3a68 ed3d
00000020: 54c2 a0be ef52 90be c836 253f 6ebe 00be
00000030: a200 c93e 93ca 023f cccc a83e 50a6 b7be
-0.08357499 0.0385883 0.2755522 0.645978 -0.28192484 -0.09241331 0.39470595 0.11592145
-0.3139826 -0.28188273 0.64536715 -0.12572643 0.39258295 0.51090354 0.32968748 -0.35869074

decoder.hidden2pos.weight f4 [2, 32]
00000000: dc56 d9bb b0c4 b4be 08e5 903e 3367 07bf
00000010: bb47 6dbe 15cf f5bd 6c18 4a3e c8af 55bc
00000020: cc4e 053f 9138 2bbe 6207 b2be 6a43 123c
00000030: c2ec 11bc f287 da3b f78b 79be fe16 7b3e
00000040: 5116 2dbe 2bb3 f23e b61d 423d ad43 fabd
00000050: 7634 623e 3dd0 86be 9c15 893d ad59 a03e
00000060: 6f91 ee3e 6aca 0d3d db52 fdbd 05ba 323e
00000070: e6a3 ebbe f9aa ce3e 5fd1 58bc 2e6c b93e
00000080: bfc5 66bc c2c4 7bbe 63b6 713e ac72 c3bc
00000090: 8456 243e 6ea0 733e 755f 8c3e 4deb 7b3e
000000a0: cd34 1f3d 73bf 20be 475f bf3d f4ae 673e
000000b0: 47d5 263e 8a27 413e 515d d13e 23ad 66be
000000c0: 0ee5 f93e aa44 e43e 350d c63b 8392 003f
000000d0: b62b 0c3e b466 2bbe 88d0 5b3d dbec e93c
000000e0: 029e 43bd 5abf 4c3e 399d 2cbd ab3c 113e
000000f0: 8c1e 403d 33f0 a9bd ed1f 20be f3b6 c8be
-0.006632669 -0.3530631 0.28299737 -0.52891845 -0.23171894 -0.120023884 0.19735879 -0.013042398
0.5207336 -0.16720797 -0.34771258 0.008927206 -0.008906545 0.006669038 -0.24369799 0.2452049
-0.16903044 0.4740232 0.047391616 -0.122199394 0.22090325 -0.26330748 0.06693575 0.31318417
0.46595332 0.034616865 -0.12369319 0.17453773 -0.46023482 0.40364817 -0.013233512 0.36215347
-0.014085232 -0.24586776 0.23604731 -0.02385839 0.16048628 0.23791668 0.27416578 0.24601479
0.038868714 -0.15698032 0.093443446 0.22625333 0.16292296 0.18862739 0.40891507 -0.22526984
0.48807567 0.44583637 0.006044055 0.5022356 0.1368855 -0.16738397 0.053665668 0.028555324
-0.04775811 0.1999487 -0.042142127 0.14183299 0.04690413 -0.082977675 -0.15637179 -0.3920208

decoder.hidden2pos.bias f4 [2]
00000000: 91ed 5ebd 9a32 e43d
-0.05442578 0.11142464

pool_net.spatial_embedding.weight f4 [16, 2]
00000000: 4f12 9dbf ebd9 863f 96ed 703f 9dc9 d9be
00000010: 3aa9 343e a5ee dbbf 6ca9 4dbf 961a b8bf
00000020: f25f 933d c9f9 633f 0ec9 38bf fe04 acbd
00000030: 89bc c4bf 4310 0540 63e8 a33f 9900 883f
00000040: b3b9 74bf 6c37 ae3f ba76 6cbf 9229 8c3f
00000050: 93d9 13be 7a87 95bf 7f06 cc3d c118 cfbe
00000060: e453 bcbd 3539 9e3e 2fcb 18bf 5c5a 01bf
00000070: a774 803f 11c7 05c0 239b 823f f7fa dfbe
-1.2271212 1.0535253 0.9411253 -0.4253663 0.1764268 -1.7182204 -0.8033664 -1.4383113
0.071960345 0.89053017 -0.72181785 -0.0839939 -1.5370036 2.0791175 1.2805294 1.0625182
-0.95595855 1.3610663 -0.9236866 1.0950186 -0.14438467 -1.1681969 0.099621765 -0.40448573
-0.09195688 0.3090302 -0.59685034 -0.505285 1.00356 -2.090275 1.0203594 -0.43746158

pool_net.spatial_embedding.bias f4 [16]
00000000: 9f5c 06be 523e 04bf d8fb d53d 4c9e 993d
00000010: c02e 00bf ce6c cd3e 9eb1 15bf eba6 083e
00000020: 501b db3d c515 853e 22b6 723e 1441 c63c
00000030: f956 b33e 4dcc 3a3f b8c6 c33e f769 d8be
-0.1312127 -0.51657593 0.10448426 0.07500896 -0.50071335 0.40122074 -0.5847415 0.13344924
0.10698569 0.2599317 0.2370229 0.024200954 0.35027292 0.7296799 0.38237548 -0.42268345

pool_net.mlp_pre_pool.0.weight f4 [512, 48]
00000000: 3c23 2a3e c8c4 1cbe 7e11 76be 0a85 173e
00000010: b0fa 3cbe 4a24 023e 1515 663e 5386 d6bd
00000020: 36df 983e c963 0d3d ca00 92be 885b 983e
00000030: 11c8 f13e 3217 66be 99bc 9cbe 4395 96be
00000040: 2f2a ad3c 27f8 243d f275 9f3e 656c 6c3e
00000050: fa8f ccbd b9c4 a0bd 544c 793e 3f27 ec3d
00000060: 4d95 833d 06ef a0bb 0063 bf3e 68d2 9fbd
00000070: 44d8 9fbd b320 ba3d 79f2 2bbb e1ee d7be
00000080: 58c5 d0bd a9e7 14be 2b20 ccbe 51db 923e
00000090: 35c6 c33d d95b 85bd 0ee8 28bb 5801 a8be
000000a0: 2616 933d fb6a 9c3e cee4 63bd 614c 33be
000000b0: 6503 103a 1c9d f3be fac8 973d 6b94 dbbd
000000c0: 9994 323c e0c8 083e b989 24bd a1a2 cbbc
000000d0: bf60 9bbe 4623 223e 4b64 0abf 56ad 41bd
000000e0: 5847 cfbc 0698 713d 0e29 dfbd 7908 553c
000000f0: 8e3f 8e3e 4e60 a3be 117c 8b3d ac9c a6be
00000100: 8cbb 68be 1d43 b3bd a858 143e 1866 8a3e
00000110: 542d a03c 279e 92bd 24fc 973d 0100 26be
00000120: 3b50 76be 2691 453e 51e1 9e3e 9483 7a3d
00000130: 2323 22bd 5a0d 0d3d 4035 8ebe d0da 98bd
00000140: 2977 dbbc cd57 993e ea5d 9b3d 56f1 a63d
00000150: f728 bebe 4c51 d4be d816 1abd 74dc 80be
00000160: 22d9 ba3d c948 f93d 144c b53c 2d7d ca3d
00000170: 9c83 5b3e 1c65 20be 0e77 8b3d b73b bb3d
00000180: 52c9 27bd 56ec b4be c81e 50be 01f3 8a3d
00000190: ea75 f7bd 30ce dab9 8ea4 8d3e 4b8e f2bc
000001a0: a5a5 183e 44c7 6f3e 059c cc3e 5411 343e
000001b0: 737d 97be 07c4 e73e f17f 913e b27d a2bc
000001c0: b765 d73d 6a2d 96bd a81f 0ebe ee02 6fbe
000001d0: a1c1 933e ef8f 573e 4848 18bd 46dc aa3e
000001e0: c14b b63d 780e 5b3c 12ed bfbd f687 c33d
000001f0: 6c18 cf3e a30f 153e 119f d2be ac5d aebd
00000200: 5c4a f53c 81bc a8bd 59ca 28bc 13a4 1ebd
00000210: bfeb a8be 5158 11be e0b2 8c3d 8d8f 8fbe
00000220: 2759 513e 7f61 333e f74b 70bd d68b 9fbc
00000230: 2dc3 003e 2e1f 9bbe cefa f6bd 2d9a fd3d
00000240: ddd9 893e 9e18 303e d750 7fbd e72c a0be
00000250: be33 263e 180b 85bc e4c3 bbbc 2dc5 033d
00000260: f9af 8bbd 7a05 d73d f889 5e3d d51d d7bc
00000270: 1ae8 7cbe 8247 e83d 6391 42be 6673 2dbe
00000280: ee9b 133c eb0c 063e 060b a73e cb5f 983e
00000290: 8848 f4bd 3db1 dfbd 9091 993d 3c94 bf3d
000002a0: bbe2 013d 5f61 e23d 331d a9bd 5fa3 87be
000002b0: 2aef 2d3d 6c9a 283e 8c2b 43be 4d3f 3e3d
000002c0: 71a5 71be 7ad8 33be dc07 83bc 4974 47be
000002d0: e4e9 06be 0946 34bd 9106 34be 6031 1f3d
000002e0: c49b 36be 9475 7a3c e9fa 42be e98c 58be
000002f0: 3b16 a0be 5835 38be 8ba3 87be bfa4 99bb
00000300: 789e a13d 63d6 983e a32e 36be b683 65be
00000310: 3a1c 45be abb0 8c3e 2738 9ebd e0e0 11be
00000320: c877 6cbe 0b40 e73c 7074 dabd b395 bcbc
00000330: 5564 6dbe 630c 663e a2e8 a43e 008e 0c3f
00000340: a152 9e3d f90e cebe 24ff 54bd c143 433e
00000350: 7296 723e e195 613e cda0 ad3e c04c 69be
00000360: f214 1a3e d64a ea3b 60b0 5d3e f253 e7bc
00000370: fd5c 99be dabe 003e e7e2 c4bd c8d3 4e3d
00000380: b06d d6be 5aec dfbd 56b6 1b3c 4808 64be
00000390: 80ad 44be 3ed8 053c 1f66 823c b328 833e
000003a0: 0d28 6c3e 76cb af3e 70e2 1abd 6e30 5cbe
000003b0: d2c2 c63d 5a30 41be 288a 88bc 949b f0bc
000003c0: 33cd 02bc 1f28 46bd 5877 903e ddc3 01be
000003d0: 0a06 b23c 3661 4a3e 86c8 e7bd 30fa 333e
000003e0: 5e64 c1bd 9b87 d93c 4394 573d 8f5e 0d3e
000003f0: 5d0d dc3d 39fd abbe 429d 833e 9032 afbd
0.16615003 -0.15309441 -0.2403011 0.14796844 -0.18455005 0.12709156 0.2246898 -0.10474839
0.29857796 0.03451899 -0.28516227 0.29757333 0.4722295 -0.22469786 -0.3061264 -0.29410753
0.021138279 0.04027572 0.31144673 0.23088224 -0.09988399 -0.07850022 0.24345523 0.11530923
0.06424961 -0.0049113063 0.37380219 -0.07803804 -0.07804921 0.09088268 -0.0026237054 -0.42174438
-0.1019389 -0.14541496 -0.39868292 0.2868295 0.09559289 -0.06511659 -0.002577308 -0.32813525
0.07181959 0.3055037 -0.055638127 -0.17509605 0.000549367 -0.47580802 0.0741138 -0.10721668
0.010899686 0.13357878 -0.040170405 -0.024857821 -0.3034725 0.15833768 -0.54059285 -0.047284447
-0.025302574 0.05898287 -0.108965024 0.013002508 0.27782863 -0.31909412 0.06810773 -0.32541406
-0.22727793 -0.08753035 0.14486945 0.27031016 0.019552864 -0.071590714 0.07421139 -0.16210939
-0.24054043 0.19293651 0.31031278 0.06116064 -0.03958429 0.03443656 -0.27775002 -0.0746361
-0.026790218 0.299498 0.07586272 0.081515 -0.3714063 -0.41468275 -0.03761944 -0.25168192
0.09123446 0.12172086 0.022131003 0.09887157 0.21436924 -0.1566357 0.06809817 0.09142249
-0.04096348 -0.3533656 -0.20324242 0.067846306 -0.12083037 -0.00041733822 0.27664608 -0.029608866
0.14906938 0.23415858 0.39962783 0.17584735 -0.29587898 0.45266744 0.28417924 -0.019835327
0.105174474 -0.07332881 -0.13879263 -0.23340961 0.28858665 0.21051 -0.037178308 0.3337118
0.08901168 0.013370149 -0.093713894 0.09547417 0.4044832 0.14556746 -0.41136983 -0.0851396
0.029942684 -0.08239079 -0.01030215 -0.038730692 -0.3299236 -0.14193846 0.06870055 -0.28039208
0.20444165 0.1751766 -0.058666196 -0.019475859 0.12574454 -0.30297226 -0.12059556 0.12382922
0.2692403 0.1719689 -0.062332954 -0.31284258 0.16230676 -0.016240641 -0.022920556 0.032170463
-0.068206735 0.104990914 0.054330796 -0.026259342 -0.24697915 0.11341764 -0.19000773 -0.16938552
0.0090093445 0.13090865 0.32625598 0.29760584 -0.11927897 -0.109224774 0.07498467 0.09354445
0.031710368 0.11053728 -0.082575224 -0.2649183 0.042464413 0.16465157 -0.1905958 0.046447087
-0.23598267 -0.17563048 -0.015994959 -0.19477953 -0.1317516 -0.044012103 -0.1758063 0.038865447
-0.17832857 0.015286822 -0.19041027 -0.21147503 -0.3126696 -0.17989099 -0.2649196 -0.0046888287
0.07891554 0.29851064 -0.17791228 -0.22413525 -0.19249049 0.27478537 -0.07725554 -0.14245939
-0.23092568 0.02822878 -0.1066674 -0.0230206 -0.23182805 0.22465663 0.32208735 0.54904175
0.07730604 -0.40245798 -0.052001134 0.19068815 0.23690203 0.2202983 0.33911744 -0.22783184
0.15047053 0.0071500344 0.21649313 -0.02823827 -0.29953757 0.12572804 -0.09613591 0.05049494
-0.4188056 -0.10933752 0.0095039215 -0.22268784 -0.1920681 0.008169232 0.015917836 0.2561699
0.23062153 0.34334916 -0.037813604 -0.2150285 0.09705128 -0.18866101 -0.01666744 -0.02937106
-0.007983494 -0.048378106 0.28216052 -0.12672372 0.021731395 0.19763646 -0.11317544 0.17575908
-0.09442972 0.02655392 0.052631628 0.13805602 0.10744736 -0.3359163 0.25705916 -0.08554566
