scripts/models/sgan-p-models/hotel_12_model.pt (torch_old, 190166 bytes, 24 tensors)

encoder.encoder.weight_ih_l0 f4 [128, 16]
00000000: a227 823c 3b24 493e 592c 54be 312b 9c3d
00000010: a015 453d f66b a7bd 46ef 0f3e 3c12 bf3d
00000020: 321e 3e3e f8d0 fdbd 85af 05bd 5da8 a53d
00000030: 013d 97bd a6dd c83b 205c 06be a176 50ba
00000040: c192 12be 55bb 4c3e 9fd3 7f3d 4ba7 16be
00000050: 4dd6 ee3d 607d 623c e60c c5bd e5a9 cc3c
00000060: 8a93 19be 76bd a4bd 3767 acbb d846 3e3b
00000070: c5ee 293e 0e1b 623d 3482 1cbe 9f62 39bd
00000080: 6d53 53bd e429 263e c19c e0bd d102 86bd
00000090: 9e5c bbbd 9552 f2bd 5d0e 313e 0cd8 b63d
000000a0: 5032 bbbd 98e9 19be 1fda 2bbe bf0b de3d
000000b0: f2d4 4fbd d139 873c 9ea9 84bd 3823 5abd
000000c0: 5564 d4bd 43a8 c8bd d6d8 debc 3db3 953c
000000d0: 215d 4fbe 0479 89bc 99df d6bc 21ab 6e3d
000000e0: 9b52 e23d 0654 8fbc ba97 6abe 9be9 d8bd
000000f0: c680 08bd 081c 5b3e f233 483d cf37 113e
00000100: 96b2 5bbe d6fa 61bc 41f3 64be ad36 eb3d
00000110: 6e91 1bbe 8b61 ea3d 8338 5f3e 77c4 aa3d
00000120: 34d5 3e3d d7ad e93c f2fb 53be 12cf 97bd
00000130: 4bd8 f0bb 5a7d b6bd ebcd 46be f610 96bd
00000140: b327 7d3d 70c2 06be 0b9a eebc 5415 0bbc
00000150: 30f6 7e3d 063d 48bd d576 93bd 44af 55bd
00000160: 8518 83bd ebba d5bd 9e70 983d 66fb 143e
00000170: bf1f e8bd b4dc 0f3e cc62 f33d 4c55 0dbe
00000180: e9a5 21be 727a 4c3e 4da8 70bd 4799 9b3c
00000190: 24f5 d2bd 8bd5 49be 2742 c33c 397b e1bd
000001a0: d568 06bd 919d bebd b711 20be 0b80 2b3a
000001b0: cf14 2fbc 7120 8c3d 1e70 163e 0fe5 63bd
000001c0: 835f e33c 5cad e4bd a4d1 8c3d 72cc 073e
000001d0: 4f87 733d 7501 8e3d b2bc 963c 12c8 a0bd
000001e0: 4f94 82bd 2e0e 153e 0745 a2bd 946c 453b
000001f0: 44b0 4f3e a20e 62bd 93b3 d5bd a112 b2bd
00000200: b242 aabd c30b a53d ba64 923d 12ef 003e
00000210: e476 2ebe 298f a43b 6e4e 92bd c483 503d
00000220: 742c abbc d69f ff3d 3c28 0b3e 4227 1fbe
00000230: 556b 813d c724 413e 3846 d4bd 3eee c53d
00000240: 2d5b 3ebe 20e1 65bc 2871 16be 5812 10bc
00000250: c910 e13d d225 0d3d 96ba 5a3d ee89 2d3c
00000260: 750f 99bd cccf 01be e100 e0bc 8f39 1abe
00000270: 1c69 553d b76f 35bd 1bad 8f3d 09d9 fb3d
00000280: e95c 45be 2294 d2bd c5f4 f3bd fa62 f53d
00000290: d142 e2bd 4686 77bd a09e febd c6db 373e
000002a0: 725c dfbd 0fc3 a33d f3db c53d ab8d b93d
000002b0: 19b0 423b 528b e73d cf59 0a3d bb0f cebc
000002c0: a3d5 733d 91d5 0f3e 8b1f 59bd 4885 29bd
000002d0: 79ac 1abe c487 5d3e 7b17 093d 4f7a 9ebc
000002e0: a7a4 fa3d b1da da3d d295 4f3c 7da0 49be
000002f0: 9dd8 f7bd aa13 f63d 131e 0bbc e98c 353e
00000300: efc4 093c 2733 0a3e 4496 b0bd fe92 31bd
00000310: 8c9a 24bd 9f79 bc3d f7b7 65bd 7a5d febd
00000320: aef6 7fbd 1cca 29bd 1e37 29be b18d c53d
00000330: 064f 82bc 02b3 dfbd a806 7f3b 82dc 60bb
00000340: b08a 953c 2999 943d 83a4 b23c 5563 85bd
00000350: 9ebc 1f3e 45d0 3ebe 216b 3abd 6273 41bc
00000360: 74ec 41bc c8db 3f3e bab9 30be 09aa 7bbc
00000370: 5117 9b3c 5a47 343e c4c2 42be 417f ed3d
00000380: b2d2 8e3d 76e4 a1bd 00fe a13c ad98 f6bd
00000390: 916c 36be 291b 6abd 6a05 55be e399 96bd
000003a0: 5bbb c93d 074b f73d 571c 9f3c fc49 1c3d
000003b0: de46 db3d 74ce 0bbd 2e8c 623e 036f 8b3d
000003c0: a852 003e 60d9 ef3b 75fd 0d3e 47c8 73bd
000003d0: 2510 e1bd ca44 ea3d 4ef8 16bd 434b f1bd
000003e0: 893d 10be ccef 8dbd da60 a53d 181c f73c
000003f0: 375c 433d 7f7e 2fbd f202 053e 3ea0 2c3e
0.015888039 0.19642727 -0.20720042 0.076254256 0.048116326 -0.08174889 0.1405612 0.0932965
0.18566206 -0.12393373 -0.03263809 0.08088753 -0.073846824 0.006129938 -0.1312108 -0.00079522474
-0.14313795 0.19993336 0.062457677 -0.14712255 0.116619684 0.013823837 -0.09621601 0.024983356
-0.14997688 -0.08043949 -0.0052613276 0.0029033925 0.1659499 0.055201583 -0.15284044 -0.045260068
-0.051593233 0.16226918 -0.109673984 -0.06543506 -0.09148525 -0.118321575 0.17290635 0.089279264
-0.09140456 -0.15030515 -0.16782425 0.10842084 -0.05074019 0.016507061 -0.064776644 -0.053256243
-0.10370699 -0.097977184 -0.027203005 0.018273944 -0.2025037 -0.016781338 -0.026229667 0.05826867
0.11050912 -0.01749612 -0.22909442 -0.10591432 -0.033325933 0.21397412 0.048877664 0.14181446
-0.21454844 -0.013792714 -0.22358419 0.11485038 -0.15192196 0.11444386 0.21798901 0.08338254
0.046590045 0.028525276 -0.20701578 -0.074125424 -0.007350003 -0.08910628 -0.19414489 -0.07327454
0.06180544 -0.1316011 -0.029126188 -0.008488972 0.0622465 -0.04888632 -0.072004 -0.0521691
-0.06401161 -0.104360424 0.07443355 0.14549026 -0.1133418 0.14049035 0.118840784 -0.1380207
-0.15785946 0.19968584 -0.058754254 0.018993987 -0.10300663 -0.19710366 0.023835255 -0.11009831
-0.03281482 -0.09307397 -0.15631758 0.0006542212 -0.0106861135 0.06842125 0.14691207 -0.05563837
0.027755504 -0.11165878 0.06875923 0.13261583 0.059455212 0.06933872 0.018400524 -0.078506604
-0.06375944 0.1455619 -0.07923322 0.0030124532 0.20282084 -0.055189736 -0.10434642 -0.086949594
-0.08313502 0.08058884 0.07148118 0.12591198 -0.1703754 0.005021949 -0.071438655 0.05090691
-0.02089522 0.12481658 0.13589567 -0.1554232 0.063193 0.18861686 -0.10364956 0.09664582
-0.18589468 -0.014030725 -0.14691603 -0.008793436 0.1098953 0.034459896 0.0534006 0.010591967
-0.07473651 -0.12676924 -0.02734417 -0.1506102 0.052102193 -0.044295993 0.07015439 0.122972555
-0.19273724 -0.1028216 -0.119119205 0.11981769 -0.110479005 -0.060430788 -0.12432599 0.1795493
-0.109063044 0.07996189 0.096610926 0.09060224 0.0029707013 0.1130587 0.033777054 -0.025153985
0.05952991 0.14046313 -0.053008597 -0.041386873 -0.15104856 0.21633822 0.03346966 -0.01934543
0.12238436 0.10686243 0.012669997 -0.19690128 -0.121018626 0.12015469 -0.008491057 0.17729534
0.008408769 0.13496076 -0.08622411 -0.043353073 -0.04018645 0.09202885 -0.056083646 -0.12420173
-0.06249111 -0.041452512 -0.16524932 0.09646166 -0.015906822 -0.10922815 0.003891388 -0.003431112
0.018254608 0.072557755 0.02180696 -0.06513087 0.15599295 -0.18634136 -0.045512322 -0.011807295
-0.01183616 0.18736184 -0.17258349 -0.015360364 0.018932017 0.17605343 -0.1901961 0.115965374
0.06973781 -0.079049036 0.019774437 -0.12040839 -0.17814852 -0.05715481 -0.20802847 -0.0735357
0.09850188 0.12074857 0.019422693 0.038156494 0.10706876 -0.034132436 0.22123787 0.06808283
0.12531531 0.0073196143 0.13866217 -0.05951717 -0.109894074 0.11438902 -0.036857896 -0.11781933
-0.14085974 -0.06930503 0.080751136 0.030164763 0.047695365 -0.042845245 0.12989405 0.16858003

encoder.encoder.weight_hh_l0 f4 [128, 32]
00000000: 0957 a13d 0c88 55bd f12a 103e ee80 bf3d
00000010: 66da 213d 0105 683e 9e83 823d 685a c8bd
00000020: 2855 52be 2d3d e3bd a0d4 fc3c fd80 4c3d
00000030: 9f38 0dbe f1e9 03be 6de0 003d 2403 28be
00000040: c158 79be 5af6 383c 8af2 083d c6c8 99bc
00000050: 4d0e 353d 4346 323e ddce 043d 39c9 543c
00000060: d61c 9e3d eeac 89bd cb22 003e 4c28 5fbe
00000070: 02dd 5d3d 75aa 5cbe c68c 483c 627a d6bc
00000080: c3d9 93bc ff8b 0bbe c9ce 343d a7f8 4a3e
00000090: 4513 463e 661b 4d3d b48d a8bd 5b03 6b3c
000000a0: fe81 363d 594c 6ebe ba92 02bd a378 fabc
000000b0: 146e 11be ee60 24be a25a d43d aab4 053e
000000c0: 02ae 31be fcfa e7bd 3dcb 88bc 2c25 383e
000000d0: 9ea9 1a3c 028b ac3d b19c eabd 06bc 633c
000000e0: 7fbd 903d ad68 193e 4a1c 3d3d 25e0 d3bd
000000f0: 2bd1 443d 732b 5d3c 0af7 db3c 1915 d93d
00000100: 018b 60be dffd 003e cc8b 353e 3c86 cf3d
00000110: 7555 d53d b310 2d3e ee2a 4c3d 311a 163e
00000120: ed69 f63d 257f 113e cb09 f6bd 1031 52bd
00000130: 4286 d5bc be0d dbbd 4490 b7bd 50d1 b0bd
00000140: b59e 41be bfe5 edba 09be cdbd ffea 573e
00000150: 7cea 32be be6f 433d aa89 e6bd 290c 2a3e
00000160: c193 4cbe 46a9 f83d 4d01 1abd 0d41 0e3e
00000170: fdbc 403e 6326 8bbb 7f9c 333e b6b5 4d3e
00000180: c2dc ee3c 4d52 39be 5ddc 263d 3929 a03d
00000190: 2358 a4bd 5bd2 133d d78d 113d 0c9d 833d
000001a0: 8108 92bd 4f06 54bd b8e6 2ebe 468a 723c
000001b0: d113 b33d d5f2 d63d 0049 0d3e 422c 6fbd
000001c0: fd54 0a3e e2c8 d9bd 34ff d23d b0df 343e
000001d0: 53f5 63bd 7d9e 5d3d bfac fc3c ee2a 6d3e
000001e0: 1ff1 52be 4145 c43d a061 c1bd fb36 2cbe
000001f0: cb6d 533e 81bb 513e 8b84 193d 070d 243e
00000200: 05fb 66bd e920 e9bd 1f72 c1bd 3a36 c5bc
00000210: 8a62 2a3e 3b2f d3bb 3c65 a4bd c289 a03d
00000220: a585 4bbc 5995 5dbe 3c28 c3bd c964 06bc
00000230: 4a92 6ebe 7fe3 ac3d 6cce 323e 1b54 21be
00000240: 03c2 35bd a536 a7bd fd38 b3bd df29 a1bd
00000250: 010b 2e3e 345b 85bd 33a9 393e 29d8 c53c
00000260: e0ef 11be cdb1 3a3e 1efd b2bc be97 88bd
00000270: 1f11 573e 17e0 38bd c375 993d 794e d33d
00000280: 9df9 cd3d 8e0d 133d 77e5 4c3e 9f78 593d
00000290: ac38 83bd 436c b8bd a7c5 cdbd ce00 a93d
000002a0: c9d8 eb3d 6703 cbbd 57ee 8dbb d2e2 043e
000002b0: c8b1 df3d 151f c4bc 8dd1 2c3b 737a 1b3c
000002c0: 4135 3ebe b3e9 9c3d c655 f0bd 4d2f c03d
000002d0: fb99 403e 255e 193e fc42 173e fa7f 1c3e
000002e0: c5c7 78bd 0ab6 0a3e 034f 363d 2d85 393d
000002f0: 4c2c fa3d 8667 02be 89a6 00be 24f6 15be
00000300: 2b53 4d3d 8fd7 e4bd aad3 72bd 24da 433e
00000310: 59a1 193e eb59 01be 269f 2ebe e555 c4bb
00000320: 0054 35be 012c d83d 3b78 cf3b 693d 81bc
00000330: 8aef d8bc 2ff9 db3d b905 7bbd 47cf fabd
00000340: 462d 3ebe ad00 5bbe 10f6 c53d dd18 b7ba
00000350: 02d0 0e3d c3e3 93bd e7dc 743d c060 a4bd
00000360: 9f8e ccbd e831 9bbb afe6 ebbb 129d 44be
00000370: c8af 3e3e 72b7 1abe 5fc4 d33d b49d 34bd
00000380: c386 fb3d 59c7 e9bd 2d1f e1bd 6768 553e
00000390: 143b b0bd 18ef 0fbc c2f2 36be 5b7b cc3d
000003a0: 4105 613d ca23 1abe d35c 943b 7212 0f3e
000003b0: 61b3 68bc 645a 003e e46b 103d 8b0b 363c
000003c0: 92a5 843d 048c b23d 7905 5abe 59b5 e6bd
000003d0: 49a8 1b3e 03d7 e83d a038 d33d 55a6 0abe
000003e0: 969f 3bbc 2ac1 093e 2df0 373e aa27 9cbd
000003f0: 3d1b 3f3e 1b46 97bc f20e 283e 6967 cc3d
0.07877929 -0.052131698 0.14078881 0.09350763 0.03951492 0.22658159 0.0637276 -0.097828686
-0.20540297 -0.11095653 0.030863106 0.0499277 -0.1379113 -0.1288221 0.03146403 -0.16407448
-0.24350263 0.011289204 0.03343443 -0.018772494 0.04420309 0.17409615 0.032423843 0.012987428
0.07720344 -0.06722437 0.12513272 -0.21792716 0.054165848 -0.21549399 0.012240594 -0.026181404
-0.018048173 -0.13627623 0.04414252 0.19821416 0.19343288 0.050074957 -0.08230153 0.014344062
0.044557564 -0.23271312 -0.03187821 -0.030575102 -0.14202148 -0.160526 0.10368849 0.13057199
-0.17351535 -0.11327168 -0.016698474 0.1798293 0.009439854 0.08424951 -0.11455668 0.013899809
0.070673935 0.14981337 0.046169557 -0.103454866 0.04805104 0.013499129 0.026851196 0.10599727
-0.21928026 0.12596844 0.1772911 0.10133025 0.1041669 0.16900901 0.04984563 0.14658429
0.120319225 0.14208658 -0.120135866 -0.05131632 -0.026064996 -0.106959805 -0.08963063 -0.08633673
-0.18908198 -0.0018150135 -0.10046012 0.21085738 -0.17472261 0.047713988 -0.11256726 0.16606201
-0.19978239 0.12141661 -0.037598897 0.13892002 0.18822093 -0.0042465194 0.17540167 0.20088848
0.029158 -0.18097802 0.0407375 0.078203626 -0.08024623 0.036089282 0.03553566 0.06426439
-0.07130528 -0.05176383 -0.170802 0.014803475 0.08744014 0.10495535 0.13797379 -0.058391817
0.13508983 -0.106340185 0.103025824 0.17663455 -0.05565388 0.054106224 0.03084409 0.23160908
-0.20599793 0.09583522 -0.094424486 -0.16817848 0.20647351 0.20481683 0.03747992 0.16020595
-0.056391735 -0.1138323 -0.09445595 -0.024073709 0.16639152 -0.0064448393 -0.080271214 0.07838775
-0.012422 -0.21639003 -0.095291585 -0.00820274 -0.23297992 0.08441829 0.17461556 -0.1575474
-0.044374477 -0.081647195 -0.08751104 -0.078693144 0.16996385 -0.06511536 0.1813095 0.024150925
-0.14251661 0.18231888 -0.021849211 -0.066695675 0.21002625 -0.045135584 0.074931644 0.10317702
0.100573756 0.0359016 0.20009409 0.05309355 -0.06407294 -0.09005024 -0.10047465 0.082521066
0.11515958 -0.09912758 -0.004331391 0.1297715 0.10922581 -0.023940602 0.002637002 0.009489643
-0.18575002 0.07661762 -0.1173511 0.09384022 0.18808739 0.1497732 0.14771646 0.15283194
-0.06073739 0.13546005 0.044508945 0.045293022 0.1221548 -0.12734804 -0.12563528 -0.14644676
0.050128143 -0.11173927 -0.05928389 0.19126183 0.15002955 -0.12631957 -0.17052898 -0.0059916847
-0.17707825 0.10555268 0.0063314713 -0.015776353 -0.026481409 0.107408874 -0.061284754 -0.12246566
-0.18571958 -0.21386977 0.09666073 -0.0013969202 0.03486634 -0.072211765 0.05978098 -0.08026266
-0.0998814 -0.004736174 -0.0071991305 -0.19200543 0.18621743 -0.15109041 0.10340189 -0.04409571
0.12281563 -0.11414976 -0.109922744 0.20840608 -0.08605018 -0.008785032 -0.17866042 0.09984466
0.05493665 -0.15052715 0.004527667 0.1397188 -0.0142029235 0.12534481 0.035259143 0.0111111505
0.064768925 0.08718112 -0.2129115 -0.11265058 0.15200914 0.11369135 0.10313535 -0.13540013
-0.0114516225 0.13452592 0.17962714 -0.07624753 0.18662734 -0.018466046 0.16411951 0.099806614

encoder.encoder.bias_ih_l0 f4 [128]
00000000: 35ec 263e f3b2 01be 25f6 3e3e 2cdb b43d
00000010: c407 94bd f34c 183e a507 73bd 43ba 94bc
00000020: 188d fc3d 7ee6 b3bd 1e5a b83b 783a 023e
00000030: aae2 573e bc77 bc3d 6696 f0bc 0dfd 97bd
00000040: 1f3a 923d fadb 883d 99c9 c3bd 6b2c 253e
00000050: 2bf6 2e3e 761a f0bc 8d97 103e 07d1 15be
00000060: e8d0 01bd 0258 3f3d 070b 6cbd 0007 1c3e
00000070: 6e98 e5bd 9d50 f0bd ba19 c9bd 2b85 07be
00000080: 278c c23d aa99 223e e3c4 b13d 3fe6 283d
00000090: 4b7f 523e 80d7 ecbc 46fa d0bd b2b7 b7bd
000000a0: 9913 b73d 6d4f 03be 80f8 28be abea c8bd
000000b0: 4843 053e cd23 1fbe 99bd ccbd a86d cc3d
000000c0: e8fd cb3d 2f68 a5bd 6e6c 9b3d 291a 06be
000000d0: b89a 8ebd b3e4 0fbe bac2 c53d 942c fdbd
000000e0: 5787 b13d e300 a23c d235 0bbc 93e9 e93d
000000f0: 56ee 32bd 8d52 003e 65dc 8b3d 28ab ca3d
00000100: 5212 f9bc e782 33be 2f16 4e3d e88d c73d
00000110: 1e02 263e c796 933d acbf 21be f034 b63d
00000120: 311f f0bd b398 213e 91a2 3a3d 53f8 b93d
00000130: 2697 1fbe 0143 913d e1e8 873d 400f 2c3e
00000140: 24a7 2f3e 7ca4 27be 16db 793d 1020 2d3d
00000150: 2a8e 10be 089e d93d 89b9 733d f810 84bd
00000160: f23e 3dbe 0bf4 1a3e 0d7e d3bd 7ac3 12be
00000170: 74d5 933d 2b50 fcbd 98fd bd3d 524a 563d
00000180: 68ff 60bd cfde 493e b44d 903d 18a8 2c3e
00000190: f8fb 683e c4e7 94bb 7a8b 073d 670d 633c
000001a0: 11a6 623e 005d cc3d 7769 d0bd e125 213e
000001b0: 76c6 6a3d 0494 b1bd a6dc 3d3e c88e dfbd
000001c0: 2d86 cfbd f5c1 c5bd 829b a6ba 72de 893e
000001d0: d375 c03b 6666 debd 49b2 223d 6d2a 373d
000001e0: 3dc5 093e 5212 c4bd 79e9 41bd 6245 023e
000001f0: 1e3a 453e 8ce7 ad3c c89b 1d3d 01eb 023e
0.16301043 -0.1266592 0.18648584 0.08830866 -0.07228044 0.14873104 -0.059333462 -0.018155223
0.12331599 -0.08784197 0.005625977 0.12717617 0.21082559 0.09202525 -0.02936859 -0.074213125
0.07139992 0.06682582 -0.09559936 0.16130225 0.17086093 -0.029309493 0.14120312 -0.14630519
-0.03169337 0.04671479 -0.057627704 0.15237045 -0.11210714 -0.11734126 -0.0981936 -0.13234393
0.09499388 0.1587893 0.08680131 0.041235205 0.20556371 -0.028911352 -0.10203986 -0.08970584
0.08939285 -0.12823267 -0.16501045 -0.09810384 0.13013947 -0.15541 -0.099971004 0.09981853
0.09960538 -0.08076512 0.07589041 -0.13095917 -0.06963104 -0.14052086 0.09656282 -0.12362018
0.08668392 0.019775813 -0.0084967185 0.11421504 -0.043684326 0.1253149 0.06829146 0.09895927
-0.030404244 -0.17530404 0.050314125 0.09743863 0.16211745 0.07206493 -0.15795773 0.08896816
-0.11724699 0.15780906 0.04556519 0.09080567 -0.15585002 0.07092858 0.06636215 0.16802692
0.17153603 -0.1637134 0.060999952 0.042266905 -0.14116731 0.10625845 0.059503112 -0.06448549
-0.18481043 0.15132158 -0.10326777 -0.14332381 0.07218447 -0.12319978 0.09276885 0.05231697
-0.054931074 0.19713901 0.07046071 0.16860998 0.22752368 -0.00454423 0.033092 0.013858176
0.22133662 0.09978676 -0.10176366 0.15737106 0.057318173 -0.0867081 0.18541202 -0.10915905
-0.10133014 -0.09656135 -0.001271114 0.26927525 0.0058734207 -0.10859375 0.039720807 0.044718195
0.13454147 -0.09573807 -0.047341798 0.1272178 0.19260451 0.021228574 0.038478643 0.1278496

encoder.encoder.bias_hh_l0 f4 [128]
00000000: c5bb 023b 1f0b cf3b d85b d13d ff09 3d3d
00000010: 84b2 203e 714c a8bd 5cae cbbd 8592 043d
00000020: 56b3 323e 3a91 703d b41d ca3d 812e 783d
00000030: 3c47 4e3e 1622 063e 798d 193e 4bed 7ebd
00000040: 6c9c bdbd 57d0 353e 94f6 93bd e97f bf3d
00000050: f26f c33d b7da 4d3e bbdf fabc 3757 b4bb
00000060: a966 c13c 7332 773c 614f 18bd 4a34 193c
00000070: 4353 87bd 3f8d 803d 393b 08be a17b 0c3e
00000080: 5020 233e e647 1d3e 0cc8 20be 3af0 1d3e
00000090: 26e3 5d3e 73c2 0abe 8af2 01be 57ff 4a3d
000000a0: 1d86 4c3e fc35 303e 35ed 953d e741 4fbd
000000b0: b2be 1e3d 70e7 45be 1368 7fbd 0c46 cdbd
000000c0: 3b25 9c3d 84fc b83c 8397 18bd d21f 54be
000000d0: d688 1dbe 7b8e ce3d 24c1 e13d 60ab 343d
000000e0: 0e69 113e b643 203e 2824 11bd a50b 1c3e
000000f0: 9172 b13c 33ab 8f3d 661e 0d3e f974 d33b
00000100: fce4 b0bc 5b53 003d ef98 f2bc f8ca 143e
00000110: a674 4dbd ca63 593d a245 1b3d 8660 f2bd
00000120: 30f9 48be bf1c 30bb b4ac b23d 1f5d 433d
00000130: bc05 183e 8cb4 8abd 5178 c93d 3fbe 06be
00000140: 5a04 dabd c059 18be e555 e6bd 8f69 d03d
00000150: 4fc7 f13d d1ac 273e 0406 123e e853 213e
00000160: fa4e bebd ab22 1f3e 32ce ef3d 5f6b a73d
00000170: 90b7 413d e477 81bd 79d6 bb3d 77ce 373d
00000180: 1497 0f3e fb00 293d 25a4 92bd 63ee 7f3b
00000190: 3549 243e 0d0c 213e 44f5 593e 6a43 253e
000001a0: 2bc7 cabd 6ea4 983d 5765 943c 40a3 f1bb
000001b0: 6064 1a3e e3f3 2d3e a423 4c3e 63cf 55bc
000001c0: af60 1f3d ce5e c43c 6ffb 3e3e 4ebd 24bc
000001d0: 6b3d ddbd e2de d33d 3d9c 083c 4fae 303e
000001e0: d08f dabd e70b d0bd f27e 5bbd 5813 383c
000001f0: 0134 a93c 14a9 14be 0eb6 9e3d 0994 f63d
0.0019948345 0.0063184644 0.10222596 0.04615211 0.15693098 -0.08217705 -0.09945366 0.032366294
0.17451224 0.05873225 0.09868947 0.060591225 0.20144361 0.1309894 0.14995374 -0.06223802
-0.09258351 0.17755257 -0.072247654 0.09350569 0.09542836 0.20102964 -0.030624261 -0.005503561
0.023608522 0.015087712 -0.037185077 0.009350846 -0.06607678 0.062769406 -0.13303842 0.13719036
0.15930295 0.15359458 -0.15701312 0.1542367 0.21668682 -0.13550739 -0.12690178 0.049559917
0.19973035 0.17208093 0.07320634 -0.05059996 0.03875608 -0.19326568 -0.062355112 -0.10023126
0.07624289 0.022581346 -0.037253868 -0.20715263 -0.1538423 0.1008577 0.11023167 0.04410875
0.14200231 0.1565083 -0.035434872 0.15238817 0.021661075 0.070150755 0.13781127 0.006453153
-0.021593563 0.031329494 -0.02961394 0.14530551 -0.050160073 0.053073682 0.037908204 -0.11834817
-0.19626307 -0.0026872603 0.08724347 0.04769623 0.14845937 -0.06772718 0.09837402 -0.1315851
-0.10645361 -0.14877987 -0.11246852 0.10176384 0.11805593 0.16374518 0.14260107 0.15754664
-0.09292407 0.15540569 0.117092505 0.08174776 0.0472942 -0.063216954 0.09171767 0.044874635
0.14022475 0.0412607 -0.07160214 0.0039052002 0.16043551 0.15727253 0.21284968 0.16138998
-0.099012695 0.074532375 0.018114729 -0.0073741972 0.15077353 0.16987567 0.19935471 -0.013049933
0.038910564 0.023970988 0.18650602 -0.010054899 -0.1080273 0.10345246 0.008338031 0.17253993
-0.10671961 -0.1015852 -0.05358786 0.011235081 0.02065468 -0.14517623 0.07749568 0.12039954

encoder.spatial_embedding.weight f4 [16, 2]
00000000: d2f9 81bf 303e 1ebf 376f 903d 2a64 ef3e
00000010: d699 26bd fdaf a43e d6e3 39bf db0a f23e
00000020: 9329 70bf 2a91 9fbf e5bf a23f d908 adbd
00000030: b34c d33e b244 05bf a611 9ebe e9b3 92bf
00000040: 8ed7 7a3f de9e 29bf 55ae 18c0 b16e 4a3f
00000050: 1feb d8be 70b0 6fbf 0f72 87bf 9693 563e
00000060: f30c 143e 4f29 dfbf cdec 3e3f bff3 883f
00000070: b712 8fbe 6bfd e53f b8e1 9b3f 113f 34bf
-1.0154364 -0.6181364 0.070524625 0.46756107 -0.040674053 0.32165518 -0.72613275 0.47273907
-0.9381344 -1.2466176 1.2714812 -0.08448953 0.41269454 -0.52057946 -0.3087284 -1.1461154
0.9798516 -0.6625804 -2.3856404 0.7907515 -0.42366883 -0.936286 -1.0581683 0.20954737
0.14458065 -1.7434481 0.7458008 1.0699385 -0.27943966 1.7967962 1.2178259 -0.7040873

encoder.spatial_embedding.bias f4 [16]
00000000: 0191 00bf 8ca4 023f 9c68 d2be 89d9 9f3e
00000010: 875d f9be 5429 82be 4466 3b3d d706 d63e
00000020: 8403 953e aef5 d63e 0517 1fbf 2aab 333d
00000030: 7bb0 0c3f abd5 e63e 278d 5bbe 6b4c aa3c
-0.5022126 0.5103233 -0.41095436 0.31220654 -0.48704168 -0.25422156 0.045751825 0.41802093
0.29104245 0.41984314 -0.621445 0.043864407 0.5495679 0.4508489 -0.21440564 0.020788392

decoder.decoder.weight_ih_l0 f4 [128, 16]
00000000: 7776 a73d beb1 41bd 9039 12be 7c51 233e
00000010: 75ef 33bd ade1 8dbc 4b35 aa3d 0d1a ed3d
00000020: 318b 143e d723 89bd efb2 e1bd ac5e 013d
00000030: 913e 013e a07d a93d 5706 c63b 5e19 cf3d
00000040: 041f fdbd d97b 9abd 6ec3 99bd e83c 8f3d
00000050: f030 69bd 60db 2e3e f6d1 93bc afec 54bd
00000060: 64ae 423c 9afe 143d b2f6 5f3d 63e4 31bd
00000070: 648f b03d 330b 49be 2f73 07be 7cf2 2fbd
00000080: e095 753d 93fe 433d 22e0 08be 4856 36bd
00000090: c86a 06be 57cb 33be c8cd e93d 36e7 d0bc
000000a0: a2c1 15bd 38c3 bbbd 3dc2 473e 278e 263e
000000b0: 2d9f 6bbd 167b 4f3d d4d4 ecbd edd3 d8bd
000000c0: ddfb 123d 7e62 34be ee6d e8bc 2a9d 313d
000000d0: 0d4f cfbd 92d1 06be 37b5 30be 5aea d43d
000000e0: 6703 f63d 9118 60bd 5f9c 3e3e 9796 81bc
000000f0: cd98 14bc 60eb 853d e528 3bbe 32bd 05be
00000100: 588e 463d 9913 473d 6cd4 043e a402 3c3b
00000110: c4d6 893d bc48 833c bbc0 a6bd 08fe bf3d
00000120: 0c6b 393d 7558 1c3e 164b ad3d 0749 843d
00000130: 5df2 c9bc c26d e23d bb26 573d f13a 923c
00000140: 557a 473e f5f6 4b3e fa08 aabd 346c 68be
00000150: 848a 133d f405 6c3d 9c33 0fbe e1c3 99bd
00000160: 5aef c43d 82be 6a3d 905e 26be d05d d43d
00000170: 8506 d1bd ed56 033e 093d 00bb 305a d63d
00000180: 6def a7bd 831b 0abd d3ff 25bd 3b22 253e
00000190: 5c5c f93a 1c7e 0cbe 42ba 0e3e a505 b43c
000001a0: 385a 2d3e 8f22 edbd 150b 48bc db11 d23c
000001b0: edc6 e5bd 2b6c 173e b2e0 3cbe 9f70 893d
000001c0: 9e2a 16be 3509 df3d 5f4c 873c 7c36 c23d
000001d0: 3195 65bd 146a cabc 171e 16be f133 c7bd
000001e0: 4233 8f3d 8178 7d3d a161 45be 1c3c 503d
000001f0: a2a5 9e3c 4e23 343c fab1 343e 428d 373e
00000200: 70a7 58be 4a72 0fbe 5734 7d3d e5e5 083e
00000210: 1942 aa3d 9737 993d 7acf 9c3d 0275 4bbe
00000220: efbf c8bd 376d 8abb b888 4e3e dd2d 95bd
00000230: c740 01be 03c3 a53d f15e 93bd 0a2f 153e
00000240: 9684 72bd 804d 7f3c 0e14 ecbc a9b0 03be
00000250: c17b 25be 2a03 ad3d db5a 7dbd 2b8b 0dbe
00000260: 71ce f93d 6480 d53d 1b62 c93d a082 64bd
00000270: f8f3 8e3d 4f88 2cbd 7f2e 403d 101f 1fbe
00000280: 4184 433c 030a 2b3e 6adf 05be 1c01 27be
00000290: 48bc 6dbd 35d4 15be 0d54 99bd 42ce af3c
000002a0: 1e0b 773d 366d aebd 60e2 873c 9338 1a3d
000002b0: c4c4 1cbe be23 ef3c 2be5 d5bc 4d71 d9bd
000002c0: ebd9 23bc 8de4 e53c d305 1c3e 23a4 53be
000002d0: 728a c8bd 25ec 2cb9 7c2b 303e ae0c 8f3d
000002e0: 8e53 18be 1bd4 013e a447 043c e184 1bbe
000002f0: 5dc7 25be a501 1d3e 41d8 803d 6647 0f3e
00000300: 6773 b1bc 59a6 8b3b f5cd f13d d0b4 42bd
00000310: 542c 7abd cca9 063e 931d 0c3e 97a4 bf3d
00000320: 0b57 e9bd 432c 9f3d 71b4 01be 25df b73d
00000330: 8c01 753d b5a1 03be c72d 34be 0da9 d9bc
00000340: b510 dcbd f2c5 a93d b0f6 293d e0f2 7fbd
00000350: 6f81 17be bab4 0dbe 213e b0bd db2f bcbd
00000360: 5566 5fbd 7fa8 c23c 358a 613e 0512 1a3d
00000370: 4203 07bc d981 423e 66ee 91bc 3338 fd3c
00000380: 27ce 92bd 0a4e a3bd 9b28 233d fddf e7bd
00000390: 1f3d 17be f359 1b3d e3da 023e 4f54 04be
000003a0: d53f 32be 7ef9 19bd 75ec 01be 1fbf 91bd
000003b0: dac1 36bd e92f 963d 8b13 3a3e 99eb f23d
000003c0: 79ab c13b 0a47 3c3d bef2 903d d862 c6bd
000003d0: eafd db3d 6a40 86bd bbab a83d 1d65 18bd
000003e0: c02d 02bd d1d7 2fbe 0033 ac3d dd20 a9bc
000003f0: f991 3d3e d03d b3bd d07e 14bd 4c6e 863d
0.08176892 -0.04728865 -0.14279771 0.15949053 -0.043929536 -0.017319525 0.08310946 0.115772344
0.14506222 -0.06696289 -0.11020457 0.031584427 0.12621523 0.08275914 0.0060432362 0.1011226
-0.123594314 -0.07543153 -0.075079784 0.06994039 -0.056931436 0.17075872 -0.018044453 -0.05198353
0.011882398 0.03637562 0.054678626 -0.043430697 0.086210996 -0.19633178 -0.13227533 -0.04295586
0.059957385 0.047850203 -0.1336675 -0.044515878 -0.13126671 -0.17558037 0.11416203 -0.025500875
-0.036561616 -0.091680944 0.1950769 0.16265164 -0.05752485 0.050654493 -0.11564031 -0.10587297
0.035884727 -0.17615697 -0.028372731 0.043362774 -0.101224996 -0.13165882 -0.17256628 0.103962615
0.12012368 -0.05471093 0.18614338 -0.015818877 -0.009069634 0.06539035 -0.18277319 -0.13060454
0.048475593 0.048602674 0.12971658 0.0028688097 0.067304164 0.016025893 -0.08142229 0.093746245
0.045268103 0.15268119 0.08461587 0.06459241 -0.0246517 0.11056091 0.05252717 0.017850371
0.1948026 0.19918425 -0.083024934 -0.22697526 0.03602077 0.057622865 -0.13984531 -0.07508064
0.09615965 0.05731059 -0.1624701 0.10369456 -0.102063216 0.12826128 -0.001956763 0.10466421
-0.08199964 -0.033717643 -0.040527176 0.16126339 0.0019024718 -0.13719982 0.13938239 0.021975348
0.16928947 -0.11578857 -0.012209673 0.02564328 -0.11219583 0.14787357 -0.1844509 0.06710934
-0.14664695 0.10890428 0.016515909 0.09483048 -0.056050483 -0.024708785 -0.14659916 -0.09726704
0.069921985 0.0618825 -0.19275524 0.050838575 0.01936609 0.010994745 0.17646018 0.1792498
-0.21157622 -0.14008442 0.061817493 0.13368948 0.083133884 0.07481306 0.076567605 -0.19868854
-0.098022334 -0.004224445 0.20169342 -0.07284138 -0.12622367 0.08093836 -0.07195843 0.14568725
-0.059208475 0.015582442 -0.028818157 -0.12860359 -0.1616049 0.08447869 -0.061854225 -0.1382262
0.12197579 0.10424879 0.09833165 -0.055788636 0.06980127 -0.04212218 0.046919342 -0.15539193
0.011933387 0.16703038 -0.13073507 -0.16309017 -0.058040887 -0.14631732 -0.074867345 0.021460656
0.060313337 -0.08516924 0.016587436 0.03765161 -0.15309435 0.029191848 -0.026110252 -0.106173135
-0.010000686 0.028063083 0.15236597 -0.20668082 -0.09792031 -0.00016491169 0.17204088 0.0698484
-0.14875624 0.12678568 0.008073721 -0.15187408 -0.16189332 0.15332659 0.06291247 0.1399208
-0.021661473 0.0042617735 0.11806861 -0.047535717 -0.06107743 0.1315071 0.13683157 0.09357565
-0.11393555 0.07772114 -0.12666489 0.08978108 0.05981593 -0.12854655 -0.17595588 -0.026569868
-0.10745374 0.08289708 0.041495025 -0.062487483 -0.14795469 -0.13838473 -0.086056 -0.09188815
-0.05454095 0.023761986 0.22025378 0.03761484 -0.008240523 0.18994845 -0.017813873 0.030910587
-0.07168227 -0.07973869 0.039833646 -0.11322019 -0.1476941 0.03792758 0.12778811 -0.12922786
-0.17407162 -0.03759145 -0.12687857 -0.071165316 -0.044618465 0.07333357 0.18171518 0.11861343
0.0059103337 0.045966186 0.070775494 -0.09686822 0.1074179 -0.06555255 0.0823588 -0.037205804
-0.03178191 -0.17172171 0.08408165 -0.020645553 0.18512715 -0.08752024 -0.03625375 0.06564006

decoder.decoder.weight_hh_l0 f4 [128, 32]
00000000: f74e 073e 9d3e 183d fb05 a63d 792b e4bd
00000010: d4b2 413d e841 fbbd 208f 0bbd cf65 bfbc
00000020: c277 023e 4ab2 33be da78 ea3d ea82 88bd
00000030: 3646 0bbe 2a5b 1c3c 0521 4b3d 2ce8 163e
00000040: 08a0 41bd b7d3 653d f219 443e e555 5d3c
00000050: efdd c9bd 6bc3 d33c d799 563d 89e6 c5bd
00000060: 6c41 aa3c fc13 e7bd d7ff 96be be23 94bd
00000070: 85a8 fe3d 0582 2dbe b247 cebd 3e7e 7ebd
00000080: ef3c 4c3c 96f3 543e 24fb e73a b98b d63d
00000090: ce27 23be 8991 983d 92bc ae3d 6f89 85bd
000000a0: db26 133e 5027 a1bd 57fb e2bd dfe5 adbd
000000b0: e5f9 253e 17ae 0abe b9cc 323a d82e 2e3e
000000c0: 05a5 04bd cbaf 2d3e 5e67 11be 068a f83d
000000d0: 3b50 d7bd 7dc2 9f3d 9092 b23d 3aa9 b0bd
000000e0: d1ea 10be eeb6 8f3d 057e 0d3e 4979 25be
000000f0: 6d44 ddbd 192f c93d 6078 12be ecc6 073e
00000100: 6b9c 4a3e c814 463e ad1c 4c3d ba91 d93d
00000110: eea9 1c3e b453 253a b37e 8cbc b460 b9bd
00000120: bf69 4f3e a596 023c 353a e13d c175 95bc
00000130: c8f2 30be e27c 853e 2dfe d23d 3da4 de3d
00000140: 9c0f 7a3d ff41 ae3d b60d f6bc d837 cc3d
00000150: ef73 69be 48a5 9fbd 37e0 3f3d 38c1 2b3e
00000160: 65a7 d7bd c12f d23d 1602 973d c587 303d
00000170: d535 cdbd 87d8 c0bd 9ea4 f83d a857 2c3d
00000180: a23a d13d af7b 0e3e 3a9d ef3b 7420 ff3d
00000190: ece4 f4bd 4c96 023e 891e 053e 12d1 0f3e
000001a0: 927b 8d3d 6ff7 173e e292 2e3d 1726 c2bc
000001b0: 1fe0 adbd f458 11be bd37 093e b116 22be
000001c0: 0447 c1bb a698 fc3d 1edc 9b3b 0172 0ebe
000001d0: 3288 4e3c 1c1e 213e 68e2 eebd cf0a ecbd
000001e0: 9074 8d3d a350 ab3d 320c f33d 7fd3 3bbd
000001f0: 161d a3bd 4115 d53d 5762 83bc 91a2 eb3d
00000200: ee23 ddbc 1cf3 cebc a797 d2bc 23ca c13d
00000210: 6975 1abe aa08 dc3d aeeb a03d 2641 95bd
00000220: 8c62 bdbd 0d14 a73c 5dea 083d 9477 053e
00000230: 7227 09be be00 013e 6271 cbbd 3cc9 67bc
00000240: c87b 8c3d 94e7 f0bd 1b62 0c3d b36a a83d
00000250: 6e7e 823d 80a6 ce3d c226 3ebd 2f27 283e
00000260: 856b b23d 0e11 f1bd 11e7 083e 8701 35bd
00000270: dc35 03be 6600 cf3d f3b1 493d 7357 513e
00000280: e27f b33d 3cbd db3d 0bc4 46bd cd35 5bbd
00000290: 159a d9bc fcc3 4fbd 97a7 81bc eabd 0dbe
000002a0: 7072 d83d 1fc9 983d 7f23 17be 77a1 83bd
000002b0: 6135 2bbe 4194 cd3d 8517 ae3d 8759 cd3d
000002c0: 193b ad3d 4668 f63d ebdd 0a3e c253 323e
000002d0: 3e33 a63d 9141 0c3e e474 abbd d8f1 b33d
000002e0: 76e5 843d 5389 dfbc 581d f1bd fbcc 3dbd
000002f0: ce00 33be 9d6f 05be 40e5 7bbb 7210 d83d
00000300: a7e5 06be d377 03bc 0369 34bd e185 183c
00000310: 6638 f23d 19e5 153e 88d9 4cbd 0934 f53d
00000320: 7b70 09be dd52 193c 4e31 35be 9525 0d3e
00000330: 55d5 c03d 0e4c 49bc 390a 383e 5dbf 0f3e
00000340: 99cd b13d f88b 303c c043 06bd 8e7b 053d
00000350: 39d3 dfbd 8ba4 7b3c 77e7 9cbd f95f 02bd
00000360: edb0 0fbe 71ea 9abd 91d1 0fbb 6d8d 79bc
00000370: aa4c 3cbe ad2f 5a3e 141d cd3c 2613 b73b
00000380: 0200 f33d e447 483c 7d47 0c3e 3cc2 9b3d
00000390: 9739 7abc bb81 b13d b3c0 c4bc 32fd 193e
000003a0: c8f3 1ebc 54b8 6b3d 795a 18be e960 233e
000003b0: beac ffbc 25a1 9cbc 5f69 313e 6fab e33d
000003c0: 34f9 e0bc 54ad 253e c9ad f73d 6c8c a83d
000003d0: 7869 923d 5a01 b3bc b106 47be 886c 42bd
000003e0: 7ee3 0dbe 1556 7abd 71e9 96bd 7a00 f43d
000003f0: 7727 363b 09fc 093d d71a 1abd eb27 08be
0.13213716 0.037169088 0.081066094 -0.11141104 0.047289684 -0.1226843 -0.03407204 -0.023363976
0.12740996 -0.1754848 0.11448832 -0.06665595 -0.13601002 0.00954322 0.049592037 0.14737004
-0.04727176 0.05611011 0.19150522 0.013509248 -0.098567836 0.025850018 0.052392807 -0.09663112
0.020783149 -0.112831086 -0.29492065 -0.0723338 0.12434486 -0.1694413 -0.100722685 -0.062132113
0.0124657 0.20796046 0.0017698747 0.10475869 -0.15933153 0.07449634 0.08532061 -0.06520354
0.14370291 -0.078688264 -0.110830955 -0.0849111 0.16208608 -0.13542973 0.0006820667 0.17010057
-0.032383937 0.16961591 -0.14199588 0.12135701 -0.105133496 0.078007676 0.08719361 -0.086260274
-0.14152075 0.07017313 0.13817604 -0.16159548 -0.10804067 0.09823436 -0.14303732 0.13259476
0.19786231 0.19343865 0.049832035 0.10623498 0.15299198 0.0006306723 -0.017150259 -0.09051648
0.20255183 0.007970487 0.1099743 -0.018244626 -0.17280114 0.2607184 0.103023864 0.1087117
0.061050043 0.085086815 -0.030035835 0.09971589 -0.22798131 -0.07795197 0.046844687 0.16772926
-0.10529975 0.102630146 0.07373445 0.04309823 -0.10020033 -0.09416299 0.12140773 0.042075783
0.102162614 0.13914369 0.007312444 0.12457362 -0.11957726 0.12752646 0.1299993 0.14044598
0.06908335 0.14840482 0.042620547 -0.023699803 -0.08490013 -0.14194089 0.13400169 -0.15828969
-0.0058983583 0.12333803 0.0047564646 -0.13910677 0.012605714 0.15734142 -0.11664277 -0.11525499
0.06906998 0.083649896 0.118675604 -0.045855995 -0.07964532 0.104044445 -0.016038103 0.115056165
-0.026994672 -0.025262408 -0.02570708 0.09462383 -0.15083851 0.1074384 0.07857452 -0.07287817
-0.09247312 0.020395303 0.03342663 0.13033897 -0.13393953 0.1259794 -0.099337354 -0.014147099
0.06859547 -0.1176292 0.03427325 0.08223476 0.06371771 0.10090351 -0.04642368 0.16421197
0.08711914 -0.11770831 0.13369395 -0.04419091 -0.12813514 0.10107498 0.04924197 0.20443515
0.08764626 0.10729453 -0.048526805 -0.053518105 -0.02656273 -0.050724015 -0.015826983 -0.13841978
0.10568702 0.07460236 -0.14759634 -0.06427281 -0.16719581 0.10038043 0.0850058 0.100268416
0.084585376 0.12031607 0.13561217 0.17414764 0.081152424 0.13696887 -0.083719045 0.087863624
0.06489079 -0.027287161 -0.11773175 -0.046338063 -0.17480776 -0.13030858 -0.0038436204 0.10550012
-0.13173543 -0.008024174 -0.04404546 0.009309263 0.118271634 0.14638175 -0.05001214 0.119728155
-0.13421814 0.009358135 -0.1769459 0.13783868 0.0941569 -0.012286199 0.1797265 0.14037843
0.08681793 0.010775559 -0.032779455 0.032588534 -0.109289594 0.015359054 -0.07661336 -0.031829808
-0.14032336 -0.075642474 -0.002194498 -0.015231472 -0.1838862 0.2130725 0.02503828 0.0055869995
0.11865236 0.012224171 0.13699146 0.07605407 -0.01527252 0.08667322 -0.024017667 0.15037993
-0.009701677 0.057548836 -0.14878263 0.15954937 -0.0312103 -0.019119808 0.17325352 0.11116683
-0.02746258 0.161794 0.12093694 0.08229908 0.07149023 -0.02185123 -0.19436146 -0.047466785
-0.13856313 -0.06111725 -0.07368744 0.119141534 0.002779452 0.033687625 -0.037623253 -0.13296477

decoder.decoder.bias_ih_l0 f4 [128]
00000000: b39d de3d 55a0 83bc ab9b 0ebe 3b3d da3c
00000010: d28e ad3d 60d0 a1bd 1037 923d 538f 21bc
00000020: e6b2 e03d ec6e 5cbd 0bbd b63d 10cc 9a3d
00000030: 2ee2 d43b a38b 8dbd 0b9f e7bd d676 8cbc
00000040: 61a6 323e e1de 11be 2abf 253c 42ba 54bb
00000050: 2ef3 1fbe edc1 26be 15b6 00be ebf5 bb3d
00000060: 9407 a9bd 4c63 343e 648e 13be a2a0 ef3d
00000070: 8961 153e c16f 843d 617f 06be 4ad6 c4bd
00000080: f3ea 803d dc2e a4bc 02df 673e 0ca7 9e3d
00000090: 2a5b 343d ddd6 d8bd 1953 64bd 4bf9 abbd
000000a0: 8a4f e03d b6da cd3c b29f bbbd 25c1 b6bd
000000b0: 02c2 a93d 4499 16bd c32b 243e 57ac 64bd
000000c0: 07cc 003e 0226 bfbd a1fb 2c3e 1b52 213e
000000d0: cd11 30bb 830e b03d 6d75 8f3c b450 d5bd
000000e0: e959 70bc 0a4c bf3d 902c 423e 38f2 8abd
000000f0: d2ad c0bd 3936 e1bd da9d df3d 022c 493d
00000100: d88f 053e 1fae 39be 52fd 7e3d 9eb4 a63d
00000110: 10b5 17be ae72 ccbb ab53 ba3d a6d4 1d3e
00000120: f0d8 3a3d bd76 013e 64b0 aabd af7d 55bd
00000130: 7cd0 46bd 7f6f d2bd 73ea fe3d 2a7e d4bd
00000140: 343a 0f3e 59ab babb cf5f 0abe 7623 0b3d
00000150: 91c0 c63c 0d5d 9ebd 0def 1bbe 8247 c13d
00000160: 3a89 f93d 16e6 363c 2826 153e 4281 16bd
00000170: 6f21 663d 66fc e13d a992 15be 7a0c 2abd
00000180: 7b18 f33d d210 0c3e 9d6b 3ebc 5804 11be
00000190: 6a18 b03d 0782 fe3c 984a fe3d 98b3 9c3d
000001a0: 4168 033e 9f52 1ebe 8e70 de3d 9549 9cbd
000001b0: 65fc a13d 99f9 cc3d 31f2 20be 027b b43d
000001c0: 615f 393e 771a d3bc 81ad fe3d 61f4 2dbd
000001d0: 52b1 103e 8dd2 2dbd 7041 0ebd e85e cebc
000001e0: 6408 113e 7f83 0dbd 24c3 363e d062 9ebd
000001f0: a52f 1a3e 7bda d93d d123 3c3e 8fcf 2f3e
0.108699225 -0.016067663 -0.1392657 0.026640525 0.084745064 -0.079010725 0.071394086 -0.009860831
0.10971622 -0.05381672 0.08922776 0.07558453 0.0064966893 -0.06911399 -0.11309632 -0.01714651
0.17446281 -0.14245178 0.010116378 -0.003245965 -0.1562011 -0.16284914 -0.12569459 0.091777645
-0.082533985 0.17616004 -0.14409786 0.1170056 0.14587988 0.06466628 -0.13134529 -0.09611185
0.06294813 -0.020041876 0.22643664 0.077467054 0.044032253 -0.10587857 -0.05574331 -0.08397158
0.10952671 0.025128704 -0.09161319 -0.08923558 0.08288957 -0.03676726 0.16032319 -0.05582842
0.1257783 -0.09333421 0.16892864 0.15753977 -0.002686608 0.08596518 0.017512048 -0.104157835
-0.014669874 0.09340675 0.18962312 -0.06784481 -0.094081536 -0.1099667 0.1091878 0.049114235
0.13043153 -0.18132828 0.062253304 0.08139919 -0.14815164 -0.006239257 0.0909799 0.1541315
0.045617044 0.12642951 -0.08334425 -0.052121814 -0.04853867 -0.102751724 0.124470614 -0.103756264
0.13987046 -0.0056966958 -0.1351311 0.033969365 0.024261745 -0.07732592 -0.1522791 0.09437467
0.12184377 0.011163255 0.14565337 -0.036744364 0.05618423 0.11034469 -0.14606728 -0.041515805
0.11869904 0.13678291 -0.011622337 -0.14161813 0.085984066 0.031067861 0.124165714 0.07651442
0.12832738 -0.15461205 0.10861312 -0.07631222 0.079094686 0.100085445 -0.15717389 0.088125244
0.1810279 -0.025769455 0.12435437 -0.042469386 0.14130142 -0.042437125 -0.034730375 -0.02519174
0.14163357 -0.034549233 0.17847878 -0.07733691 0.15057237 0.10637375 0.18373038 0.17169021

decoder.decoder.bias_hh_l0 f4 [128]
00000000: b35f 5dbd a85c 23be 931f bdbd 7415 5d3c
00000010: f96c da3c 9a56 27be 1bc8 223c 78b0 953d
00000020: 2e40 7dbd 5751 fbbd bdc3 b63d a9cd 543d
00000030: e42a 2b3e aa4d a33c 58c9 7fbd e27a 163e
00000040: 1d2c e63d 0a83 97bd e8e1 2dbe 8f62 07be
00000050: 68e0 bf3d 59c1 cf3b 55b2 f23d 2d6f 6bbd
00000060: 724f a5ba 9d2a 14be 1f90 493d f90b bfbd
00000070: 7fcf 203e f74a 943b 2129 1f3e e185 9dbd
00000080: b6b1 c7bd 53a6 d3bc 8d57 7a3e 6fec 17be
00000090: bd88 a7bd 5f0d 423e 1620 403e 7b22 f93d
000000a0: 6b91 a23c ec18 13be 6141 07bc db92 c0bd
000000b0: cc2d 6b3d d455 823e 74e3 dd39 63eb f5bd
000000c0: 5f90 b0bd a7e4 923d 284f 83bc 22eb a3bd
000000d0: f079 ddbd 2c27 aabd 201a ca3d 7033 1bbd
000000e0: c116 28bd 77a1 d23d 1359 fcbd 8469 e83c
000000f0: 5a3f 49bd d73d cc3d b754 82bc ed75 a2bd
00000100: dd21 313d fef7 5e3c 118c 8c3d 1eef 053e
00000110: 2ebd 98bd 47aa eabb 123c 193d f9db 323e
00000120: d126 32bc 434b da3d 3dd0 03bc bb8e 023e
00000130: 241f 22be dfce 953c dffd 153e c00b a83d
00000140: b5ea dabc d009 ef3d f0b1 913c d199 39bc
00000150: c6b9 bc3d 7b38 b5bc 03d7 113e 39c8 51bd
00000160: 8157 17bd 56b0 abbd a8af bcbd eb82 b13c
00000170: 59f1 e03d 2880 a63d 7aee f9ba 9604 e93d
00000180: 724f a43d 9201 c2bd 6361 fe3d 90a5 afbd
00000190: 7e21 d2bd 51e3 a33d 7c40 f73d 2c81 383d
000001a0: f8d6 01bd 21b2 203e 41cc dcbd dad5 a63b
000001b0: 4137 2d3d f0aa 8a3b c7dd 123e 0f46 1cbe
000001c0: 42e2 06be 8fac e63d 0c3a 3bbe 3fd2 28be
000001d0: 7e59 9bbd 51d8 a1bd fb69 cd3d fe9f 39bc
000001e0: 1307 b83d 36e0 7bbd eb3f 113e 6673 c03d
000001f0: 903f 433e cfdc 10be dbcc 253e d9e7 dabc
-0.054046344 -0.15953314 -0.09234538 0.013493884 0.02666329 -0.1634163 0.009935404 0.07309049
-0.061828785 -0.12271374 0.08924053 0.051953945 0.1671558 0.019934494 -0.062447876 0.14695314
0.11238883 -0.073980406 -0.16980708 -0.13221191 0.09368974 0.0063401875 0.118504204 -0.057479072
-0.0012612178 -0.1446938 0.04920971 -0.093284555 0.15704153 0.004525538 0.15543033 -0.07691551
-0.097506925 -0.025836146 0.2444746 -0.14836286 -0.08180378 0.18950413 0.1876224 0.1216478
0.019844731 -0.14364976 -0.008255334 -0.094030105 0.057416722 0.25456107 0.0004232187 -0.12007787
-0.086212866 0.07172518 -0.016028956 -0.080038324 -0.10814273 -0.08308253 0.09868264 -0.03789085
-0.041037325 0.10284703 -0.12321677 0.028370626 -0.049132682 0.099727325 -0.015909536 -0.07932649
0.043245185 0.013608931 0.06862653 0.13079497 -0.07457958 -0.007161412 0.037410803 0.17466725
-0.010873512 0.10658886 -0.008045253 0.1274976 -0.15832192 0.01828712 0.14647625 0.08205366
-0.026723245 0.116717935 0.017785043 -0.011328177 0.09215121 -0.022121659 0.14242177 -0.051216338
-0.036948685 -0.08383243 -0.09213191 0.021668872 0.109835334 0.081299126 -0.0019068264 0.11377828
0.080229655 -0.09472956 0.12420919 -0.085765004 -0.102602944 0.080023415 0.12072846 0.045045063
-0.03169915 0.15692951 -0.10781146 0.005091411 0.042289022 0.004231803 0.14342414 -0.152611
-0.13172248 0.11263382 -0.18283862 -0.16486453 -0.07585429 -0.07902587 0.1002998 -0.011329649
0.08985724 -0.06149312 0.14184539 0.093970105 0.19067216 -0.14146732 0.16191427 -0.026721882

decoder.spatial_embedding.weight f4 [16, 2]
00000000: 7a82 c2bf fc3c 4a3f e2cd dbbd 35f8 93bf
00000010: 7110 d43e 75d2 df3e 7234 b33f 013c 6c3f
00000020: 9b22 293e b266 1d3c 2d01 d5bf a9dd 4abd
00000030: a291 15be 92b8 17bf 80cb 1abf 7386 aa3d
00000040: b62a a03f 8df9 923f 6f9d 123f d882 cdbf
00000050: 966e 333f d505 02be a9c9 013e 31d7 85be
00000060: eee2 493e e61c 803f efc2 a83f 3998 a6bf
00000070: aef7 5ebf 2536 b13c f7ee 16be 458f 34be
-1.5196068 0.78999305 -0.107326284 -1.1560122 0.41418794 0.43715253 1.400038 0.9227906
0.16517107 0.009607004 -1.6640984 -0.049527798 -0.14606336 -0.59266007 -0.60466766 0.083264254
1.2513034 1.1482407 0.57271475 -1.6055555 0.70090616 -0.12697537 0.12674583 -0.2614074
0.19715473 1.0008819 1.3184489 -1.3015205 -0.8709668 0.021632263 -0.14739595 -0.17632778

decoder.spatial_embedding.bias f4 [16]
00000000: c46e 4f3d a317 0a3f 9799 023f b798 fabe
00000010: 9702 343e 66f2 b1bd d4f7 993e 501d 00bd
00000020: 2169 263f c6dd 31be c7dd bc3c 0bd2 143f
00000030: f95c 643e acb9 ba3c 93aa edbe 39f7 503c
0.050642744 0.53942317 0.5101561 -0.48944637 0.17579113 -0.08688812 0.3007189 -0.031277955
0.65004164 -0.17369756 0.02305497 0.58133 0.22301091 0.022793613 -0.464192 0.012754255

decoder.hidden2pos.weight f4 [2, 32]
00000000: fb8f 623e f9f6 ad3e f4b0 3e3d 084d cfbd
00000010: 8d16 483e 3285 0ebe 9432 1c3d 33dc a5be
00000020: 0ef7 1d3e 0900 1ebd cf01 55be e6fa 0abe
00000030: 540a cbbe 915f 87be 5807 fcbe fe3e c9be
00000040: 2cf4 6a3e c264 7d3d 1a66 4cbe 8ff3 94bd
00000050: f77b db3e 9b21 833b f6a4 0c3e ef98 91be
00000060: 2181 8abe af94 693e a2be 9cbe c5f1 b3be
00000070: d9d2 113e f31f f63d ec28 a6be 6e7d 5a3e
00000080: 72e7 d6be 1fc9 81bd eae6 963c 2c65 02be
00000090: 6976 1dbf 885d a8be 181c 3c3d 8de4 db3e
000000a0: 5fee 42be c317 573e 8582 f5be f13b 86be
000000b0: 10e1 32be 573c 343e c0bf d8be e883 143f
000000c0: 6279 cb3e 3e2c c83d 5f1d 10be dd8a 7ebe
000000d0: d994 5cbc 167e 14be 8ac4 e5be 9214 1a3e
000000e0: 141a 93be 83f5 b33c 88f2 3bbd b8e0 b03d
000000f0: e595 12be 0a36 db3e fc21 9abd 2621 bf3d
0.22125237 0.33977488 0.046555474 -0.101221144 0.19539852 -0.13917997 0.038134173 -0.3239456
0.15426275 -0.038574252 -0.20801471 -0.13572273 -0.39656317 -0.264401 -0.49224353 -0.39305872
0.22944707 0.06186367 -0.19960824 -0.072730176 0.42868015 0.004001809 0.13734803 -0.28436992
-0.27051643 0.22810625 -0.3061419 -0.35145393 0.14240588 0.120178126 -0.32453096 0.2133691
-0.41973454 -0.06337189 0.018420655 -0.12733907 -0.61508805 -0.3288386 0.04592523 0.42947808
-0.19036244 0.21005158 -0.4795114 -0.26217607 -0.17468667 0.17601143 -0.42333794 0.5801377
0.39741045 0.097740635 -0.14073704 -0.2485766 -0.013463222 -0.14501223 -0.4487651 0.1504691
-0.28730834 0.021967655 -0.045885593 0.08636612 -0.14314993 0.42814666 -0.07526013 0.093324944

decoder.hidden2pos.bias f4 [2]
00000000: 7a91 843d eddb 7bbd
0.0647306 -0.061489034

pool_net.spatial_embedding.weight f4 [16, 2]
00000000: aebd 5cbf 90c1 4bbf cf44 0bbf a1e4 9cbf
00000010: 767d 583e f689 9c3b eb2c e9be a5aa 8ebe
00000020: e297 1bbf cc6c 5e3e e572 ef3f a7ce 70bf
00000030: 5d07 063f 3658 6cbf a307 bc3d 0a2a 9dbf
00000040: 42fa 35bf 3105 cebf baef 1cbf e3be f63d
00000050: 5ec2 a83f a582 913f 598c 0a3f 5318 0ac0
00000060: 8b61 6a3f 40dc e2bf b4ce 8e3e 48fd 76bf
00000070: 0cf4 57bf 233b 353f a71e 49be e6b2 4e3f
-0.8622693 -0.7959223 -0.5440187 -1.2257272 0.2114161 0.0047771884 -0.45542082 -0.27864566
-0.6077863 0.2172119 1.8706938 -0.94065326 0.52354985 -0.923221 0.09181144 -1.2278454
-0.7108499 -1.6095334 -0.61303294 0.120481275 1.3184316 1.1367995 0.54120404 -2.1577346
0.9155509 -1.7723465 0.27892077 -0.96480227 -0.8435676 0.7079336 -0.19640599 0.8074173

pool_net.spatial_embedding.bias f4 [16]
00000000: e735 2e3f fc43 c3be 50d6 f53e 95ea 253f
00000010: f61d a4bd be11 303f 6066 293f 7b78 c4be
00000020: dac4 ec3e 6a61 b8bd e81b c1be e2cc 373f
00000030: cfca 1b3f 691f f03d 1058 1ebf 8b95 0fbf
0.68051 -0.38137805 0.4801507 0.6481107 -0.08013527 0.6877707 0.66171837 -0.3837317
0.46243936 -0.09002955 -0.37716603 0.71797 0.60856336 0.11724741 -0.6185312 -0.5608756

pool_net.mlp_pre_pool.0.weight f4 [512, 48]
00000000: 20c1 92be bf35 1a3e 22ee 673d 7759 36bd
00000010: 5d77 28bc e420 a6bd f7f5 f8bd 669a b3bd
00000020: 898b 5fbd 411f 133d 39e9 7e3b ec86 27be
00000030: 9c47 323e 258e a33a 3840 993a d182 043d
00000040: db22 8dbe ca96 3c3d ef61 bfbd 71d9 d1bc
00000050: 1420 013e e6cc 40be 8b4d 24bc cd78 6f3e
00000060: 29f1 3f3e fb23 483d 3db4 28be a496 9ebb
00000070: 2692 38be 10f1 483d 2b87 20be 8405 a8be
00000080: 143b 69be 6fa2 803e 153d fcbe df61 d2bb
00000090: 7279 0ebe 779b 3438 3e67 e83e 208d e13c
000000a0: aacc 13be e01f 903d f08d 863e 2d4f cdbe
000000b0: 277a e23c f5de fd3c 4cf3 17be 5de1 d3bb
000000c0: a585 39be 1338 a4be 0e55 d0bd f51f eebe
000000d0: d2d0 593d 44bb 653d 0e26 92be b95a 6ebd
000000e0: 0c4f 0b3d f87a af3e 580d 36be dfda 0e3f
000000f0: cb4c 89bd f1b1 8b3e fa2a d43a f3ce da3d
00000100: b0fe 7a3d e7a1 733e 8c72 9dbd 67a5 03be
00000110: 57db 97be bc40 79be 07af 92bd 527a 4c3e
00000120: 5de6 7bbe a108 d53e 1ded 66bd 1f89 f43e
00000130: 005b 11bd 8315 acbd bada cb39 5318 1ebc
00000140: 6b95 b43e 7f26 033c f51f 6f3e 4153 193f
00000150: 23a5 8d3d 5ad3 3fbc 5507 f23e 9014 5d3e
00000160: f6c3 843e bad2 573d c54d 14bb a4bc 0abf
00000170: 9f9d 0fbd b02f 42bd 9dc9 6f3d ae80 ddbd
00000180: 55c6 d0bd 2058 51be 5e3b e6bd 36c9 40be
00000190: e5e6 9bbd a748 5b3d 67ad 25be 68e6 0abe
000001a0: 7821 933e 1637 85be af73 6abe a01a 663c
000001b0: ca9d ddbd 3093 1abe 2c5c bc3d 1df0 cdbd
000001c0: 3115 8bbd 9215 783e 4cf6 7ebe e31d f13e
000001d0: 63f1 1cbd f1c6 953e e9af 003d ed95 09bf
000001e0: c8ea 32bd 7762 bb3e b17a 193e d3f5 2dbe
000001f0: 3c11 50be 0d77 3cbe 4f69 703c 9b3a 393e
00000200: 72c8 983e 1973 abbe 3859 ebbd 7b5d fbbd
00000210: 71f3 ffbd 9213 3e3e 8fb2 a439 8ea1 8cbe
00000220: d965 373d 20cf f23e 1160 6b3d 1653 173e
00000230: 5955 06bd 0bef 8dbe 1d2f c9be 3d0c d03d
00000240: 77be c63d c344 05be 6ada 99be 5cbd 8d3d
00000250: 9406 913e 7e8e afbd d235 efbd 1567 e9bd
00000260: ac62 9b3e 34bd 46be c4ec 763e 9685 d8bd
00000270: 4426 9bbd 180d 31be de88 c8be 5d65 5cbe
00000280: 8ba7 f73b d759 51be f1ad 56bc 994e 843e
00000290: 908f a8be b21d 24be ab4c 893c 9917 e83e
000002a0: 4fda 3d3e 819c f1bd ea65 10be 7dd7 813d
000002b0: 6b92 e7be fde7 62bd 45a2 093e 41c9 5dbe
000002c0: 501b 473e fc39 3d3c 5703 1cbd 1709 8ebd
000002d0: 401a a23a 2be9 e53d 0aff f53e 190d 333e
000002e0: d236 553d 5acd 5cbe 3f8e 2cbd 726f 0cbd
000002f0: 5195 5cbe 0f3e 643e 3531 193c a135 823d
00000300: 68fd 723d 685b 983e 62e9 e33d be06 debd
00000310: 4d15 5b3e 3672 093e 9aa9 f8bd 0f46 d93e
00000320: a557 a7be 680a f53e e31d 71bd b090 04be
00000330: adcd 9b3d 99b4 6fbe 284b 1abc 6d50 98be
00000340: 0ef9 d8bc 48b6 69bd b578 b7bc 7959 273e
00000350: 95b5 08bf d11a 1a3d 880f a43e 8ead 603d
00000360: 6186 edbd ed82 a5be dba4 833e b546 35bd
00000370: a2e7 b83e b33a 3bbe 1e38 4ebe 4ab0 133d
00000380: b822 72be d46a 00bd e84a 0a3e 637b 413e
00000390: ed14 9c3e 6de3 1fbe cfeb 20bd 8fe9 b7bd
000003a0: 9fa9 9abd b9a3 fe3d 4781 813e 7aae 8f3d
000003b0: b779 f43d df60 4d3e f6fc ccbd de14 0fbe
000003c0: 7867 6b3c ee14 8abe 652f 9dbe 70f1 83be
000003d0: dff1 e63d c54b 98bb 21f9 c23d 713b e6be
000003e0: 4dc3 0e3e 65f7 97be f723 693d eba6 ed3e
000003f0: 6dbe 943d 0630 323d b992 303e 7faa b63e
-0.28662968 0.15059565 0.056623586 -0.044518914 -0.010282365 -0.08111742 -0.12156289 -0.087696835
-0.05457643 0.035918478 0.0038896336 -0.16360062 0.1741013 0.0012478275 0.0011692112 0.03235132
-0.27565655 0.04604224 -0.09344851 -0.02561638 0.12609893 -0.18828163 -0.010028253 0.23385926
0.18744339 0.04886244 -0.16475005 -0.004839735 -0.18024501 0.04905802 -0.15676562 -0.32816708
-0.22776443 0.25123927 -0.49265352 -0.0064203585 -0.13913515 4.3060132e-05 0.45391268 0.027533114
-0.14433542 0.0703733 0.26280165 -0.4009947 0.027646137 0.030990103 -0.14838904 -0.0064660744
-0.18117388 -0.3207403 -0.10172473 -0.46508756 0.053177662 0.056086794 -0.28544658 -0.05819199
0.03401093 0.34273505 -0.17778528 0.5580272 -0.067041 0.27284196 0.0016187124 0.10684004
0.061278045 0.2379223 -0.07687864 -0.12856065 -0.2965953 -0.243411 -0.0716229 0.19968536
-0.24599595 0.41608146 -0.056378473 0.47760865 -0.035487175 -0.084025405 0.0003888214 -0.009649354
0.35270247 0.008004784 0.23352034 0.5989266 0.06916263 -0.011708105 0.4727122 0.21589875
0.25930756 0.0526912 -0.0022629362 -0.5419409 -0.03506243 -0.04740876 0.058541883 -0.10815559
-0.10194079 -0.20443773 -0.11241792 -0.18826756 -0.07612399 0.053536084 -0.16179429 -0.13564456
0.28736472 -0.2601859 -0.22895692 0.014044434 -0.108211115 -0.1509521 0.09197268 -0.100555636
-0.06791151 0.24226978 -0.24898642 0.47093114 -0.03831614 0.29253343 0.03141776 -0.53744394
-0.043680936 0.3659856 0.1498821 -0.16988306 -0.20319074 -0.1840479 0.014673545 0.18088762
0.29840428 -0.3348625 -0.114916265 -0.12273689 -0.12497605 0.18562153 0.00031413554 -0.27467006
0.044774864 0.4742365 0.057464663 0.14777789 -0.032796238 -0.27721438 -0.39293757 0.10158584
0.09704297 -0.13014512 -0.3004945 0.06920883 0.2832533 -0.085721 -0.11680187 -0.113966145
0.30348718 -0.19408113 0.24113756 -0.105723545 -0.07575658 -0.17290151 -0.3916692 -0.21523042
0.0075578145 -0.20444427 -0.013102994 0.25841215 -0.3292203 -0.16026953 0.016760191 0.45330504
0.1854031 -0.11797429 -0.14101377 0.06339929 -0.45228896 -0.055397023 0.13440807 -0.21658804
0.19444013 0.011549469 -0.038089123 -0.069353275 0.0012367442 0.11226114 0.48046142 0.17485465
0.052054234 -0.2156271 -0.042127844 -0.03428597 -0.21541335 0.22289298 0.009350111 0.06357885
0.0593237 0.29757237 0.111284986 -0.1084113 0.21394844 0.13422474 -0.12141724 0.42436263
-0.32684055 0.47859502 -0.058866393 -0.12945819 0.07607589 -0.23408736 -0.009417333 -0.2974886
-0.026485946 -0.057058603 -0.022396425 0.16342725 -0.5340207 0.03762323 0.320431 0.054853015
-0.11597896 -0.3232645 0.25711712 -0.044256885 0.36114222 -0.1828411 -0.20138595 0.036056794
-0.23646057 -0.03135188 0.13505137 0.18894725 0.30484715 -0.156141 -0.039287385 -0.08980095
-0.07551884 0.12433571 0.25293943 0.07015701 0.11937278 0.20056485 -0.10009186 -0.13972804
0.014367931 -0.26969093 -0.30700222 -0.2577014 0.11276602 -0.0046477043 0.09520174 -0.44967225
0.13941689 -0.29680935 0.056919064 0.4641641 0.07262883 0.04350283 0.1724347 0.35676953
