scripts/models/sgan-p-models/hotel_8_model.pt (torch_old, 190138 bytes, 24 tensors)

encoder.encoder.weight_ih_l0 f4 [128, 16]
00000000: cbb4 203c 57d6 1cbe cee8 c6bd cbb0 553e
00000010: 7195 dabd 498a d63d d20b 743d 42b8 4b3d
00000020: 81c1 113d 5e96 ffbd 1998 8a3d bf2d 2a3d
00000030: 62bc 493d 88c0 443e e0a7 e9bd eef4 be3d
00000040: 0e45 e9bc 29ff a93d a327 3ebe c6e3 46bd
00000050: b978 593e 67d3 33be ea9d dabc c77a 603d
00000060: c43a bebd bedd d7bd 8ba7 753d cd5a 043d
00000070: 8354 293e 3af8 85bd 9506 08be 7df0 58bd
00000080: f66f 713b df06 833d 3ef6 933d 7adf fcbd
00000090: e448 1ebe 5400 623d baba ad3c e648 473d
000000a0: 270c 1abd bcd1 2cbe dadb 74bd d3b5 f03b
000000b0: 47e6 d33d f968 08be f9a7 c33d 895d 22bc
000000c0: d6e0 2bbe 0267 c93d 9fd4 ff3d d206 b43d
000000d0: ae4b ec3d 91b8 fabc 2208 0e3e 5035 113e
000000e0: d033 2dbd ebae ef3d 5800 4b3e 30a9 f6bb
000000f0: 3e95 3a3e 9211 ccbd e7a4 5dbc cbc5 363a
00000100: fe6a 26be cad9 f03d 7851 0abe 91ef dabd
00000110: 8cf8 ad3c 50a4 75bd 85c9 c43c 48a1 2f3e
00000120: c2ef a6bd 909c f73d 1d80 d03d f93b 813c
00000130: 556d 853d 6bb5 a93d 817f adbc 470f 663e
00000140: 3374 1d3d 9a7b c2bd b901 61bd de52 e63d
00000150: 7d16 9dbd de8a 0fbe cadc d4bd 2ea5 c0bd
00000160: 2663 fb3d 11d4 533c 8152 2e3e ca1c b9bd
00000170: ed76 183e 6c60 273e 941f 2e3e 3023 1e3e
00000180: 4b40 d63d 546e 133e 135b eb3c 7b46 8f3c
00000190: dabb 163c b2aa 0abc 05e9 34be cea4 223e
000001a0: f77e 40be 3cd8 1d3d dab1 fdbd 6161 b43a
000001b0: 9981 773d c155 2fbd 1218 fe3b 702f 003d
000001c0: 2522 c6bd 098d 073c 645d 4cbe 2be0 82bd
000001d0: 4c23 99bc ab56 f13c da1a 843d ff0c ed3d
000001e0: 5823 293c a0a3 76bc d9b7 223e d31f edbd
000001f0: e08b 323d 1226 41bd 6cad c03d 1f30 1f3e
00000200: fd20 8fbd 1f2e d63d 7861 9bbd 375f 28be
00000210: d821 ff3d 8625 c3bd b4f4 713d f618 f9bd
00000220: d97d 59bc 8f82 343e 3897 2fbe 0d95 32bc
00000230: bbd9 113d 8148 50bd c7ad 1fbe 01e1 47bd
00000240: ab8a 303d 70a4 ce3b 2f54 b73c f2d2 1abe
00000250: 92b1 123e 42dc a1bb d865 bd3d 0363 293e
00000260: 9483 d1bd 66d9 c8bd 7790 fa3c a1ce 2abe
00000270: 9b08 f53c bf6b b6bd cb43 453d e5ec b0bd
00000280: 6af3 a9bc e525 0fbe 8d9c 24be 7807 0ebb
00000290: 1ba9 623d 90f5 723d bb29 803d b684 183d
000002a0: 54d4 cbbc 54d5 393c d09a bdbc e53b 033e
000002b0: 1b60 acbd 88e5 bdbd 9bce 923c f811 8dbd
000002c0: a5b2 0b3e ac71 db3d 6663 04be c1c2 3f3e
000002d0: 7a05 abbd da3b 12bc d399 1a3b b9d7 3d3e
000002e0: 6ea1 b33d 9d96 91bd 1eb2 b4bc 0b1d d53d
000002f0: 9b00 d7bb 7d2f e9bd d39b 103e fd75 50bb
00000300: f907 fdbd ff5f 1dbb 69f5 173d 6ea1 b9bd
00000310: 4808 a5bd e412 82bc 5740 463c 614e 263d
00000320: 1519 7d3d 7c6c 8cbd b13e 253e c922 36be
00000330: 0397 12bc 886d 00bd 48fc 57bc b1ab 663d
00000340: cdb4 2cbe 6390 1e3d 00ac c1bd 4452 c73d
00000350: a507 dfbd a617 d3bd 8fb8 38bd a0dd 4bbe
00000360: b09f 223e 4a35 013d 3606 f83a c88b 433e
00000370: 0664 18bc 2e55 91bd 19f1 0cbe d26b 26be
00000380: b5f2 04be 3afa 043e 25fd 53bd aecf d33d
00000390: ddb2 44bd aebe a1bd fd38 35bd 4b17 d63d
000003a0: 5918 1abe 27d4 df3d ba2c 963d 9271 58be
000003b0: 9623 a93d f0d7 003a ece0 00be 59d1 29bc
000003c0: 3372 4cbd eb99 263e f2a8 e1bc afa2 783e
000003d0: 8732 e43d d9f3 f5bd f8dc 58bc 25f2 1f3e
000003e0: 098c 73be dddb 1ebe 72e9 1c3e f23c c63d
000003f0: d5e7 063e 47ba 73bd ab57 8c3d d075 91bd
0.009808729 -0.15316139 -0.09712373 0.20868222 -0.10673035 0.104755946 0.059581585 0.04973627
0.03558493 -0.12479852 0.067672916 0.041547533 0.04925192 0.1921407 -0.11408973 0.093240604
-0.02847531 0.08300621 -0.18569808 -0.048557065 0.21237458 -0.17561112 -0.026686627 0.05480459
-0.092885524 -0.10540341 0.059974235 0.032313157 0.16536145 -0.06541486 -0.13283761 -0.052963722
0.0036840416 0.06397795 0.07224701 -0.12347312 -0.15457493 0.055176094 0.021207202 0.048653506
-0.037609246 -0.16876882 -0.05977998 0.007345894 0.10346656 -0.13321294 0.095535226 -0.009909996
-0.16784987 0.098341 0.12491726 0.08790363 0.11537872 -0.030605586 0.1387029 0.14180493
-0.04228574 0.11703285 0.1982435 -0.007527493 0.18220994 -0.09964289 -0.013528085 0.00069722225
-0.16251752 0.1176029 -0.1350764 -0.10690225 0.02123668 -0.059971154 0.024021873 0.17151368
-0.08151199 0.12090409 0.10180686 0.015775668 0.06514994 0.08286556 -0.021178963 0.22466765
0.038440894 -0.094962314 -0.054933283 0.112462744 -0.07670305 -0.14017817 -0.10393675 -0.094065055
0.122747704 0.012928979 0.1702366 -0.09038694 0.14889117 0.16345376 0.17004234 0.1544311
0.10461482 0.14397556 0.028729951 0.017489662 0.009200061 -0.0084635485 -0.17667015 0.1588318
-0.18798433 0.038536295 -0.12387438 0.0013761931 0.06042633 -0.04280639 0.0077543342 0.03129524
-0.09674481 0.0082733715 -0.199575 -0.06390413 -0.018693589 0.029460272 0.06450434 0.115747444
0.010323368 -0.01505366 0.15890445 -0.115783356 0.043590426 -0.047155447 0.094080776 0.155457
-0.06988714 0.10458016 -0.0758695 -0.16442572 0.12457627 -0.095286414 0.059071258 -0.12162964
-0.013274633 0.17627929 -0.17147529 -0.010899794 0.035608035 -0.050850395 -0.15593635 -0.048798565
0.043100994 0.0063062236 0.022379009 -0.15119532 0.1432555 -0.004939587 0.09247941 0.16541676
-0.10230175 -0.098070905 0.030586464 -0.16680385 0.02991133 -0.0890727 0.048160356 -0.08638934
-0.020745952 -0.139793 -0.16075344 -0.0021671932 0.055337053 0.059316218 0.062579595 0.037235938
-0.02488152 0.011342365 -0.02314511 0.12815817 -0.08416768 -0.09272295 0.017920783 -0.06888193
0.13642366 0.107150406 -0.12928542 0.18726636 -0.08350654 -0.008925403 0.0023590222 0.18539323
0.08771025 -0.07108805 -0.02205759 0.1040593 -0.0065613515 -0.11386011 0.14121942 -0.0031808608
-0.12355036 -0.0024013517 0.037099276 -0.090639934 -0.0805822 -0.015878148 0.012100301 0.04060209
0.0617915 -0.06856629 0.16137196 -0.17786707 -0.008947137 -0.031354457 -0.013182707 0.05631608
-0.16865845 0.038711917 -0.094566345 0.09732488 -0.1089013 -0.10307245 -0.045097884 -0.19908762
0.15881228 0.03154496 0.001892275 0.19096291 -0.009301191 -0.07096325 -0.13763846 -0.16252068
-0.1298321 0.12986079 -0.05175509 0.10342346 -0.04802214 -0.078976974 -0.0442438 0.104536615
-0.1504835 0.10929137 0.0733275 -0.21137074 0.082587406 0.00049149897 -0.12585801 -0.010364854
-0.049913596 0.16269653 -0.02754638 0.24280809 0.1114245 -0.12009401 -0.013236277 0.15619715
-0.23783888 -0.15513559 0.15323427 0.09679593 0.13174374 -0.05950382 0.06852659 -0.07102549

encoder.encoder.weight_hh_l0 f4 [128, 32]
00000000: e325 b4bd f412 f4bc c919 ec3c a1a9 87bd
00000010: 5c81 5fbc 5e9b d4ba f44a 8fbd 0ec4 14bd
00000020: 15ff 31be dae9 51bd 69d0 ce3d 3124 98bd
00000030: 1dd6 8b3d dd9d ac3d 5721 3fbc 538b fd3d
00000040: c05f 2b3b bd01 653d 9d64 163e 4eca 1dbe
00000050: d5d2 0a3e 457c 77bd 595f 133e b4c8 babc
00000060: fde2 b33b 497f 23bc aea8 953d cda6 f2bd
00000070: f5eb b1bc 7419 fb3d efb3 87bc dab4 febc
00000080: 124b acbd 8d2a babd 9fc2 c53c 397d 0a3e
00000090: 9df9 5c3e 06b8 3ebd 1b3f ddbd 32ba 3cbe
000000a0: 584e 803b acbf 31be 4a7e df3d 4845 48bd
000000b0: ea6c 053e 540c 15ba 0de3 fcbd 15c2 71bc
000000c0: e50f c0bc 80c6 5ebe 547e de3c a65c 4dbd
000000d0: 1cda 84bd cb2e 3a3e 3ab9 bd3d 9724 18be
000000e0: 2046 a53c 57ec 803c 82de 04be ca20 813c
000000f0: b4d7 44bd a1e9 033e ac94 f4bd 5d6a 883d
00000100: 8a14 df3d 020c 753d 9caa 2b3e 3299 e93d
00000110: 95a4 243e d52b df3d 09ba babd ca6c 42be
00000120: f124 063e 5eb9 dabd e8ac a03d 63cf 873d
00000130: dc4e 3ebd 68cf 1fbd 8e76 063e 96b7 543e
00000140: 47c6 16bd e658 933d fff8 ebbd 82a5 0bbe
00000150: 0937 48bd bdae 1bbe 389c 8f3d c399 0bbe
00000160: b091 49bc 4a4b cfba b23e 79bd 0399 023c
00000170: 93a9 debd 8a26 333e 9c6b 8dbd 8d3c 18bd
00000180: 92fe 88bd 8120 fcbd 6fd6 0cbe d304 18be
00000190: 74fc 433e 2cfb 443d 58c6 f7bd 0e63 953d
000001a0: cdfe d7bd 979c 70be 0e51 a13d e4a1 143e
000001b0: 524b 753d 14b0 413d 3f71 663d 62a2 d03d
000001c0: ea83 a53c 01e9 053e b41c 94bd 7335 3d3e
000001d0: 1c8f 163c ca4b 61bd c1f8 d7bd 9109 93bd
000001e0: eba1 6d3d d120 0f3e 5361 36be b824 20be
000001f0: a277 b4bd ad86 983d f47e 3f3c 3d4e 02bc
00000200: e006 24be 634e b2bd 1eb7 bdbd de63 423e
00000210: eac7 d03d 502d 0fbe f15a 393e 64eb 053e
00000220: 776a 4ebd 7e96 69bd 92ed 4fbe 6888 5e3d
00000230: deb3 cbbb 5ce6 c63d 0bcb 403d ac48 18be
00000240: 7af1 01be 1711 5cbc 6550 d1bd 95eb e13c
00000250: 60bc 0a3e 9b11 01be f8f2 cebd 609a d23c
00000260: 805b ca3d ae4c 823d 414d 743d acda cbbc
00000270: 75c3 ec3d 0d30 61be fac7 4ebc 12d2 033e
00000280: f2f9 e2bb 5797 9cbc 15fe 63bb ef6c cebd
00000290: b9bb e73c 86e1 e5bd 93e5 3dbd 0a9e d03d
000002a0: 8fc6 c73d 676d 9ebc e962 3abe db53 7c3d
000002b0: bedd 9cbd bcc4 b43c 394c 43be e7ce 00be
000002c0: 5fda 2e3e ac95 ec3d 4b29 63bd ab2b f23d
000002d0: 2b6c 12be aadc 303e aeee 0f3e f6ef 073e
000002e0: 5031 103e ced2 cabd d621 6abd a388 92bc
000002f0: 414f 263e 265a efbd 3ff4 0ebd e81d 663d
00000300: 11a0 233e 9312 09be 1880 38bc a63f 5ebd
00000310: 99ee 2d3e 3fbe 5bbe 06eb 70bd 392d 23be
00000320: 09b8 ce3d d16c 4f3d e822 03bd 6776 2e3d
00000330: eaa1 bfbd 9a7b 173c 4d65 7ebd 410b bdbd
00000340: a827 1e3e c0a9 4bbc 9652 11be ce21 9d3d
00000350: 8fc1 f93c d32f 4c3e c86b 76bd 02c5 a9bd
00000360: caf6 00be 973a a5bc 2f4c 4abe f122 3cbe
00000370: 46fd a23d 7a09 03be 551b 9cbc ff0f 39bd
00000380: f530 273d ce92 45be 2df2 f33d a9a4 47bc
00000390: fa5d 18be c703 40be d316 213d b657 b8bd
000003a0: b9f2 c5bc ae74 37bd 244b bdbc 23d9 933d
000003b0: 715e 31be 854d 84bb 8793 073d 16d4 173d
000003c0: e5b0 813d 8de8 dbbd 4a9e 2d3e cc02 59bd
000003d0: 8df4 563b 01a2 e83c 1846 84bd fd4d 7b3d
000003e0: 7757 6b3d c885 cbbd d0ea cbbd 7287 d9bd
000003f0: 6d9e c93d 5583 fe3c b773 cc3d 59f0 063d
-0.08796289 -0.029794194 0.02882089 -0.06624151 -0.0136416815 -0.001622062 -0.06996718 -0.036319785
-0.17382462 -0.05124841 0.10098345 -0.07428778 0.06827948 0.084285475 -0.011665664 0.123800896
0.00261496 0.05590986 0.14686818 -0.15409204 0.13556989 -0.060421247 0.14391841 -0.02280078
0.0054897056 -0.009979078 0.07307564 -0.11848221 -0.021718958 0.12260714 -0.016565291 -0.031092096
-0.08412756 -0.09090147 0.024140654 0.13524331 0.21579595 -0.046562217 -0.10803052 -0.18430403
0.0039155893 -0.17358273 0.109127596 -0.048894197 0.13029829 -0.0005685736 -0.12347994 -0.014755745
-0.02344508 -0.21755409 0.027159847 -0.050137185 -0.064869136 0.18181913 0.09263845 -0.14857708
0.02017504 0.015737696 -0.12975505 0.015762705 -0.048057273 0.12882091 -0.119424194 0.06660912
0.108925894 0.059825905 0.16764301 0.11406173 0.16078408 0.10897032 -0.09117515 -0.18986812
0.1310003 -0.10679887 0.07845479 0.06631353 -0.046461925 -0.039016157 0.13131163 0.20773157
-0.036810186 0.071946904 -0.115221016 -0.13637355 -0.04888061 -0.15203376 0.07012218 -0.13632874
-0.012302801 -0.0015815285 -0.060850807 0.007971051 -0.108721875 0.1749517 -0.069052905 -0.03716712
-0.066891804 -0.12310887 -0.13753675 -0.1484559 0.19139272 0.0480911 -0.12098378 0.07294284
-0.10546646 -0.23497234 0.07876788 0.14514881 0.059886284 0.04728706 0.056260344 0.10187222
0.020204503 0.13077165 -0.07232037 0.1847742 0.009189393 -0.05500392 -0.10545493 -0.07179559
0.058015745 0.13977362 -0.17810564 -0.15639007 -0.08811881 0.07447562 0.011687983 -0.007953224
-0.16018248 -0.08706357 -0.092634425 0.18983409 0.101943806 -0.13982129 0.18101098 0.13078076
-0.0503945 -0.057028286 -0.2030547 0.054329306 -0.00621651 0.09711906 0.047068637 -0.14871472
-0.12689772 -0.013431809 -0.10220412 0.027578155 0.13548422 -0.12604372 -0.10104936 0.025708377
0.098807335 0.06362282 0.059643988 -0.024884544 0.11560718 -0.21990986 -0.01262092 0.12873104
-0.0069267685 -0.019115133 -0.0034788896 -0.10079371 0.028287755 -0.11224656 -0.046361517 0.101863936
0.09754669 -0.019339276 -0.18201794 0.06160341 -0.076594815 0.022066467 -0.19072045 -0.12578927
0.1707549 0.11551985 -0.055459302 0.11824735 -0.14299075 0.17271677 0.14055893 0.13275132
0.14081311 -0.09903489 -0.057161175 -0.01788742 0.1624117 -0.11687116 -0.0349009 0.056180865
0.15979029 -0.13385992 -0.011261009 -0.05425992 0.16985549 -0.21459292 -0.058817886 -0.1593522
0.10093696 0.050640885 -0.03201571 0.042593386 -0.093570545 0.0092457775 -0.062108327 -0.09230662
0.15444815 -0.012430608 -0.1419166 0.07672463 0.030487804 0.19940118 -0.060161382 -0.082895294
-0.12594143 -0.02016954 -0.19755624 -0.18372704 0.07958464 -0.12796584 -0.019056002 -0.04518127
0.040818173 -0.19294283 0.11911426 -0.012185254 -0.14879599 -0.18751441 0.039328407 -0.090011045
-0.02416359 -0.04478901 -0.023107119 0.0721915 -0.17321183 -0.0040375614 0.033099677 0.037067495
0.06332568 -0.10737715 0.16954914 -0.052981183 0.0032799572 0.028397562 -0.06458682 0.061353672
0.05745646 -0.09937626 -0.09956896 -0.10621537 0.098446704 0.031068483 0.09983008 0.032944057

encoder.encoder.bias_ih_l0 f4 [128]
00000000: 589a 0e3e 1a67 d1bd 1234 0abe f55f 1f3d
00000010: ca29 ff3d 4981 a1bd a528 0b3e b9d6 fdbc
00000020: f1e2 c13d 3202 8f3d bcb4 e03d 832c f03d
00000030: 6200 723e b071 2abd edd8 0abc f721 84bd
00000040: 4a8f 643e 9762 0dbe 068c 403e 642e 9abd
00000050: 6034 383e 3ea3 79bb f481 44bd 79ce b63d
00000060: cf5d 9cbc b574 b83d ac55 d8bd 1350 4f3c
00000070: bb57 3b3e 2c59 e43d 6506 cfbd 3d6a 2a3e
00000080: 71d0 88bb cbc4 563d e2d2 a3bd 4689 2abe
00000090: 9ac9 183e 5969 5ebd 19c8 963c 267a 0abd
000000a0: 8693 be3d c8f7 1d3c 3b10 7abd 04d0 523d
000000b0: adfa ad3c 1230 22be c85d 263e 9ed1 e2bd
000000c0: e6ba 31bd 11bb 193e 2617 833d d8e7 0abe
000000d0: cba0 183e 334d 233e b73e 0d3e 6c6e 053e
000000e0: 0fdc 1c3e 9bd3 0c3e 0c4f f53d 3d6b 9eba
000000f0: 5371 63bd 7b26 333e 0789 693c 9e1a 053e
00000100: 2833 7c3d 3777 cbbd 5854 88bd f4d7 1d3e
00000110: 3893 483e bb42 56bc 4590 413d 640b d9bd
00000120: 262b af3d 2ea0 61bd 8815 36be 44e6 0dbe
00000130: b369 5e3d d7d5 033d 226d 0b3e 456d 22be
00000140: 17f6 063e 213e 143e 5de2 cebd b8c9 e03d
00000150: af90 163d 0010 2a3e d1ec 353e 673c 893d
00000160: 4bf4 583c 9dc3 153e ef4a 23be 9375 edbc
00000170: d847 223e 231f 7dbd 82dc 42bc b579 fcbb
00000180: ac4c 5b3d 7446 663e afe9 383d 009d 07be
00000190: 7ccb 88bd f082 a9bd 4459 cebd f8c2 0c3e
000001a0: b1f7 083d 2876 4a3e 689d d5bd e33b 3e3d
000001b0: 75ad 1e3e a5aa 2a3d ab6f 323e 0bd8 483e
000001c0: 748b 4c3e e402 9cbd 05e5 b3bc c7a7 573e
000001d0: 4ea8 033d e177 963c 26ec 2ebc ee3e ee3d
000001e0: 6f58 3c3e 4b18 48bb cb37 f93d 78ff f03d
000001f0: 3030 b0bd ba24 b8bd 8771 d3bd 0190 7a3d
0.13926065 -0.10224743 -0.13496426 0.03890987 0.124591425 -0.07885987 0.13589723 -0.030986177
0.09467114 0.069828406 0.10971972 0.1172724 0.23632959 -0.041612327 -0.008474571 -0.06451791
0.22320285 -0.1380714 0.18803415 -0.075283796 0.1798873 -0.0038091685 -0.047975495 0.089261
-0.0190877 0.09006635 -0.105632156 0.0126533685 0.18295185 0.11149821 -0.101086415 0.16642089
-0.004175239 0.05243377 -0.07999207 -0.16653928 0.14920655 -0.054299686 0.01840596 -0.033807896
0.093054816 0.009641595 -0.061050635 0.05146791 0.021237696 -0.1583865 0.16246712 -0.110751376
-0.04339113 0.15012766 0.064008996 -0.13565004 0.14905088 0.15947418 0.13793455 0.13030404
0.1531832 0.13752596 0.119779676 -0.0012086403 -0.055527996 0.17495148 0.014253861 0.12998435
0.061572224 -0.09934848 -0.06656712 0.15414411 0.1958741 -0.013077433 0.047256727 -0.10597876
0.08553152 -0.0550844 -0.17781651 -0.1385737 0.05430002 0.032186355 0.1361585 -0.15861996
0.13179813 0.14476825 -0.10101769 0.10975975 0.036759075 0.16607666 0.1776612 0.06700974
0.013241838 0.14625402 -0.15946554 -0.028986728 0.15847719 -0.061797272 -0.0118933935 -0.0077049383
0.053539917 0.22487813 0.045144733 -0.13243484 -0.066794366 -0.082769275 -0.1007562 0.1374625
0.033439342 0.19771636 -0.104304135 0.04644383 0.15495856 0.041666646 0.1742541 0.19613664
0.19975072 -0.07617739 -0.021959791 0.21060096 0.03214293 0.01836771 -0.010676419 0.11633097
0.1839311 -0.0030532058 0.12168845 0.11767477 -0.08602941 -0.0899138 -0.10324388 0.06117249

encoder.encoder.bias_hh_l0 f4 [128]
00000000: acbc 823c 78f7 463e 9933 d838 67fc 05bd
00000010: 4036 ecbd 956a d23d affc 283e cca7 08be
00000020: 1749 d9bd ab1e e63d 2ec9 d1bd 1267 4d3e
00000030: 9295 243e 55c2 a9bd 0861 1dbe 643e 47bc
00000040: ff27 2a3d cf59 0f3e 942c 0fbe 8877 593c
00000050: 6b55 1a3e dcc2 893d e5ae 13be ddfe d6bd
00000060: 0acd 033e dca0 3cbd 052c 103e eeff 533d
00000070: 56b8 4a3e 32bd 02be 64eb 823b 0a5b 533e
00000080: ed0e 37bd dc06 2a3d c9bc 2cbd 1a1f f4bb
00000090: b627 8f3d c5d5 d8bc f194 a5bd 2fa2 813d
000000a0: 1f66 363d 958d 273e 5f16 5abd 7535 2d3e
000000b0: b748 1c3e 1625 d93d ab41 1dbe 7e7f 10be
000000c0: af76 cb3d 02a1 f7bc d06e 943d 3854 be3d
000000d0: cc86 9fbd 4bc2 703d 0a0f c1bc ac40 1cbe
000000e0: a687 1ebd 5e88 d03d ab4f ebbc de49 0fbe
000000f0: 04d7 02be e090 48bd 2706 3a3e f9fa 8fbd
00000100: 0cd7 f63c dc79 0fbd 123e 923d e2bf a33d
00000110: 30a3 2e3d 7698 a53d 41a6 8bbd 8292 33be
00000120: f529 c23d aa01 07be 1774 983d 9619 393e
00000130: 9ad4 f33c 4963 dabd f375 a6bc 19e7 d43d
00000140: ff9d 293e 7e42 36bd 3d08 f3bc f5e1 27be
00000150: d943 47bc edba 183e f1ec 06be 116a 1e3d
00000160: 8009 0cbe 8a00 05be 0d3e c03d cc98 edbb
00000170: ae74 64bd 535d 44be da68 113e f42c 803d
00000180: 30b7 483d cb6b 41bd 4dc3 873d 8dcc 44bd
00000190: 4b80 463e fc84 e23d a2c8 773d 554e 2cbd
000001a0: fbb5 56bd e734 6bbd 6fe8 08bd 9f91 203e
000001b0: f5db 5d3e a120 a43d 209f 173e b227 3a3e
000001c0: 9222 5c3d 7d59 47bb ec33 b2bd e338 7cbd
000001d0: 0d68 c73d 4b84 0abe f415 133e 057e 9f3d
000001e0: 221f b9bd 8351 c4bd 02e2 e3bd 1e4d ddbd
000001f0: 0269 1a3e a8bd 8e3d c336 92bd 5e62 91bd
0.015959106 0.1943034 0.000103092934 -0.032711413 -0.11533785 0.10274235 0.16502641 -0.1334526
-0.10609644 0.11236318 -0.1024345 0.2005885 0.16072682 -0.08289019 -0.15369046 -0.012160871
0.04154205 0.13999103 -0.13981849 0.013273127 0.15071647 0.067266196 -0.14422186 -0.1049783
0.12871185 -0.046051845 0.14079292 0.051757745 0.19796881 -0.12767485 0.003995346 0.20640197
-0.04469197 0.041510448 -0.042172227 -0.0074499967 0.06989996 -0.02646912 -0.08085049 0.06329762
0.044530984 0.16362603 -0.05324399 0.16914923 0.15262114 0.10602777 -0.15357082 -0.14111134
0.099347465 -0.030228142 0.07247698 0.09293407 -0.07789382 0.058779042 -0.023566741 -0.15259045
-0.038703583 0.1018226 -0.028724512 -0.13993022 -0.12777334 -0.04896629 0.1816641 -0.07030291
0.03013184 -0.035028324 0.07140745 0.07995583 0.042636096 0.0808572 -0.0681882 -0.17536357
0.09480659 -0.13184229 0.074440174 0.18076167 0.029764462 -0.106634684 -0.020319914 0.10395641
0.16564177 -0.044497006 -0.029667014 -0.1639479 -0.012162172 0.14915057 -0.13176323 0.03867537
-0.13675499 -0.12988487 0.09386835 -0.007250881 -0.055775337 -0.19176225 0.14200154 0.06258574
0.049002826 -0.04722194 0.066290475 -0.048046637 0.19384877 0.11060521 0.060494073 -0.04206689
-0.052419644 -0.0574235 -0.03342479 0.1568055 0.21665938 0.08014036 0.14806795 0.18179205
0.053743906 -0.003041833 -0.087013096 -0.06157769 0.09736643 -0.13527028 0.14363843 0.07787708
-0.09039141 -0.095858596 -0.11127092 -0.108057246 0.1507912 0.06969768 -0.07139351 -0.0709884

encoder.spatial_embedding.weight f4 [16, 2]
00000000: ad81 6f3f a172 353e c886 863f e2c6 f7be
00000010: 3b27 693f 221b 9e3f 193e f83d 1128 f2bf
00000020: 106a 8abe 6b7a 973f 0c69 213f 957e 513f
00000030: 27e1 8e3e 9eb1 07c0 6610 943f 28e7 21bf
00000040: 5b76 f4bf 7bc4 263f 201d 30bf 0fad d63f
00000050: 1f04 0dbd 9493 4fbf 30a6 47bf 0ada 7dbd
00000060: 1188 763e 57ca 71be 51b3 adbf dde7 e6bd
00000070: a506 8a3e ad62 54bf 7233 c9be 3815 60bf
0.93557245 0.17719509 1.0509882 -0.48393923 0.91075486 1.235203 0.12121219 -1.8918477
-0.27034044 1.1834234 0.63050914 0.81833774 0.27906153 -2.120216 1.1567504 -0.6324334
-1.9098619 0.65143555 -0.6879444 1.6771563 -0.03442776 -0.8108456 -0.77987957 -0.061975516
0.24075343 -0.23612343 -1.3570348 -0.11274693 0.26958194 -0.8296307 -0.39297062 -0.8753238

encoder.spatial_embedding.bias f4 [16]
00000000: 21bf a6be 57fc 023e 4e6b 7abd 7755 3c3f
00000010: 025e f0bc 40c8 16bf 4b9c 0cbf 8f7e 333f
00000020: 5e92 ebbe 6a69 c63d c24b d63e 591b 87bd
00000030: 03d2 e13e 21e8 cd3e cb05 bf3e 9e16 1e3f
-0.32567695 0.12791573 -0.06113749 0.7356791 -0.029341701 -0.5889931 -0.54925984 0.7011499
-0.46010107 0.09688075 0.41854674 -0.06597013 0.4410554 0.40216163 0.37309107 0.6175326

decoder.decoder.weight_ih_l0 f4 [128, 16]
00000000: 9b26 1cbe 2c90 85bd 1307 5e3d c38f b0bc
00000010: b543 f63d 4369 31be dbf4 a53d bf6e 1abe
00000020: e9c4 793d 1d64 7ebc 0ead f2bc 2ab2 c6bd
00000030: 2eb9 04be 37f6 2fbe 65ec 2abe d051 b43d
00000040: bf7d 77bd 75d0 33be 4f94 13bc 91aa 013d
00000050: a5c1 f23c f4b5 8cbd 3248 15bd 9e6b f0bd
00000060: 3089 f33d 38af 35bc 6720 2a3d d52e fc3a
00000070: 89cb 8c3d 313c 433d 90d2 f7bc 0269 fcbd
00000080: 6150 12bd 2f40 d03d 12ac b0bb f573 143e
00000090: 0209 2a3d 259c b43d 3fb6 fe3c 0055 4dbc
000000a0: 49c0 f43d d48f adbd 631f d23c 06d1 e7bd
000000b0: 621f 35be 9590 a2bd b8ca 06be 0c7b 413e
000000c0: be94 65bb 2380 8cbd c2ca 0abe 6e7d fabd
000000d0: fba0 923d 8704 bebd 0315 c93d 1ad0 7cbb
000000e0: df00 833d 96d1 223e d355 713d 2221 0cbe
000000f0: d2ce 163e 1afb acbd e47c 8cbc f5fd c4bc
00000100: 9b45 90bd 8eee 27be 9a48 07be a92c cc3d
00000110: 02c5 b0bc 4b14 45bc 6c00 ffbc 407b 0bbe
00000120: 4dc8 13be fb4e d23b e904 533c 5dd0 df3d
00000130: 0c9e 63bd d989 2ebe 280d ea3d be69 2bbd
00000140: f735 b7bd 9879 0d3e d1e5 cdbd 8a76 ba3d
00000150: 0c01 96bb e04b 3e3e 5cce 00be a38a d93d
00000160: 1e8d 33be 5860 03be 9453 1dbe 9a7a c13d
00000170: 79ec c0bd 0c86 d2bd 06c9 443d befb d43d
00000180: ee6e 253e 5080 8c3d 2475 9a3c 6a4b 04bd
00000190: 8be6 133e bd80 29be 9c94 ae3d 0262 463d
000001a0: 69fa 963c b6f8 613d 15d5 8d3d 0c0c 3ebe
000001b0: 2f56 e93d e26a 373e af27 bcbd 869b 69bd
000001c0: 95f2 993d bde3 7a3d 398b 88bd 4fde dcbd
000001d0: 70e7 03be ed02 833d d363 133e 5174 a13d
000001e0: 13ac 1ebe 3f2d b13d b26b f9bd 4465 11be
000001f0: ed28 003e c3b1 d4bc 31b8 ec3d 9a4f a33d
00000200: 0515 d43d daf0 d53d 5750 5cbd c0c7 a9bd
00000210: a5b4 6bbd 2816 463e 549a 033e 92e2 f5bd
00000220: a769 06be ce8c f23d 1d1b 0ebe af66 843d
00000230: a6b4 26be 735e 853d ff1a cd3d 63ed 99bd
00000240: 7cf7 163e 8222 d1bd 3cc3 343e 582a 2d3d
00000250: 02f9 343d 37eb 113e 547e 473e 7372 d9bd
00000260: f4b7 083c 1f5e c43d 2323 85bd 1da4 483e
00000270: 6487 30bd 2edc 31be e767 1bbd 4d92 4f3d
00000280: 330d a3bc 1e8d 1abd 3f6d bb3b ac97 d03d
00000290: 8af6 56be 0bb4 013e 6075 053e e07b 2d3e
000002a0: 37a2 8e3d e36a 7d3d 4651 60be c17e e1bc
000002b0: 2d91 773e d03a 573d a64a ccbd 363e 47be
000002c0: 4545 1abe d565 86bd e29b af3d 8c01 933d
000002d0: 9be0 0ebd 1653 2ebe b376 f2bd 6d7a eebd
000002e0: 5a50 e33d ba31 9f3d cb4f 013e 2e33 05be
000002f0: ac16 643e 2f96 5d3d 4d4d 053d 7388 2a3d
00000300: 8271 bf3d 5109 71bd a9c3 52bd 8c91 de3c
00000310: 6d49 16be cd1a 1b3e 84e9 153d 346b 9c3d
00000320: 61ef 12be 970a b4bd 2702 893d be42 c03d
00000330: 45d9 41bc 08d5 3dbe 9bc9 cd3d c9ca f9bd
00000340: 2078 f43c 814e 9bbc 7cfb 95bd 4930 d73d
00000350: d1d1 cf3c f551 16be e6a2 3abe 7ac9 343e
00000360: 6dfb 4ebc 5d5c bd3d e8ad 1e3e 8168 de3d
00000370: 64cd 153e 0840 003d e744 043e 8d5e bdbc
00000380: 4b5a d2bd be7d d4bd a30e 0fbd 7d88 2fbe
00000390: db6f f7bd 4f51 243d a305 2ebe d149 06be
000003a0: 89c7 1ebe b99d 12bd f87b a63d 34e3 983d
000003b0: f6d0 3ebd 7e17 e63d 8a92 133e 86d0 293e
000003c0: d371 2dbe 0d87 8abd f625 de3c df61 fd3d
000003d0: eac4 31bd 46ca 123e 95ee a83c 76a5 cf3c
000003e0: 4079 2bbe cd69 343e a354 d7bd 3fa0 033d
000003f0: 4df7 853d 3eef 843d e0bb 0cbe 9425 9a3c
-0.15249102 -0.06521639 0.054205965 -0.021552926 0.12024633 -0.1732531 0.08103343 -0.15081309
0.060978804 -0.015526799 -0.029623535 -0.09701951 -0.12961265 -0.17183767 -0.1669174 0.08804667
-0.060422655 -0.17559989 -0.0090075275 0.031656805 0.029633353 -0.06870642 -0.036445804 -0.11739276
0.11891401 -0.011089139 0.041534808 0.0019240031 0.06874759 0.047664825 -0.030251771 -0.12324716
-0.035721187 0.10168492 -0.005391606 0.14497359 0.041512497 0.08818845 0.031092761 -0.012532473
0.11950738 -0.08474699 0.025649732 -0.11319165 -0.17687753 -0.07937733 -0.13163269 0.18894595
-0.0035031284 -0.06860378 -0.13553908 -0.12230955 0.07159611 -0.09278207 0.09818461 -0.0038576187
0.063966505 0.15900263 0.05891974 -0.13684514 0.14727333 -0.08446331 -0.017149396 -0.024046877
-0.07044526 -0.16399595 -0.13211289 0.09969456 -0.021578316 -0.012028764 -0.03112813 -0.13621235
-0.14431877 0.0064181066 0.012879589 0.10928414 -0.055570647 -0.17044772 0.114282906 -0.04184889
-0.0894584 0.13815916 -0.100535996 0.09104641 -0.0045777615 0.18583632 -0.1257872 0.10622146
-0.175343 -0.12829721 -0.15363914 0.094472125 -0.094201036 -0.10279474 0.048043273 0.103995785
0.16155598 0.06860411 0.018854685 -0.032298483 0.14443414 -0.16553016 0.08524439 0.04843331
0.018429952 0.05516883 0.06925408 -0.18559283 0.11393391 0.17911866 -0.091872565 -0.057033084
0.07516972 0.061252344 -0.066671796 -0.107845895 -0.12881255 0.063970424 0.14393549 0.07883514
-0.15495329 0.08651208 -0.121787444 -0.14198786 0.12515612 -0.02596367 0.11558569 0.07974167
0.10355572 0.104463294 -0.053787556 -0.082900524 -0.057545323 0.1934439 0.1285184 -0.120061055
-0.1312624 0.118432626 -0.1387753 0.06464898 -0.1627985 0.065121554 0.10014915 -0.07515981
0.14742845 -0.1021166 0.17652601 0.04227671 0.044182785 0.14249884 0.19481784 -0.106175326
0.008344639 0.09588265 -0.065008424 0.19593854 -0.04309787 -0.17369148 -0.037940886 0.050676633
-0.019903755 -0.037732236 0.0057198103 0.10185179 -0.20992485 0.12666337 0.13033056 0.16941786
0.06964534 0.061869513 -0.21906003 -0.027526261 0.24176474 0.052546322 -0.099751756 -0.19457325
-0.15065487 -0.06562392 0.08574654 0.071780294 -0.03488217 -0.17023882 -0.11839046 -0.116444446
0.1109931 0.077731565 0.12628095 -0.13007805 0.22274274 0.054098304 0.032544423 0.041634034
0.09347822 -0.058846775 -0.051456127 0.027169012 -0.14676447 0.15146942 0.03659965 0.07637635
-0.14349128 -0.08791082 0.06689864 0.0938773 -0.011831586 -0.18538296 0.10048219 -0.12196881
0.029842436 -0.018958332 -0.073233575 0.105072565 0.025368603 -0.14679702 -0.18226203 0.17654982
-0.012633187 0.092461325 0.15496027 0.10859776 0.14629132 0.031311065 0.12916909 -0.023116374
-0.10271128 -0.10375546 -0.034926068 -0.1714191 -0.120818816 0.040116604 -0.16994338 -0.13114096
-0.15505804 -0.035794947 0.08129114 0.074652106 -0.046586 0.112349495 0.14411369 0.16583452
-0.16937952 -0.0676404 0.02711771 0.12372183 -0.043400683 0.14334974 0.020621577 0.025347453
-0.16745472 0.17618485 -0.1051419 0.032135244 0.065413095 0.06490944 -0.13743544 0.018816747

decoder.decoder.weight_hh_l0 f4 [128, 32]
00000000: 3382 0fbd 4943 69bd f5bb 58bd 0d8c 86bd
00000010: 8848 27bc 1f46 a33d 38c1 87bd b479 91bd
00000020: efa5 623d b624 233c 5221 ae3d ed84 a33d
00000030: a670 2b3e fd0d cbbd 3e1a 043b 827d 9bbc
00000040: 3c09 b0bd 23ec a0bc 2cf3 1b3d ba65 303e
00000050: 54fc 09be 6166 c3bc f812 333e b89b 173b
00000060: 9ef6 cd3d 9c10 213d 81d7 973d fda0 a0bc
00000070: 7d23 3e3e ad2f a8bc a741 803c 2aa7 afbd
00000080: e602 2e3d 1aa4 b63d b93d 17be 523d 8c3d
00000090: d561 f2bd 65d9 07be 60fd a7bd 1f04 4e3d
000000a0: dc98 2cbb cc45 823d b355 143e e995 d7bb
000000b0: 8bba d13d c05b 9bbc 4fa4 0cbe b46c be3d
000000c0: add5 b2bd b996 ad3d bbad 823d c8c9 8c3c
000000d0: 6fbd 26bd e2c2 32bd 513d 36bd 5b40 1a3d
000000e0: 89d7 22bd 1916 a93d 5e74 943b 692f f8bb
000000f0: 65e2 5cbd 0f31 913d 3dbb 10be 683b 1b3d
00000100: 004a 7fbd bdbb fe3d 84f0 11bd 27ac 1ebd
00000110: 5a75 54bc dc86 57bd 441f 103e 631c 0fbe
00000120: 0b63 2d3d af59 1ebe 4a71 f73d 1ed0 b3bd
00000130: a86e 08bc b9cc e23d a869 f4bd face bc3d
00000140: 068e afbd 637c 183e 00e0 cabd 0325 e6bc
00000150: 62c6 2dbe ebb2 623d cdf1 9d3d 9c1e 0abe
00000160: 8b47 c13d 09d5 293e 469a 9bbd 3665 1fbe
00000170: fc5c dabd 8e38 40be e6ab 423c 83c1 263e
00000180: e31e 543d 1371 99bc 3e8d 1abe ab03 1dbe
00000190: a229 28bd 753c 253e 0a8d 293e 2c43 a9bd
000001a0: 90ae ca3d 7405 13be fb0a f03d 7845 3b3d
000001b0: b05b efbd 8e27 1bbe feeb 423d 2a1e 7f3d
000001c0: ce7e 96bd e82a 0d3e 06da 9c3c 5e8b 8b3d
000001d0: cc98 99bd 4a86 0f3e 4db6 e0bd e1e3 563d
000001e0: ccbd 853d d029 4cbd aea4 4dbd 8013 18be
000001f0: 5aaa 5c3d 086c edbd 1b69 493c 4933 cebd
00000200: a737 443e 4861 43bc ce5b 0abe da49 5d3c
00000210: 2155 813d 9ef0 3cbd 2d91 2a3e c05a d03d
00000220: f963 f1bd 5627 fd3d bd2c 82bc af7a cfbd
00000230: 9be9 8dbb f4ac 9ebd b9ba 0b3d 804f 163e
00000240: 9f1d 01be 2963 04be 909a cdbc 87a6 12bd
00000250: b3da 02be 0d7e c33d b433 ea3d a29f d5bd
00000260: e801 82bd 7224 0abe eeed da3d 3dea 9b3d
00000270: 5ddf 863d 2733 3ebe b5f0 c7bc a3f8 cabd
00000280: 5469 2dbd 9316 ea3d 73ff bf3d 612a b13d
00000290: ec13 e43c 9555 30be 8a88 d83c 1658 103d
000002a0: 50ee 2e3e e6da 313d a224 fabd 5b6c b4bd
000002b0: 2dcb 5c3c 3a50 d0bc 29b1 11be 01ed 523d
000002c0: c72a 643a 1dbc 2fbc e135 283e b189 bf3d
000002d0: b157 edbd 9306 883d 140e c63d 1077 cabd
000002e0: 21cd 3a3e 4a5d c63d e66c d5bd 957b 9cbd
000002f0: 85e7 2c3e 64a2 9a3b 2cff efb8 588b edbb
00000300: 8b79 8e3d bc61 073e 2e09 c9bd bffe a63d
00000310: 1eb7 bebd 3f08 2cbe e273 343e e0ac c8bd
00000320: b3a1 55be 0b24 513d d190 d43d 3d58 b73d
00000330: 12b4 96bd b2ec aebd ed50 cdbc 08db 353e
00000340: d527 3ebe 115a f2bd 3ee5 b8bd d81c 3fbd
00000350: 015f 1dbe 5d39 40bd 938a a73d 13ad f93d
00000360: 00c0 203e 8dfd 6dbd 369a ce3c 008f 9b3d
00000370: 6003 89bd a3b0 f5bc 250f 9d3d f0d9 173e
00000380: 4700 023e 8ae7 b5bd dc92 32bd f8f0 a6bd
00000390: 23a9 993c 0915 0f3e 2979 153e 268b 433e
000003a0: e398 98bc ed7a c3bd 03cb 443d a13b 223e
000003b0: ac29 cc3d 617f 2d3e a1ec d1bd fabd af3d
000003c0: e4cb acbd f168 0cbd 8e3b 2abe a537 f33d
000003d0: a421 3b3c 517e 0dbb 16af ddbd 2c41 a3bd
000003e0: 3756 903d 5a24 ac3d b73f e7bd b48a ed3d
000003f0: 72dc bb3d fd39 09be 5438 d0bd d54b 64bd
-0.035036277 -0.056948934 -0.052913625 -0.06569681 -0.010210164 0.07972359 -0.066286504 -0.07103291
0.055334028 0.009957483 0.08502449 0.07984338 0.1674219 -0.099147774 0.0020157243 -0.018980745
-0.08595511 -0.019643849 0.038073704 0.17226306 -0.13475162 -0.023852529 0.17487705 0.0023133587
0.10056804 0.03932248 0.07414151 -0.019608015 0.18568225 -0.020530546 0.015656305 -0.08576806
0.042483233 0.08918019 -0.14769639 0.068476334 -0.11835066 -0.13266523 -0.08202624 0.0502969
-0.0026336228 0.06360969 0.14485817 -0.00657915 0.102406584 -0.018964648 -0.13734554 0.09298077
-0.08732162 0.08476014 0.06380793 0.01718606 -0.040708 -0.043642886 -0.04449207 0.03765903
-0.03975633 0.08256168 0.0045304736 -0.007574011 -0.053926844 0.07089435 -0.14133926 0.03789845
-0.06232643 0.12438152 -0.035629764 -0.038738396 -0.012967432 -0.052618846 0.14074427 -0.13975672
0.042330783 -0.15463899 0.12082155 -0.087799296 -0.008327164 0.11074204 -0.11934215 0.09219165
-0.08572011 0.148912 -0.09906006 -0.02809382 -0.16970208 0.05534641 0.077121355 -0.13488239
0.09437474 0.16585173 -0.07597785 -0.15565953 -0.106622666 -0.18771574 0.011881804 0.16284756
0.05178727 -0.018730676 -0.15092942 -0.1533343 -0.04105533 0.16136344 0.16557708 -0.08264765
0.098965764 -0.14357549 0.11720844 0.045720547 -0.1168741 -0.15151808 0.04758834 0.062284626
-0.07348405 0.13785899 0.01914693 0.068136916 -0.07499847 0.14016071 -0.10972271 0.052463416
0.065303415 -0.049844563 -0.05020588 -0.14851189 0.053873397 -0.11592871 0.0122931255 -0.100683756
0.19161855 -0.011925049 -0.13511583 0.013506377 0.06315065 -0.046127908 0.16656943 0.10173559
-0.117866464 0.12361018 -0.015890473 -0.10130822 -0.0043308265 -0.07747832 0.03411362 0.14678764
-0.12608956 -0.12928452 -0.025098115 -0.035803344 -0.1277874 0.09545527 0.11435643 -0.10430838
-0.0634802 -0.13490465 0.10689913 0.07613037 0.06585572 -0.185742 -0.02440677 -0.09910705
-0.042336777 0.11430087 0.09374895 0.08650661 0.02784153 -0.17220147 0.026432294 0.035240255
0.17083097 0.04342165 -0.122140184 -0.0880973 0.013476175 -0.02542888 -0.14227737 0.051495556
0.0008703884 -0.010726002 0.16426803 0.093524344 -0.115889914 0.06641879 0.09670654 -0.098859906
0.18242313 0.09685762 -0.10421161 -0.07640759 0.16885193 0.0047190655 -0.000114439375 -0.007249277
0.06956776 0.13220876 -0.09816204 0.08154058 -0.093122706 -0.1680002 0.17622331 -0.09798598
-0.20862465 0.051059764 0.10379184 0.08952377 -0.073585644 -0.0854124 -0.025063002 0.17759335
-0.18569882 -0.11833585 -0.090280995 -0.046658367 -0.15368272 -0.046929706 0.08180728 0.121912144
0.15698242 -0.058103133 0.025220018 0.075956345 -0.06690097 -0.029991454 0.07668904 0.1482923
0.12695418 -0.08882053 -0.043597087 -0.0815143 0.018757408 0.13972868 0.14597 0.1909605
-0.01862759 -0.095449306 0.04804517 0.15843059 0.09968886 0.16943122 -0.102502115 0.08581157
-0.084373266 -0.034279767 -0.16624281 0.11875848 0.011421595 -0.0021590183 -0.108244106 -0.07971415
0.07047694 0.08405371 -0.112914495 0.11598721 0.09172906 -0.13401027 -0.10166994 -0.05573638

decoder.decoder.bias_ih_l0 f4 [128]
00000000: 61b6 0ebc 05e8 b7bd 45c8 703d e53e 123e
00000010: 2c33 dd3d cdfa 9b3d fb4f 353e e172 4ebd
00000020: aeff fabd 3bb0 c4bd ef57 7bbd e2d6 ebbd
00000030: 7bc8 403e 4c78 2f3d 496c 99bd 1a3b bcbd
00000040: e33f bc3b 9c45 c43c 3420 1dbe 6da8 0c3d
00000050: 03c7 ea3b 6bca 103e 4c61 e73d a5ce b53c
00000060: 32b7 c5bd d4e7 dbbc 3b27 ecbd 81ef 283e
00000070: 81bb 2f3e 0705 77bd dac5 853d bb58 1abe
00000080: 0984 a6bc 8528 fdbd a68e f2bd cc95 0d3e
00000090: 768b 1b3e c15b 0bbe 5a1d 23be f993 023e
000000a0: 8d8d 893c 678d b93c 093f 3bbd 1441 3b3e
000000b0: 8186 803d d0d2 81bd 9e38 10bd 201a 503c
000000c0: 4bcb 9cbc d6e7 30be 5423 f53d 44f3 873d
000000d0: 6913 4e3e c779 bbbd a71d 143e 7a44 5f3d
000000e0: b0ae ca3d 9341 6dbd d08b 7a3c 0ddd b03d
000000f0: 719a 593d 0d58 253e 4c8f 1dbe 3932 263c
00000100: 2fa8 29be d9a1 1dbe 09b1 31be d1b2 bcbd
00000110: 9655 24be f0c4 523c a971 2bbe b3d0 523d
00000120: 3922 1bbd 93ee f53d 4491 953d f8ac 25be
00000130: 9467 813d 6a45 8dbd 7bea 163e e864 e73c
00000140: 9911 10be f1cc e23d ca37 123e 4f7c a8bd
00000150: 6823 463d fe33 9bbd f886 8e3d bbcf 5b3c
00000160: 1dff 893d df53 5abd 4f1e 283e 8cce 683c
00000170: 09e8 323e 090b bdbd a005 a93d 50e0 0d3e
00000180: 1eb4 fc3d 7f55 b53c ea83 c8bd eead a6bd
00000190: 1ac4 463e 21aa 6ebd 7934 d5bd 7c30 ebbc
000001a0: c04d 81bc c72e ebbd e554 20be bd39 c5bd
000001b0: 165f 983d 7e3c 0c3e d215 2abe 0946 053e
000001c0: a529 ca3d 3abb b33d 69ac d33c 391c c3bd
000001d0: 0598 a5bd 2f68 30bc 6198 2cbe 2583 b0bd
000001e0: 888a a63d 42e0 d53d 0fe4 50bd 2c1c 0ebe
000001f0: 82c4 693e 2b45 1e3e c9bf f1bd 24b0 183e
-0.008710475 -0.08979801 0.058784742 0.14281805 0.10800776 0.07616196 0.17706291 -0.050402526
-0.12255798 -0.09603926 -0.061363157 -0.11515595 0.18826477 0.042839333 -0.07491357 -0.0919096
0.0057449206 0.023958974 -0.15344316 0.03434031 0.0071648373 0.14139716 0.11297855 0.022193262
-0.09654082 -0.026843943 -0.1153092 0.16497613 0.17161371 -0.06030753 0.06531878 -0.1507291
-0.020326631 -0.12361244 -0.11843614 0.13826674 0.15189919 -0.1360922 -0.15929165 0.1275176
0.01679113 0.022650434 -0.045714412 0.18286544 0.062756546 -0.063390374 -0.035210244 0.012701541
-0.019139906 -0.17275938 0.11969629 0.06638196 0.20124592 -0.091540866 0.14464436 0.054508664
0.098966 -0.057923865 0.015292123 0.08635912 0.053125802 0.1614687 -0.15386695 0.01014381
-0.16568063 -0.15393771 -0.1735269 -0.09213794 -0.16048273 0.012864336 -0.16742577 0.051468562
-0.037874434 0.12008395 0.07303098 -0.16179264 0.06318584 -0.06898005 0.14737885 0.028246358
-0.14069213 0.11074246 0.14279094 -0.08226835 0.04837361 -0.07578276 0.06959337 0.013416226
0.06738112 -0.053302642 0.16417812 0.014209401 0.17471327 -0.092306204 0.08253026 0.138551
0.12339042 0.022135494 -0.097907856 -0.08138643 0.19410744 -0.058267716 -0.10410399 -0.028709643
-0.015784144 -0.114835314 -0.15657385 -0.09630153 0.07440011 0.13694951 -0.16609886 0.13014998
0.09871224 0.08775945 0.025839048 -0.095268674 -0.08085636 -0.010767027 -0.16855003 -0.08618764
0.081318915 0.104431644 -0.050998744 -0.13877934 0.22828868 0.15456073 -0.11804158 0.14910942

decoder.decoder.bias_hh_l0 f4 [128]
00000000: 59b0 54bd 18e9 0d3e 831a 243e 3345 dbbd
00000010: e4e2 f23d b9d3 00bd 70c0 eb37 0b54 abbd
00000020: 91ba 74bd 41c4 363d a547 833d 92b8 42bd
00000030: 061f e23b cd6f 903a 1302 fd3d 297f 32be
00000040: 1e63 273e 6390 4a3d 165d 06be 38bc 0fbe
00000050: b189 1cbe f255 dabd 6a15 163e b4fa cb3c
00000060: d193 403d a7b9 17be 791b 613d 7216 013d
00000070: 9133 023e 2e8d 203e d28d f63d 11a2 6dbd
00000080: 3faa ccbd 1b42 59bd 7925 0dbd f4a7 1a3c
00000090: 0039 a2bd 8d0e 3e3d 8002 a83d 74a0 ec3d
000000a0: b867 133e f489 ac3d 21f3 123e aee4 273e
000000b0: 2d96 163d b698 043e afca e13d b0aa 9a3d
000000c0: 5a84 54b9 d16d 193e 3a5c 87bd 5d54 44be
000000d0: d7b7 1a3d 225e 023e 1dff 2abd 232f 563c
000000e0: a3ac 6f3d 18d2 1abe 3e55 a1bc c4ed 79bc
000000f0: 0239 37bd 842b 9cbd 953c 81bd 4e09 cbbc
00000100: 13a3 063e 84a4 83bd 181f d33d 25e0 143e
00000110: c606 81bd 51aa dabc 2057 babc 9542 06be
00000120: 00c6 36be ab02 523d c235 a23d 5388 823d
00000130: 3e93 edbb a8a5 2fbe dd02 90bd 875f cd3d
00000140: 6446 fdbd b03e 103e 10fc aa3d 47ab b7bd
00000150: 183b 223d 0030 24be 6e77 d13d e795 613d
00000160: f6ce e7bd 80c3 09be 5f9f 29bc 1b50 13be
00000170: e498 ccbd 3e5e 1b3e 8963 2b3e caa7 02be
00000180: eed1 2fbe c2c1 01be 90ce cf3d fc3c 203d
00000190: c1fa cbbd fab5 e2bd 2c37 19be 0b0d 00be
000001a0: 9505 3bbd 554c 68ba 86ef a1bd 5a21 2d3e
000001b0: e60f 343e f5b5 04be 7ae6 013e a74e 463d
000001c0: d49b 62bd d546 ae3d 45f2 1abe 03a0 94bd
000001d0: cbd0 9e3d 95e7 d23c 183c d93d c6c6 163e
000001e0: 2476 0abe b013 c33d 2769 ac3d 8ae5 43bd
000001f0: 8d2a 393e 4f50 ecbd bbfd b43d d91a 0fbe
-0.05192599 0.1385845 0.16025738 -0.10706558 0.11859682 -0.031451914 2.8103794e-05 -0.08365639
-0.059748236 0.044620756 0.064101495 -0.0475393 0.006900671 0.0011019647 0.12353911 -0.1743132
0.16346404 0.049454104 -0.13121447 -0.14036644 -0.152869 -0.10660924 0.14656606 0.024899818
0.04701597 -0.14816914 0.05495784 0.031515546 0.12714984 0.15678856 0.12038769 -0.058015887
-0.09993409 -0.05304156 -0.034459565 0.009439457 -0.07921028 0.046400595 0.08203602 0.115540415
0.14395034 0.0842475 0.14350559 0.16395828 0.036764313 0.1294888 0.11024987 0.07552087
-0.000202672 0.14983298 -0.06609388 -0.19172807 0.03777298 0.12731221 -0.0417472 0.013072762
0.05851425 -0.15119207 -0.019693967 -0.015254442 -0.0447321 -0.076254874 -0.06310383 -0.02478471
0.13148145 -0.06427863 0.10308665 0.1453863 -0.0630012 -0.026692541 -0.022746623 -0.13111337
-0.17848969 0.051272076 0.0792041 0.06373658 -0.0072502187 -0.17153037 -0.07031796 0.10027986
-0.123669416 0.14086413 0.08348858 -0.089682154 0.039607137 -0.16033936 0.102278575 0.0550746
-0.113187715 -0.13453484 -0.010352938 -0.14386027 -0.09990099 0.1517267 0.16737188 -0.12759319
-0.17169926 -0.12671569 0.101468205 0.03912066 -0.09959937 -0.110698655 -0.14962453 -0.12504975
-0.04565962 -0.0008861472 -0.079070136 0.16907254 0.1758419 -0.12960036 0.12685576 0.048414852
-0.05532439 0.08509604 -0.15131481 -0.07257082 0.07754668 0.025745193 0.10607165 0.14724264
-0.1352163 0.095252395 0.08418494 -0.047826327 0.18082638 -0.11538755 0.08837458 -0.13975085

decoder.spatial_embedding.weight f4 [16, 2]
00000000: 5910 fe3e c114 39bf a093 8e3e b54f 323e
00000010: b1eb d8be 6c69 3dbf 46b4 de3f c819 b0bf
00000020: 6f39 afbe 6220 2cc0 b924 16bf 0313 ab3f
00000030: bd8a 1fbf cf1d 1e40 6295 0c3e 47ad 9fbf
00000040: 28ff 733f 4aff a73e ece3 09be 1b1f 3cbe
00000050: f182 5cbf c4b5 bf3f 92e7 2bbf d9f8 dbbf
00000060: ad90 f43f aa34 c5bd a38d d13e deba 7a3f
00000070: ba08 c13e be41 8fbf aaef 88bf 76de 09c0
0.49621847 -0.7229729 0.27847004 0.17413218 -0.42367318 -0.73988986 1.7398765 -1.3757868
-0.34223506 -2.6894765 -0.58649784 1.3365177 -0.6232107 2.4705694 0.1372886 -1.2474755
0.9531121 0.32811958 -0.13465852 -0.18371241 -0.861373 1.4977345 -0.67150223 -1.7185317
1.9106652 -0.096291855 0.40928373 0.97941387 0.3770197 -1.1191938 -1.069814 -2.154203

decoder.spatial_embedding.bias f4 [16]
00000000: ff8f 19bf da0e 03bf 4b02 45bb 27b6 a9be
00000010: aef9 cfbe 3455 0f3f 5cd2 053f 6528 313f
00000020: 70cf debe 0502 0c3f 298d e5be f78a 683e
00000030: 56fd 9bbe 8b02 1bbf f0cf ab3e 88d9 9a3d
-0.59985346 -0.51194537 -0.0030061181 -0.33146784 -0.40620178 0.55989385 0.5227411 0.6920226
-0.43517637 0.5469058 -0.4483426 0.22709261 -0.30466717 -0.60550755 0.3355708 0.07561022

decoder.hidden2pos.weight f4 [2, 32]
00000000: 766b 8ebd b757 8dbc 26a2 28bc acd9 1f3e
00000010: b8c9 843e d298 5abc ac53 473e 2634 073e
00000020: 2520 96be 9331 86be 8a58 09be e256 0f3f
00000030: 3ea5 423e 7dff 3a3b b8b3 66be ee57 3ebd
00000040: d8cb f5be 4fff 773d 67f2 b9be f7a5 ae3d
00000050: 2e12 c83e 359c 08be 659b 18be 3135 d3bc
00000060: f7f0 6bbe 5432 73be 4132 50be 460a 7b3e
00000070: bbfd 833d e359 eabd 853f 333e f4db 36bd
00000080: 1b5b 86be a804 03bf 2a4c afbe a931 debe
00000090: 10db 933e ee49 6c3e 64e7 7a3e 09b5 7d3e
000000a0: 080b 843e b259 8ebc e58d 373d 16b3 9dbe
000000b0: d10c a23e eda6 723e ab4d 863d a1bf 723e
000000c0: 618f aa3d d78e bebd 12ee a5bd 9174 463e
000000d0: 0e3e 0cbe aed3 833d 599d aa3d c7e4 ae3e
000000e0: 77af 993e 264a 5d3e ea8a a33c 9ef2 25bd
000000f0: 8a59 3dbd 605c be3e 23cc 87be 5561 40bd
-0.0695409 -0.01725374 -0.010292565 0.15610379 0.2593515 -0.013342099 0.19465512 0.13203487
-0.293214 -0.26209697 -0.13412681 0.5599195 0.19008347 0.002853363 -0.22529495 -0.046470575
-0.48007083 0.060546216 -0.3631775 0.08527749 0.3907637 -0.13340838 -0.14903028 -0.0257822
-0.2304114 -0.23749667 -0.2033167 0.24515638 0.064448796 -0.11442926 0.175047 -0.044643357
-0.26241383 -0.5117898 -0.34237796 -0.43397263 0.2887807 0.23075077 0.24502331 0.2477609
0.25789666 -0.017376754 0.044813056 -0.30800694 0.31650403 0.2369649 0.06557783 0.23705913
0.083281286 -0.09304588 -0.08102049 0.19380404 -0.13695547 0.06436859 0.08330793 0.34158918
0.30016682 0.21610317 0.0199637 -0.04051458 -0.04622797 0.37179852 -0.2652293 -0.046967823

decoder.hidden2pos.bias f4 [2]
00000000: c19b 4e3c 7608 2b3e
0.012610377 0.16702446

pool_net.spatial_embedding.weight f4 [16, 2]
00000000: 2967 903e 6a64 c23e ba0a adbe fe28 9a3d
00000010: 4e13 f8be 985e 41be 01e0 093e 5626 f9be
00000020: edc5 b53f e53a be3f f2a3 d13f 7317 70bf
00000030: 888e b93f 34fe 8abf a6fd 2b3d f20d 5fbf
00000040: 80ca ddbe 907e 343f dbf8 15be 7006 e6be
00000050: 1707 b6bf 9c44 56bf bbfc 03c0 f129 f53f
00000060: c917 7cbe 70f9 d53f 1e6a 31bf 6c54 13bf
00000070: 5f96 8c3f 28ba 913e d29c 48bf ce6f 503f
0.28203705 0.37967235 -0.33797246 0.0752735 -0.48452228 -0.18883741 0.13464357 -0.4866206
1.4201027 1.4861723 1.6378157 -0.9378578 1.4496622 -1.0858827 0.041989945 -0.87130654
-0.43318558 0.7050562 -0.14645712 -0.44926786 -1.4220914 -0.8369844 -2.0623004 1.9153425
-0.24618448 1.6716747 -0.69302547 -0.5755069 1.098339 0.28462338 -0.7836429 0.814206

pool_net.spatial_embedding.bias f4 [16]
00000000: 75fb 22be e97b 30be 2a84 a9bc a07c f7be
00000010: da56 c6bd 2981 593d 04a7 f7bd eae2 fabe
00000020: 1fc8 dd3d bf0c 03bf d626 c0be 29e0 9b3d
00000030: f61a 29bd a934 033f 77b7 62be 3628 2d3d
-0.15916236 -0.17234768 -0.020692904 -0.4833727 -0.09684534 0.053101692 -0.120924026 -0.49001247
0.10829186 -0.51191324 -0.3752963 0.076111145 -0.041285478 0.5125223 -0.22140299 0.042274676

pool_net.mlp_pre_pool.0.weight f4 [512, 48]
00000000: 5bc9 79be db26 e2bc 1c56 1dbe 1510 9d3e
00000010: a526 c33d 3ef2 bc3d f7a3 2cbd 5afa 1e3e
00000020: 3526 49bd 4004 7fbe 9d1d 79be 1fb2 45be
00000030: f04a b33d 8105 54be 0545 413d aefb a9bd
00000040: 0fb8 3e3e 24df 29bd 8825 ac3d 1c33 61be
00000050: 19d6 90bd 4c01 b93e f8a9 b0bd e8e5 e23d
00000060: 0ef9 e6be 8edd 12be 5e1b f6bc 2bca 2f3e
00000070: 7adb 99be f7f1 8c3d 685c 67be ad8f 673e
00000080: 8d2a 14be 8d2f d2be 01f6 4c3e 8682 a1be
00000090: c0b9 47be d3e0 433e f23a 653e 97f0 f23d
000000a0: 7bc9 ad3d 8976 c0bc 5637 85bd 4f5c 793d
000000b0: acab aebe 31b5 053a 35ec 1abe a23b 73bd
000000c0: b38c ad3d 2720 993e 725c cdbd 251b 283e
000000d0: e06b bc3c c24f f4bd fbae 833d bd52 9b3e
000000e0: c61c 7cbd 6250 f5bd 08c1 cbbc 9776 9d3e
000000f0: f0b7 773e aa7c 8ebb 3e5d e0be 64e5 17bd
00000100: f3b7 53be 2292 313e 4f26 4cbe 8386 5ebd
00000110: 125c 10be 3b67 ad3d 1541 03be 9eee 3b3e
00000120: 1a91 dfbd 91f4 dfbd 2a87 1bbe 24ca 1b3d
00000130: 7450 813d 65a3 5fbd af44 193e 0436 da3d
00000140: fb2b 5a3e d990 32be d76c 3f3c ebb0 03bc
00000150: 9ac3 723d 5283 8ebd d269 26be b3b1 833d
00000160: 531b ebba 89dd 3b3e 72e2 de3e 22fe 493e
00000170: 6d1c 323e d3a6 92be 7344 3b3b 1856 1dbe
00000180: 1360 c53d b684 61be 1e13 84bd e79e 7f3e
00000190: ad1a 34be 1baf 343d 8c24 eabd f7c7 2bbe
000001a0: 2b3b 80be 93a6 9fbc a054 cabd 57fa 403e
000001b0: 3471 b9bd e22d 1dbe 5480 c93e e436 353e
000001c0: e9df a93e 1b8d 523e f8fe d5be eb4a a8be
000001d0: a43e 763d 7154 643d 0d4f f53c 1763 ffbd
000001e0: 2c02 833e 6b11 823e 7ac1 b63d 0a56 be3d
000001f0: f918 9d3e 1f1b d7be cf92 4d3e 6529 f83e
00000200: 0850 36bd 2bbb 67bc a01e 503e 9824 fd3d
00000210: dee8 83bd 04f7 21bf 961e 4ebe 3e8c 163d
00000220: ccee 753e 464b 6b3b e81c 11be 5e44 903c
00000230: c37c c03d c8f5 813e a944 b43e 746b 98bd
00000240: 893f ecbd 223d 8abe f887 8b3d 18bf 0dbe
00000250: d7e8 3cbd be6f f93e 3ee2 1dbe a1af b2bd
00000260: 202b 60ba fc6e c33c 4fb2 4d3e e2cc 84be
00000270: bfcd 83bd 5ef1 b73e d64d dd3c b748 1fbd
00000280: 716e a43c da11 8e3d ff9b d0be e679 15bd
00000290: 8073 333d 67b7 c03e 248c 273d 5a54 1b3e
000002a0: c60f 683e 53c4 97bc 935a e33d 74db 36be
000002b0: 42e2 0f3e 340a 36be 7584 f33d 26cf acbe
000002c0: 23ea b0bd ac07 58bd 2287 e23d bfac 91bd
000002d0: b686 d3bd f666 9abe 11f4 94be 3567 ceba
000002e0: 8d94 3ebe 84fc 12be f5b9 abbd f736 f0bd
000002f0: f596 cd3c c13e 1cbe c694 f93a c4ea 3e3e
00000300: c188 d0be d2d1 d43d 4876 0fbe 3f34 13be
00000310: f60e 44be 4101 49bc eff3 e1ba 7cc2 ae3e
00000320: 013a 8bbe 77ce 27be c74a 743d ef0c 8abe
00000330: eea0 3e3e c171 59be f1f4 3c3e fc8a 3d3e
00000340: d769 5abe 9dfd 81bd 0cfe f33d fe9d 3fbe
00000350: 46f9 d6be efd9 ecbd 5576 d0bd 261e 4d3e
00000360: be58 153e 4c55 503e d5db 7439 95b6 03bd
00000370: 2ff9 d4bc 78cb 9a3d a893 2ebd 085b 913e
00000380: 845b 4ebd 57cd 39be 4840 133c 9df8 893e
00000390: 7c5c 0abe c8dd 113d 97ea 1d3e 3944 8e3e
000003a0: 831d cabd 91eb f53d 7d73 4cbe 231c a2bd
000003b0: d8d7 0d3d 2566 cfbe 582c 23be 77b9 3ebe
000003c0: e3ef 583e ba90 f3bd 27fb 17be 69cc ffbc
000003d0: 47ff d3bd 2996 993e f5bb 39be 9876 babd
000003e0: f323 123f d224 59bd e026 0d3d 5c81 7e3e
000003f0: a5a6 b33e 0a22 0fbe 440a 053e 0723 ca3d
-0.24393217 -0.027606418 -0.1536488 0.30676332 0.09528855 0.092258915 -0.042148557 0.15525189
-0.049108703 -0.24903965 -0.24327703 -0.19306229 0.087545276 -0.20705225 0.047184963 -0.08299957
0.186249 -0.04147257 0.08405596 -0.21992153 -0.07072086 0.36133802 -0.08626169 0.110790074
-0.4511189 -0.14342329 -0.030042347 0.17166965 -0.3005026 0.06882089 -0.22593844 0.22613402
-0.14469357 -0.41051903 0.20015718 -0.31544894 -0.19504452 0.19128732 0.22385767 0.11862295
0.08485695 -0.023494022 -0.06504695 0.060879048 -0.3411535 0.0005100547 -0.15129168 -0.059383042
0.08474102 0.29907343 -0.10027398 0.16416605 0.023000658 -0.11929275 0.06429859 0.30336562
-0.061550878 -0.119782224 -0.024872318 0.3075454 0.2419126 -0.004348357 -0.43821138 -0.037084
-0.2067564 0.17340901 -0.19936489 -0.0543275 -0.14097622 0.08466955 -0.12817796 0.18352744
-0.10916348 -0.10935319 -0.1518828 0.038034573 0.06314173 -0.054599185 0.14967607 0.10654834
0.2130584 -0.17438067 0.011683664 -0.008037786 0.05926857 -0.06958641 -0.16251305 0.06430378
-0.001793722 0.18346228 0.4353214 0.1972585 0.17393656 -0.28642902 0.0028574734 -0.15364873
0.09637465 -0.22023281 -0.06448959 0.2496296 -0.17588301 0.044112306 -0.11432752 -0.167755
-0.25045142 -0.019488608 -0.09879422 0.18845497 -0.09054795 -0.15349534 0.3935572 0.1769672
0.33178642 0.2056164 -0.41796088 -0.32869658 0.060118333 0.055744592 0.02994492 -0.12470072
0.25587595 0.25403914 0.089236215 0.092937544 0.30683115 -0.4201288 0.20075534 0.48469082
-0.044509917 -0.014143745 0.20324183 0.12360495 -0.064409 -0.6326754 -0.20128855 0.03675484
0.24016875 0.003590302 -0.14171183 0.017610725 0.093987964 0.2538283 0.35208634 -0.0744237
-0.11535556 -0.26999766 0.06813043 -0.13842428 -0.04612049 0.48718065 -0.15418336 -0.08724905
-0.0008551348 0.023856632 0.2008755 -0.25937563 -0.06435727 0.35926336 0.027014654 -0.038887706
0.020072194 0.06936999 -0.40744016 -0.036493205 0.04381132 0.37639925 0.040905133 0.15168896
0.22662267 -0.018526232 0.1110126 -0.17857152 0.14051154 -0.1777733 0.118904985 -0.33751792
-0.08638408 -0.05274169 0.11060931 -0.07113027 -0.103284284 -0.30156678 -0.29092458 -0.0015747311
-0.18611355 -0.1435414 -0.08385078 -0.11729234 0.025096396 -0.15258314 0.001904153 0.18644243
-0.40729335 0.103915825 -0.14009964 -0.14375399 -0.19146332 -0.012268365 -0.0017238836 0.34132755
-0.2719269 -0.16387354 0.059641626 -0.26962993 0.18616077 -0.212348 0.18452813 0.1851005
-0.21329437 -0.06347201 0.1191369 -0.18712613 -0.41987056 -0.11565005 -0.1017882 0.20031032
0.14584634 0.20345038 0.00023351547 -0.032156546 -0.025997726 0.0755834 -0.042621285 0.28389764
-0.050380245 -0.18144737 0.008987494 0.2694749 -0.13511842 0.035611898 0.1542152 0.27786425
-0.0986891 0.12007821 -0.1996593 -0.07915523 0.034629673 -0.40507618 -0.15934885 -0.18625437
0.2118526 -0.11892839 -0.14841901 -0.0312254 -0.10351425 0.29997376 -0.18138106 -0.09104651
0.57086104 -0.05301363 0.034460902 0.24854034 0.35088077 -0.13977829 0.12992197 0.09869962
