scripts/models/sgan-p-models/univ_8_model.pt (torch_old, 190137 bytes, 24 tensors)

encoder.encoder.weight_ih_l0 f4 [128, 16]
000000 22 25 21 be 86 63 32 3e 9b d3 b7 3b 6e 18 b9 bd
       -0.15736821 0.17420778 0.005609942 -0.09037863
000010 ff 49 a7 3d 41 95 21 3e f7 bf 55 3c 22 31 47 3d
       0.081684105 0.15779592 0.013046256 0.04863084
000020 ad 2a 6f be 32 00 2e bd 32 2a c6 3d 4e d5 26 3e
       -0.23356123 -0.042480655 0.09676017 0.16292307
000030 71 0a c3 3d 6b 5b 29 be 20 c9 3c be a7 b1 56 bd
       0.09523476 -0.1653878 -0.18436098 -0.052415516
000040 98 9b 69 bd d4 e1 5c 3d 74 95 11 3e 5b ca e8 3d
       -0.05703315 0.053926304 0.14217168 0.11366721
000050 7c a4 e4 3d 2a b0 e1 bd a3 29 32 be d5 b5 9e 3c
       0.111641854 -0.11019929 -0.17398696 0.019373814
000060 9a 44 f4 bb e9 26 7f 3d 7f ab 5c bd cc a8 60 bd
       -0.007454467 0.062292967 -0.05387449 -0.054848477
000070 46 08 82 bd 19 ea ad 3d bc 99 78 bd dc 76 c8 3d
       -0.06349234 0.08491916 -0.060693488 0.097882956
000080 2a 0e a1 3c eb 1c 68 3e 9b 2e 9f 3c a9 c2 f7 bd
       0.019660074 0.22667281 0.019431403 -0.12097675
000090 fb 3e aa 3d f6 b2 37 be db 08 b9 bd a4 24 75 bc
       0.08312794 -0.17939362 -0.09034892 -0.014962349
0000a0 fb 24 b8 3c 11 4b ba bd 72 08 fe 3d af 92 55 bd
       0.022478571 -0.09096349 0.124039546 -0.05214184
0000b0 7a f1 fc bd 7f f7 c0 bd ea fd f6 bc fa 15 d3 3c
       -0.123507455 -0.09422206 -0.030150373 0.025767315
0000c0 c3 06 a4 bd a2 32 e6 3d 32 d3 e8 3d 77 96 22 bc
       -0.08009102 0.11240126 0.11368407 -0.009923569
0000d0 c1 09 4e 3d 29 12 e3 bc 49 a5 b4 3d a6 ca 88 bc
       0.05030227 -0.02771862 0.08820588 -0.016698193
0000e0 f7 15 21 3d 81 49 04 be 01 fb 44 3d c2 87 c2 3d
       0.039327588 -0.12918665 0.04809094 0.0949855
0000f0 11 bf 5c be e2 9e 7a bc 34 4f a9 bd 1d bc c6 3d
       -0.21557261 -0.01529667 -0.0826706 0.097038485
000100 f1 c5 33 3d e1 bc b6 bd 2f 54 2f be 76 79 01 bb
       0.043889944 -0.089227445 -0.17121957 -0.0019756234
000110 9a 91 e5 bd 94 76 25 3e a2 d6 cc 3d cd 24 ae 3d
       -0.11209412 0.16158515 0.100018755 0.08503113
000120 f1 62 65 bd d6 45 ed 3c e2 9d 25 be fc 1d 1f be
       -0.05600256 0.028963964 -0.16173509 -0.15538782
000130 70 f0 71 bd f5 84 10 3e 0e 4d b1 3d 4c c8 8b 3c
       -0.05906719 0.14113219 0.08657275 0.017063282
000140 b8 a5 e0 3d 4f e4 3c 3e fc ed af 3d 63 25 9d bd
       0.10969108 0.18446468 0.08590314 -0.076731466
000150 b4 b9 06 3d 83 94 d4 bd 61 a4 29 bd 6e 2b 79 3c
       0.032891944 -0.10379889 -0.04141653 0.015208108
000160 7c 61 39 bd f0 96 06 3d b9 0b 2c 3e 40 fe 29 be
       -0.045258984 0.03285879 0.16801347 -0.16600895
000170 c6 22 ba bd 12 fd 3b 3d dd 67 f6 bd f5 c2 3a 3c
       -0.09088664 0.045895644 -0.12031529 0.01139902
000180 ee 6c e9 bd a1 f4 00 be 34 c1 1c 3e b4 49 60 bd
       -0.1139773 -0.12593319 0.15308076 -0.05475779
000190 89 22 d2 bd 88 e8 b4 3d f7 75 07 be d6 24 16 3e
       -0.10260493 0.08833414 -0.13228594 0.1466249
0001a0 bc 8b 22 be bb 78 12 3d 2f f2 2a be 63 4c 42 3d
       -0.15873617 0.03575967 -0.16693948 0.04743613
0001b0 65 39 04 3e 51 8b 0f be e9 b9 da bd c7 73 03 be
       0.1291252 -0.14017989 -0.10679991 -0.12837134
0001c0 4b 6d 11 be 8e 6f ce bc 8e 99 db bd f3 1c a3 bd
       -0.14201848 -0.025199678 -0.107226476 -0.07964506
0001d0 d8 7f 35 be a4 0e 5d 3e d3 f5 93 bd 4d 25 61 bd
       -0.1772455 0.21587616 -0.072246216 -0.054967213
0001e0 fa 1b c8 3d 6a 20 6f bc 4d 2d 9b 3d 8a 39 b8 bd
       0.09770961 -0.01459513 0.07577 -0.0899535
0001f0 bf b6 c7 3c a6 8c c2 3d a7 47 39 be 50 6a 0c 3d
       0.024379132 0.09499483 -0.1809374 0.034281075
000200 73 9c 38 3e 07 ca dd bd 66 59 23 3e ef 24 0c be
       0.1802843 -0.10829549 0.15952072 -0.13685964
000210 1b cd c9 3d 4b b7 b5 3c 46 3c cf bd cd 18 fb bd
       0.09853574 0.022182127 -0.10118918 -0.1226059
000220 85 f9 8a 3d 4f ab 9d bd 56 74 34 bd 40 c7 77 bd
       0.06785873 -0.0769869 -0.04405626 -0.060492754
000230 a2 50 2b be 66 cc 91 3d 0b 1d 23 bd 83 a5 ed bd
       -0.16729978 0.07119064 -0.03982262 -0.116038345
000240 00 81 be bd 19 98 3e be 9b 4c 3b be 50 3c 87 3d
       -0.093019485 -0.18612708 -0.18290941 0.066033006
000250 73 d8 b5 3d c4 d6 1c 3e 6d 39 1d be ff ea d4 3b
       0.08879175 0.15316302 -0.15353937 0.0064977403
000260 a8 01 65 3d f8 f8 af 3b 00 cb 4d bb 1c 73 27 3d
       0.055909783 0.0053702556 -0.0031401515 0.04088126
000270 25 83 19 3e 1b 0c 86 3d e6 17 81 bc ae f6 cd bd
       0.14991434 0.06545278 -0.015758466 -0.10056816
000280 2f bc 50 3d df 7d cb 3d 2e 21 c3 3d 4a ca b7 bd
       0.050960716 0.099361174 0.09527813 -0.089741305
000290 cd b1 27 be 6b 50 22 3e 7d ed 95 3d 64 33 6f 3c
       -0.1637642 0.1585099 0.07320688 0.014599655
0002a0 07 c2 e0 bd d6 c3 1b be 33 d2 ac 3d 92 cf b9 bd
       -0.10974508 -0.15211424 0.0843853 -0.09072794
0002b0 72 be 08 be 1f 23 93 3d 19 ec 35 be f8 40 2d be
       -0.13353899 0.07184433 -0.17765845 -0.16919315
0002c0 11 a3 ff bc 57 83 f0 bd b5 4d 52 bd 2f 91 02 bb
       -0.031205686 -0.11743801 -0.05134364 -0.0019922962
0002d0 8d a3 ac 3d ca ae 42 bd 7f 66 10 3e 1c 3c f5 3d
       0.08429632 -0.047529973 0.14101599 0.119743556
0002e0 7f a2 0c 3c 4b 44 f9 bd b7 46 c7 b8 8a 80 33 3d
       0.008583664 -0.12171229 -9.502231e-05 0.043823756
0002f0 fa 9d aa 3d c8 4b d8 3d 94 c4 43 be 5c 39 cb bb
       0.08330913 0.10561329 -0.19117957 -0.006201906
000300 db 4e 5c bc 57 48 a5 3d 7d 7a 2e be 0e 45 e6 3d
       -0.013446535 0.08070438 -0.17038913 0.1124364
000310 2a 6c ef 3d 40 db 80 3c 9c f8 1d be ad fd 2c 3e
       0.116905525 0.015729547 -0.15426868 0.16893645
000320 cc bf 38 3d 97 57 1f be 95 01 41 3c e2 a4 19 be
       0.045104787 -0.15560757 0.011780162 -0.15004304
000330 50 be 3d be 74 2a 35 3d d2 dc 54 3d ce 17 f9 bd
       -0.1852963 0.04422994 0.051968403 -0.121627435
000340 2c 82 21 be b6 9d 1e bd 7d 97 dd 3d d6 fd 16 3e
       -0.15772313 -0.038724624 0.1081991 0.14745268
000350 ed 9f 66 3b 8c 82 29 bd 85 94 8b 3d 7a d3 15 3e
       0.0035190538 -0.041384265 0.06815437 0.14631453
000360 ba cd 71 bd 6a 6d 69 bd a8 89 17 be 42 db 1a 3c
       -0.059034087 -0.05698911 -0.14798605 0.009451689
000370 5d 7c 90 bd 02 89 15 3e 64 16 0a 3d 80 48 bb bb
       -0.070549704 0.14603046 0.03371276 -0.00571543
000380 3f 50 02 be 99 73 44 bd 0b 04 b6 bc a4 4f 73 bd
       -0.12725924 -0.047961805 -0.022218725 -0.059402123
000390 83 27 d2 3d 49 24 fd bc b3 e6 ee bd c2 dc e2 3a
       0.102614425 -0.030901091 -0.11665096 0.0017308223
0003a0 a9 52 3e 3e 04 30 aa bc b9 a7 44 bd ed 9c e6 3d
       0.1858622 -0.020774849 -0.048011515 0.112604
0003b0 fb 44 90 bd 56 20 00 be 56 d9 83 bc 3f 38 22 be
       -0.07044407 -0.12512335 -0.016094845 -0.15841769
0003c0 4c 15 87 bd 3b 2c bb ba ff 3a 1b 3e b6 ff d3 3d
       -0.06595859 -0.001428015 0.15159224 0.10351507
0003d0 ea 98 10 3e 8a 38 c0 3c 50 7b 76 3c 23 8a 82 bc
       0.14120832 0.02346446 0.015044048 -0.01593501
0003e0 35 b4 4d be 9e 24 04 be 50 9a 1a 3e 5e 60 0e 3e
       -0.20088275 -0.12904593 0.15097928 0.13903949
0003f0 7f 33 d6 3c 88 36 c0 bd 2e 7e f7 bc a1 d9 29 be
       0.026147602 -0.09385401 -0.030211534 -0.16586925

encoder.encoder.weight_hh_l0 f4 [128, 32]
000000 08 40 f1 bc cd 45 e3 3d 80 24 22 bd c8 13 06 bd
       -0.029449478 0.11097298 -0.03958559 -0.03273371
000010 be 81 c1 bd 88 a5 cc bd e2 9f 5f 3a 2f 07 b8 3d
       -0.094485745 -0.0999251 0.00085305993 0.08985745
000020 18 bf ef bc 92 80 c2 bd 59 bf 0f 3e dc 4b 15 bc
       -0.029265925 -0.09497179 0.14037837 -0.009112325
000030 db 60 eb 3d 3c ae 85 3d 7f 91 3e 3e 35 cb 46 be
       0.11493083 0.06527373 0.1861019 -0.19413455
000040 dc 39 5d bd 5b ef 4e 3d 5c 86 dd 3c ac c6 36 bb
       -0.054010257 0.050521236 0.027041607 -0.0027889414
000050 4f 87 c4 bd a3 04 ea 3b ad 8e 17 be 62 b6 95 bd
       -0.095961206 0.007141666 -0.1480052 -0.073101774
000060 c6 86 c4 3d b0 f7 97 3c 7c 00 a5 3b 59 be 02 3e
       0.095960185 0.018550724 0.005035458 0.12767924
000070 09 80 20 3e 8f f7 c4 bd a9 4a 08 be aa ba 0d 3d
       0.15673842 -0.096175306 -0.1330973 0.034601845
000080 64 33 5a bc 59 d7 6a 3d 5f d9 d2 bd be 98 6e 3d
       -0.013317917 0.057334278 -0.102953665 0.058251135
000090 ba 1f 80 bd 3f 25 e4 3d de 61 41 bd 94 71 30 bd
       -0.06256051 0.11139917 -0.047212474 -0.043077067
0000a0 e1 8c 7d bd 52 c1 52 bd fd c7 ba bd b2 14 38 3e
       -0.06190193 -0.051453896 -0.09120176 0.17976645
0000b0 b7 f2 a0 bd 61 83 2b 3e 92 98 57 bd aa ce 35 be
       -0.07858794 0.16749336 -0.052635737 -0.17754617
0000c0 85 ce f3 bc 87 bd e1 bc e9 8c a0 3c 5a bb 9f 3d
       -0.029761562 -0.027556194 0.019598441 0.07799406
0000d0 a8 e6 8c 3d 4e 60 0b bd 2d c3 ba bd 13 22 58 3d
       0.06879932 -0.03402739 -0.09119258 0.05276687
0000e0 5a a8 c9 3d 5d 4c 9b bd 3d e4 23 be 91 84 25 3d
       0.09846564 -0.075829245 -0.16005035 0.04040963
0000f0 21 29 88 bd a9 06 8b 3d 76 93 6e bd 9e 06 37 be
       -0.0664847 0.0678838 -0.0582461 -0.17873618
000100 72 88 88 bd 0d bb 4c be e8 4d 6c bc d1 89 f9 3d
       -0.0666665 -0.19993229 -0.014422871 0.121844895
000110 86 9c 2e be 3d d2 10 3e f9 70 e5 bd 86 23 42 bd
       -0.17051896 0.141427 -0.112031884 -0.04739716
000120 e8 64 83 39 57 67 c7 bc 9d 3d 56 bd e3 1c d6 bd
       0.00025061448 -0.024341268 -0.052304853 -0.104547285
000130 7f d9 b3 3d 2e 23 c6 3d 37 ef 3f 3e 53 92 bc 3d
       0.087817185 0.09674679 0.18743597 0.09207597
000140 34 02 04 3e 7e 04 79 bd 01 41 c1 bd 25 d1 9e 3c
       0.12891465 -0.0607953 -0.09436227 0.019386837
000150 a6 c0 09 3d a2 32 20 be e1 13 e2 bd 36 23 35 be
       0.03363099 -0.15644315 -0.11038948 -0.17689213
000160 a0 14 1c 3e 61 2a 0c be 35 84 e4 bd 25 be b0 bd
       0.15242243 -0.13688041 -0.11158029 -0.08630017
000170 32 00 c0 3d 01 8d 87 3d fe a6 46 3e 42 2b 33 3d
       0.09375037 0.06618691 0.1939964 0.043742426
000180 df 4a 2e be 72 56 07 3e 4e 5c 17 3d dc ec 18 be
       -0.17020749 0.1321657 0.036953263 -0.14934105
000190 48 06 00 bc c5 92 41 3d 56 b7 8d 3d cc 1e 18 be
       -0.007813998 0.04725911 0.06919734 -0.14855498
0001a0 17 ec 2c 3d 69 eb 4f bc f4 83 6a bd 3f c1 72 bc
       0.04221734 -0.0126904035 -0.057254747 -0.014816581
0001b0 9a 76 91 3d ca 0c 94 3d 62 13 08 bd 5e 6a 07 be
       0.071026996 0.07229002 -0.03322161 -0.1322417
0001c0 8f b6 05 bd e1 bb 5d be 34 65 1e 3e 7e 4b cf 3d
       -0.032644805 -0.21653701 0.15468293 0.10121821
0001d0 b8 8a 1b be 3e ca 0d bd 90 f3 bb bd 13 63 a1 bd
       -0.15189636 -0.0346167 -0.09177315 -0.07880225
0001e0 71 fe b9 bd b1 0b fd 3d bf 7c 00 be 4c f3 eb bc
       -0.09081734 0.123557456 -0.12547587 -0.028802536
0001f0 50 63 da bd 6c 48 eb bd 62 0f 1c 3e 70 64 72 be
       -0.106634736 -0.11488423 0.15240243 -0.23671126
000200 15 d8 08 3e 7e ee ec 3d fd 19 97 3d 20 5b 85 bd
       0.13363679 0.11568926 0.07378004 -0.06511521
000210 4d 81 0d 3e 08 ef 20 bd 4e 0c 01 bd 18 3f 53 bd
       0.13818856 -0.039290458 -0.031505875 -0.051573843
000220 f7 ab bd 3c f1 03 46 3e 43 02 b5 3c 44 9f 9e 3d
       0.023153288 0.19337441 0.022095805 0.07745221
000230 cf 2f a2 3d fe cc 14 bc 47 0f b8 bd 55 d6 c8 bd
       0.07919275 -0.009082077 -0.08987289 -0.098065056
000240 f7 4d f6 bc 91 69 7f bd b4 ed 3a 3e e3 82 ea bd
       -0.030066473 -0.062356535 0.18254739 -0.11450746
000250 55 c9 27 be 21 2b 9d 3d 66 4c d5 3d 3e 35 59 3d
       -0.16385396 0.07674242 0.104149625 0.05302929
000260 a1 ba af bd 48 a3 b3 bd 5b 32 92 3d 71 01 18 be
       -0.085805185 -0.08771378 0.07138511 -0.148443
000270 65 78 d6 bd c0 18 a0 bd b3 52 49 3b 6d 01 ff 3d
       -0.10472182 -0.07817221 0.0030719459 0.12451444
000280 93 fb a1 3d 7f 1c f2 3d 73 ae 0f be b5 e0 0e 3e
       0.07909312 0.118218414 -0.14031391 0.13952906
000290 d4 7d e1 bd 41 b4 3c 3b 54 23 1e 3e 6d 4a 01 3d
       -0.11010328 0.0028793963 0.15443164 0.03156512
0002a0 68 41 c1 3d a9 31 16 3e c2 11 f5 bd b0 3b 1f 3e
       0.094363034 0.14667381 -0.11966278 0.15550113
0002b0 9e dd c2 bd dc ce fe 3d 29 df 04 3c 11 41 0b 3e
       -0.095149264 0.12441799 0.008109846 0.1359904
0002c0 18 54 05 3e 2a df be bd 67 0c 07 3e bc 0c 2b 3e
       0.1302036 -0.09319909 0.13188325 0.16704077
0002d0 d5 36 41 bd 80 21 45 3d 20 d2 b1 bd 1e 60 b4 3d
       -0.047171433 0.04812765 -0.08682656 0.088073954
0002e0 89 69 c3 3d b8 41 2e be b2 60 fc bd e9 8b cd bc
       0.095416136 -0.17017257 -0.12323131 -0.025091128
0002f0 14 72 16 be 63 a9 85 3d ee 1a ad 3d 44 cb 91 bd
       -0.14691955 0.065264486 0.08452402 -0.07118848
000300 03 72 99 bc e2 1c 90 bd 02 7b cb 3d d5 de a6 bd
       -0.018731123 -0.07036759 0.09935571 -0.081479706
000310 d8 2b 84 3c 03 1a b8 3d 3d aa 5e bd 69 35 23 3e
       0.016134188 0.08989336 -0.05436157 0.15938343
000320 af 2e 28 be cc e6 08 3e 14 bc 16 3e 43 3a fa 3d
       -0.16424058 0.13369292 0.14720184 0.12218144
000330 54 14 8c 3d 35 10 31 3e 14 0a fd 3d 06 51 23 bc
       0.06839815 0.17291339 0.12355438 -0.009968048
000340 0d 15 98 bd a8 f4 bc 3d a3 4b d6 3d 7f 0c 01 be
       -0.0742589 0.09226352 0.10463645 -0.12602423
000350 68 eb 17 be 25 b2 6c 3c 71 29 11 bd 93 8f 09 bb
       -0.14835894 0.01444677 -0.035439912 -0.0020990118
000360 dd b5 37 3d 41 dd 15 bb 15 18 db 3d 8c c9 4f 3d
       0.044851173 -0.0022867473 0.10697953 0.05072932
000370 cd b7 1e be 5a de 38 3d b3 c5 7e bd 87 c4 16 3d
       -0.15499802 0.045133926 -0.06220026 0.036808517
000380 58 6d 30 3e 8c 90 92 bb 05 14 15 be 08 0e 87 bd
       0.17229211 -0.0044727977 -0.14558418 -0.06594473
000390 cc 4d 47 3e df a3 13 bd 8d 40 83 3c 0b 2c 4a 3d
       0.19463271 -0.03604495 0.016021991 0.04935841
0003a0 1e 2d 02 3e 1e a4 09 be b0 d4 91 bd b0 70 49 3e
       0.12712523 -0.13441512 -0.07120645 0.19671893
0003b0 e8 d9 cf 3d 55 2f b1 3d 51 3b 26 3e 15 e2 0b be
       0.10148984 0.08651606 0.16233565 -0.13660462
0003c0 29 da 1c 3e 3b ba 85 bd 95 60 6d 3d 5e ad 21 bd
       0.15317596 -0.06529661 0.057953436 -0.039471976
0003d0 b2 e1 1a 3e dc de 7d bd a4 f8 3d 3e 0a 21 f1 3d
       0.15125158 -0.061980113 0.1855188 0.1177388
0003e0 a3 ac 8a bd 8a 94 3b be 78 b6 08 be c1 e2 1e 3e
       -0.06771209 -0.18318382 -0.13350856 0.15516187
0003f0 bd 29 b4 bd 3e 9d f1 3d 15 52 35 be 7c c0 f9 bd
       -0.087970234 0.1179757 -0.17707093 -0.121949166

encoder.encoder.bias_ih_l0 f4 [128]
000000 4c 49 2f 3e 85 df 12 be 61 ac 74 bd bf b0 45 bd
       0.17117804 -0.14343078 -0.059734706 -0.04826426
000010 1b 15 a1 bd 44 da 0c be 8b 6d d0 3c f3 7d 12 be
       -0.07865354 -0.13755137 0.02544286 -0.14305858
000020 1a 99 6b 3c b9 bd f0 bd 80 9e f0 3d 9f c6 14 be
       0.014379764 -0.11754937 0.117489815 -0.14528893
000030 81 2a 80 3c c1 23 1d be 79 5a d0 bd 7f ca 69 3d
       0.015645267 -0.1534567 -0.10173506 0.05707788
000040 8e 1d d6 3c 3e 05 93 3d 79 98 84 bd 2c c8 3f bd
       0.02613714 0.07178734 -0.06474394 -0.04682176
000050 4e 9b ca 3d 5d bf a0 bd db 75 db bd 57 de 15 3e
       0.09892903 -0.07849 -0.107158385 0.14635597
000060 73 1a 5e bd 85 43 be 3c a6 60 80 3d 3a 1c 02 be
       -0.054224443 0.023225555 0.06268434 -0.1270608
000070 60 db 3e 3e d2 2d d9 3d cc 27 00 3e 66 24 0c 3d
       0.18638372 0.10604443 0.12515181 0.0342144
000080 45 6b 58 3d 13 b9 43 3d 8a bb ec 3d da db a4 bd
       0.052836675 0.047783922 0.11559208 -0.08049746
000090 f7 24 2c 3d 6e 4e 06 3e 13 f3 82 bd 8a f1 33 3e
       0.04202744 0.13115856 -0.06394019 0.17572609
0000a0 f9 ea 20 be 3b 6e df bd 51 04 02 3d 69 41 23 3e
       -0.15714635 -0.10909697 0.031742398 0.1594292
0000b0 75 b0 8f ba 23 58 c3 3d ad 35 28 be e8 2e 16 bd
       -0.0010962622 0.09538295 -0.16426726 -0.036665827
0000c0 d5 c6 b2 bd 23 5c bf 3d 10 61 ce bd 12 2f 06 3e
       -0.087293305 0.093437456 -0.10077107 0.13103893
0000d0 e6 9b bf bd 51 b0 bc bd 47 53 cc bd fb ea 8f 3d
       -0.09355907 -0.09213317 -0.099768214 0.07027241
0000e0 c8 14 3c bd 2a 0d b8 bb 1c 21 37 3e 49 b4 97 bd
       -0.045918256 -0.0056168037 0.17883724 -0.074074335
0000f0 ef b5 04 be 9f df b3 3d 1d 20 93 bd c8 d2 2a bc
       -0.12960027 0.08782887 -0.071838595 -0.010426231
000100 82 1f 54 3d 35 e6 26 bd db 81 47 bd 12 97 05 bd
       0.05178786 -0.040746886 -0.048707824 -0.032614775
000110 41 2e b6 bc 66 e1 02 be e0 63 f1 bd 8d 73 57 be
       -0.022238852 -0.12781295 -0.11786628 -0.21040173
000120 ee 85 a8 bd e5 1a 3f 3b d2 63 06 3e 87 7b 19 3e
       -0.0822867 0.0029160317 0.13124016 0.14988528
000130 8d 97 2b 3e 75 c8 a7 bc b2 8f 03 3e 4e 75 6f bd
       0.16757031 -0.020481328 0.12847784 -0.05846148
000140 33 d5 f3 3d e0 2f 29 be 59 46 21 bd f8 81 2f 3d
       0.11905899 -0.16522169 -0.03937373 0.042848557
000150 01 fe ab bc 4b df 0e 3e 8e 8e e2 bc 07 bc 3d 3e
       -0.020995142 0.13952367 -0.027655866 0.18528758
000160 e6 40 18 bd 83 d4 2d 3e b2 a2 ef 3d 41 f3 c3 bd
       -0.037171267 0.16975598 0.117009535 -0.095678814
000170 b9 95 27 3d 1e 8b d9 3d 96 35 0c be 5b f6 28 be
       0.04091427 0.106222376 -0.13692316 -0.16500227
000180 fd 36 a3 3c 7c 77 c0 3d 5c fc da bc f6 db fa 3d
       0.019923681 0.0939779 -0.026731662 0.122489855
000190 06 ad 25 be 80 b0 ae 3d bf 0f 10 bd 97 05 02 3e
       -0.16179284 0.085297585 -0.035171267 0.12697445
0001a0 cf 68 18 be 44 d1 3f 3e 6e 2d d8 bd 3c 65 f0 bb
       -0.14883731 0.18732172 -0.1055554 -0.007336287
0001b0 45 3d 5e bd 7a 9e 81 bd 02 1d d2 3d b1 91 f7 3d
       -0.05425765 -0.06329055 0.10259439 0.12088335
0001c0 ba 51 52 3e b0 68 09 3e 61 4d 1f 3e bc 95 4c 3c
       0.20538989 0.13418841 0.15556861 0.012486871
0001d0 0e 9a a6 3d e8 59 a7 3c e6 17 af 3d a9 0f e2 bd
       0.08134852 0.020428613 0.0854948 -0.11038143
0001e0 a6 d8 1e 3e 64 ea 9f 3d 79 57 de bc 6f 98 0c 3e
       0.15512332 0.07808378 -0.02714132 0.13730024
0001f0 3c 21 30 3d 72 55 0a be 07 a0 bd 3d 2a 7a 27 3e
       0.043000445 -0.13509157 0.092590384 0.16355196

encoder.encoder.bias_hh_l0 f4 [128]
000000 cb e4 a1 bd ba 0e 35 3c ed b5 83 bd b9 23 eb bd
       -0.07904967 0.011050874 -0.06431184 -0.11481423
000010 dc 77 d4 bd 7e 68 5a 3d 1b 12 c8 bd 3e 4c 03 3e
       -0.10374424 0.053322308 -0.09769078 0.12822053
000020 a0 13 48 3d ad 19 15 3e 5b ad eb bc f3 3d 13 3c
       0.04884684 0.14560576 -0.028769186 0.008986938
000030 f9 42 76 3d 6b 09 a4 3c fb 0b 1f 3e fa 3f d6 3c
       0.060122464 0.020024022 0.15531914 0.026153553
000040 b2 57 77 3d fc 90 a7 bd 01 af ac 3c 25 7b 1c bd
       0.060386367 -0.081819504 0.021079542 -0.038203377
000050 d6 6d fb bd 6e d0 91 bd ec cc c9 bc ba ca eb bd
       -0.12276809 -0.07119833 -0.024633847 -0.115132764
000060 7d ed 24 be d0 5d bd bd 7c 6e ba bd b6 77 33 3e
       -0.1610622 -0.09246409 -0.091031045 0.17526135
000070 28 2b d3 3d 69 c4 fd 3d 76 ac 8e 3a 0b 29 50 3e
       0.10310966 0.12390978 0.0010885138 0.20328157
000080 d4 8a 12 3d 90 a1 cb bd ac 3f 85 3b e3 7c 1a 3e
       0.035776928 -0.09942925 0.004066428 0.15086703
000090 68 41 f2 3d b3 a1 74 bd 7b 22 bf bd e1 33 a0 bd
       0.118288815 -0.05972452 -0.093327485 -0.07822395
0000a0 2c d0 a7 3d a4 cd 9d 3d 0f 25 05 be f4 7b d7 bd
       0.081940025 0.077052385 -0.13002418 -0.10521689
0000b0 e2 41 cf 3d 79 ac 23 3e 4a d4 15 3d 2b e5 1b be
       0.10119988 0.15983762 0.036579408 -0.1522414
0000c0 bf 57 a2 3d d2 85 05 be d9 2f 1a be 88 1d 2f be
       0.079268925 -0.1303933 -0.15057315 -0.17101109
0000d0 9e bd d7 3d 02 b6 ea 3c 99 a1 02 be 1f a0 d1 bd
       0.105342135 0.028651241 -0.12756957 -0.10235619
0000e0 24 94 8c bd 59 5c 27 be a6 3d 4b 3e 07 9f cf bc
       -0.06864193 -0.16343822 0.19847736 -0.025344385
0000f0 f0 5e 1a be 93 5e 29 be 27 e6 09 bd 21 26 a6 bd
       -0.15075278 -0.16539983 -0.033666756 -0.08112741
000100 f2 1b 23 bd 05 9c 5b bd 88 23 cc bd 89 fa 2f be
       -0.039821573 -0.05361559 -0.099677145 -0.17185415
000110 8a 10 90 bb 61 c9 a7 3d 1a 9d 80 3d f9 e0 c0 3d
       -0.004396503 0.08192707 0.06279965 0.0941791
000120 56 89 2d 3e 39 f8 04 3e 28 75 0e be 93 2c ad bc
       0.16946921 0.12985314 -0.13911879 -0.021139419
000130 0e 9f 2b 3e 69 3d 9d bc df b4 46 3d cc 4e 38 3d
       0.16759893 -0.019194322 0.048512336 0.04499702
000140 7f e1 d4 bd 15 57 a5 3d c4 fd d3 3d 6d 81 87 3c
       -0.103945725 0.0807325 0.10351136 0.016541207
000150 b8 91 a6 bd 45 ee 87 3a 32 17 55 bd e0 8c 1c be
       -0.081332624 0.0010370692 -0.052024074 -0.15288115
000160 bb 29 47 3d e5 ce 16 be 16 ec 11 3e df b3 8c 3d
       0.04862378 -0.14727362 0.14250216 0.06870245
000170 3c 37 19 3d cd b2 21 3e 50 12 23 3c 98 a6 60 bd
       0.03740619 0.15790863 0.0099530965 -0.054846376
000180 7d 69 37 bb 33 3b 07 3e d1 38 6e 3d ab 33 08 3d
       -0.002798646 0.13206176 0.058159653 0.0332524
000190 12 cc 0e 3d 9c 60 6d 3c c6 5c e0 bd 9d 3f 58 3e
       0.034862585 0.0144883655 -0.10955195 0.21118017
0001a0 2b c7 1c 3e 30 3f 3d 3e 49 78 d1 bd ed b7 14 3e
       0.15310352 0.18481135 -0.10228021 0.14523287
0001b0 63 65 ec bd 37 6f 20 3e e8 3c 0c be 4e f0 99 bd
       -0.115427755 0.15667425 -0.13695109 -0.075165376
0001c0 c6 77 44 3e 9c ac a1 3c 04 82 18 3e f7 59 3b 3e
       0.19186315 0.019735627 0.14893347 0.18296038
0001d0 6b b7 a5 bd 56 03 a3 3d 1f d3 5c ba ae 28 b9 3d
       -0.08091625 0.07959621 -0.00084237935 0.09040962
0001e0 25 76 1e 3d 50 63 b9 3c 66 f9 f5 bc 00 32 a3 bb
       0.03868689 0.022630364 -0.030026149 -0.0049803257
0001f0 0a e2 80 3d d2 fc b7 bd 80 18 82 3d f5 54 3a 3d
       0.062931135 -0.089837685 0.06352329 0.045491178

encoder.spatial_embedding.weight f4 [16, 2]
000000 84 fa 8b bd 00 85 12 3e 2d f4 43 3e f6 e6 14 3f
       -0.068348914 0.14308548 0.19136114 0.5816492
000010 9f 5f 95 3e fb e7 ad bc 95 3b 84 3f d7 69 0e 3f
       0.29174516 -0.021228781 1.0330683 0.5563025
000020 24 97 d4 3e 61 2e 9e bd f0 f5 bb 3f 66 16 b2 3d
       0.4152156 -0.0772369 1.4684429 0.086956784
000030 be 77 8e bf f2 0e 2e be ee 92 d5 bf ce 05 97 3e
       -1.1130292 -0.16997889 -1.6685464 0.29496616
000040 ca 02 1f c0 91 c8 4a c0 37 31 73 bf bd 4e 54 bf
       -2.4845452 -3.1684916 -0.9499697 -0.82932645
000050 5a 7a 84 bf e5 86 04 3b e1 51 10 3f e1 3b 8c be
       -1.0349839 0.0020222005 0.5637494 -0.27389434
000060 81 8f d8 3d 54 35 77 bf 7b 07 8b bf 9b ff 6c be
       0.10574246 -0.9656575 -1.0861658 -0.23144381
000070 32 76 27 be 3f 75 3a bd 15 07 08 c0 39 39 46 bf
       -0.16353682 -0.04552197 -2.1254323 -0.77431065

encoder.spatial_embedding.bias f4 [16]
000000 74 c6 37 be 5d ea e1 3e bd 14 1d bf 6a c0 f8 3e
       -0.17946798 0.44124117 -0.6135977 0.485843
000010 ed c7 33 bf 75 f4 7f 3e 17 23 28 bf f5 73 c9 3e
       -0.7022694 0.24995597 -0.6567854 0.3934628
000020 3f a3 e2 3e d8 9d 7d 3e 40 d1 31 3f 9f 28 9a 3e
       0.44265172 0.24767244 0.69459915 0.30109116
000030 05 3e 16 bf f8 8a c1 be be a4 22 bf 1d 73 4c be
       -0.58688384 -0.37801337 -0.63532627 -0.19965787

decoder.decoder.weight_ih_l0 f4 [128, 16]
000000 3d a5 00 be 88 55 b5 bd a7 0e cd 3c 97 31 5b bd
       -0.12563033 -0.088542044 0.0250314 -0.05351409
000010 ed 82 a0 3d df 7e 28 bc 46 d0 16 be af d5 1c 3e
       0.07837472 -0.010284155 -0.14727888 0.15315889
000020 be af 9c 3d 3e 10 dc 3b 82 ac 26 bd f7 1d 20 3e
       0.07650708 0.0067158034 -0.04069186 0.1563643
000030 27 b6 fd 3d fb 5a a8 3d 38 9e 21 3e 9a 70 1a 3e
       0.123882584 0.08220478 0.15783012 0.15082017
000040 a5 9b 63 ba 5e 08 3c bd d5 9c 0b 3e 8e 5e b4 bc
       -0.00086825556 -0.045906417 0.13634045 -0.022017743
000050 ca e9 9e bc e6 ab e1 3d f1 ce 06 be 39 f0 08 be
       -0.019398589 0.11019115 -0.1316488 -0.13372888
000060 14 f6 59 3b 04 04 04 be 48 b8 dc bd 2d 35 d5 3d
       0.0033258246 -0.12892157 -0.10777336 0.10410533
000070 49 74 d4 bd 88 42 9b bd 2e 12 e7 3c ad f3 25 be
       -0.10373742 -0.07581049 0.028206911 -0.16206236
000080 ae 42 23 be cf 91 fa 3d 99 62 05 be d8 94 3a be
       -0.15943405 0.12234842 -0.13025893 -0.18220842
000090 1d 7a 0c bd 6e 27 4b 3c c3 4e 00 3d 97 b3 bb bd
       -0.034296144 0.0123995375 0.031325113 -0.091651134
0000a0 18 3e 3c 3e d5 23 c7 3d 02 7a b6 3b d2 1a 74 bd
       0.18383062 0.09723631 0.0055687437 -0.05959589
0000b0 d8 72 cb bd a3 af e9 bd 1b 31 5c bd 10 76 41 3c
       -0.09934014 -0.11410453 -0.053757768 0.011807933
0000c0 5a 46 c1 bd 70 c4 b4 bd ec 78 20 3c b2 4f 98 3c
       -0.094372466 -0.0882653 0.009794455 0.01859269
0000d0 1c 22 14 be b9 3d 75 3d 64 47 45 bd 9d f2 c1 3d
       -0.14466137 0.059873316 -0.048163787 0.09470103
0000e0 4d c2 24 bc c4 4f cf bd 6b 9a 92 3d 8c a6 db bd
       -0.010056091 -0.10122636 0.07158359 -0.10725126
0000f0 29 2a f9 3d 35 ca ab 3d 6c fc 80 3d b8 99 96 bd
       0.121662445 0.08388177 0.06298146 -0.07353538
000100 e3 46 6d bd 22 c2 f6 bd 00 c8 b4 3d b2 11 d1 3d
       -0.05792893 -0.12048747 0.088272095 0.10208453
000110 ea 34 75 3d a8 7e 0a be 58 16 d1 3d d1 bc e1 3d
       0.059864916 -0.13524878 0.1020934 0.11022342
000120 12 99 74 3c eb f5 fe 3c 0d 09 3c bc cd 0e 38 be
       0.014929073 0.031123122 -0.011476767 -0.17974396
000130 9f 11 14 3e eb 2a 47 3d 1f e2 f4 bd 2b f4 11 be
       0.14459847 0.048624914 -0.11957192 -0.14253299
000140 07 d3 2a be 6e 68 fb bd 14 16 b9 3d d6 74 1b 3e
       -0.16682063 -0.12275778 0.09037414 0.15181288
000150 9d 7d 47 3d d0 d9 85 3d 87 52 91 b9 e7 39 03 be
       0.04870378 0.06535685 -0.00027718043 -0.12815057
000160 5a 72 82 3c 3b 55 b2 bd 8e d6 cb bd 48 02 7c bd
       0.015923668 -0.08707663 -0.099530324 -0.061525613
000170 42 48 d0 bc 6b 62 73 bd 8d 0b 09 3e 41 88 15 3e
       -0.02542508 -0.05942003 0.13383313 0.14602758
000180 05 be ba 3d 6f fe b7 bb 52 ff 81 bd f7 9d dc bd
       0.091182746 -0.0056150476 -0.063475266 -0.10772317
000190 85 0c d8 bd 64 21 6f bc fe c7 1d be d4 00 75 3d
       -0.10549263 -0.014595363 -0.15408322 0.059815243
0001a0 b1 32 29 3d b7 c0 d2 bc dc 09 74 bd 28 cd f9 bc
       0.04130811 -0.02572666 -0.059579715 -0.030493334
0001b0 c6 ab 4b bc f7 2e b3 3d 15 7b 8e bd f7 b9 3f 3e
       -0.012431091 0.08749192 -0.0695707 0.18723284
0001c0 2f 87 d8 3d b2 ec 00 be ff d1 fb 3d c6 64 4c be
       0.10572659 -0.12590292 0.12295913 -0.19960317
0001d0 ee bc 31 3e d3 50 b0 bd 0b e9 f0 3d 33 5c e3 3d
       0.17357227 -0.08609166 0.117631994 0.1110157
0001e0 0b f5 04 3e 39 bc e6 3c fe 52 ff bb e4 43 09 3e
       0.12984101 0.028165923 -0.007791876 0.13404804
0001f0 90 59 1a be fb 3f 31 bd 8e 70 5e bd 78 75 49 bc
       -0.15073228 -0.043273907 -0.05430656 -0.012296073
000200 4f 39 2a be a5 1c d8 3d 31 43 0c 3e 7b fb 18 be
       -0.16623424 0.105523385 0.13697506 -0.14939682
000210 59 56 ab 3d af f3 e8 3d d1 39 cc 3d a8 b5 36 3c
       0.08366079 0.11374604 0.09971965 0.011151709
000220 39 08 74 bc ee 01 1b 3e a7 43 04 bd 36 dc 2d be
       -0.014894539 0.15137455 -0.03229108 -0.16978535
000230 46 fe ab 3a 33 93 9b bd 4d 30 11 3d e9 8b da 3d
       0.0013122044 -0.075964354 0.035446454 0.10671217
000240 f1 d5 09 be 23 05 97 3d e5 6f 81 3b bc ee 71 3d
       -0.13460518 0.073740266 0.0039501064 0.059065565
000250 0c ec 0d 3c 9b 01 2e be a3 80 f8 bd 44 cf 3c be
       0.008662235 -0.169928 -0.121339105 -0.1843844
000260 0c 9d ee bd 0c 1c 00 be 7a 6c f0 3d 93 15 3f bd
       -0.11651048 -0.12510699 0.1173944 -0.046651434
000270 08 d0 b9 3d af 41 d9 3d 48 d1 84 bd c4 09 10 3e
       0.09072882 0.10608231 -0.0648523 0.14066225
000280 c4 b7 c3 bd 08 45 3b 3e 62 d5 13 3e 4e 54 ae 3c
       -0.09556535 0.18288052 0.14436868 0.021280434
000290 b9 12 e1 bd b9 a2 9f 3d a6 0d d1 3c 22 53 9e bd
       -0.10989899 0.07794709 0.025519203 -0.077307
0002a0 dd f6 b9 3c 69 15 9e bd 93 07 12 3d 39 74 05 be
       0.022700721 -0.077189274 0.035651755 -0.13032617
0002b0 c0 55 08 bc 61 60 84 3d d8 10 b2 3a 27 37 f1 3b
       -0.008321226 0.06463695 0.0013585342 0.007361311
0002c0 76 fe 11 bc fe 59 2e 3d 2a 18 dd bd 1b 34 b7 bd
       -0.008910766 0.042566292 -0.107956246 -0.08945485
0002d0 82 b6 ed bc f1 75 85 3d 91 29 ab 3d 4f 94 98 bd
       -0.02901769 0.06516636 0.083575375 -0.074501626
0002e0 46 db e5 bd 84 c4 7d bc 33 1b 91 bd 05 42 8a 3c
       -0.11223464 -0.0154887475 -0.07085266 0.016877184
0002f0 b3 f2 d7 3c c2 2e 09 3e 98 59 1c 3d 98 af 3a be
       0.026360845 0.13396743 0.03817138 -0.18231046
000300 bc 9f 58 3d 47 99 31 3e c6 f9 63 3d 11 eb a4 bd
       0.05288671 0.17343627 0.055658124 -0.08052648
000310 71 9b b2 3d e6 29 dc bd fa c2 4a be 89 f2 b4 3d
       0.08721054 -0.10750179 -0.1980094 0.088353224
000320 f8 49 60 bc 7e 07 17 3d 85 95 24 be ee e9 e4 3d
       -0.0136895105 0.03687238 -0.16072662 0.11177431
000330 3d 11 36 bd 48 3b 02 3e d3 ea f8 3c e1 20 8e bb
       -0.044450033 0.12717927 0.03038541 -0.0043374156
000340 99 72 dc bc 70 1e 15 3c 6e 7e c8 bc 42 74 cf 3d
       -0.026910113 0.009101495 -0.024474349 0.10129596
000350 60 4a 92 bd 99 38 f9 3c af 50 ae bc 56 e3 f7 3c
       -0.07143092 0.030422496 -0.021278707 0.03025977
000360 13 9d 03 3e 5c a3 a7 bc 29 53 39 be 61 58 20 be
       0.12852888 -0.020463638 -0.1809813 -0.15658714
000370 5e c5 47 be e0 78 d5 ba c3 34 c7 bc c6 e0 b4 3d
       -0.19508883 -0.0016286634 -0.024317151 0.08831935
000380 4a 23 93 bc a2 10 f2 3d c7 26 03 3e 3d 35 85 3d
       -0.017961163 0.11819579 0.12807761 0.06504295
000390 fe f6 d7 ba 46 35 92 bc 77 ce 2c bd c9 0e ea bd
       -0.0016476808 -0.017847668 -0.042189088 -0.11428601
0003a0 c4 f2 76 3d 43 66 89 bd 4b 1a a0 3c 21 d1 c4 bd
       0.060290113 -0.06708958 0.019543787 -0.09610201
0003b0 5d 18 a7 3d 05 95 a5 bd 06 82 52 3d 8e 6a e9 3d
       0.08158944 -0.08085064 0.05139353 0.11397277
0003c0 87 90 20 3e 95 48 ae 3d 3a 61 09 3e ec 5f 3f 3c
       0.15680133 0.08509938 0.13415995 0.011680584
0003d0 d2 ad b4 3d 31 88 e5 bd d0 69 1d 3e 1f 10 0d bd
       0.08822216 -0.11207617 0.15372396 -0.034439202
0003e0 28 cb f4 3d da 8e f4 3d 2f 76 c8 3d e5 f4 94 bd
       0.119528115 0.11941309 0.09788167 -0.072732724
0003f0 eb 70 24 3e b7 04 9d 3d 29 3d 06 3e d4 27 ce bd
       0.160587 0.07666915 0.13109268 -0.1006619

decoder.decoder.weight_hh_l0 f4 [128, 32]
000000 f4 7b 12 be a2 88 28 bd a7 20 1b be b8 c1 e1 bd
       -0.14305097 -0.04114593 -0.15149175 -0.11023277
000010 ba 9b 2b be fe 4f 38 bd ca 4e 05 be b5 18 48 3d
       -0.16758624 -0.04499816 -0.13018337 0.048851687
000020 13 44 f3 3d 1e 9f 05 3e 87 56 22 be f0 e2 2a 3e
       0.118782185 0.1304898 -0.1585332 0.16688132
000030 09 29 9b bc 5d 99 f1 3b 32 91 b4 3d 9d 23 e5 3d
       -0.018940466 0.0073730187 0.08816756 0.11188433
000040 3a dd 09 3e 46 a7 0a 3d b1 9a c9 bd 9e e9 e9 3c
       0.13463297 0.03385093 -0.09843958 0.02855378
000050 b6 c3 31 39 c4 1a 51 3d 40 7e c9 bd e3 c5 aa bd
       0.00016952943 0.051050916 -0.098385334 -0.08338525
000060 29 7c 64 3d 77 ca 07 be 80 b0 90 bd 91 78 14 3e
       0.05578247 -0.13260828 -0.07064915 0.14499117
000070 4c 09 14 bd 9b a6 ea 3c 73 d2 0a bc 60 0c 16 be
       -0.03614168 0.028643897 -0.008473027 -0.14653158
000080 de 17 2b 3d 08 09 a5 bd 73 96 09 3c 1a b8 6d bd
       0.04177081 -0.08058363 0.008397686 -0.0580369
000090 c9 dd be 3d 11 31 e4 3d 40 90 94 bd cd 66 45 be
       0.09319646 0.11142171 -0.07254076 -0.19277497
0000a0 6e a5 92 3d 22 37 92 3d 4e 2f d5 bd 4e 73 0c be
       0.071604595 0.07139422 -0.10409413 -0.1371586
0000b0 f7 42 46 3e 11 63 f4 3d 2f 64 0a be b7 78 4b 3e
       0.19361483 0.11932958 -0.1351478 0.19870268
0000c0 da 64 13 be 63 39 9b bd 2a 69 c2 3c d5 71 99 3a
       -0.1439394 -0.07579305 0.023731787 0.0011706898
0000d0 a8 84 d2 3d 90 a7 f2 3c 50 f5 2b 3d ae f5 ef bc
       0.102792084 0.029620916 0.041981995 -0.029291954
0000e0 95 b5 79 bd 34 a7 15 3d 26 73 11 bd bf ac 4a bc
       -0.060964186 0.03653641 -0.035510205 -0.012370287
0000f0 82 a7 99 3c 52 8d 25 3e 62 d3 5f ba 37 bb f6 bd
       0.018756632 0.1616719 -0.00085382734 -0.12047427
000100 bb 2d 6e bd 7d 46 4f 3d 3d 38 77 3d c1 ba 20 bd
       -0.05814908 0.050604332 0.060356367 -0.039240602
000110 c8 35 ff 3d 62 8d 6d 3e 5b 59 64 3d 92 1d 30 bd
       0.1246143 0.23198465 0.05574928 -0.04299695
000120 9b 43 98 bd 3e 26 c8 bd 23 b7 13 be e9 97 4c 3e
       -0.0743477 -0.09772919 -0.1442533 0.19979824
000130 e4 e1 52 bd a5 a1 5e 3e 5b 37 d5 bc 5a ea 8c bd
       -0.051484957 0.2174135 -0.026027372 -0.068806365
000140 44 d2 02 be e2 28 22 be ae 97 81 3c d4 39 08 3e
       -0.12775522 -0.15835908 0.015819397 0.1330331
000150 26 5a 2d 3c f0 d1 df bd 9c d4 a5 3a fa 49 d3 3d
       0.010580575 -0.10928714 0.0012651864 0.10316844
000160 4f 02 3a 3e fb b0 19 3d 3d 6d b6 bd 83 d1 80 3d
       0.18164943 0.037522297 -0.08907554 0.06289961
000170 2f db f2 bc eb 41 2a be 4f d6 72 3d 25 fb b9 3d
       -0.02964553 -0.16626708 0.05928641 0.09081105
000180 ed 1d d4 bd a8 86 03 3e 2e b6 bc 3d c9 92 fb 3d
       -0.103572704 0.12844336 0.092144355 0.122838564
000190 b3 56 89 bd 30 26 a7 3c 37 a8 1f 3d 4e fe cc 3c
       -0.0670599 0.020403951 0.03897878 0.025023606
0001a0 e5 84 e3 3d 6c d4 ff bd 2e 7b 8c 3d 84 f7 12 be
       0.11109332 -0.12491688 0.06859432 -0.14352232
0001b0 82 56 93 bd 47 2f 8f bd 0e 0d e9 bd ee 8d 27 be
       -0.071942344 -0.06991439 -0.11379443 -0.16362736
0001c0 78 ba b4 3d d8 09 16 be 9d c9 bb bc c1 09 06 be
       0.088246286 -0.14652193 -0.022923285 -0.13089658
0001d0 70 f9 6c bd dd 00 15 be b1 21 15 3e 93 d6 bf 3d
       -0.05785507 -0.1455111 0.14563634 0.09367099
0001e0 d8 e9 37 be 5c bc 12 3e 6f c8 fa bd 8a 98 c8 3d
       -0.17960298 0.14329666 -0.12245261 0.097947195
0001f0 0d aa 79 3d 3a 24 18 3d 3c 81 8a 3d 0f 73 e2 bd
       0.06095319 0.037143923 0.06762931 -0.11057102
000200 ae 79 80 3c 32 e5 6f bd 3c e4 23 be 64 8c 06 be
       0.015683021 -0.058568187 -0.16005033 -0.13139492
000210 4a 4f cb 3d ff 4f 93 3d 1b e4 74 bc 42 5b c9 bd
       0.099272326 0.071929924 -0.014946963 -0.09831859
000220 bd d0 0e be 2b d4 0d 3e 51 6c f0 3d 16 e0 24 bb
       -0.13946815 0.13850467 0.1173941 -0.002515798
000230 ee 7f 22 3d df b0 08 3d f3 dd 90 bd 99 82 00 be
       0.039672785 0.033371802 -0.070735835 -0.12549819
000240 c5 ae 2a bd 0a 72 0a bd 02 d4 1a bd 3f 86 ed bd
       -0.04167058 -0.033800162 -0.037799843 -0.11597871
000250 4c 87 3f 3e da 1b 21 be dd 4b a9 bd 5d 31 c9 3d
       0.18703955 -0.15733281 -0.08266423 0.098238684
000260 c0 d4 2a 3d 10 bd df bd c9 5d 99 bd c6 a5 ad bd
       0.0417068 -0.10924733 -0.07488591 -0.084788844
000270 ed 0d 17 be 51 cb b0 bc 9b 31 a7 3c 52 90 0a 3c
       -0.14751406 -0.021581324 0.020409396 0.00845726
000280 23 74 fa bd ea fa 0e be 23 ca 2e bd b9 a1 f6 bd
       -0.122291826 -0.13962904 -0.04267324 -0.12042565
000290 1d fe 2a be 97 e4 cb 3c e8 4d 60 3e c1 6e 50 bc
       -0.16698499 0.024889274 0.21904719 -0.012721718
0002a0 54 e1 3a 3e 27 57 e5 3d 5b ac b7 3c 01 35 5c bd
       0.18250018 0.111982636 0.022421053 -0.053761486
0002b0 57 ba 19 be e9 76 f0 3c 22 c4 03 be 58 21 2e 3e
       -0.1501249 0.029353576 -0.12867787 0.17004907
0002c0 30 9a 08 3d a0 5f a5 bd 2f 9e 89 bd b3 d2 c8 bd
       0.03335017 -0.0807488 -0.06719624 -0.09805813
0002d0 5c 16 b4 bc 5c 26 c9 3c b2 e3 22 3e 4a 80 7c bd
       -0.021983318 0.024554424 0.15907171 -0.061645783
0002e0 b7 55 58 be cc 89 dd bd 87 b9 82 bd 36 9c 34 be
       -0.21126448 -0.10817298 -0.06383043 -0.17637715
0002f0 0b a5 54 bd 50 76 d5 bd 02 8d 03 be ff bc 62 ba
       -0.05191521 -0.10422957 -0.12846759 -0.00086493784
000300 a6 9b 03 3e 67 eb 9c bd 5c 29 10 be 2a 1e ce 3d
       0.12852344 -0.07662087 -0.14078277 0.10064347
000310 c6 f2 31 be d5 37 94 3d c5 59 01 be e5 44 2b be
       -0.17377767 0.072372116 -0.126319 -0.167255
000320 8a 40 6b be 32 07 02 be f3 6e 42 be cc 93 b4 bd
       -0.22973838 -0.12698057 -0.18987636 -0.088172525
000330 d7 f2 ab bc 14 cf b3 3d b3 d2 3e bd 85 6b 3b be
       -0.020989818 0.087797314 -0.046587657 -0.18302734
000340 11 f8 67 bc 18 73 53 3d 35 98 f0 3d 68 18 22 be
       -0.014158265 0.051623434 0.11747781 -0.15829623
000350 bb d6 4d be 57 d3 c9 bd 12 a7 f8 3d fe e2 24 3d
       -0.20101444 -0.09854763 0.12141241 0.04025554
000360 40 9f 1b be 58 49 f7 3d 50 53 1e be a5 89 e4 bc
       -0.15197468 0.12074536 -0.15461469 -0.027897665
000370 eb b2 0b 3e 27 99 98 bd e9 fb 3a bd 7e c2 76 3a
       0.1364247 -0.074510865 -0.045650396 0.0009413137
000380 20 b3 5e 3d eb 4b 2c be ed 40 d7 3d fb 45 5f bd
       0.054370046 -0.16825835 0.105104305 -0.054510098
000390 7d 72 2f 3e 13 cf 69 3e 67 08 fe bd e2 94 1b 3e
       0.17133518 0.22832899 -0.12403946 0.15193513
0003a0 a3 ce 06 3d 59 b6 25 be 99 71 eb bc bb 57 a0 bd
       0.032911908 -0.16182841 -0.028740691 -0.07829233
0003b0 05 83 47 3d 50 40 6f 3d d4 81 87 bd 84 d1 8a 3d
       0.048708934 0.058410943 -0.066165596 0.06778243
0003c0 00 52 89 bd 2f 3e fb bd 19 6e 37 be 65 97 f0 3c
       -0.067050934 -0.1226772 -0.17913093 0.029369066
0003d0 b4 d6 fd 3d b6 73 7c bd c2 74 87 3d 05 43 04 3e
       0.12394467 -0.061633788 0.06614067 0.12916191
0003e0 c6 da 15 3e 2a de eb bc f3 e5 3e 3e 97 b2 50 3d
       0.14634237 -0.02879246 0.18642406 0.050951567
0003f0 b4 81 49 bd e0 8d e8 3d 2a d5 eb bd 10 03 34 3c
       -0.04919596 0.113551855 -0.11515267 0.010987058

decoder.decoder.bias_ih_l0 f4 [128]
000000 3c c3 cd bc 08 7e ec ba c4 ce 5d bd fa 19 23 bd
       -0.025117509 -0.0018042931 -0.054152265 -0.039819695
000010 2c 59 20 3e 55 20 a1 bc 5f 65 2b 3d b0 e0 28 3e
       0.15659016 -0.019668737 0.041844722 0.16491961
000020 f7 93 26 3e 1f a7 bf 3d eb b9 92 bb a8 fc 2d 3e
       0.16267382 0.09358048 -0.0044777296 0.16990912
000030 16 8a 06 be 15 58 18 be b1 42 cf 3d 45 15 19 be
       -0.13138613 -0.1487735 0.10120142 -0.1494952
000040 5a 1d ef bd 4e 33 e4 bd 41 d9 53 bb 23 da 59 3d
       -0.1167552 -0.11142598 -0.0032325538 0.053186547
000050 33 5d 28 3e 9b 22 4b bc 6b f7 f5 3d 8c 07 ff bd
       0.16441803 -0.012398387 0.12010082 -0.12452611
000060 05 40 9b 3d b6 3e 2e 3e 35 67 1e bd 04 13 6d 3d
       0.0758057 0.1701611 -0.038672645 0.057879463
000070 ca 9d fd 3c 89 a4 9e bc f3 7f 13 be 23 81 46 bd
       0.030959029 -0.019365566 -0.14404278 -0.048462998
000080 07 c6 1a 3e aa 91 11 be c0 21 94 bd 8c de e1 bc
       0.15114604 -0.14215723 -0.07233 -0.027571939
000090 88 3b 91 3c 89 19 b6 bd 29 b5 16 3e 6d 78 02 3e
       0.017728582 -0.08891589 0.14717545 0.12741251
0000a0 18 d1 8e bd 59 10 cf bd d0 c5 89 bc 41 3b 07 3e
       -0.06973475 -0.1011054 -0.016817957 0.13206197
0000b0 26 16 85 3c 82 8e e3 bb 59 0f 92 3d 31 ad dc 3d
       0.016245913 -0.0069444785 0.071318336 0.10775221
0000c0 d9 5e d0 bd 82 eb c1 bd ee 01 1d 3e 9f e5 f6 bb
       -0.10174341 -0.09468748 0.15332767 -0.007534697
0000d0 0e 5c f5 3d d0 34 1d 3e bb 74 0c 3e 31 38 2b 3e
       0.11980449 0.15352178 0.13716404 0.16720654
0000e0 18 f2 4e 3e fa de 06 be 70 4d 4d 3b 91 b0 ef 3d
       0.20209539 -0.13170996 0.0031326674 0.11703599
0000f0 9d 36 b9 3c 8d e5 34 3c 9c c2 4d 3d 9d c8 f9 bc
       0.02260905 0.011041057 0.050234422 -0.030491168
000100 74 4d 49 3d 3a ed e0 bd 29 6f 30 be d6 eb b1 3d
       0.04914613 -0.109827474 -0.17229904 0.0868756
000110 e2 ec 08 be 4d be dd bd af 05 19 3d 91 2a 86 bd
       -0.13371614 -0.108273126 0.037358936 -0.06551088
000120 f8 f1 8f bc 18 9f 5b 3d e7 b2 99 bd 0a 40 23 3e
       -0.017571434 0.05361852 -0.07504826 0.15942398
000130 eb 7b 2b 3e b6 c1 28 3e 83 b6 e3 bc 38 7e f2 3c
       0.1674649 0.16480145 -0.02779699 0.029601201
000140 f6 f5 2f 3d 43 af 2c be 76 3e 99 bd db ef 04 be
       0.042959176 -0.16863732 -0.074826166 -0.12982123
000150 89 65 1b 3e cc 16 22 be b9 c2 97 bd 3f 56 96 3d
       0.15175451 -0.15829009 -0.07410187 0.07340669
000160 48 35 c2 bb e0 e1 c3 3d 07 02 9f bc f7 96 23 bd
       -0.005926762 0.095645666 -0.019410146 -0.039938893
000170 78 13 f9 bd de 0f 17 bd 14 4c d8 3c 06 65 92 3d
       -0.121619165 -0.036880367 0.026403464 0.07148175
000180 3f fd 22 3d e9 6f f5 bd 05 c2 4c bd f0 8e 05 be
       0.039792296 -0.11984236 -0.04998972 -0.13042808
000190 bd d5 04 be 9a a6 26 3d b6 f8 f4 bd 68 e9 c3 3d
       -0.1297216 0.040686227 -0.119615 0.09566003
0001a0 3f 85 ae 3d b3 55 b3 bd 8a a9 d2 bd f7 e4 91 bc
       0.085215084 -0.0875658 -0.10286243 -0.017809374
0001b0 c2 69 17 3e 25 95 6b bc 8b a5 b8 bd 6d 8e 18 3d
       0.14786437 -0.014378821 -0.0901595 0.037245203
0001c0 87 d9 da 3d 04 56 36 bd 7a a0 f7 3d ad 3d e1 3c
       0.10686021 -0.044515625 0.12091155 0.02749523
0001d0 cf 4f d8 bd 65 37 ae 3d fc 51 83 3d b8 e5 14 3d
       -0.10562097 0.085066594 0.06412122 0.03635189
0001e0 8d 39 12 3e 17 d2 00 3e d7 07 64 bd db 79 24 3e
       0.14279766 0.12580143 -0.05567154 0.16062109
0001f0 b3 38 11 be 60 b0 6e 3d 49 49 b3 3c 5a 0d f8 3c
       -0.14181785 0.058273673 0.021885531 0.030279804

decoder.decoder.bias_hh_l0 f4 [128]
000000 de a0 1a 3e da 17 e9 bd 54 55 ce bc 7c bb 79 3c
       0.15100428 -0.113815024 -0.025187172 0.015242454
000010 2a e5 f7 bc 25 db da bd a8 ee 32 3d 8b 21 f3 bc
       -0.030260641 -0.1068633 0.04368463 -0.02967908
000020 21 e8 2d 3c f9 0f c6 bd 0d f7 ba bd 2e 83 ea 3d
       0.010614426 -0.09671015 -0.091291524 0.11450802
000030 67 1e 06 3e 72 f2 de 3d 64 61 2c be 5d 9b e6 3d
       0.13097535 0.108860865 -0.16834027 0.11260102
000040 cc 55 b5 3d bd a6 a5 3d bf 06 34 3c bc 72 72 3d
       0.08854255 0.080884434 0.0109879365 0.05919145
000050 b5 6c cb 3d fd 11 e9 3d 37 e8 4c 3d 38 87 e7 bd
       0.099328436 0.11380384 0.050026145 -0.11305088
000060 7d 72 83 3d da 07 19 3e d6 c3 46 3d 40 47 1e bc
       0.06418321 0.14944401 0.048526607 -0.009660542
000070 24 94 0a be ee e5 12 be a6 fa f6 bd 2c 1f 7b 3d
       -0.13533074 -0.14345524 -0.12059526 0.061309025
000080 66 80 93 3c 93 14 dd bd fe 5b 6b 3d b6 5b d4 3d
       0.018005561 -0.1079494 0.057460777 0.10369055
000090 4d 54 06 3e 34 65 ec bd d1 84 6f bd 64 83 02 3e
       0.13118096 -0.115427405 -0.058476273 0.12745434
0000a0 71 69 1a be 64 da 91 3d 9d 2c 00 3e 29 a3 b7 3d
       -0.15079285 0.07121733 0.12517019 0.08966667
0000b0 8b b9 bf 3d c5 32 4a bd a3 f0 18 be 6c 3a 35 bd
       0.093615614 -0.049364824 -0.14935546 -0.04424517
0000c0 af d2 4f bd c5 87 0a be 3a ae 8b 3d ef 30 82 3d
       -0.050738033 -0.13528354 0.068203405 0.063569896
0000d0 8d f3 02 be 80 cc d8 bd 1b 93 02 bc 70 d4 57 bc
       -0.1278822 -0.1058588 -0.007969643 -0.013173208
0000e0 a1 01 79 bd 42 b3 4e bd 79 5e ff 3d f8 cf 4a 3d
       -0.06079257 -0.050463922 0.12469191 0.04951474
0000f0 b4 b2 37 be fc 28 df 3d cc af d6 bd 03 4d 1c be
       -0.17939264 0.10896489 -0.10482749 -0.15263753
000100 a7 8f a4 3d 0b d7 16 3e 48 21 ea bc 3c bc b7 bd
       0.08035212 0.1473047 -0.028580323 -0.0897145
000110 c9 70 1d 3e 57 d8 df bd 79 08 7d 3d 12 b1 ee 3d
       0.15375055 -0.109299354 0.06177566 0.11654867
000120 18 11 27 be 99 67 92 bd a2 2c 73 bd b9 a1 0e bd
       -0.16315114 -0.07148666 -0.059368737 -0.0348222
000130 c6 f1 d7 bc 6d 1d 05 be 37 b8 2f bd cd 33 8c bc
       -0.026360404 -0.12999506 -0.04290029 -0.017114544
000140 b3 63 0e 3d 6c f3 ac 3c 29 76 1f be e0 ca e8 bb
       0.03476305 0.021112166 -0.15572418 -0.0071042627
000150 20 4f 1c 3e eb 50 53 3d e1 b2 01 be b6 b0 65 3d
       0.15264559 0.05159084 -0.12665893 0.056076728
000160 00 b0 a5 3b c2 5a 17 be ca 0b 0f 3e b5 f8 1f 3e
       0.005056381 -0.14780715 0.13969341 0.15622218
000170 54 9c cc 3d e9 d6 ba bd 55 e4 45 bd ba 5b 25 3e
       0.09990755 -0.09123022 -0.048313458 0.16148272
000180 2d eb a6 bc 33 eb 0f be 7f 7f 41 3e 61 b9 bf bd
       -0.020375812 -0.14054565 0.18896292 -0.0936153
000190 4e 22 76 bd ca 9a 01 be 3b b2 b9 bd d4 6b 6d bd
       -0.06009131 -0.12656704 -0.09067198 -0.05796416
0001a0 38 af 9e bd 9a d9 38 3e 86 24 d4 bd 7e 3e 1f be
       -0.07748264 0.18051758 -0.10358529 -0.15551183
0001b0 9f 9f bf bd af cf 23 3e 3c 30 b7 bd 86 76 20 3e
       -0.09356617 0.15997194 -0.08944747 0.15670213
0001c0 2f a8 d0 bd 34 84 06 3e 6b 16 07 3d 03 e6 52 bd
       -0.101883285 0.13136369 0.032980364 -0.051488888
0001d0 2a 75 13 be da 2d 0f be 37 bc 0d 3d db 7f 77 bc
       -0.14400163 -0.13982335 0.034603324 -0.015106167
0001e0 f0 7c db 3c ac 2b 31 3d ad c8 f0 bd ad 52 97 3d
       0.026792973 0.04325454 -0.11757026 0.07388816
0001f0 48 35 00 bd 57 a6 8c bd 30 63 f3 3c 0f 46 cf bc
       -0.031300813 -0.06867664 0.029710382 -0.025301961

decoder.spatial_embedding.weight f4 [16, 2]
000000 60 d6 60 3d df 95 f9 3e e2 f7 8b bb e4 c7 9e bf
       0.054891944 0.48747155 -0.0042714933 -1.2404752
000010 c2 ea 92 bf 24 1b 0b bf 46 83 d9 be 9f da 8e 3e
       -1.1477892 -0.5433829 -0.42482966 0.2790117
000020 3a c4 dc 3f db 77 41 c0 48 bf ba be 79 ef 3e bf
       1.7247384 -3.0229404 -0.3647406 -0.74584156
000030 0b 40 1d bf 19 35 fc 3f c1 14 72 3f 90 c5 2d 3f
       -0.61425847 1.9703704 0.9456292 0.6787958
000040 7b f9 0b 3f e1 c6 4b bf 9e 2c 71 bf 5e 4e a1 be
       0.5467755 -0.7960034 -0.94208705 -0.31505102
000050 80 36 ee bd 8b 74 c8 3f 87 e8 54 bf ec a8 f6 bf
       -0.11631489 1.5660566 -0.8316731 -1.9270301
000060 10 63 24 bf f7 b6 73 3f 10 ea 62 3f e6 76 95 3d
       -0.6421366 0.9520106 0.886384 0.07298069
000070 77 b2 a9 bd 75 6a 49 bf 95 89 ca 3f df ba f0 3e
       -0.082859926 -0.78678066 1.5823237 0.4701757

decoder.spatial_embedding.bias f4 [16]
000000 31 2d 27 be f6 72 94 3e 11 69 1f bf 0e 56 27 3e
       -0.16325833 0.28993958 -0.62269694 0.16341421
000010 e1 40 21 bf 16 5e 2b bf ec 6b 4f 3e 24 01 e2 be
       -0.6298962 -0.6694044 0.20256013 -0.44141495
000020 ed 4f 3f 3e aa 4e ef b9 a1 e7 e5 3e fa 12 13 be
       0.18682833 -0.00045644242 0.4490328 -0.14362708
000030 5b ac d6 3e e9 b4 da be 8e 59 d8 be 9e 6d 24 bf
       0.41928372 -0.42716148 -0.42255825 -0.6422976

decoder.hidden2pos.weight f4 [2, 32]
000000 a8 13 24 be 38 4c 8e 3e c8 3f a8 be c4 10 ce bd
       -0.16023123 0.27792525 -0.3286116 -0.100617915
000010 65 28 c5 be 33 db 3a be 15 20 4a 3e 27 df 11 3f
       -0.3850738 -0.1824768 0.19738801 0.5698113
000020 3e 14 13 bf d8 86 95 3e ba 5e 13 3f 38 82 9f be
       -0.5745276 0.2920444 0.57566416 -0.31154037
000030 7d 6b 5c be cd 99 a1 3d f0 78 af be f8 43 4d bd
       -0.21525379 0.07890663 -0.34271955 -0.05011365
000040 57 5f 14 be 34 e7 91 bd de d8 3a 3d 07 9f 4b be
       -0.14489494 -0.071241766 0.045616977 -0.19884883
000050 58 c3 d7 be aa e2 d0 bd 2e 3b 12 bf ff 1c 73 bd
       -0.42141223 -0.10199483 -0.5712155 -0.059353825
000060 33 00 3c 3e 70 4b ea 3d 3e 84 7e 3e 42 a3 fc bd
       0.18359451 0.1144017 0.24855134 -0.123358265
000070 4a 4a 32 3e 19 c8 36 bf ad db d1 be d7 c9 a1 be
       0.17411152 -0.71399075 -0.40987912 -0.31599304
000080 4b ce 03 3d 99 b7 2c be 84 a5 a9 be 5a 25 91 be
       0.03217916 -0.16866912 -0.3313409 -0.2834881
000090 8b b7 0e be f0 1d 45 3e c3 2b ad be 9d cf 6f bd
       -0.13937204 0.19249701 -0.3382245 -0.058547605
0000a0 d8 d3 bf bd 0a 7f 11 be 9e eb a1 bd ec f0 f4 3e
       -0.09366578 -0.14208618 -0.079062685 0.4784006
0000b0 50 7c e8 bc cb 2d 95 3e cb e7 23 3e 77 38 d0 3d
       -0.02837959 0.291365 0.16006391 0.1016702
0000c0 40 80 83 be ee 3d e1 bd 01 fb 58 3e 9b 70 fa be
       -0.25683784 -0.1099814 0.211895 -0.48914036
0000d0 ad a4 64 be ee b7 80 3e e5 dc a0 3e 6c bf 89 3d
       -0.22328444 0.25140327 0.3141853 0.06725964
0000e0 37 a4 6b 3d 72 7c 75 3e ce 59 c7 be 23 fb fd be
       0.057529654 0.23973253 -0.38935703 -0.49605665
0000f0 d4 61 01 3d c8 c1 0e bf 81 17 92 3e 6c 34 fa 3d
       0.031587437 -0.55764437 0.28533557 0.1221703

decoder.hidden2pos.bias f4 [2]
000000 f6 ba 62 bc 84 e6 e3 bd
       -0.01383852 -0.11127952

pool_net.spatial_embedding.weight f4 [16, 2]
000000 5f 3e 98 3f 0d 4b 90 3f f7 22 78 3e 03 c6 65 bd
       1.1894034 1.1272904 0.24232088 -0.05609704
000010 c0 c6 9c be 90 74 22 40 c8 bd aa 3d 0b d5 b6 bf
       -0.30620384 2.5383644 0.08336979 -1.4283766
000020 4a 27 d0 bf 4b c2 67 bf 88 2c 8f 3f 76 77 08 3f
       -1.626199 -0.9053084 1.1185465 0.5330728
000030 2b 1f 4c 3f 34 1d 85 3f 8d 8f 1f 3d c1 fd 92 bf
       0.7973506 1.0399537 0.03895526 -1.148369
000040 17 fb 89 be ed ad a1 bd be 34 a9 bf 95 d9 0f 3e
       -0.2694938 -0.07894502 -1.3219221 0.14047845
000050 7d 32 a8 bf dc 20 f5 be 74 84 f0 bd 79 fe 04 40
       -1.3140408 -0.47876632 -0.117440134 2.0780318
000060 ee 7b c3 be e0 5e 88 bf 0c 87 07 be ef 4a 26 3f
       -0.38180488 -1.0653954 -0.1323511 0.6495809
000070 fd f8 f6 3e dc 1d 53 3f 23 7b 8f 3f a7 33 2e 3e
       0.48236838 0.82467437 1.1209453 0.17011891

pool_net.spatial_embedding.bias f4 [16]
000000 ce eb 52 3c 97 19 87 be f5 42 e7 be 80 b8 df 3e
       0.012873603 -0.2638671 -0.45168272 0.4369545
000010 ae 30 0c bf 9b b1 82 3e 9e 05 1b 3f bc b7 bb be
       -0.5476178 0.25526127 0.60555446 -0.36663616
000020 82 8c 79 3e f1 e1 e0 be ab 62 cb 3e de 4f 2d bf
       0.24370006 -0.4392238 0.39723715 -0.6769999
000030 19 7e aa 3e d6 b3 cd be ab b7 14 bf 80 04 07 3f
       0.3329933 -0.40176266 -0.58092755 0.5274124
