scripts/models/sgan-p-models/univ_12_model.pt (torch_old, 190095 bytes, 24 tensors)

encoder.encoder.weight_ih_l0 f4 [128, 16]
000000 65 81 36 3d f1 63 35 3e 97 6d 62 bd 39 c4 e2 bd
       0.044556994 0.17713906 -0.055280294 -0.11072583
000010 2f cc 5b be 63 b0 3d be d2 dc 01 bd 67 23 da 3c
       -0.21464609 -0.18524317 -0.03170473 0.02662821
000020 ba d4 37 3e 61 99 ce bd ac 91 12 3e af d6 50 3c
       0.17952242 -0.100878485 0.14313382 0.012746497
000030 54 51 d3 3d 54 0f f2 bd f6 03 cc bc 98 6e 4c 3d
       0.103182465 -0.1181933 -0.024904232 0.049910158
000040 05 2a b8 3d b4 f0 47 3d 59 12 ac 3d 8b 57 8a bc
       0.089923896 0.048813537 0.08401937 -0.016887447
000050 92 aa 00 bd 33 09 fe bc e4 ac 07 3c 92 81 23 3d
       -0.03141267 -0.031010246 0.008280966 0.03991849
000060 30 b6 6c bd 79 42 00 be 12 9a 21 3e 55 8d 3c bd
       -0.057790935 -0.12525357 0.1578143 -0.046033222
000070 d5 33 89 3d 5d 49 fe bd 4d ee 91 3d 08 09 95 3c
       0.06699339 -0.12416337 0.071255304 0.018192783
000080 4c a3 ad bd 64 cf 08 be 14 6f 27 be 8f fc 1a 3e
       -0.08478412 -0.13360363 -0.16350967 0.15135406
000090 05 d2 82 3d b3 d3 11 be e3 0a 9b 3d 94 85 33 3e
       0.06387714 -0.14240913 0.07570436 0.17531425
0000a0 ca a4 11 be 64 1a 54 bd bb 5e dc 3d f7 6a 95 3d
       -0.14223018 -0.05178298 0.10760256 0.072957925
0000b0 a2 34 56 3c 74 54 c5 3d 6f 6b 03 be 5d 95 2a be
       0.013074072 0.09635249 -0.12833951 -0.1665854
0000c0 eb 99 9e 3d 1a fd 64 bd e3 5b a7 bd 9d 9e 51 3c
       0.07744201 -0.05590544 -0.08171823 0.012794164
0000d0 82 32 bb bd e6 eb 88 bd 76 0c 63 bd fa f7 9a 3d
       -0.09140493 -0.06685619 -0.055431806 0.07566829
0000e0 18 30 3d bd 39 14 d1 3d 5f a2 7b bc 8b 69 22 3d
       -0.046188444 0.10208935 -0.0153585365 0.039651435
0000f0 93 07 c1 3c b6 da 57 3d c2 a2 8e bd 02 5a 10 3e
       0.023563182 0.052698813 -0.06964637 0.14096835
000100 8b f4 2a bd 85 fa 94 bd 9c 0d a7 3d 38 15 31 3d
       -0.04173712 -0.07274345 0.08156893 0.043233126
000110 b4 08 13 be a4 bc 14 3e ac 53 9d bc 14 26 a6 3b
       -0.14358789 0.14525086 -0.019204937 0.0050704572
000120 d2 85 b3 3d 67 ff aa 3d 3b 03 1e be ca a0 60 3e
       0.087657586 0.083494954 -0.1543092 0.21936336
000130 6e d8 3b 3d 29 72 00 3d f2 ea 09 be f5 5b 31 be
       0.0458607 0.03135887 -0.13468531 -0.17320235
000140 43 62 99 3d 92 8e 16 be e2 f8 07 3e b0 dc 2c 3d
       0.07489445 -0.14702824 0.13278535 0.04220265
000150 a2 a8 0c 3e bd 77 27 3e bf 52 2c bd 48 66 58 3d
       0.13736203 0.1635427 -0.0420711 0.052831918
000160 33 7e 58 3c d2 15 17 be 86 f8 83 bd 2a 4a 43 3e
       0.013213682 -0.14754418 -0.064438865 0.1907126
000170 2a 81 2e 3e c6 5a 1b 3e 75 59 83 bc 0f 23 b9 3c
       0.1704146 0.15171346 -0.016033867 0.022599725
000180 95 69 28 3d 03 9b 03 bd bc b0 28 3d c0 1d cc bc
       0.041116316 -0.032130253 0.041184172 -0.02491653
000190 b4 93 12 bd 41 0a ed 3d 0e e8 c1 bd 88 c1 32 3e
       -0.035785392 0.115742214 -0.09468089 0.17456639
0001a0 f1 bf 12 bd 68 95 90 3d 97 de 67 bc f7 85 84 3c
       -0.03582758 0.07059747 -0.014152191 0.01617716
0001b0 a3 fa b5 3c 5d fe 46 3e 8e 7a 46 be 12 23 9d 3d
       0.02221424 0.1943297 -0.19382688 0.07672705
0001c0 0a 30 bd bb 59 eb b8 3d 3e 63 7b 3d f5 54 44 3e
       -0.005773549 0.09029264 0.06137394 0.19173034
0001d0 4e 16 f9 3c e8 ba 0a bd af c0 17 bc 98 34 16 3e
       0.030406144 -0.033869654 -0.009262248 0.146685
0001e0 01 51 c7 3d d1 5f 09 3e 17 ad 1d be 01 c4 7a 3e
       0.09732247 0.13415457 -0.1539806 0.24488832
0001f0 dc 32 40 bd a0 38 1c 3e 14 68 60 be 21 8d 28 bc
       -0.046923503 0.15255976 -0.21914703 -0.010287554
000200 91 9d be 3d 6b 23 bc bd 4a ed ab bd 4b fe 35 3d
       0.09307397 -0.09186443 -0.08394869 0.044431966
000210 4a 79 86 bd 67 68 94 3d 94 78 06 3e 5b 10 f3 bd
       -0.06566103 0.07246476 0.13131934 -0.11868354
000220 27 58 a1 3c 7f 97 f5 bd 24 9d 1b 3d 41 41 cc 3d
       0.019695355 -0.11991786 0.037991658 0.09973384
000230 0d fc b5 bd 4f 6d 5f 3d 58 26 db bd f2 08 a0 bd
       -0.088859655 0.054547604 -0.10700673 -0.07814206
000240 d1 f6 fe 3b 85 af 29 be a0 73 b2 3b 4a 52 c1 bd
       0.0077808877 -0.16570862 0.0054459125 -0.094395235
000250 8a 63 81 3d 48 79 2c be 07 ea 0e 3e 43 c5 ca bd
       0.06317814 -0.1684314 0.13956462 -0.09900906
000260 ab 5e 90 3d bb 8f 9f bc 18 06 b7 bd e5 9f 1a be
       0.070493065 -0.019477716 -0.08936709 -0.15100057
000270 3e d7 ff bc f3 56 13 3d cd 33 9c 3c c0 13 27 be
       -0.031230565 0.035971593 0.01906767 -0.16316128
000280 83 a4 a7 bc c3 c0 ce 3b 5d 56 97 bd 16 11 a6 3d
       -0.020464187 0.0063096 -0.07389519 0.08108728
000290 20 5e 42 3c ad 7b 65 3d f7 87 ba bd 65 e4 31 3d
       0.011863261 0.05602615 -0.091079645 0.043430705
0002a0 d7 ef 2f be d9 42 04 3e 89 f7 c4 bd df bb 93 3d
       -0.17181335 0.12916125 -0.09617526 0.07213568
0002b0 ab 48 23 be 32 1a 66 3e 1e 70 e7 3d f8 0a 36 3d
       -0.1594569 0.2247093 0.113006815 0.044444054
0002c0 38 e9 dd bd ca 2a 0d 3e bb f0 60 bd cf a4 01 be
       -0.108354986 0.13785854 -0.05491708 -0.12660526
0002d0 2d d8 2c be e7 17 14 bc 6e cc cf 3c 90 8b df bd
       -0.1687934 -0.009038902 0.025366034 -0.10915291
0002e0 cf 11 c7 bd c0 3b 01 be e8 9a 3d be e7 5b 0a 3e
       -0.097201936 -0.12620449 -0.18516123 0.1351162
0002f0 7e 8b 52 3d 69 67 32 bc db a0 a6 3d c3 9c 2d be
       0.05140256 -0.010888913 0.081361495 -0.16954331
000300 6e 27 1e 3d 3e f1 f3 3d a6 ee 99 3d f5 0a 20 3e
       0.03861182 0.11911248 0.07516222 0.1562918
000310 5c 2d 3b bd c5 c1 90 bc 0c 9e 17 be 73 c3 1e bd
       -0.045697555 -0.017670522 -0.14806384 -0.038760614
000320 ed de 0a be 81 86 fd bb 04 07 1c 3e da b9 5b bd
       -0.13561602 -0.0077369814 0.15237051 -0.05364404
000330 c0 2f 93 3c d7 1b 1f be 7c 7b d2 3d 49 96 d9 3d
       0.017967105 -0.15537964 0.10277459 0.10624368
000340 85 e1 55 be a9 67 16 3e 41 f9 94 bd 58 b5 16 be
       -0.2088681 0.1468798 -0.07274104 -0.14717615
000350 57 4e 8b 3d e6 40 23 be d7 c9 a2 3c 6a 38 84 be
       0.068020515 -0.15942726 0.019871635 -0.2582429
000360 3a 6f e6 bd 4b 48 e2 3d 32 ba 91 bc 1a b3 a2 3d
       -0.112516835 0.11048945 -0.01778898 0.07944317
000370 95 59 5e be c4 eb e1 bd 6d 65 3c 3d d9 8d ce 3d
       -0.2171386 -0.11031297 0.045995165 0.10085649
000380 6b 51 12 3e 2c 2e 09 be 76 a3 ae bd 1f e6 2a 3d
       0.14288871 -0.1339652 -0.085272714 0.041723367
000390 30 95 5e 3e 70 c8 cc bd e8 cb 5c be 0f fb f5 3d
       0.21736598 -0.09999168 -0.21562159 0.12010776
0003a0 35 ad 93 bd 1e aa 80 3e 4e 0e 38 3c c3 f8 e8 3d
       -0.07210771 0.2512979 0.011233879 0.113755725
0003b0 f0 d1 05 be b1 2e 65 bd 03 92 1c be 42 6e 38 bd
       -0.13068366 -0.05595273 -0.15290074 -0.045027025
0003c0 eb c4 c3 3d bf 3a 98 bd 1a 92 16 3d fb 56 25 3e
       0.095590435 -0.0743308 0.036760427 0.16146462
0003d0 c6 97 e5 bd e2 3f 30 3d 3e 0d 13 be f0 a6 c2 bc
       -0.11210589 0.043029673 -0.1436052 -0.023761243
0003e0 18 ba c4 3d a0 fc 85 3d 6e 2e 04 3e 7f f5 61 3e
       0.09605807 0.06542325 0.12908337 0.22066306
0003f0 1f 3e 9e 3d 4f 11 49 be 65 6d 0f 3e 61 7e ff bd
       0.077266924 -0.19635509 0.14006574 -0.12475277

encoder.encoder.weight_hh_l0 f4 [128, 32]
000000 54 fc 27 3e a4 33 f2 3c 09 d7 91 bd d8 ec 49 3d
       0.1640485 0.02956564 -0.07121093 0.049298137
000010 f9 65 fa 3c 23 86 e0 3d 53 5e 2b 3e f8 44 2d 3d
       0.030566202 0.109630845 0.167352 0.0423021
000020 bb 25 09 3e 45 20 14 3d 74 1d 04 be 2b c9 1d bd
       0.133933 0.036163587 -0.1290186 -0.038521927
000030 03 93 ae 3d 42 85 37 be 2b 4b eb 3d c5 53 c7 bd
       0.08524134 -0.17921928 0.114889465 -0.09732775
000040 d0 92 2d 3e 0c ce e0 3b 35 3a d4 bd 93 75 04 be
       0.16950536 0.0068605 -0.103626646 -0.12935476
000050 fe e5 cc bb 66 ea 5a 3e 4f f8 d3 bd b5 67 26 3d
       -0.006253003 0.21378478 -0.103500955 0.040626246
000060 f2 14 03 3e 02 7d 97 bd 5c e4 52 3c 4a 79 47 be
       0.12800959 -0.0739689 0.012871828 -0.19479862
000070 c0 f8 23 be e0 fa 0c be 45 57 11 3d 30 51 73 bd
       -0.1601286 -0.13767576 0.035483617 -0.0594036
000080 5a 26 f9 3b b5 46 03 3e a0 cc 40 3d 86 81 31 3e
       0.007603449 0.12819941 0.047070146 0.17334566
000090 55 63 8d bd 8e 38 c0 bd 77 f5 b1 bd 55 cc 57 3d
       -0.06903712 -0.09385787 -0.08689397 0.0526851
0000a0 b8 1e 91 3d c2 73 40 bd 87 7c 98 bd 78 9c a7 3c
       0.07085937 -0.046985395 -0.07445627 0.020460352
0000b0 b2 7f 27 be 53 7e ce bd eb 3e 42 3e c1 57 61 bd
       -0.16357306 -0.10082688 0.18969314 -0.05501533
0000c0 2a 44 ef bd d0 fa 50 be 6b 87 c4 bd 65 b6 d6 bd
       -0.11682923 -0.20408177 -0.095961414 -0.10484008
0000d0 a6 c1 0a be 17 30 96 3d de 6f dc 3d 5c 5c 57 3d
       -0.13550434 0.07333391 0.107635245 0.052578315
0000e0 57 5a 6b bc ad e6 d8 3c 27 07 09 3e ac c0 44 3d
       -0.0143648 0.026477182 0.13381635 0.04803531
0000f0 44 eb 36 3e 51 b1 ea bd 59 0b 88 bc ff 52 c9 bd
       0.17863184 -0.11459602 -0.016606973 -0.098302834
000100 15 f3 11 be 8d 9a bc 3d c0 6e 22 3d 85 d6 ff 3c
       -0.14252885 0.09209166 0.0396564 0.03123022
000110 9c 1d 2f be ba 42 1c 3e 63 2e 35 bd 5d 38 02 3e
       -0.17101139 0.15259829 -0.04423369 0.12716813
000120 47 7b 9b bd d6 e8 61 3e 3e 82 8a ba 09 b5 57 3e
       -0.07591873 0.22061476 -0.001056738 0.21065153
000130 87 cf c8 3d 97 68 d6 bc b2 51 58 bd e4 8b 0b 3e
       0.09805208 -0.02617292 -0.052812286 0.13627583
000140 0b 9d d1 3c 4d a0 10 be 66 14 96 3d 47 04 01 be
       0.02558758 -0.1412365 0.073281094 -0.12599288
000150 b0 c6 13 be fd a3 12 3e d9 29 5e 3d 07 20 cc 3d
       -0.14431262 0.14320369 0.054239128 0.09967046
000160 14 d5 52 3d be f5 47 be ba a0 14 3d 61 dd b0 bd
       0.05147274 -0.19527337 0.036286093 -0.08635975
000170 93 31 a8 3d a0 fb ce 3d aa 75 09 3e 54 8e dc 3d
       0.082125805 0.101065874 0.13423792 0.107693344
000180 39 03 c0 bd d9 65 49 3d 83 b1 b0 bc 43 7a 19 3e
       -0.09375615 0.049169395 -0.02156902 0.14988045
000190 2a 7a 22 be 8a ef 04 be 78 8d ea 3d be 36 5e 3e
       -0.15866914 -0.12982002 0.11452764 0.2170057
0001a0 6d f6 b9 bd e7 da 0a 3e 68 0f ed 3d f6 da 47 3c
       -0.09080205 0.13560067 0.11575204 0.0121982
0001b0 92 75 1d 3d e3 f8 a8 bc 4f 16 85 be df cd 31 3d
       0.038442202 -0.020626491 -0.25993583 0.043409225
0001c0 83 77 61 3b 19 cc 74 3b 1a ba 1e 3c b3 0e 12 3e
       0.003440351 0.0037353097 0.009687925 0.1426342
0001d0 f6 48 09 3e a3 f8 46 bd 06 b5 df bd c8 d6 fe bb
       0.13406739 -0.048576962 -0.10923199 -0.0077770688
0001e0 7a 74 d0 3d d1 11 a7 3d 3f 55 94 bd a6 79 83 bd
       0.10178466 0.08157695 -0.07242822 -0.06419687
0001f0 78 e0 28 be 60 f1 1d be 13 34 2a 3e 4e 53 12 be
       -0.16491878 -0.15424109 0.16621427 -0.1428959
000200 14 2b f7 bd 90 14 8e bc 76 72 be bb 23 c9 e7 bc
       -0.120687634 -0.01734379 -0.0058119847 -0.028294152
000210 34 bf dc 3b bb f7 47 bd 14 1c 91 bd d3 c8 8d 3d
       0.0067366604 -0.04882024 -0.070854336 0.0692307
000220 f4 1b 42 be 88 bb 20 3e 51 d5 95 bd 95 8f b0 bd
       -0.18955976 0.15696537 -0.073160775 -0.08621136
000230 18 f9 4a be cd 1a c5 ba 29 e4 29 bd 22 60 5a 3e
       -0.19821584 -0.0015037894 -0.041477356 0.21325734
000240 9f 65 36 3e ee 9a 64 3d e6 1c 06 be 76 f7 10 bd
       0.17812203 0.055811815 -0.13096961 -0.035392247
000250 63 ef 1e 3d 2b 34 85 bd c3 e0 4c 3b ff 4d 95 3d
       0.038802516 -0.06504091 0.0031261898 0.07290267
000260 69 ba c9 3d c0 b8 85 bd b7 83 7f bd ad 14 53 bd
       0.09850008 -0.06529379 -0.062381472 -0.05153339
000270 e7 43 d8 3d 8c 02 90 3c d8 79 7c be e7 9b 42 be
       0.10559826 0.01757934 -0.24655855 -0.19004785
000280 db 17 df 3d ff 71 47 bd ec 9f b4 3d 97 12 ef bd
       0.10893222 -0.0486927 0.08819565 -0.116734676
000290 6d ce 87 3d 5e e8 84 3e e3 62 39 be ca 49 fe bc
       0.066311695 0.25958532 -0.18104129 -0.031041045
0002a0 86 50 c2 3c d4 8c f5 3c bc 30 f9 3d dd 0a ed 3d
       0.023720037 0.029974379 0.121674985 0.11574338
0002b0 65 71 0e 3e da 96 16 3e e3 9e 47 3d a8 34 15 3e
       0.13910444 0.14705983 0.04873551 0.14570868
0002c0 c9 d8 28 be e4 de 5a 3d ea d3 a7 bd cb d5 84 bd
       -0.16488947 0.05343522 -0.08194716 -0.0648609
0002d0 5c 4b d7 bb 36 ad 29 be 57 b4 1d 3e 4e bc b1 3d
       -0.006570263 -0.16569981 0.15400825 0.086784944
0002e0 79 73 b9 3d e4 0f 0d 3d 58 41 25 be c1 ac 08 be
       0.09055228 0.034438983 -0.16138208 -0.1334715
0002f0 c4 b9 d4 3d b5 78 b2 3d aa c4 d2 bd 74 4b 47 3d
       0.103869945 0.08714429 -0.10291417 0.048655942
000300 a7 90 82 bd 79 25 99 3d ea 34 55 3d e3 4c 64 3d
       -0.063752465 0.074778505 0.052052416 0.055737387
000310 4c e9 5f bd e0 42 94 bd 4a cd 32 be f6 22 c7 3c
       -0.05466585 -0.07239318 -0.17461124 0.024308663
000320 d4 c4 61 be ad af 74 3d ef 91 21 3e b5 a1 99 3d
       -0.2204774 0.05973785 0.15778325 0.07501546
000330 b3 9e ed 3c a9 81 30 3d 2d 8c 66 3d a0 95 37 3e
       0.029006338 0.043092404 0.056286026 0.17928171
000340 54 a8 d3 bd f3 57 8f bc c4 aa 21 3d 23 97 bb bd
       -0.103348404 -0.017497992 0.039469495 -0.091596864
000350 79 e6 a3 3d 10 d9 62 3c c2 66 86 3d 9f a0 28 bd
       0.080029435 0.013845697 0.06562568 -0.041168805
000360 92 32 37 3e 88 80 19 3d cb 87 dc 3c cb de 44 bc
       0.17890385 0.037476093 0.02692022 -0.012016009
000370 8d 63 1a 3d ea 69 d2 bd a5 12 2c be 2c e3 55 be
       0.037692595 -0.10274108 -0.16803987 -0.2088744
000380 4f cc 36 3d 10 ca 0b 3c c8 a2 92 bc 58 aa e2 3d
       0.044628438 0.008532062 -0.017899886 0.11067647
000390 84 e5 fe bd 15 0d 8b 3d 0d e9 86 3d 2d f6 98 bc
       -0.124461204 0.067896046 0.0658742 -0.018672073
0003a0 f2 a9 89 3d fa e2 16 3d 05 be be bd 7c 34 60 3e
       0.067218676 0.036837555 -0.09313587 0.21895021
0003b0 98 7c b0 bd 84 63 88 be c3 ea 4a 3b 9c 51 20 3e
       -0.08617514 -0.26638424 0.0030962683 0.15656132
0003c0 62 3e 04 3e 71 f2 69 3d 7d 08 41 3d 7a 9c 27 3e
       0.12914422 0.057115976 0.047127236 0.16368285
0003d0 a1 6f 0f be 94 40 4e bd f7 b3 f8 bd e1 94 20 be
       -0.14007427 -0.050354555 -0.121437006 -0.15681793
0003e0 ef de 09 3e 24 32 7f be 37 b4 25 3c 0a 7e 4a be
       0.13463949 -0.24921471 0.010113767 -0.19774643
0003f0 c9 51 ec 3d 4e cc 5d bd e3 7c 90 bd 31 62 09 3e
       0.11539037 -0.05414992 -0.0705507 0.13416363

encoder.encoder.bias_ih_l0 f4 [128]
000000 cd 94 07 be 1b c0 3f 3e 6e e0 38 3e f6 a0 34 3e
       -0.13240357 0.18725626 0.18054363 0.17639527
000010 be 1c 21 3e 33 85 b4 3d 24 da 03 3d c5 28 b4 bd
       0.1573362 0.08814468 0.032190457 -0.08796839
000020 8c d0 e4 3d 17 a5 22 be ad 6e a7 3d c9 0e f6 bb
       0.1117259 -0.1588329 0.081754066 -0.0075090867
000030 d1 c6 c2 3d 33 27 a2 3d f8 ab 8a 3d 2b 80 c3 3d
       0.095105775 0.07917633 0.06771082 0.095459305
000040 c1 b7 f1 3d 89 02 81 bd 7d 07 9b bd 9f 84 55 bc
       0.118026264 -0.06299312 -0.07569788 -0.013032108
000050 f3 eb 3f bd 2b 65 df 3a 29 3f 50 3e 3c 4c e4 bd
       -0.046855878 0.00170437 0.20336594 -0.11147353
000060 12 c0 e1 3c 0e 78 c7 3d 14 6e 04 3c cb 34 6e bc
       0.027557407 0.097396955 0.008082885 -0.014538954
000070 20 90 56 3e 03 ef 3e 3e 41 ef 1d 3e 34 c5 b0 bc
       0.20953417 0.18645863 0.154233 -0.021578409
000080 19 f0 ca bd c8 65 3f 3e f5 65 7b 3d 4f a9 13 3e
       -0.09909076 0.1869117 0.06137653 0.14420055
000090 64 6e 1f 3d 27 02 3b 3e e7 23 33 3e 85 ec 51 bd
       0.038923636 0.1826254 0.17494164 -0.051250953
0000a0 64 69 3e 3c 3b eb 2c 3e 8b b4 df 3b d9 e2 00 3e
       0.011621807 0.16886608 0.0068269423 0.12586536
0000b0 d9 3e fd 3d 9b 91 96 3d 05 51 9c 3d 51 6b c1 3d
       0.12365503 0.07351991 0.07632641 0.09444297
0000c0 4d f2 cf 3d 84 dc ec bd 90 26 ef 3c 16 6e 98 bd
       0.10153637 -0.115654975 0.029193193 -0.07442872
0000d0 b8 60 ec bd 45 09 a3 3d 89 50 b8 3c 0a 98 e1 bd
       -0.11541885 0.079607524 0.02249934 -0.11015327
0000e0 44 83 d3 bd 54 19 29 3e de bf 42 bd 1f bd 09 3e
       -0.10327771 0.16513568 -0.04754626 0.1345105
0000f0 cc c2 66 3d 78 c3 30 3e 87 ec 92 bd 6b a0 34 3d
       0.056338117 0.17262065 -0.0717402 0.0440983
000100 89 47 57 3d 91 49 16 3e 7f 83 b1 bd e5 f3 07 3e
       0.052558456 0.14676501 -0.08667659 0.13276632
000110 a0 11 87 3d fb 9a d6 3c 96 b5 d3 3c 8f 9a 22 3e
       0.065951586 0.026196947 0.025843423 0.15879272
000120 40 18 d9 3d e3 75 08 3e 40 ff 31 3e d4 72 37 3d
       0.106003284 0.1332622 0.17382526 0.044787243
000130 94 31 eb 3b f9 56 0e be f9 d5 08 3e 98 cd 45 3d
       0.007177541 -0.13900365 0.13362874 0.048291773
000140 52 69 f7 3d 37 39 8f 3c 82 62 c0 bc 1d 58 01 3e
       0.12080635 0.017483337 -0.023484472 0.12631269
000150 5a ad e6 bd 15 f6 85 3d ec 67 51 3d 3a c8 be bd
       -0.11263533 0.06541077 0.0511245 -0.09315534
000160 36 8c 98 3d 6f ad 05 be 93 24 9a bd f2 43 cd 3d
       0.07448618 -0.13054441 -0.07526507 0.10022725
000170 33 71 2c bc 5f 9f 86 bb b7 07 14 3e 08 e6 51 3d
       -0.010525036 -0.004108354 0.14456068 0.051244766
000180 2d 59 2c be 9c af d1 bd a6 5e 1d 3d 2b bd c3 bd
       -0.16830893 -0.10238573 0.038420342 -0.09557565
000190 7c 84 dc bd 2e 65 b3 bd e6 6a c6 bd 6e 99 32 bd
       -0.10767457 -0.08759533 -0.09688358 -0.043603353
0001a0 5b f2 f3 bd 3e 8b 18 3e 76 86 f0 3d 13 b4 1e be
       -0.1191146 0.14896867 0.117443964 -0.1549838
0001b0 be f4 5e 3e b6 58 53 3c f0 55 8c 3e 83 b2 92 3d
       0.21773049 0.012899568 0.27409315 0.07162955
0001c0 99 2c fb 39 7f 42 2e 3e cb 70 ca bd 48 51 3a 3e
       0.00047907679 0.17017554 -0.09884795 0.18195069
0001d0 cb 45 80 3d 6d 14 cf 3d 38 10 6f 3e 5c e5 8b bd
       0.06263312 0.10111318 0.2334603 -0.06830856
0001e0 9f 52 67 bc 6e 91 78 3d a0 26 12 be 6c 68 03 3e
       -0.0141188195 0.060685568 -0.14272547 0.12832803
0001f0 0c 6f 66 3e 1a c3 7e bc e1 93 61 bd 94 81 3f bd
       0.22503299 -0.0155494455 -0.05507267 -0.046754435

encoder.encoder.bias_hh_l0 f4 [128]
000000 b5 0b 54 bd 53 6e 7e 3d c0 a2 0b 3b 5d 4c ef bd
       -0.051768977 0.062116932 0.0021306723 -0.11684487
000010 b3 6a 0b 3e 4d fc 9b bc a2 a8 de 3d c1 ad 9d 3d
       0.13614921 -0.019041205 0.10872008 0.076991566
000020 92 66 84 bd 4a e7 aa bd 78 6f 04 3c b4 43 3f 3e
       -0.06464876 -0.08344896 0.008083217 0.1867817
000030 d3 21 25 3e c1 b8 bc 3d ce 83 8a bd 64 09 4a bd
       0.16126184 0.092149265 -0.06763421 -0.04932536
000040 cd e2 02 bd f9 b3 01 bc 28 1f 03 3e f0 98 8d bd
       -0.031954575 -0.007916444 0.12804854 -0.06913936
000050 b7 e2 11 be 8c 67 d6 b7 60 bf 88 3d f4 58 c0 3c
       -0.14246641 -2.5559006e-05 0.06677127 0.023479916
000060 b1 e5 77 bc 57 63 8c 3d 39 19 14 3d db 6f cc bd
       -0.015130446 0.06854885 0.036156867 -0.09982272
000070 8e 8a 0e 3e 40 60 9c bd d4 42 e5 3d f0 8e 9e 3d
       0.13920042 -0.07635546 0.11194387 0.07742107
000080 80 46 f2 3d 3c 03 c0 3c a6 57 4e 3e f3 69 80 bd
       0.11829853 0.023439042 0.20150623 -0.06270208
000090 00 4d ee 3d 67 78 12 bb 0e 0b 7f bd 9e 25 a5 bc
       0.1163578 -0.0022349597 -0.062266402 -0.020159539
0000a0 38 78 01 3e c9 d1 cf 3d 5f 9c 4e 3e 98 4b 6a 3b
       0.12643516 0.10147435 0.20176838 0.0035750624
0000b0 a2 dd 8e bc 3b 2f 12 3c 3c af f6 3d e0 bb e7 3d
       -0.017439667 0.008922393 0.12045142 0.11315131
0000c0 31 89 2a 3e f8 d9 84 3c 46 e2 c2 3d 4c 16 34 3e
       0.16653897 0.016217217 0.095158145 0.1758663
0000d0 e5 de 91 bc 55 a7 ee 3d 74 a4 68 bd 74 cb b9 bd
       -0.01780648 0.1165301 -0.05679746 -0.09072009
0000e0 81 f7 f8 3d b6 e5 1c 3e 7c d4 19 3c ef 1f 41 3e
       0.121565826 0.15322003 0.009389039 0.18859838
0000f0 f4 fa 10 3e c9 ad 9a bd f3 11 81 3d e0 dd fe 3d
       0.14158231 -0.07552678 0.06302252 0.12444663
000100 c9 cd e6 3c b7 c6 1c 3d df 52 cf 3d bf f8 c4 3d
       0.028174298 0.038275447 0.10123228 0.09617757
000110 c4 4e 24 be 8a 05 26 be d0 07 84 bd 03 9a 84 3d
       -0.16045672 -0.1621305 -0.064468026 0.06474688
000120 a7 87 bb bd e0 cb e6 bd b3 c9 ac bd ce ab 26 3e
       -0.09156733 -0.11269355 -0.084369086 0.16276476
000130 23 33 64 bd 07 e9 9f 3d 65 8b f7 bd 6c 28 db bd
       -0.05571283 0.07808118 -0.12087134 -0.10701069
000140 89 c1 3a 3e eb 75 72 bd 2c 0f 34 3e 2d 7a 2e bd
       0.1823789 -0.059194487 0.17583913 -0.042596985
000150 a7 aa 2c 3d 8f 90 ea 3c 3e 71 a5 bc f5 50 b6 3c
       0.042154934 0.028633384 -0.0201956 0.0222554
000160 2d 24 e5 bd 69 f1 18 be 30 19 4d 3e 12 47 02 be
       -0.111885406 -0.1493584 0.2002914 -0.12722424
000170 97 2b 49 3e ce 23 00 3d 40 24 79 bd cb ad c3 ba
       0.19645534 0.031284146 -0.060825586 -0.0014929114
000180 dc 7a a2 bd 44 07 37 3e db 1b 87 bd 54 fc 05 3e
       -0.0793359 0.17873865 -0.0659711 0.13084537
000190 98 b0 a7 bc 0c dd 22 3e f1 1f 4a 3d 00 25 29 3e
       -0.020469949 0.15904635 0.049346868 0.1651802
0001a0 ee b4 9c 3d 95 c5 33 3e 06 89 c2 3d 4f c7 ca bd
       0.07651697 0.1755584 0.094987914 -0.09901296
0001b0 e9 53 29 3d ba 0b 97 bb 1e 35 eb bc 2b 0e 0c 3e
       0.04133979 -0.004609552 -0.028711852 0.1367728
0001c0 34 0a 20 3e 24 5f b0 bd 19 c7 44 3e b2 20 30 bd
       0.15628892 -0.08611897 0.19216575 -0.04299993
0001d0 9b 66 c7 bd bb 92 e8 3c 5c b1 3c 3e 18 54 cf bd
       -0.09736367 0.028390279 0.18427032 -0.101234615
0001e0 4a 36 18 3d c2 cf 30 3c ed a2 23 3e 44 b1 16 3e
       0.03716115 0.010791721 0.1598012 0.14716059
0001f0 a3 af 3f 3e 60 c2 38 3e 1d aa 46 3e 58 be 25 3e
       0.18719344 0.18042898 0.1940083 0.16185892

encoder.spatial_embedding.weight f4 [16, 2]
000000 0a ae 31 bf 0b 1f 52 3f 10 0b dc bd 88 41 dc 3d
       -0.6940619 0.8207862 -0.107442975 0.107546866
000010 cc 60 eb bf 7d d1 ab 3e 83 9e 2d bf 11 57 c7 3e
       -1.8388915 0.33558264 -0.67819995 0.38933614
000020 06 9a 97 3e 24 b3 17 3f e9 43 db be 89 d8 42 3d
       0.29609698 0.5925772 -0.4282525 0.047569785
000030 45 62 dd be 6b 5e 4c bf ba 4c e8 bf db 10 6b 3f
       -0.43239036 -0.7983157 -1.8148415 0.91822594
000040 22 e0 1a bf 51 37 fa be da 7e 5f 3e 63 c5 73 bf
       -0.6049825 -0.48870328 0.21825734 -0.95223063
000050 0d 8f d3 3e d0 cc 3e 3e 24 6b af bf df 1b 9a bf
       0.41320077 0.18632817 -1.3704572 -1.2039756
000060 6d 66 af bf f7 ea 13 3f 7e 93 fc 3e 99 a3 0d 40
       -1.3703133 0.577804 0.49331278 2.2131102
000070 bf 45 a7 be b9 25 85 3d 35 90 bb 3e cc 7d 3e 3e
       -0.326704 0.06501336 0.3663346 0.18602675

encoder.spatial_embedding.bias f4 [16]
000000 8e a8 93 3e 79 f0 2a bf e0 6f 95 be cf b0 35 3e
       0.28839535 -0.6677318 -0.29186916 0.17743228
000010 8c 48 70 3d 2c 9e 54 3e fb 4e 82 be 9b 27 2c 3f
       0.058662936 0.20763463 -0.25450882 0.67247933
000020 57 e3 97 3c 1d 90 dc 3e 4f 53 51 3d 1d 23 27 3f
       0.018541021 0.430787 0.05110484 0.65287954
000030 62 19 fd 3e 81 43 10 3f 77 41 36 bf 7c 48 21 be
       0.49433428 0.56353 -0.7119364 -0.15750307

decoder.decoder.weight_ih_l0 f4 [128, 16]
000000 88 37 c8 3d e2 ec bd bd 22 24 09 be 04 fe f1 bd
       0.09776217 -0.092736974 -0.1339269 -0.11816028
000010 e9 c7 b2 bd 19 fe fb bd 9e 54 6e 3e 54 34 7d bd
       -0.08729536 -0.12304325 0.23274466 -0.061817482
000020 30 fb 50 3e cb c3 40 3e 7e 66 c2 bd ff 3c fb bd
       0.2040832 0.18824689 -0.09492205 -0.122674935
000030 fb a8 0d 3e d4 1d c7 bd c4 8e bf 3d 82 c7 ac 3d
       0.13833992 -0.09722486 0.09353402 0.084364906
000040 a6 38 b4 bd d8 ad be 3d 8c c8 37 be 94 5e 16 be
       -0.08799867 0.09310502 -0.17947596 -0.14684516
000050 53 8b 67 3d 35 10 15 3e b0 5a 09 3e 36 a6 04 3b
       0.056529354 0.14556964 0.13413501 0.002024067
000060 41 68 11 3d c6 fb 85 3d 53 07 08 3e 5c 82 00 bc
       0.035499815 0.065421626 0.13284044 -0.00784358
000070 02 7d b7 bd 6f ed 33 be c5 02 1f be 82 7f f9 3d
       -0.0895939 -0.17571042 -0.155284 0.12182523
000080 2e 32 55 bd e3 0a b9 bd 8c d0 21 3e 15 44 c1 bc
       -0.05204981 -0.090352796 0.1580221 -0.023592034
000090 da 81 52 3c 34 60 93 bd d5 e7 02 3e 8d cd 8d 3d
       0.012848342 -0.07196084 0.1278375 0.06923971
0000a0 d9 97 b0 3d 7c bf 4f ba 4f db 25 be f5 4c 38 bd
       0.08622713 -0.0007924957 -0.16196941 -0.044995267
0000b0 c1 6f 57 ba 9f f7 a4 3c bb 99 fe bc 5a cd d4 3d
       -0.0008218252 0.020137606 -0.031079164 0.1039073
0000c0 87 29 2a 3e ca 87 6e 3d d2 63 ac bc 5c 39 fb 3c
       0.16617404 0.058234967 -0.021043692 0.030667
0000d0 ea f7 97 bd 54 01 e9 3d 6c 8e 45 3e 88 e7 b4 3d
       -0.07420333 0.113772064 0.19292611 0.088332236
0000e0 e5 17 70 3d 95 12 8a bd ea 43 bf bd 15 94 4a bd
       0.058616538 -0.067418255 -0.093391255 -0.04945763
0000f0 0a bc a0 bd 79 c4 5b bd 75 e9 2e bd b1 d3 9e 3d
       -0.078483656 -0.053654168 -0.04270311 0.07755221
000100 c5 98 bc 3d fe 74 b1 bd 73 54 a7 bd 18 20 4d 3d
       0.09208826 -0.086648926 -0.08170404 0.050079435
000110 f8 b3 af 3d 7c 46 0e bd f3 91 a0 3d 37 1f a1 3d
       0.08579248 -0.034735188 0.078403376 0.07867282
000120 d9 af 89 3c 86 9e 41 bc 07 e4 2f 3e 9c a2 05 bd
       0.016807484 -0.01181758 0.1717683 -0.03262578
000130 7c fe 90 bd 34 d0 1d bd 99 d0 0d bd bd 80 b3 bd
       -0.07079789 -0.038528636 -0.034622762 -0.08764789
000140 6c 60 d4 bd cd 68 0a bd 82 61 74 bd eb 7e 27 3e
       -0.103699535 -0.033791352 -0.059663303 0.16357009
000150 d4 c9 eb 3d 45 25 ba bd 26 fb eb bd 58 a0 a0 3d
       0.11513105 -0.0908914 -0.11522512 0.07843083
000160 e0 ac 10 3e 78 29 d7 bc 13 a0 07 bc d5 ed 66 bd
       0.14128447 -0.026264891 -0.008277911 -0.056379158
000170 5b 69 82 bd 88 42 07 3e c3 af e3 3c b3 b7 e5 3c
       -0.06367751 0.13208973 0.02779377 0.028041696
000180 21 c5 43 bd 9f b8 b0 3d 2c b4 0d 3e 97 c3 17 be
       -0.04779542 0.08628964 0.13838261 -0.14820705
000190 0d d8 20 be 6f da 87 3d 50 78 41 bd e4 8b be bd
       -0.15707417 0.0663346 -0.04723388 -0.09304026
0001a0 90 92 17 3e d0 98 19 be f7 2e 86 3d d4 24 87 bd
       0.14802003 -0.149997 0.065519266 -0.06598821
0001b0 e0 f2 ec bd 43 7a 94 3d 3b 9a 91 bd a2 a3 a5 bc
       -0.11569762 0.07249882 -0.07109495 -0.020219628
0001c0 ef 1d 0b 3c ff d3 23 be b6 10 a0 bd 6a db 55 bc
       0.008491023 -0.15998839 -0.07815687 -0.013052801
0001d0 01 89 22 bc a5 4b e9 bd 27 d3 78 3d ad 40 0d 3e
       -0.00992036 -0.11391381 0.060748246 0.13794203
0001e0 e5 d6 10 bd 6b c3 cf bd 0c 57 10 3e b6 d5 71 3d
       -0.03536119 -0.10144695 0.14095706 0.0590417
0001f0 e6 30 2f bc fc 22 a9 3d 66 32 04 be bd f6 31 be
       -0.010692811 0.08258626 -0.1290985 -0.1737928
000200 b5 f7 98 bc f4 e7 6f bc e0 0f ed bd 69 cf ad 3d
       -0.018672803 -0.014642704 -0.115752935 0.08486826
000210 3b d5 12 be 50 1d 0b be b1 f3 07 3d dc 60 7e 3c
       -0.14339153 -0.135854 0.033191387 0.015526023
000220 7e 4c 35 3e b5 d1 25 3e ed 93 cd 3d b2 23 ac 3d
       0.1770496 0.16193278 0.1003798 0.08405246
000230 63 0a ce 3d e1 bd f5 bd 83 de 71 3d 2f c4 18 be
       0.10060575 -0.11999107 0.059050094 -0.14918588
000240 7c dc 9b 3d 15 c5 fc bd 1f 12 20 bd 3f f4 02 be
       0.076104134 -0.12342278 -0.03907978 -0.12788485
000250 00 d2 cf 3c 59 fd 39 3c 82 b4 19 be 52 f8 97 3c
       0.02536869 0.011351907 -0.15010265 0.018551026
000260 8c d9 54 3e 0c 7d 81 bd d4 93 b6 bd 0c 2e 39 3e
       0.20786113 -0.06322679 -0.08914915 0.18083972
000270 e6 d0 27 3e f2 d5 3b bb 01 f7 c1 3d 78 b5 27 be
       0.16388282 -0.0028661457 0.094709404 -0.16377819
000280 78 42 0c be 8d 47 2a bb bc 84 b8 bd ee c7 23 3d
       -0.13697231 -0.002598259 -0.09009692 0.03998559
000290 78 f7 dd bd 89 c3 a7 3d 4d da 3f 3e da c6 57 3d
       -0.108382165 0.08191592 0.18735619 0.052679874
0002a0 30 0b 08 bd 41 74 19 be 42 d3 8f bd e9 07 2b bd
       -0.033213794 -0.14985754 -0.07022716 -0.04175559
0002b0 66 7d 57 bd 43 f0 07 3e 44 54 39 3e 27 3f fd 3d
       -0.052609824 0.13275246 0.18098551 0.12365561
0002c0 dd fc 02 bd 30 1c 10 3e d8 34 15 be 52 f6 43 be
       -0.03197943 0.14073253 -0.1457094 -0.19136932
0002d0 ff f0 bb bd b3 3d 17 3e 4e ea 05 3e 71 e6 5c 3d
       -0.09176826 0.1476963 0.13077661 0.053930704
0002e0 68 4b 1b bc 0c 43 2e be 93 e3 01 3e 76 cd 95 bd
       -0.0094784275 -0.17017764 0.12684469 -0.07314579
0002f0 30 97 ce bd 64 60 ed bc d0 ac c1 bd 50 26 cf 3c
       -0.100874305 -0.028976627 -0.094567895 0.025286824
000300 64 d9 bc 3d 41 56 cb bc d6 3e c2 3c 28 2a 00 3d
       0.092211515 -0.024821403 0.023711603 0.031290203
000310 97 d5 a3 3d 1b be c0 3d 0a 0b fc bd 78 97 b7 bd
       0.079997234 0.0941126 -0.12306793 -0.08964437
000320 df 5c 3a ba 56 27 af bd c0 b6 a2 bd e2 26 42 bc
       -0.0007109176 -0.085524246 -0.07945013 -0.011850091
000330 36 f8 68 3d 82 92 97 bd 71 ea 2b 3e 8b 66 06 3e
       0.056877337 -0.07400991 0.16788651 0.13125055
000340 37 31 d3 bd 05 e5 2a bd e9 a9 7d bd 6b ad f8 bd
       -0.10312121 -0.041722316 -0.061929617 -0.12142452
000350 21 ec 91 3d dd 06 8b 3d 76 12 a2 3d b0 e2 fd 3c
       0.07125116 0.067884184 0.079136774 0.030991882
000360 b0 74 51 3d b4 96 52 3c 03 b0 05 be 25 35 40 3e
       0.051136672 0.012853313 -0.13055424 0.18770273
000370 10 6b 87 3d 2b 35 2e 3b a9 41 09 be b2 f8 58 be
       0.066122174 0.0026581984 -0.13403954 -0.2118862
000380 a6 4c 9c 3c a0 de 39 bd 75 e5 a0 3d dd 2f 11 3d
       0.019079518 -0.045378327 0.078562655 0.035446037
000390 ce 74 7b bd 1e 51 05 be f9 c0 cb bd 11 46 bb 3d
       -0.06139069 -0.13019225 -0.09948916 0.091442235
0003a0 12 04 be 3c a1 2f 16 be 68 07 92 bd 4f 8e 80 3d
       0.0231953 -0.14666606 -0.07130319 0.06277143
0003b0 bd 8e f6 bd 90 1c 04 be 3e 78 c8 3c 4f c0 d3 bd
       -0.12038944 -0.1290152 0.024471398 -0.10339414
0003c0 94 f7 2c be 04 02 fa 3d 72 ad 73 bd 5e ac a1 3d
       -0.16891319 0.12207416 -0.059491582 0.078942046
0003d0 56 2c f2 bd 7d 1a c9 bd 78 37 4f be 29 78 06 be
       -0.11824863 -0.09819505 -0.20236003 -0.13131775
0003e0 bc 27 a7 bd 2c 65 82 3d cd 7b f4 3d 4a 53 56 be
       -0.081618756 0.06366953 0.119376756 -0.2093021
0003f0 69 8f e5 3d 1d 85 b4 bb 6a 7e 29 3d 1f bf 66 bc
       0.11208994 -0.0055090324 0.041380323 -0.014083653

decoder.decoder.weight_hh_l0 f4 [128, 32]
000000 df db a3 bd ea 6f 8f bd 21 9e d1 bb d4 1e 62 be
       -0.080009215 -0.07003768 -0.0063970243 -0.22082072
000010 65 8b be bc d7 f9 37 3e 25 11 21 3d 38 a0 90 3d
       -0.023259828 0.179664 0.03932299 0.07061809
000020 57 f6 39 3d 99 8d e5 bb af 2c 49 be 1f 57 b0 bd
       0.045400944 -0.007005405 -0.19645952 -0.08610367
000030 7c fd 95 3d b1 1b c6 bd 7c 0f b5 bc 43 9b b6 bd
       0.07323739 -0.096732505 -0.02210211 -0.089163326
000040 56 89 15 3e a2 e2 28 be b3 02 56 3c 71 da eb 3d
       0.14603171 -0.16492704 0.013062167 0.11516274
000050 62 ed c1 bd fe 14 81 3b cc 73 01 be bf ed 00 3e
       -0.09469105 0.00393927 -0.12641829 0.12590693
000060 50 46 53 3e da 75 46 bc e6 6d 8a bd 76 c5 44 3e
       0.20632291 -0.012113059 -0.06759243 0.1921595
000070 62 f0 c0 bd b6 77 0e be b0 8f 4c be 55 41 ef bd
       -0.094208494 -0.13912854 -0.19976687 -0.11682383
000080 56 58 63 bc d6 a2 71 3c f6 96 f5 3c 39 fc c5 3c
       -0.013876041 0.014748296 0.02997921 0.02416812
000090 0d eb 0c be d7 2a 06 be 13 db 06 bc eb c4 d5 bd
       -0.1376154 -0.1310228 -0.008230942 -0.1043795
0000a0 6a e8 43 bd 60 9c 20 3d 0d d7 fb 3d b6 25 82 3c
       -0.04782907 0.03921163 0.12296877 0.015887123
0000b0 ee 6e 56 3e 28 20 da bd ff da 60 bd 29 43 cd bd
       0.20940754 -0.106506646 -0.05489635 -0.100225754
0000c0 f4 c8 93 bd fc 46 e9 3d 67 cc 86 bd 0e 0f 4e 3e
       -0.07216063 0.11390492 -0.065819554 0.2012293
0000d0 96 fc 1f be af a9 d3 bd 3e cb d0 3c 35 f5 70 3d
       -0.15623698 -0.10335099 0.025487538 0.058827598
0000e0 80 0d f8 3d 29 ea 9c bd 29 52 4c 3d 0a ec 25 be
       0.1211195 -0.0766185 0.04988304 -0.16203323
0000f0 95 22 e4 3d dd cc 08 be 85 59 91 bc 13 f0 d0 3d
       0.111394085 -0.13359399 -0.017742882 0.102020405
000100 f7 68 f1 3d e4 23 05 3d fe f0 9c bd b7 3c 0c be
       0.117875986 0.03250493 -0.07663153 -0.13695036
000110 0b 0d 33 be ff 0f b2 3d 15 4e dd bd 85 24 10 3e
       -0.17485444 0.08694457 -0.108059086 0.14076431
000120 c3 33 90 bd 59 70 fd bd 70 a3 12 3e 9d 14 2f be
       -0.07041123 -0.12374944 0.14320159 -0.17097707
000130 5c f2 28 be 31 27 95 3d d1 7d 66 bd ad 02 29 be
       -0.16498703 0.07282866 -0.05627233 -0.16504927
000140 9e 4c a4 bc 6e 99 da 3b 02 0b 47 bd a3 6e c1 bd
       -0.020056065 0.0066711223 -0.048594482 -0.094449304
000150 62 a0 42 3e 16 f7 fb b9 83 75 e0 bd e2 cc 49 bd
       0.19006494 -0.00048058544 -0.109599136 -0.049267657
000160 cb 06 1a be 0f 7b ab 3d 24 51 8c 3a 87 66 3a 3c
       -0.15041654 0.08373081 0.0010705334 0.0113769835
000170 d0 d5 c1 bb c9 91 59 be 02 67 e7 3d ca 54 5d 3e
       -0.005915381 -0.21247019 0.11298944 0.21614376
000180 9a d6 d2 bd e0 98 47 be 43 c1 f0 bd d3 6a 9f bd
       -0.10294838 -0.19491911 -0.11755612 -0.07784047
000190 94 50 35 be 6c 88 45 3e 69 92 28 3e b0 2e 45 3e
       -0.1770652 0.19290322 0.16462101 0.19256091
0001a0 68 86 36 bd 2c f2 de 3d 38 4c 9e 3d ab bb b7 3d
       -0.044561774 0.10886034 0.07729381 0.08971342
0001b0 b2 05 fc bd 9a b5 9e 3d b5 22 b2 bd 33 a1 d4 3d
       -0.12305774 0.077494815 -0.08698026 0.10382309
0001c0 4a 4f c6 bd c2 a1 7f bd 41 b1 13 be ff 3f 24 3e
       -0.09683092 -0.062410124 -0.14423086 0.16040038
0001d0 67 d3 2c be 62 23 96 bb 6f 41 2c 3d 07 3a 9e 3a
       -0.16877519 -0.0045818547 0.04205459 0.0012071737
0001e0 ce 18 e0 bd b3 b9 3d bd 61 29 03 3e 47 e2 cf 3d
       -0.10942231 -0.046319675 0.12808754 0.10150581
0001f0 20 7a e2 3d 0a 0a c3 3d d2 76 7a 3d ba 40 02 be
       0.1105845 0.09523399 0.061148472 -0.12720004
000200 06 c9 f3 bd 0d 2d 2e bd 8f b7 33 3d 73 63 f6 3d
       -0.119035766 -0.042523433 0.043876227 0.12030687
000210 17 f6 ef bd 21 84 96 3d a1 48 08 3d 88 7a 12 be
       -0.1171686 0.0734942 0.03327239 -0.14304554
000220 fd 3d b5 bd 6a a5 1f bc 84 e8 38 be fa de b4 bc
       -0.08849714 -0.009744028 -0.18057448 -0.02207898
000230 a2 60 e3 bd cd ab 05 3e a7 d2 02 be bf 97 96 bd
       -0.111024156 0.13053818 -0.1277567 -0.07353162
000240 16 f8 0f 3e 11 99 1d 3e ba 4e 27 be 0c 3d ac 3d
       0.14059481 0.15390421 -0.16338626 0.08410081
000250 9e ec 34 3e 79 a4 29 3d f9 8c c9 3d de 2b d5 3d
       0.17668387 0.04141662 0.098413415 0.104087576
000260 27 b3 3e be ac c7 ea 3d 72 1a 1d be a2 e3 2c be
       -0.18623029 0.11463866 -0.1534212 -0.1688371
000270 24 f6 c1 bc 16 37 07 3d 56 8f 00 be 32 d0 4b 3e
       -0.02367694 0.03301152 -0.12554678 0.19903639
000280 90 29 0f be 5b e7 16 be 6d ca f2 bd 61 9b 0d 3d
       -0.13980699 -0.14736693 -0.11855016 0.03457201
000290 ee 6b 9b 3b 44 ae ea 3c d2 f9 a8 3d f9 16 c5 3d
       0.004743091 0.02864755 0.082507744 0.09623522
0002a0 9f 2e 21 3e 0b 5e 16 3e df 10 18 3e a8 9d bc bc
       0.15740441 0.14684312 0.14850186 -0.023024395
0002b0 36 20 99 bd c0 61 f8 3d 00 40 48 3e 0b 6e 9e 3d
       -0.07476847 0.12128019 0.19555664 0.07735833
0002c0 ec 6d c4 3c 48 ca ba bd 02 3f f0 3d d3 14 0f be
       0.023978196 -0.09120613 0.11730768 -0.13972788
0002d0 b6 e8 80 bd 05 d3 15 be 70 b9 69 3c d9 c5 82 3d
       -0.06294386 -0.14631279 0.014265403 0.06385393
0002e0 2c 33 d0 bb 9b 07 4f 3d 4c cf 89 bd 07 61 ab bd
       -0.0063537564 0.050544363 -0.06728992 -0.08368116
0002f0 68 29 92 3d df dd c4 bd 39 82 77 bd fd 83 05 be
       0.07136804 -0.09612631 -0.060426924 -0.13038631
000300 c6 78 d6 3d 3e b1 cc bc 38 3d 02 bd 38 ba a2 3c
       0.104722545 -0.02498686 -0.031796664 0.019864187
000310 03 fc 8f 3d 1f 69 87 3d dc 9e b1 bd ad 62 a6 3c
       0.07030489 0.06611847 -0.08672878 0.020310724
000320 8d 2c 29 3e 9f cc 9c 3d d8 18 26 be c6 ef 6c bd
       0.16520901 0.07656216 -0.16220415 -0.057845853
000330 4f 2a 9d 3c c6 85 21 3e fc 63 19 3d 3f 40 e0 3d
       0.019185213 0.15773687 0.03744887 0.10949754
000340 b2 81 49 3c 2d e6 cb bd 22 3a 0f 3d 0d c3 44 3e
       0.012298988 -0.09956012 0.03496755 0.19215031
000350 ed ee be 3d 68 3f 1d 3e 5b cb 0e be 76 7b 95 3d
       0.09322915 0.15356219 -0.13944761 0.07298939
000360 59 98 5f b9 c7 51 a8 3c e3 9f 88 bd 2f 51 17 3e
       -0.00021323691 0.020546807 -0.06671121 0.14777063
000370 83 56 c0 bd e2 43 43 3d 42 c9 91 bd f5 c7 01 3d
       -0.09391501 0.04767216 -0.07118465 0.031684835
000380 4e 58 52 3e 95 e2 bb 3d f7 b9 6b 3a a8 95 1e be
       0.20541498 0.091740765 0.00089922495 -0.15486777
000390 3a 8c 81 bd 76 34 22 3e ba e7 51 3e c2 ab d4 bd
       -0.06325574 0.15840325 0.20498553 -0.10384323
0003a0 a1 96 22 bc b1 cc 00 be 64 f9 1c 3e 08 ef 60 3e
       -0.009923608 -0.12578084 0.1532951 0.21966183
0003b0 54 6c 64 3d 38 2b 4e 3e f0 28 fd 3d 68 82 27 bd
       0.055767372 0.20133674 0.12361324 -0.04089585
0003c0 fa b4 12 be 91 a5 a0 bd ff a8 9a bd 68 8b 1a 3e
       -0.1432685 -0.07844079 -0.07551765 0.15092242
0003d0 98 53 11 3e f6 d9 2c be 2d 41 ff bd b3 50 39 3e
       0.14192045 -0.1688002 -0.12463603 0.1809719
0003e0 ae 8d 9e bd 69 08 a7 bd a3 42 14 3e 4b 01 74 3d
       -0.07741867 -0.08155901 0.14478545 0.059571546
0003f0 53 4a 02 3e d5 4b f4 3d 9e 30 33 be c0 e7 86 bc
       0.12723665 0.11928526 -0.17499015 -0.016467929

decoder.decoder.bias_ih_l0 f4 [128]
000000 b3 a4 fb 3d 57 51 f2 3d 11 7f d8 3d 52 00 2d be
       0.12287273 0.118319206 0.10571111 -0.16894653
000010 da 31 2a 3d c2 f9 ad 3d b7 47 c8 3d 8f bf 24 3e
       0.04155145 0.08494903 0.097793035 0.16088699
000020 46 34 91 bd 81 a2 b9 3d 5d 5b 90 3d ee 68 05 be
       -0.070900485 0.09064198 0.07048676 -0.13028309
000030 cb 7c 0e 3e 04 40 c3 bc 0e a2 2a 3e af 3a c2 bd
       0.13914792 -0.023834236 0.16663381 -0.09483849
000040 9a 61 a2 bc 10 f5 13 be 34 a4 57 bd 6f a2 e4 3b
       -0.01982193 -0.14448953 -0.05264683 0.0069773714
000050 63 73 19 3e 62 20 43 3c 98 00 0e 3e e2 d5 a0 3d
       0.14985423 0.011909576 0.13867414 0.07853295
000060 2b d0 e1 bc 96 0c b1 bb 82 e3 44 3d 3c 01 7f 3d
       -0.027565083 -0.0054031117 0.04806853 0.062257037
000070 9e 82 ab bd 38 1b 2b be 2d 64 bb 3d 0b 1d 24 3e
       -0.083745226 -0.16709602 0.091499664 0.16026704
000080 cb b7 18 3e 50 14 10 bd b4 36 e6 3b 24 fb df bd
       0.14913861 -0.03517562 0.007025564 -0.10936573
000090 8e 34 1d 3e be 7a 3f bd d6 9a a8 bd 47 e9 05 3e
       0.1535208 -0.046747915 -0.082326576 0.1307727
0000a0 80 3b af 3d 50 31 1f be 20 55 0a 3e 11 22 45 3e
       0.085562706 -0.15546155 0.13509035 0.19251277
0000b0 a2 2e f7 bb 39 1f 39 3e bd e7 03 be e8 af 70 3d
       -0.007543401 0.18078317 -0.1288137 0.058761507
0000c0 bb 3b 8b bd e5 f5 59 3e 8c 81 94 bd 67 28 98 bd
       -0.06798502 0.21285208 -0.072512716 -0.07429581
0000d0 4c 2f ae 3d e5 22 f4 bd 45 0a 67 bd 9d 66 8c bd
       0.08505115 -0.11920718 -0.05640628 -0.068555094
0000e0 d0 6a ea bb 69 f9 08 be a1 28 a2 3d 3a e1 c1 bb
       -0.0071538463 -0.13376392 0.079179056 -0.0059167417
0000f0 bd 46 51 bd 7e 4d fb 3c 12 d6 0e be a0 f4 ef bd
       -0.051092852 0.0306766 -0.13948849 -0.117165804
000100 0b 54 81 bd 49 41 40 3d 19 c3 78 bd f8 21 b7 3c
       -0.06314858 0.04693726 -0.060732935 0.022355065
000110 c8 23 fb 3c fb 91 1f 3e f8 85 07 be 5d 70 15 be
       0.03065671 0.15583031 -0.13234699 -0.14593644
000120 c7 75 4b bd 16 ba 24 be c4 7b ef bd 9a d6 9a 3d
       -0.049672868 -0.16086611 -0.11693528 0.07560463
000130 34 fb 27 bc 3b a5 1d be 05 e9 81 bc 25 19 21 be
       -0.010252763 -0.15395062 -0.015858183 -0.15732248
000140 f4 30 e9 3d 11 da 2b 3e 31 50 23 3e 2e a6 54 ba
       0.1138629 0.16782404 0.1594856 -0.0008111921
000150 b6 d0 09 3e 2c dd 3e 3d 66 ec ca bc 57 00 ee 3d
       0.13458523 0.046597645 -0.024770927 0.116211586
000160 b1 73 47 bd 4f 98 12 be e7 9c 15 3e 17 01 5a 3d
       -0.048694316 -0.14315914 0.14610635 0.053223696
000170 8c 2c 0d bc ad 3b be 3c e4 1d 26 3e c3 50 1c 3e
       -0.008616578 0.023221815 0.1622234 0.15265183
000180 9d 28 37 3d 76 e1 d6 3d 01 4b 35 3c db 67 01 3e
       0.044716466 0.10492222 0.011065246 0.12637274
000190 66 60 10 3e 43 45 c8 3d f1 08 8a 3d 7a 22 b4 bd
       0.14099273 0.097788356 0.06739987 -0.087956384
0001a0 5b 8c e9 b9 00 54 e0 bd 9b fd 1d bd bc eb 49 3e
       -0.00044545796 -0.10953522 -0.038571935 0.19718832
0001b0 c9 3c 60 bd 05 26 2d bd e5 86 c3 bc 9e 63 e3 bc
       -0.05474547 -0.042272586 -0.023868034 -0.027757462
0001c0 89 ce 29 bd 09 db ff bd ca c4 e5 bc c1 74 28 3d
       -0.041456733 -0.124929495 -0.028047938 0.04112697
0001d0 4d f8 2a be 05 00 bb bd 6e 0b a1 bd 97 87 bd 3d
       -0.16696282 -0.09130863 -0.07863508 0.09254377
0001e0 ab 9f f9 3d 97 54 c6 3c a3 83 09 3e df 6e 1c bd
       0.121886574 0.024210257 0.13429122 -0.038191672
0001f0 60 76 11 bd 07 8e eb bd 47 40 09 3d b3 02 ad 3d
       -0.03551328 -0.11501699 0.033508565 0.084477805

decoder.decoder.bias_hh_l0 f4 [128]
000000 f2 15 2b 3e e5 8f f5 bc f9 5c f2 bc 00 d8 5e 3d
       0.1670759 -0.02997584 -0.029585348 0.054405212
000010 f4 a9 11 bd 06 04 3e 3e e6 3b 17 3b 6b 1d bf bd
       -0.03556247 0.18556222 0.0023076474 -0.09331783
000020 40 70 03 3e 0b bb f5 bd 6b fb f8 bd 37 00 11 3e
       0.12835789 -0.11998566 -0.12157329 0.14160238
000030 47 bf 3e 3e 3d 08 10 be 24 cc 82 3b 7d 3c 95 3d
       0.18627654 -0.14065643 0.0039916206 0.07286928
000040 66 a9 29 bc ca 43 a9 3c c9 6e 28 3e 6b 73 a8 3d
       -0.010355329 0.020662207 0.16448511 0.08225139
000050 42 9a 02 3d 13 10 f5 3d cc 9c 46 3e 23 ae 0e 3e
       0.031885393 0.119659565 0.19395751 0.13933615
000060 d7 b2 3e 3e c5 13 86 3d bb e1 18 3d 03 17 c1 bd
       0.1862291 0.065467395 0.03732465 -0.09428217
000070 18 9a 04 3d 6c d6 f4 3d 1c 9d 58 bd 02 d4 51 bd
       0.032373518 0.1195496 -0.052884206 -0.051227577
000080 42 39 48 3e f1 f5 21 3e 9e e3 9e 3d a7 d5 cc 3d
       0.19553092 0.15816475 0.07758258 0.100016885
000090 c3 1d 78 bc b0 11 cc 3c 94 f1 04 be 88 f2 8e 3d
       -0.0151438145 0.024910778 -0.1298278 0.06979853
0000a0 cb 11 78 3d 21 93 bb bd b3 13 27 be 35 fa 1c 3e
       0.060563844 -0.09158922 -0.16316108 0.15329821
0000b0 ef bd bf 3c af 3b 30 3e 3a b3 01 bc cd d1 48 bd
       0.023405997 0.17210267 -0.007916266 -0.049028207
0000c0 9f 57 47 3e d1 89 79 bd 8a 8f 02 3e 04 0c 87 3d
       0.19467019 -0.060922448 0.12750068 0.06594089
0000d0 2f f8 1f be 39 15 ae bd 71 bb 94 3d ae d2 a3 3a
       -0.15622018 -0.08500142 0.07262314 0.00124987
0000e0 b8 e5 3b 3e 2f 25 a8 3d b4 85 28 be 38 e0 1c 3e
       0.1834935 0.08210217 -0.16457254 0.15319908
0000f0 fc 6a 1d be 8d 5b 1f 3e 1e 49 b0 3d 88 8c 2d 3e
       -0.15372843 0.15562268 0.08607696 0.1694814
000100 15 cb c7 3d c0 5d d2 bd 0b 4c 0f be 10 ad 2f bd
       0.09755532 -0.10271788 -0.13993852 -0.042889655
000110 35 eb 22 bc 4d 55 15 bd 87 d3 29 3d 52 db 34 bd
       -0.009943773 -0.036458302 0.041461494 -0.044154473
000120 6c 64 1d be a7 a3 00 be 5b 38 a0 bd 34 2d ed bc
       -0.15370339 -0.12562428 -0.07823249 -0.028952219
000130 0f 3f f6 bd 0f 29 1f 3d 68 98 c1 bd 97 e4 26 3e
       -0.12023746 0.038857516 -0.09452897 0.16298138
000140 f9 f3 1c be 6a 8a 2e 3e 14 bb d8 ba 4c 4c 01 3e
       -0.15327443 0.17044988 -0.0016535246 0.12626761
000150 70 2e 1a 3e e6 df d5 3d 6a b5 01 be 90 cf 20 3e
       0.15056777 0.10443096 -0.1266686 0.15704179
000160 6d 7f 32 3e 75 a6 d9 bd 8e ed 25 3d a7 82 19 3d
       0.17431422 -0.10627452 0.040509753 0.037478115
000170 43 02 0e be a7 27 c4 bd c1 3f ee 3d 99 a1 29 be
       -0.1386805 -0.095778756 0.11633254 -0.16565551
000180 64 63 06 be 77 21 05 3e 96 2a c3 bc 9c 30 11 3c
       -0.13123852 0.13001047 -0.023824017 0.008861687
000190 5e 48 ae bd e8 65 e8 3d c5 cc 2f be c0 5c fc 3d
       -0.08509897 0.11347562 -0.17167957 0.12322378
0001a0 ef d8 16 3e 33 77 23 be c1 96 25 be 0d e4 56 bd
       0.14731191 -0.1596344 -0.1617079 -0.05246358
0001b0 23 e9 38 3e 65 92 ed bd 0f 11 a7 bd b4 a1 ea bd
       0.18057685 -0.11600188 -0.081575505 -0.11456624
0001c0 09 6a 3c 3e df 66 bf bc 92 6c 88 3d c6 78 8f bd
       0.18399824 -0.023364482 0.06661333 -0.070054576
0001d0 6c 00 b2 bd 9d c9 df bd e3 2b d5 3b b4 b0 06 bd
       -0.08691487 -0.109271266 0.006505476 -0.03288336
0001e0 9e 1e 0c 3e bc fc 6a bd e4 05 a2 bc 15 5a 1e 3e
       0.13683555 -0.057369933 -0.0197782 0.15464051
0001f0 05 e8 85 bd fc 4d f7 3c 08 ba 78 3c 22 e5 6d bd
       -0.06538395 0.030188553 0.015181072 -0.058079846

decoder.spatial_embedding.weight f4 [16, 2]
000000 37 63 46 bf 77 3c 9a bd 3a 45 71 bf 60 e3 5a be
       -0.7749514 -0.07531064 -0.94246256 -0.21375799
000010 bc d2 5a 3e a6 51 2d 3f b5 a5 ec be f1 2d aa 3f
       0.21369451 0.6770271 -0.46220174 1.329527
000020 69 cb a5 3e f4 eb b2 3d 26 59 ba be 08 af e4 bd
       0.32381752 0.08736411 -0.3639614 -0.11166197
000030 4d ae 26 3e 80 39 9a bf a1 d1 44 bf c8 f9 10 c0
       0.16277428 -1.2048798 -0.7688237 -2.2652454
000040 aa b4 dd bf 95 51 6c bf 5f 9c 13 bf c9 f3 63 bf
       -1.7320759 -0.92311984 -0.5766048 -0.8904386
000050 39 65 89 bc 06 8d 10 3e 3e 8b 2c bf e4 09 b9 be
       -0.0167719 0.14116296 -0.67399967 -0.36140358
000060 36 5f 1d c0 83 cf 3a 3f 1b 91 d3 be a9 c4 18 bf
       -2.4589362 0.7297289 -0.41321644 -0.5967508
000070 b7 f1 01 3f ee 0d d1 bf 0e 88 86 3f bf cc 3a bf
       0.5075945 -1.6332376 1.051027 -0.7296867

decoder.spatial_embedding.bias f4 [16]
000000 07 d6 7d be 12 d2 30 3e 4a c0 fd be 6a 53 d8 be
       -0.24788676 0.17267635 -0.49560767 -0.4225114
000010 a4 5e 26 bf ab 68 10 3f 86 e4 77 be ee 49 b3 be
       -0.6498816 0.5640971 -0.24208269 -0.3501734
000020 83 dc 2b 3f 2c 4d fc be f0 4b ab be 11 4f 3a be
       0.6713335 -0.49277627 -0.33456373 -0.18194224
000030 1d 5d 84 3d ff 95 a4 be da c7 13 3e e9 ec 1d bf
       0.064630724 -0.32145688 0.14431706 -0.6168962

decoder.hidden2pos.weight f4 [2, 32]
000000 c9 5c 9d bd 99 8b 12 bf 3e f7 ba be a6 f0 84 bd
       -0.07683713 -0.5724426 -0.36516756 -0.064912125
000010 a3 f0 1e be 34 9e 2d bf 2b ce 2c 3e f7 2c 92 3e
       -0.15521483 -0.67819524 0.16875522 0.2854993
000020 da d6 da 3e c4 e8 1b 3e a0 c5 c1 3e 72 80 29 3e
       0.42742044 0.15225512 0.37846088 0.16552904
000030 b8 6b e5 be d0 3c 7c 3d 45 e0 7b bd 6a 60 0d 3e
       -0.44808745 0.061581433 -0.061493177 0.1380631
000040 11 73 cd bd e9 bb 0e bf 34 1c 7f 3e 41 d6 53 bd
       -0.10031713 -0.5575548 0.24913102 -0.051718
000050 6c ec 2c 3f fe 92 fc 3e fa 51 74 be b1 13 0e bd
       0.6754825 0.49330896 -0.23859397 -0.034686748
000060 09 f5 a1 be 06 1b 87 be 15 67 83 be 90 45 af be
       -0.3163226 -0.26387805 -0.25664583 -0.3423276
000070 b4 3d f1 3d 0b 5c b8 3d 8c a8 0b bf 5c 09 6d 3e
       0.11779347 0.09001931 -0.5455406 0.23148102
000080 be ad 5a 3d 7f a9 58 3e af 73 87 be 48 3d 5b be
       0.05338835 0.21158408 -0.26455447 -0.21410096
000090 fd 1d 89 bd 75 08 b2 bd cb 54 76 3e d6 b4 4f be
       -0.06695173 -0.08693019 0.24055783 -0.20283827
0000a0 3d 53 b0 bd 16 6e 1c 3e d9 e9 dc 3e 43 6e c6 be
       -0.086096264 0.1527637 0.43147162 -0.38755998
0000b0 53 2b 89 be d5 c6 bc bd 5d 29 22 3c ac 04 ac be
       -0.26790866 -0.09217612 0.009897557 -0.33597314
0000c0 f8 c6 a8 3d 51 0e b1 3e d3 f8 b6 be 3e a2 a4 bc
       0.08241075 0.34581235 -0.35736713 -0.020096894
0000d0 f9 e8 85 be a8 f4 97 bb 1f 3e d6 3e ce 80 53 3e
       -0.26154307 -0.0046373196 0.4184427 0.20654604
0000e0 4d 99 39 be c0 da 1e 3e 4f 06 c8 be 96 a3 19 3f
       -0.18124886 0.15513134 -0.39067313 0.6001524
0000f0 a1 cf 8b 3e df ed d7 be 1b 00 97 3e 66 48 5e be
       0.27306846 -0.4217367 0.29492268 -0.21707305

decoder.hidden2pos.bias f4 [2]
000000 b6 dd 31 bb 06 03 26 3e
       -0.0027140207 0.16212091

pool_net.spatial_embedding.weight f4 [16, 2]
000000 ba 0e 04 40 e5 ee 41 3f 29 e9 91 3e 4d 88 4f 3f
       2.0633988 0.7575515 0.284982 0.81067353
000010 b3 2f 79 be 06 95 26 bf ca 61 5e bf c4 f7 03 bf
       -0.24334602 -0.6507114 -0.86867964 -0.51549935
000020 3e 9c 05 c0 ed f5 9e 3f ed 67 26 3e df 61 40 3e
       -2.0876613 1.24188 0.16250582 0.18787335
000030 5a 7b 81 3f db 7e c2 bf ae 89 58 be 7a c9 1c 3f
       1.0115769 -1.5194963 -0.2114627 0.6124493
000040 dd 5e f6 3f 03 0b 28 bf 8b 71 c5 3e d3 12 9d 3f
       1.92477 -0.656418 0.3856319 1.227137
000050 2d 31 f1 3f 24 55 85 3f 56 e0 ab bf 62 69 8b 3e
       1.8843132 1.0416608 -1.3427837 0.27228838
000060 f7 92 d3 3f 4f f0 fb bf c8 db a8 3f 3f f2 1e c0
       1.6529225 -1.9682711 1.3192072 -2.4835355
000070 f1 96 82 bf ff 27 ac 3f 35 61 ca be 97 0f b0 3f
       -1.0202314 1.3449706 -0.39527288 1.3754758

pool_net.spatial_embedding.bias f4 [16]
000000 96 85 25 3e 26 84 87 be 57 1c 16 3f 90 24 7e 3e
       0.1616424 -0.2646801 0.58636993 0.24818635
000010 39 ac 2c be c3 16 03 3f 1e 6a 9b bd 6c 9c 0c bf
       -0.16862573 0.51206607 -0.075885996 -0.5492618
000020 de f7 d0 3d 75 5e 73 be 89 0f 24 3f e4 30 2e 3e
       0.10203527 -0.23766501 0.64086205 0.17010838
000030 ae 2a 4d 3e 4f 8b cd 3d 3c 92 8b bd 35 45 8c be
       0.20035812 0.10036337 -0.06815001 -0.2739655
