scripts/models/sgan-p-models/zara2_12_model.pt (torch_old, 190166 bytes, 24 tensors)

encoder.encoder.weight_ih_l0 f4 [128, 16]
0	0xbe411997	-0.18857418
1	0x3db7ea2f	0.08980214
2	0xbd579a60	-0.052637458
3	0x3e034f67	0.12823258
4	0x3da48798	0.08033675
5	0xbdfdb552	-0.123881
6	0x3ccea800	0.025226593
7	0x3d972fcd	0.07382164
8	0xbcf4e85a	-0.02989595
9	0xbe56bdaf	-0.20970796
10	0xbcdadefd	-0.026717657
11	0x3e03bdfa	0.12865439
12	0xbd4e2e17	-0.050336923
13	0xbc8ebe5d	-0.017424757
14	0x3dcc2888	0.09968668
15	0x3de54a54	0.111958176
16	0x3e04ab3f	0.1295595
17	0x3daa26e5	0.083082
18	0xbd79d61f	-0.060995217
19	0xbe10e319	-0.14149131
20	0x3c12c29c	0.008957531
21	0xbe032008	-0.12805188
22	0xbe0a5ad0	-0.13511205
23	0xbe034d32	-0.12822416
24	0xbe2b59ee	-0.16733524
25	0x3d406858	0.04697451
26	0xbd8a71ac	-0.067599624
27	0xbd2b2d88	-0.04179147
28	0xbd5cfcd1	-0.053952042
29	0xbe30ccfa	-0.17265692
30	0xbcfca628	-0.030840948
31	0x3dd0d710	0.1019727
32	0x3e4de2b1	0.20106007
33	0x3df4dde6	0.11956386
34	0xbd22c72f	-0.039740738
35	0xbe28cb1d	-0.16483732
36	0xbda194be	-0.078896984
37	0x3d20a4f6	0.03921982
38	0x3d74cb11	0.05976397
39	0x3d20b517	0.0392352
40	0x3e0849c3	0.13309388
41	0xbdb319ba	-0.08745141
42	0x3c962098	0.018326089
43	0x3db26a90	0.087117314
44	0x3d8267d1	0.06367458
45	0x3ca878bc	0.020565383
46	0xbd90e1e6	-0.07074337
47	0x3e402101	0.1876259
48	0x3d3fa42d	0.04678743
49	0x3dcda538	0.100412786
50	0xbe051aa1	-0.1299844
51	0x3e2adc2f	0.16685556
52	0xbddfab3e	-0.10921334
53	0xbbf0c140	-0.007347256
54	0xbc87f3a3	-0.016595667
55	0xbe12c513	-0.1433299
56	0x3e089dd1	0.13341452
57	0x3d74af40	0.059737444
58	0xbe5a413a	-0.21313944
59	0xbe230c64	-0.15922695
60	0xbda5f3b1	-0.08103121
61	0xbe213140	-0.15741444
62	0x3d022530	0.031773746
63	0x3e033c2a	0.1281592
64	0x3cb18230	0.021668524
65	0xbd2243dd	-0.0396155
66	0x3cc7a6b9	0.024371492
67	0xba8cafa5	-0.0010733498
68	0xbb9c3a09	-0.0047676605
69	0xbdbeb707	-0.093122534
70	0xbe2f3fba	-0.17114154
71	0xbd19fcd3	-0.037594628
72	0x3dbed710	0.09318364
73	0xbd60479d	-0.054755796
74	0xbdf5bd98	-0.11999053
75	0xbdda2b80	-0.10652828
76	0x3e07eadd	0.13273187
77	0x3c9cf245	0.019158492
78	0xbd214319	-0.03937063
79	0x3e21772f	0.15768121
80	0xbd5160ae	-0.05111759
81	0x3c4ca1b3	0.012489724
82	0xbc338669	-0.010957339
83	0xbda2b786	-0.079451606
84	0x3e4b6b50	0.19865155
85	0xbb533185	-0.003222556
86	0xbda7112a	-0.08157571
87	0xbe40cc3f	-0.18827914
88	0x3e2e8c85	0.17045791
89	0xbd54b089	-0.05192617
90	0xbdb8256e	-0.08991514
91	0x3d8e3f19	0.06945629
92	0x3e4892ac	0.19587201
93	0x3ce8836b	0.028382977
94	0xbdaf6457	-0.0856406
95	0x3e611589	0.21980871
96	0x3da1cc03	0.0790024
97	0xbbe28fa8	-0.006914098
98	0xbd9aec2f	-0.0756458
99	0xbcccc21c	-0.024994902
100	0x3db29db8	0.08721489
101	0x3e20bb47	0.1569644
102	0xbd502968	-0.050820738
103	0xbd9c2f5c	-0.076262206
104	0x3d8bac47	0.06819969
105	0xbe2ca68c	-0.16860408
106	0x3bc022d5	0.0058635273
107	0x3b992594	0.004673669
108	0xbb50bb9a	-0.00318501
109	0x3da928e0	0.082597494
110	0x3d551f19	0.05203161
111	0x3d91f385	0.07126526
112	0xbe3360b7	-0.17517363
113	0x3d191d2d	0.03738134
114	0x3da94f4e	0.08267079
115	0xbd78eee9	-0.060774717
116	0xbac1d566	-0.0014788329
117	0x3e01a3c2	0.12660125
118	0xbdffb9ed	-0.124866344
119	0xbc40f6e4	-0.011777613
120	0xbe5cd74a	-0.21566501
121	0x3dfcab47	0.12337356
122	0x3e5e925c	0.21735519
123	0xbdcfa868	-0.10139543
124	0xbe69d84b	-0.22836415
125	0x3e791e9d	0.24328084
126	0xbcca035d	-0.024659807
127	0x3d5b2939	0.05350611
128	0x3e3760e4	0.17908055
129	0x3e5d3b19	0.21604575
130	0x3c4322fd	0.011910197
131	0xbe3ed067	-0.18634187
132	0xbe1261ca	-0.14295116
133	0x3d2a2d2b	0.04154698
134	0x3dd7ad06	0.105310485
135	0xbd3a19d4	-0.045434788
136	0x3e48133f	0.19538592
137	0x3dad3dfc	0.08459088
138	0xbe579771	-0.21053864
139	0xbdbcb64e	-0.09214459
140	0xbcfc080e	-0.03076556
141	0xbe7407ad	-0.23831053
142	0xbcc99745	-0.024608264
143	0x3c8061e2	0.015671674
144	0xbd884b90	-0.066550374
145	0x3e24a0a6	0.16076908
146	0x3cfc21ed	0.030777896
147	0xbdaad1fc	-0.083408326
148	0xbd6f1bf3	-0.058376264
149	0x3d96bc73	0.073601626
150	0xbd29b001	-0.041427616
151	0x3e13b12f	0.14423059
152	0xbd3cabff	-0.046062466
153	0xbe045d45	-0.12926205
154	0x3e0c1a91	0.1368201
155	0xbe2a1664	-0.16610104
156	0xbaf97f21	-0.001903508
157	0xbd14d4de	-0.03633582
158	0xbd36a699	-0.044592474
159	0xbc235dd2	-0.009971099
160	0xbde8a9ed	-0.11360536
161	0xbdb4d745	-0.08830122
162	0x3d8db221	0.06918741
163	0x3d7107dd	0.05884539
164	0xbda7b2fe	-0.08188437
165	0xbb36cca8	-0.002789298
166	0x3a4952ee	0.0007679899
167	0x3dff96ab	0.124799095
168	0xbdfac641	-0.12244845
169	0xbda80b55	-0.082052864
170	0x3e1c364b	0.15255086
171	0x3df47f51	0.11938346
172	0x3e1eb3bd	0.15498252
173	0xbd24ee7b	-0.040266495
174	0x3e7583dc	0.23976082
175	0x3e639719	0.22225608
176	0xbdd69611	-0.10477842
177	0x3e40ff8d	0.18847485
178	0xbddb8833	-0.10719337
179	0xbdec09cb	-0.11525305
180	0xbd388f50	-0.04505855
181	0x3c79ed66	0.015254354
182	0xbdd7b5d0	-0.10532725
183	0xbe074102	-0.13208392
184	0x3c4fc67f	0.0126816025
185	0x3df44774	0.11927691
186	0xbddd4796	-0.108046696
187	0x3e0b634d	0.13612099
188	0x3e147384	0.1449719
189	0x3d0d5cba	0.03451226
190	0x3e2e17d3	0.17001276
191	0xbcdd7f43	-0.027038222
192	0xbe2a8fb0	-0.16656375
193	0x3e47c66d	0.19509287
194	0xbd8983ab	-0.06714567
195	0xbb8b2ede	-0.0042475304
196	0x3c3adca8	0.011405148
197	0xbc8366a6	-0.016040158
198	0xbd5d552b	-0.0540363
199	0xbe7b15d6	-0.24520048
200	0xbdfbf630	-0.12302816
201	0xbda3084f	-0.07960569
202	0x3cd73618	0.026270911
203	0xbc44f574	-0.012021411
204	0xbe0a4018	-0.13501012
205	0xbcef12b4	-0.029183723
206	0xbd8bb9b8	-0.068225324
207	0xbd5c6467	-0.05380669
208	0xbddf37aa	-0.10899289
209	0xbdc5cc1f	-0.09658074
210	0xbe238823	-0.15969901
211	0xbe155423	-0.14582877
212	0x3dd1297c	0.10212991
213	0x3e5c161b	0.21492808
214	0x3d1d42a8	0.038393646
215	0x3d390947	0.045174863
216	0x3d59be77	0.053160157
217	0xbd2cc54c	-0.042180344
218	0xbe252c2a	-0.16130129
219	0x3dec36ce	0.11533891
220	0xbdacb2cd	-0.08432541
221	0xbcd789af	-0.02631077
222	0xbd78d17d	-0.06074666
223	0x3dec59a3	0.11540534
224	0x3dd7171d	0.105024554
225	0x3e6f76d5	0.23385175
226	0x3e1ce483	0.15321545
227	0x3d2acf6d	0.041701723
228	0xbd905c51	-0.07048858
229	0xbd797769	-0.060904894
230	0xbd81e1e6	-0.06341915
231	0xbe68dd91	-0.22740771
232	0x3b92669b	0.004467798
233	0x3dcb08d0	0.0991379
234	0xbd9d05de	-0.07667135
235	0x3e0e3cd3	0.1389039
236	0x3d8557f6	0.06510918
237	0x3d8dfc98	0.06932944
238	0x3df8b256	0.1214339
239	0xbdce2b20	-0.10066819
240	0xbd7c8b51	-0.0616563
241	0x3d78951b	0.060689073
242	0xbd0ae9aa	-0.033914246
243	0x3e16e609	0.14736189
244	0x3daf4f5a	0.08560057
245	0xbd9ed16c	-0.07754788
246	0xbe31a371	-0.17347504
247	0x3d16f679	0.03685615
248	0x3e824529	0.2544339
249	0xbe3c6ac5	-0.18400104
250	0xbc79c00e	-0.015243543
251	0xbcd27c50	-0.025694042
252	0x3de9a410	0.114082456
253	0x3d446a43	0.0479529
254	0x3e1faf1d	0.15594144
255	0x3dcdd93f	0.10051202

encoder.encoder.weight_hh_l0 f4 [128, 32]
0	0xbe4c9951	-0.1998036
1	0xbd21bcc6	-0.03948667
2	0x3c52f63a	0.012876088
3	0x3e232bcc	0.15934676
4	0x3e093234	0.13398057
5	0xbd00b74c	-0.031424806
6	0x3d368f74	0.0445704
7	0x3d49d89e	0.049278848
8	0x3c15a0d3	0.009132582
9	0x3da0c3ce	0.07849847
10	0x3e02289c	0.12710804
11	0xbe299810	-0.16561913
12	0x3d8df5a7	0.0693162
13	0xbdc86122	-0.097841516
14	0xbd1f873b	-0.038947325
15	0x3e0390ed	0.12848254
16	0xbd57f8b6	-0.052727424
17	0x3e4c0790	0.1992476
18	0x3e6e5ed5	0.23278363
19	0x3c67d2ec	0.014149409
20	0xbd5f3700	-0.05449581
21	0x3dbc5fb4	0.091979414
22	0xbda841ca	-0.08215673
23	0xbdd4589e	-0.10368465
24	0xbe046f4c	-0.12933081
25	0xbcacbaa0	-0.021085083
26	0x3d8b022a	0.06787522
27	0xbe33b40e	-0.17549154
28	0xbde33202	-0.110935226
29	0x3d5dd970	0.054162443
30	0x3dc1cdc3	0.09463074
31	0xbd120b8a	-0.035655536
32	0x3dc6915e	0.09695695
33	0x3d87bcc5	0.06627802
34	0x3d016726	0.03159251
35	0xbe043eab	-0.12914531
36	0xbd97cf57	-0.07412594
37	0x3e00c86a	0.12576452
38	0x3dab58c9	0.08366544
39	0xbd5b61a6	-0.05355992
40	0x3de4cb82	0.111716285
41	0x3db0695d	0.086138465
42	0xbda90b6c	-0.08254132
43	0x3cb510d4	0.02210275
44	0xbd00d1a7	-0.03144994
45	0xbe18d2e0	-0.14924192
46	0x3de4e59d	0.11176608
47	0xbdb1a7dc	-0.08674595
48	0x3d4bf8f5	0.04979797
49	0x3e29135a	0.16511288
50	0xbe15068f	-0.14553283
51	0x3dca9567	0.098917775
52	0xbe0b5355	-0.13606007
53	0x3d85e0e2	0.065370336
54	0x3c97b04a	0.018516678
55	0xbd043297	-0.03227481
56	0xbe21f56a	-0.15816274
57	0x3e18ca24	0.1492086
58	0x3ddd7e51	0.108151086
59	0x3d143d9f	0.03619158
60	0xbe05ac58	-0.13054025
61	0xbd4507a0	-0.048102975
62	0xbdebbfe3	-0.11511209
63	0xbd8f90df	-0.07010054
64	0x3c3fcb0a	0.011706123
65	0xbe4ac368	-0.19801104
66	0xbdf32dae	-0.11873947
67	0x3d0fd41e	0.0351144
68	0x3cf81206	0.030282032
69	0x3e28a65e	0.16469714
70	0x3e7b21d7	0.24524628
71	0x3d1e9d04	0.03872396
72	0xbe584830	-0.21121287
73	0xbbd9cfb4	-0.0066470746
74	0xbd06cbaa	-0.032909073
75	0x3dbfadb5	0.09359304
76	0x3ba94f67	0.005166936
77	0x3cb563d3	0.022142326
78	0x3cabce0b	0.020972272
79	0xbdd21c71	-0.10259331
80	0xbc9984ec	-0.01874014
81	0xbdc9c4a1	-0.09851957
82	0x3db4192a	0.08793862
83	0xbd2a41fa	-0.041566826
84	0xbe805d0d	-0.25070992
85	0x3dbd4bb1	0.092429526
86	0x3e6d8ab0	0.23197436
87	0xbe44e793	-0.19228964
88	0x3dceefe7	0.101043515
89	0xbcbd98c5	-0.023144135
90	0xbe204d69	-0.1565453
91	0xbe4ac024	-0.19799858
92	0xbdef6a3b	-0.11690184
93	0x3de69bbb	0.11260172
94	0x3e648b5f	0.22318791
95	0x3e0112ed	0.12604876
96	0xbe29b76b	-0.16573875
97	0xbd0129e3	-0.031534087
98	0x3d787b6a	0.06066457
99	0x3e69c1e7	0.22827874
100	0xbdd0cf5e	-0.10195802
101	0x3e273eda	0.1633257
102	0x3e42da29	0.19028534
103	0x3da4ba07	0.080432944
104	0xbc405040	-0.011737883
105	0x3dde1344	0.108435184
106	0xbd8d0f59	-0.06887693
107	0x3da12521	0.0786841
108	0x3e1833af	0.14863466
109	0x3cf76ed2	0.03020421
110	0xbdd20675	-0.10255138
111	0xbdfcc341	-0.12341929
112	0xbd7a5f11	-0.06112582
113	0x3e6105d4	0.2197488
114	0x3e4d4657	0.20046364
115	0x3ddef791	0.10887063
116	0xbcae4097	-0.021271033
117	0xbdb1326d	-0.08652196
118	0xbb08c8a5	-0.0020871547
119	0xbe3333c8	-0.17500222
120	0x3db32f07	0.08749204
121	0xbdc36d28	-0.09542304
122	0x3bc1742d	0.005903742
123	0x3d5ce2b4	0.05392714
124	0x3df8df93	0.121520184
125	0x3ca33e46	0.019927155
126	0x3e8a41b0	0.2700324
127	0xbde4e204	-0.111759216
128	0xbdb4bb9e	-0.08824848
129	0x3dfbf95b	0.1230342
130	0x3e30fd57	0.17284141
131	0xbcf7c036	-0.03024302
132	0xbe460c9c	-0.19340748
133	0xbe36f3e5	-0.17866476
134	0x3deeedcc	0.1166645
135	0xbddb11e3	-0.10696771
136	0x3dd958d0	0.10612643
137	0x3d9194bc	0.07108447
138	0xbdda7e9f	-0.10668682
139	0x3d897496	0.0671169
140	0xbd8082e3	-0.06274965
141	0x3e42bacb	0.19016568
142	0xbd3725be	-0.044713728
143	0x3c9b1f35	0.01893578
144	0x3dd11a6f	0.1021012
145	0xbe22dab1	-0.15903737
146	0xbd72d70b	-0.059287112
147	0x3e57833f	0.2104616
148	0x3d888b12	0.066671506
149	0xbd538add	-0.051646102
150	0xbb86b1ef	-0.004110567
151	0xbcacb371	-0.021081658
152	0xbd447d3d	-0.047971
153	0xbdad0448	-0.08448082
154	0x3dd33da9	0.10314495
155	0xbe1ca11c	-0.15295833
156	0xbd8e5152	-0.06949104
157	0x3d67fadf	0.056635734
158	0x3dc633f4	0.09677878
159	0x3e006a13	0.12540464
160	0xbe4346aa	-0.19069925
161	0xbe895fa0	-0.2683077
162	0x3e05ab41	0.1305361
163	0x3c6e5fde	0.014549224
164	0x3e0b8e43	0.13628487
165	0xbe2987bb	-0.16555683
166	0x3e8c0020	0.27343845
167	0xbe745246	-0.2385951
168	0xbddc9fee	-0.10772692
169	0x3e6d3b4c	0.23167151
170	0x3d311002	0.043228157
171	0x3d1ca565	0.03824367
172	0xbe2ddcf2	-0.16978815
173	0xbc91c33b	-0.017793288
174	0xbc891102	-0.016731743
175	0xbe017229	-0.12641205
176	0x3e7dc1af	0.24780916
177	0x3e96c9bb	0.29450783
178	0xbbc2513d	-0.0059300945
179	0xbd56e4fc	-0.05246447
180	0xbdbee7bb	-0.09321543
181	0x3e0e5439	0.13899316
182	0x3cf8d5c0	0.030375361
183	0xbe3e6099	-0.18591537
184	0xbda16bd1	-0.078818925
185	0xbd27a937	-0.04093286
186	0x3e39bee4	0.18139225
187	0xbdfe481d	-0.12416098
188	0xbe410388	-0.18849003
189	0x3e70696f	0.2347772
190	0xbc46b0d0	-0.012127116
191	0x3d81969c	0.063275546
192	0xbce19f60	-0.027541816
193	0xbe4d4643	-0.20046334
194	0x3eb19db0	0.3469062
195	0x3e202506	0.15639123
196	0x3cad9ae9	0.021192031
197	0x3e2209c7	0.15824042
198	0x3e3e60cf	0.18591617
199	0xbdfed587	-0.12443071
200	0xbcf2634b	-0.029588362
201	0x3ddcf6a9	0.10789234
202	0xbda850c4	-0.0821853
203	0xbcb944d7	-0.022615833
204	0x3e23ed77	0.16008554
205	0x3e04edc2	0.12981322
206	0xbc6ae771	-0.0143374065
207	0xbe18519a	-0.14874879
208	0xbd9fe6be	-0.078076825
209	0x3d6d3e91	0.057920996
210	0x3d84bc1e	0.06481193
211	0x3e189990	0.1490233
212	0xbd5e43d9	-0.054263923
213	0x3e28b366	0.16474685
214	0x3e8ac766	0.27105254
215	0x3b75ef93	0.003752683
216	0xbe3d9b80	-0.1851635
217	0x3de6ea5c	0.11275169
218	0x3d1018f5	0.03518005
219	0x3d5d4124	0.0540172
220	0x3e6fae54	0.23406345
221	0xbe0a892c	-0.1352889
222	0x3dc5c294	0.096562535
223	0x3e41b1fa	0.18915549
224	0xbe22bb27	-0.15891705
225	0x3e0a203b	0.13488857
226	0xbd2374ea	-0.03990642
227	0x3da5db81	0.08098508
228	0xbd245506	-0.040120147
229	0x3d89f7e2	0.06736733
230	0xbd86056b	-0.06544002
231	0x3d941b24	0.07231739
232	0x3d6569b7	0.05600902
233	0x3d6da6ac	0.05802028
234	0xbdbe09f7	-0.092792444
235	0xbe1a37e7	-0.15060388
236	0xbe3cfac1	-0.1845503
237	0x3e0b54cd	0.13606568
238	0x3dc4ed24	0.096155435
239	0xba97bfd5	-0.0011577556
240	0xbd389fa0	-0.045074105
241	0xbe0925e0	-0.13393354
242	0xbc208985	-0.009798412
243	0x3d1441ab	0.03619544
244	0xbc661e01	-0.014045239
245	0x3dfe0914	0.12404075
246	0x3d8cddee	0.06878267
247	0xbe193f4e	-0.14965555
248	0x3e360bd6	0.17777953
249	0x3dc19ac5	0.09453348
250	0x3e275ee1	0.16344787
251	0xbc44d5cd	-0.012013865
252	0xbbba891d	-0.0056926147
253	0x3911cd49	0.00013904752
254	0x3daaf6db	0.08347865
255	0xbdc7afff	-0.097503655

encoder.encoder.bias_ih_l0 f4 [128]
0	0x3df33a8d	0.11876402
1	0x3e2c0190	0.16797471
2	0x3d8886a6	0.06666307
3	0xbe091511	-0.13386942
4	0x3d44b7fa	0.048027016
5	0x3c8e9449	0.017404692
6	0x3e3cee97	0.1845039
7	0xbda52aa4	-0.08064774
8	0xbd46521b	-0.048418146
9	0x3e492b85	0.19645508
10	0xbded740e	-0.11594401
11	0x3dca5390	0.098792195
12	0x3e2be760	0.16787481
13	0xbd0d649d	-0.03451978
14	0x3e5b10d6	0.21393141
15	0xbdf1dd7e	-0.118098244
16	0x3e44e6cc	0.19228667
17	0xbe06aa0e	-0.13150808
18	0xbc0e11a7	-0.008671201
19	0x3d27725d	0.04088055
20	0x3e36942b	0.17829959
21	0x3e2b20f4	0.1671179
22	0x3d441de1	0.047880057
23	0x3e13295c	0.14371246
24	0xbdeeaa37	-0.1165356
25	0x3e585115	0.2112468
26	0xbdcea2e1	-0.100896604
27	0x3e11fd56	0.14256796
28	0x3dc7b809	0.09751899
29	0x3e3d248e	0.18470976
30	0x3cbcdfa2	0.023055855
31	0x3e2fc107	0.17163478
32	0x3e4c717b	0.19965164
33	0xbe0e56ac	-0.1390025
34	0x3e189511	0.14900614
35	0xbc26a4b9	-0.010171109
36	0xbe000f8d	-0.12505932
37	0xbc0b7701	-0.008512259
38	0x3e22d970	0.15903258
39	0x3e01c3ed	0.12672396
40	0x3e1f28b0	0.15542865
41	0xbdd5a7b8	-0.104323804
42	0xbda67da0	-0.0812943
43	0xbdb6bce6	-0.08922748
44	0xbdfb7937	-0.12278979
45	0xbdbd8d89	-0.09255511
46	0x3e08765d	0.13326402
47	0xbdc5fcdb	-0.09667369
48	0xbd928902	-0.071550384
49	0xbd985c2e	-0.07439457
50	0x3c6cc05c	0.014450159
51	0x3e1365eb	0.14394347
52	0xbd90d751	-0.07072318
53	0xbe018bd7	-0.12651001
54	0x3d46698b	0.048440497
55	0x3dad3ec5	0.08459238
56	0xbdc76e94	-0.09737888
57	0xbd8c36ef	-0.06846415
58	0xbd9883c9	-0.07447011
59	0xbd9ec792	-0.07752909
60	0x3e3206ec	0.17385453
61	0xbd40070b	-0.046881717
62	0xbdd3203c	-0.103088826
63	0xbd6378ef	-0.055535253
64	0x3d47ec37	0.048809256
65	0xbe1d7a6e	-0.15378734
66	0xbe05a72f	-0.13052057
67	0xbd8e3ff1	-0.069457896
68	0x3e1d4222	0.15357259
69	0xbe086568	-0.13319933
70	0x3d34f682	0.0441804
71	0xbdb1ac91	-0.086754926
72	0xbe0f50d3	-0.13995676
73	0x3dd979fa	0.10618968
74	0xbc86ae2c	-0.016440473
75	0xbe3c3e33	-0.18383102
76	0xbbbdcd26	-0.005792278
77	0x3cfe03d7	0.03100769
78	0xbd69563e	-0.056967013
79	0x3d241d51	0.04006702
80	0x3d9f3d52	0.07775368
81	0x3e3439e0	0.17600203
82	0x3e207d9e	0.15672919
83	0x3cda3552	0.026636753
84	0x3c512f7c	0.012767669
85	0x3e3298cf	0.17441104
86	0x3e010b32	0.12601927
87	0xbdcaeb43	-0.09908154
88	0xbd6f525c	-0.058428153
89	0x3e0ae455	0.13563664
90	0x3dbcbb1c	0.09215376
91	0xbe4692e2	-0.19391969
92	0xbcc33ca2	-0.023832623
93	0x3de4c9df	0.11171316
94	0x3e23154e	0.15926096
95	0x3e2361e5	0.15955313
96	0x3d129864	0.035789862
97	0x3dbeaba5	0.09310082
98	0x3db09aa2	0.08623244
99	0x3de182e8	0.110112965
100	0x3e2138d5	0.15744336
101	0x3e49d9cd	0.1971199
102	0x3e219865	0.1578079
103	0x3e3023a5	0.17201097
104	0x3da6e5c7	0.08149295
105	0x3e57da8d	0.21079464
106	0x3e5b706e	0.21429607
107	0x3e16d5c3	0.14729981
108	0x3e2c5db4	0.1683262
109	0x3e12a3f7	0.1432036
110	0x3e394977	0.18094431
111	0x3de2b21b	0.11069127
112	0xbdbd25d8	-0.09235734
113	0xbe053a83	-0.13010602
114	0x3e0ea95e	0.13931796
115	0xbd911334	-0.07083741
116	0xbdcc343a	-0.09970899
117	0xbdd61813	-0.104538105
118	0xbdbb0fb3	-0.09133854
119	0xbde29853	-0.1106421
120	0x3b54f5d5	0.003249516
121	0x3dffd456	0.12491672
122	0x3e16b423	0.14717154
123	0x3d15daac	0.036585495
124	0x3d8a109e	0.06741451
125	0x3b1d7dbf	0.002403125
126	0xbd55e7b9	-0.05222294
127	0x3e1f2edc	0.15545219

encoder.encoder.bias_hh_l0 f4 [128]
0	0x3e48f960	0.19626379
1	0xbccd26f3	-0.025042986
2	0x3dc29195	0.09500424
3	0xbd7fb082	-0.06242419
4	0x3e515310	0.20441842
5	0x3e5459a4	0.2073732
6	0xbdab52e8	-0.083654225
7	0xbdfe8672	-0.12427987
8	0x3dbb30d4	0.091401726
9	0x3d634aa7	0.055491116
10	0x3e1ed1b0	0.15509677
11	0xbd54750e	-0.051869445
12	0x3e432655	0.19057591
13	0x3e219618	0.15779912
14	0xbd9afef8	-0.07568163
15	0x3d2ca915	0.042153437
16	0x3e4ec7a0	0.20193338
17	0xbe01ff84	-0.12695128
18	0x3ddb05bb	0.106944524
19	0x3d955a1b	0.07292577
20	0xbd44d078	-0.048050374
21	0xbd507c4f	-0.0508998
22	0x3e575ae5	0.21030767
23	0x3e03e220	0.12879229
24	0x3d8ae569	0.06782038
25	0x3b70042a	0.0036623576
26	0x3ccdfc78	0.0251448
27	0xbdf0f6c1	-0.117658146
28	0xbdfc434e	-0.12317525
29	0x3d158c84	0.03651096
30	0xbd8bc6a3	-0.06824996
31	0x3c926acd	0.017873192
32	0x3d7981bf	0.06091475
33	0x3db29dea	0.08721526
34	0x3da24020	0.07922387
35	0xbd951872	-0.07280053
36	0x3e1c3965	0.1525627
37	0xbdb8837f	-0.09009456
38	0x3e5be475	0.21473868
39	0x3cf59905	0.029980192
40	0x3dc55a76	0.09636395
41	0x3e43e80a	0.19131485
42	0xbd803c48	-0.06261498
43	0xbd6a351f	-0.057179566
44	0x3aafcc25	0.001341228
45	0x3e135d39	0.1439103
46	0x3e0a0117	0.13476978
47	0xbdabd1cc	-0.08389625
48	0xbe2909da	-0.16507664
49	0xbd32c67e	-0.04364633
50	0x3db408b5	0.08790723
51	0x3dfa7545	0.12229399
52	0x3d66eb0d	0.056376506
53	0x3d2cec09	0.04221729
54	0x3e4a521e	0.19757888
55	0xbd24fc64	-0.04027976
56	0x3d0fcd33	0.035107803
57	0xbd22a647	-0.039709356
58	0x3d944c9b	0.07241174
59	0xbe160615	-0.14650758
60	0x3ce380f4	0.02777145
61	0x3e3d5281	0.18488504
62	0x3d94facc	0.07274398
63	0x3df61f78	0.12017721
64	0xbde91a8a	-0.11382015
65	0xbde69c70	-0.11260307
66	0x3c057780	0.008146167
67	0xbd723c11	-0.059139315
68	0x3de974dc	0.11399242
69	0x3d822e46	0.06356482
70	0xbda9ae22	-0.08285166
71	0xbe39f839	-0.18161096
72	0x3e055b74	0.13023168
73	0x3e24fc52	0.16111878
74	0x3cd27157	0.02568881
75	0xbc2d964c	-0.010594916
76	0x3d005084	0.031326786
77	0x3e5ad759	0.21371211
78	0x3e2d7d77	0.16942392
79	0xbd01a2b6	-0.031649314
80	0x3db08f80	0.086211205
81	0xbd06567c	-0.03279732
82	0x3e41f86c	0.18942422
83	0xbcd8c08c	-0.026459001
84	0xbd5ec59f	-0.054387685
85	0x3e31a19f	0.1734681
86	0xbd213533	-0.039357375
87	0xbe347325	-0.17622049
88	0xbda60f82	-0.08108427
89	0xbd82cf94	-0.06387249
90	0x3e1c5999	0.15268554
91	0xbe2f6b67	-0.17130814
92	0x3e0fe3b6	0.14051709
93	0x3df6e25e	0.12054895
94	0x3da66138	0.08124012
95	0x3d05b116	0.032639585
96	0x3dd636dd	0.10459683
97	0xbdae3b0b	-0.08507355
98	0x3dc33d48	0.09533173
99	0x3e09f461	0.1347213
100	0x3d0fcb4b	0.035105985
101	0xbc05fc4d	-0.008177829
102	0x3e76ec71	0.24113633
103	0xbd389db7	-0.045072284
104	0xbdc58099	-0.09643669
105	0x3e277759	0.16354121
106	0xbdbd8528	-0.09253913
107	0xbe052b68	-0.1300484
108	0xbdbb43ec	-0.091438144
109	0x3e80484c	0.25055158
110	0xbd8c1020	-0.06839013
111	0x3e354911	0.17703654
112	0x3df4b612	0.1194879
113	0x3e585859	0.21127452
114	0x3d31dae2	0.043421634
115	0x3e0ea045	0.13928325
116	0x3da67f6d	0.08129773
117	0x3e1f1187	0.1553403
118	0x3e3b3ae9	0.18284191
119	0xbd41b071	-0.04728741
120	0xbdcd4c84	-0.1002436
121	0xbd3167ca	-0.04331187
122	0xbc832077	-0.016006691
123	0xbc9b8a4b	-0.018986842
124	0x3ceee0df	0.029159961
125	0xbdc46b4c	-0.09590778
126	0x3e4637fe	0.19357297
127	0x3d09a931	0.03360862

encoder.spatial_embedding.weight f4 [16, 2]
0	0xc018064c	-2.3753843
1	0xbeac2c29	-0.33627442
2	0xbf4b9e9b	-0.7953889
3	0xbee17d4a	-0.440409
4	0x3ff13ab8	1.8846045
5	0xbf4f5a52	-0.8099719
6	0xbf576bd7	-0.84148926
7	0x3f40edd1	0.7536288
8	0x400fa85e	2.2446513
9	0xbf456e17	-0.7712111
10	0x3f35e554	0.7105305
11	0x3f94816f	1.1602
12	0xbf519bf1	-0.8187857
13	0x3e915b48	0.28389955
14	0xbeaa232e	-0.33229965
15	0x3f8f50e7	1.1196564
16	0xbeb18eff	-0.3467941
17	0xbf359caf	-0.70942205
18	0x3e9d4cfd	0.307228
19	0x3f064149	0.5244337
20	0x3fbb2fd2	1.4623969
21	0x3f1b73fc	0.60723853
22	0x3f884876	1.0647113
23	0xbfefbc2d	-1.8729302
24	0xbfe9e0a7	-1.8271683
25	0x3f1287ea	0.5723864
26	0x3edc64dc	0.430457
27	0x3e0cc0a8	0.13745368
28	0x3f8f856e	1.1212595
29	0x3f4c04d4	0.7969487
30	0x3e49b95d	0.19699617
31	0x3f008d37	0.50215477

encoder.spatial_embedding.bias f4 [16]
0	0xbe984894	-0.29742873
1	0x3ed0c1a0	0.40772724
2	0x3ea397f1	0.3195186
3	0xbeb38b15	-0.3506705
4	0x3f2aec96	0.6676725
5	0x3f26a5a2	0.65096486
6	0xbeb616d6	-0.35564297
7	0xbe0ee556	-0.13954672
8	0x3d93aa50	0.07210219
9	0xbf0fada2	-0.5612432
10	0xbf13313c	-0.57497
11	0x3ea4d68c	0.32194936
12	0x3eb2aeee	0.34899086
13	0xbe00df49	-0.12585177
14	0x3eb4f3e6	0.3534233
15	0x3efdb881	0.49554828

decoder.decoder.weight_ih_l0 f4 [128, 16]
0	0xbd2541c0	-0.040345907
1	0xbd0cdb6e	-0.034388952
2	0xbd689a6a	-0.056787886
3	0x3e533a29	0.20627655
4	0xbc46fdd2	-0.012145476
5	0xbd3e7b95	-0.046504576
6	0x3d4799b1	0.048730556
7	0xbe085f2a	-0.13317552
8	0xbdd0a802	-0.10188295
9	0xbd5592b8	-0.052141875
10	0x3df91659	0.121624656
11	0xbe2e963f	-0.17049502
12	0xbe104329	-0.1408812
13	0x3e154660	0.14577627
14	0x3df224cf	0.11823427
15	0xbd922f2e	-0.07137905
16	0xbdc521dc	-0.09625599
17	0xbbc6ff79	-0.006072935
18	0xbd31082e	-0.04322069
19	0x3dce3fe8	0.10070783
20	0xbbe78763	-0.0070657
21	0xbe192f80	-0.14959526
22	0xbe18a64b	-0.14907186
23	0x3e2c5ddc	0.1683268
24	0x3e068fa0	0.13140726
25	0x3da5fd1c	0.081049174
26	0x3d5809c7	0.0527437
27	0xbd08028d	-0.033205558
28	0xbd4bf6c2	-0.049795873
29	0x3e14c80d	0.14529438
30	0x3dee860b	0.116466604
31	0xbdbd7148	-0.09250122
32	0x3db0f4e9	0.08640463
33	0xbd025241	-0.031816725
34	0xbdf90d26	-0.12160711
35	0xbe3fcbcf	-0.1873009
36	0xbcbb03e4	-0.022829004
37	0x3dc38350	0.0954653
38	0xbd0f0514	-0.034916952
39	0x3e6654fc	0.22493356
40	0xbe01be7e	-0.12670323
41	0xbc31a215	-0.010841866
42	0xbcb1e5bb	-0.02171599
43	0xbde20ed2	-0.11037983
44	0xbe3b7a6b	-0.18308417
45	0x3e0cd1aa	0.13751855
46	0x3dff395f	0.124621145
47	0x3e262138	0.1622361
48	0x3cc63a02	0.024197582
49	0x3d44874c	0.04798059
50	0xbde6d98a	-0.11271961
51	0xbe221c85	-0.15831192
52	0x3d8213b4	0.06351414
53	0xbdc21f74	-0.094786555
54	0xbe40748a	-0.18794456
55	0xbccb74a5	-0.024835894
56	0x3dc0672b	0.09394678
57	0x3d86fc4a	0.06591089
58	0xbe13aacd	-0.14420624
59	0x3db578ce	0.08860932
60	0xbda63042	-0.08114673
61	0xbdce6591	-0.10077966
62	0xbd6d7054	-0.057968453
63	0xbc872e0e	-0.016501453
64	0x3dcc33ab	0.099707924
65	0x3d8a9e59	0.06768484
66	0x3d68cff6	0.056838952
67	0xbdb011b5	-0.08597127
68	0x3da7681d	0.08174155
69	0xbe10953a	-0.14119425
70	0xbd25e35a	-0.040500022
71	0xbc6aacf2	-0.01432346
72	0x3c2b9dc5	0.010474627
73	0x3d1f74bf	0.038929697
74	0x3d96e4c3	0.073678516
75	0x3ca86d88	0.020560041
76	0xbd3ebf92	-0.046569414
77	0x3e298292	0.16553715
78	0xbd764be8	-0.060130984
79	0xbe0494e5	-0.12947424
80	0x3e2b3441	0.16719152
81	0x3ddfc9a1	0.109271295
82	0xbc5beac8	-0.013422675
83	0x3d971eeb	0.07378944
84	0x3e331986	0.17490205
85	0xbc685a01	-0.014181615
86	0xbe5f61fd	-0.21814723
87	0x3c2ccea5	0.010547315
88	0x3c8c7655	0.017146269
89	0x3bc11bb9	0.0058931974
90	0x3d8f21bd	0.06988857
91	0x3db289c0	0.0871768
92	0xbc1ce6d3	-0.009576517
93	0xbd2bfceb	-0.04198925
94	0xbc4b7c8f	-0.012419834
95	0x3dfd655c	0.123728484
96	0x3dcb3f30	0.099241614
97	0x3d86715a	0.06564589
98	0x3c50552a	0.012715617
99	0x3cc43584	0.0239513
100	0xbe07ee22	-0.13274434
101	0xbe0bfd85	-0.13670929
102	0x3e021674	0.12703878
103	0x3db87804	0.09007266
104	0xbd9d78ec	-0.0768908
105	0x3daa13f6	0.083045885
106	0x3d7f9abf	0.062403437
107	0x3d915e95	0.07098118
108	0x3d92bde9	0.07165129
109	0x3e2d2f1b	0.169125
110	0x3dd4b975	0.103869356
111	0xbd9ac848	-0.07557732
112	0x3dd79b0c	0.1052762
113	0xbe1e3572	-0.15450075
114	0xbd22f0d1	-0.03978044
115	0xbdcf56ec	-0.10124001
116	0x3e2a0846	0.16604719
117	0x3e0ef7d0	0.1396172
118	0x3a5bd624	0.00083860965
119	0x3dee4038	0.116333425
120	0xbe30e5e3	-0.17275195
121	0x3d14b42f	0.03630465
122	0x3d8f6c10	0.07003033
123	0xbd130b12	-0.03589923
124	0x3db6b8b3	0.08921947
125	0x3bc8aa61	0.0061238264
126	0xbd00992a	-0.03139607
127	0x3e13eb4d	0.14445229
128	0xbcb1d978	-0.021710142
129	0xbcbb48ac	-0.022861801
130	0x3e0a3062	0.13495019
131	0xbe00715a	-0.1254324
132	0xbda9f570	-0.082987666
133	0x3cc7dcb8	0.02439724
134	0x3d904bd8	0.07045716
135	0xbcf903bd	-0.03039729
136	0x3e06bd79	0.13158216
137	0xbdd83b09	-0.10558135
138	0x3db5f09c	0.08883783
139	0xbc4cdda2	-0.012504013
140	0x3e038764	0.12844616
141	0xbcf252cc	-0.029580496
142	0xbda1c8b7	-0.078996114
143	0xbdd3451c	-0.10315916
144	0x3dfd49b7	0.123675756
145	0x3e770238	0.2412194
146	0xbdc9b042	-0.09848072
147	0x3e28cde7	0.16484796
148	0xbd3e8dc4	-0.046521917
149	0xbded534d	-0.11588154
150	0xbdcaba44	-0.098988086
151	0x3d926776	0.0714864
152	0xbe465352	-0.19367722
153	0xbc014888	-0.007890828
154	0xbd9ade49	-0.07561929
155	0xbc134c0c	-0.008990299
156	0xbe5da390	-0.21644425
157	0xbd20b749	-0.039237294
158	0xbd4360db	-0.04769979
159	0x3d96ddbe	0.07366513
160	0xbd765a03	-0.060144436
161	0x3df86df8	0.1213035
162	0xbda3fb72	-0.08006944
163	0xbb5912ca	-0.0033122771
164	0xbda5cff9	-0.08096308
165	0xbdb5b3a7	-0.088721566
166	0x3d90e10b	0.070741735
167	0x3dec5264	0.11539152
168	0x3d77edd1	0.060529534
169	0xbdc50c65	-0.09621505
170	0xbdbbea49	-0.09175546
171	0xbd89923d	-0.06717346
172	0xbd1640d1	-0.036682907
173	0x3d127c00	0.035762787
174	0xbd54aebe	-0.05192446
175	0xbe02fa8d	-0.1279089
176	0x3dd0f186	0.10202317
177	0xbda80b1f	-0.08205246
178	0x3cce5a26	0.02518947
179	0x3cba1120	0.022713244
180	0xbdde31e6	-0.10849361
181	0x3df88dbb	0.12136408
182	0x3d80e0df	0.06292891
183	0xbd2e2f69	-0.042525683
184	0xbe2b67b0	-0.16738772
185	0xbe012298	-0.12610853
186	0xbd592295	-0.053011496
187	0x3cca9538	0.024729356
188	0xbd626e97	-0.055281248
189	0xbd9a4d2f	-0.07534253
190	0x3d66571e	0.056235425
191	0x3d054c74	0.032543615
192	0xbdd8772e	-0.10569607
193	0x3d769a25	0.060205597
194	0xbda648fe	-0.08119391
195	0xbd488694	-0.04895647
196	0x3d3c70d2	0.04600603
197	0xbd9fbbb5	-0.07799474
198	0xbe15a14e	-0.14612314
199	0x3c22b1fc	0.00993013
200	0x3d03c43b	0.03216956
201	0x3ca8c6b3	0.02060256
202	0x3c8a975b	0.016917875
203	0xbde57741	-0.112043865
204	0x3d3a8bba	0.04554341
205	0xbd8e2da0	-0.06942296
206	0x3b6b2a62	0.0035883416
207	0xbdfdf8b1	-0.1240095
208	0x3e0e8bc0	0.13920498
209	0xbd97392a	-0.0738395
210	0xbe2d7f4b	-0.1694309
211	0xbdb02ad1	-0.086019166
212	0x3db730d8	0.08944863
213	0x3d172d1a	0.036908247
214	0x3d377ccd	0.044796754
215	0x3e54473f	0.20730303
216	0xbd8cc343	-0.06873181
217	0x3db88c0a	0.09011085
218	0x3d2e6293	0.042574476
219	0x3e15a984	0.14615446
220	0xbbb8c431	-0.005638622
221	0xbe012288	-0.12610829
222	0xbd04e38b	-0.032443564
223	0xbdaf5753	-0.08561578
224	0xbdc6b97e	-0.097033486
225	0x3e13e991	0.14444567
226	0xbe302f58	-0.1720556
227	0xbe02a38d	-0.12757702
228	0xbb902283	-0.0043986454
229	0xbd1b3845	-0.03789546
230	0xbd19165f	-0.03737485
231	0x3e142e65	0.14470823
232	0xbcee8383	-0.029115444
233	0xbd638e96	-0.055555902
234	0xbda74ffe	-0.08169554
235	0x3de826d7	0.11335533
236	0x3d9df7ff	0.07713317
237	0xbd8554c4	-0.065103084
238	0xbd280d0d	-0.04102807
239	0xbdce6a4d	-0.10078869
240	0xbdac7bae	-0.084220275
241	0xbd168fd7	-0.03675827
242	0x3e20983c	0.15683073
243	0xbdb8b61b	-0.09019109
244	0x3dd2605f	0.102722876
245	0x3daffb84	0.08592895
246	0xbd27bf5a	-0.04095397
247	0x3cb4f8a1	0.022091212
248	0x3df80583	0.12110426
249	0x3dbd0f0f	0.09231388
250	0xbd2bee77	-0.041975465
251	0x3d94a0ba	0.07257219
252	0xbe1aff10	-0.15136361
253	0xbdc3bca0	-0.09557462
254	0x3bac94fc	0.0052667838
255	0xbde258a6	-0.110520646

decoder.decoder.weight_hh_l0 f4 [128, 32]
0	0x3d110059	0.035400722
1	0x3e486516	0.19569811
2	0xbe1ab655	-0.15108617
3	0x3d6568d4	0.056008175
4	0x3e1cda0a	0.1531755
5	0xbe0ecd1b	-0.13945429
6	0x3d0a7d03	0.033810627
7	0xbdc2dc32	-0.09514655
8	0x3ceae2cd	0.0286726
9	0xbcba7413	-0.022760427
10	0x3e14dad0	0.14536595
11	0xbdf16d10	-0.1178838
12	0xbe586b6b	-0.21134727
13	0x3d98c09b	0.074586116
14	0xbd55782b	-0.052116554
15	0x3d2f294e	0.042764
16	0xbb47c63f	-0.0030483154
17	0xbdadfaa2	-0.0849507
18	0xbd83d26f	-0.064366214
19	0x3e370334	0.17872316
20	0x3e29817f	0.16553305
21	0x3e68e75e	0.2274451
22	0x3dc578fe	0.09642218
23	0x3e735783	0.23763852
24	0xbe31dd94	-0.17369682
25	0x3c482b81	0.012217403
26	0x3e419554	0.1890462
27	0xbe131dd3	-0.14366846
28	0xbe276aa7	-0.16349278
29	0xbde429d1	-0.11140788
30	0x3e19be9a	0.15014115
31	0x3e1d3cbd	0.15355201
32	0x3e3e2690	0.18569398
33	0xbd5d5690	-0.05403763
34	0x3bfb7487	0.0076738033
35	0xbe38e2ba	-0.1805524
36	0xbdedf105	-0.116182365
37	0x3e689c6d	0.22715922
38	0xbe1b84ad	-0.1518733
39	0xbdef585b	-0.11686774
40	0xbde8d6b4	-0.11369076
41	0xbd366142	-0.044526346
42	0xbdde0435	-0.10840646
43	0xbdc6dc4d	-0.09709988
44	0x3dc4f958	0.09617871
45	0xbe17395f	-0.14767979
46	0xbdbbe8c0	-0.09175253
47	0xbd0d9d1f	-0.03457367
48	0xbdb63877	-0.088974886
49	0xbda67e79	-0.081295915
50	0x3e2264fc	0.15858835
51	0xbd6a9d99	-0.057279203
52	0xbe11651d	-0.14198728
53	0xbe2fce18	-0.17168462
54	0xbd8c478f	-0.06849586
55	0x3ccff7e3	0.025386756
56	0x3e19bc8e	0.15013334
57	0x3e010fa2	0.1260362
58	0xbd8c643a	-0.06855054
59	0xbe1c2f05	-0.15252312
60	0x3b4301ea	0.002975578
61	0x3cbb1cb3	0.022840833
62	0xbc863b05	-0.016385565
63	0xbe0ccc2c	-0.1374976
64	0xbda21ab1	-0.07915247
65	0xbc8d6b51	-0.017263087
66	0x3d9ea059	0.07745428
67	0xbe164ff6	-0.1467894
68	0x3e114d64	0.14189678
69	0xbe25a910	-0.16177773
70	0x3dbe18ac	0.092820495
71	0xbb178f35	-0.002312613
72	0xbe3eb44b	-0.18623464
73	0x3d885f44	0.066587955
74	0xbdabd2cb	-0.08389815
75	0x3c4daf5a	0.012554014
76	0x3d400792	0.04688222
77	0xbe0a5a8e	-0.13511106
78	0x3df14995	0.11781613
79	0x3e07bdea	0.1325604
80	0x3e353f3f	0.17699908
81	0x3d96ddb3	0.073665045
82	0xbe1f29a2	-0.15543225
83	0xbda339dc	-0.0797002
84	0xbca81b42	-0.02052081
85	0x3d3f899c	0.046762094
86	0x3e1cc306	0.1530877
87	0xbe11788b	-0.1420614
88	0xbe3065c4	-0.1722632
89	0x3e21a818	0.15786779
90	0xbc21adfb	-0.00986814
91	0xbdad3e1a	-0.084591106
92	0x3e37deaa	0.17956033
93	0xbe37baf5	-0.17942412
94	0xbe37d50e	-0.17952368
95	0x3e1e7c9a	0.15477219
96	0xbd999ee8	-0.07501012
97	0x3d131b94	0.035914972
98	0xbd1e28ad	-0.03861301
99	0x3df97922	0.121813074
100	0x3dd124c0	0.10212088
101	0xbda51ddc	-0.08062336
102	0xbd865a7a	-0.06560226
103	0xbdd460f8	-0.10370058
104	0xbe0dba65	-0.13840635
105	0xbd82e73a	-0.06391759
106	0xbcc66bc1	-0.024221303
107	0x3e524f54	0.20538074
108	0x3e254d73	0.16142826
109	0x3dcdb372	0.10043992
110	0xbd6f39df	-0.0584048
111	0x3dc851f8	0.09781259
112	0x3dbf0a8a	0.09328182
113	0xbe039140	-0.12848377
114	0xbde41049	-0.11135919
115	0x3b7d975c	0.0038694954
116	0xbd9363a9	-0.07196743
117	0x3b4d39db	0.0031315002
118	0x3d2c9bd7	0.042140808
119	0x3cfb6618	0.03068833
120	0x3e13b7b0	0.1442554
121	0x3e49f1d0	0.1972115
122	0xbdf3efbc	-0.1191096
123	0x3cedd993	0.029034412
124	0xbd24e5df	-0.040258285
125	0xbd253f01	-0.04034329
126	0x3dc26f8d	0.09493933
127	0x3dd9c5c6	0.106334254
128	0x3d378095	0.04480036
129	0xbc455175	-0.012043347
130	0x3d8c5500	0.0685215
131	0xbcb86f43	-0.022513991
132	0xbc205a74	-0.009787191
133	0x3defcefb	0.117094
134	0x3dad65a9	0.08466656
135	0xbe242ff6	-0.1603392
136	0x3c2db5cb	0.010602425
137	0xbd64956d	-0.055806566
138	0xbe001bd8	-0.12510622
139	0x3e23eea0	0.16008997
140	0x3e172437	0.14759909
141	0x3c8e4cc7	0.017370595
142	0x3d82291b	0.063554965
143	0xbe1a3669	-0.15059818
144	0x3ded3aa3	0.1158345
145	0x3e08528b	0.13312738
146	0xbd7f9bfd	-0.06240462
147	0xbdcb6447	-0.09931236
148	0x3deac40d	0.11463175
149	0xbe119b27	-0.14219342
150	0x3e149d2b	0.1451308
151	0x3e51ab77	0.20475565
152	0x3e07a679	0.13247098
153	0x3e0f44c1	0.13991071
154	0xbd7bb2b9	-0.06144974
155	0x3d960112	0.07324423
156	0x3dae653e	0.08515404
157	0xbd738bf0	-0.059459627
158	0xbd4e03b4	-0.0502965
159	0xbd5a8963	-0.05335368
160	0xbd24740b	-0.04014973
161	0x3e1d5efe	0.15368268
162	0x3df5b320	0.11997056
163	0xbd0fcbc2	-0.035106428
164	0xbc56a7c1	-0.013101519
165	0xbdeff385	-0.117163695
166	0xbd9d692c	-0.076860756
167	0xbde49d27	-0.11162787
168	0xbc2bc78b	-0.0104845865
169	0x3e4f4800	0.2024231
170	0x3e073254	0.13202792
171	0x3d79cf23	0.060988557
172	0x3e1da5db	0.153953
173	0x3d2967f3	0.0413589
174	0x3d116796	0.035499178
175	0x3e28d386	0.1648694
176	0x3e35cf43	0.17754845
177	0xbcc3e864	-0.023914523
178	0x3e3a8c90	0.18217683
179	0x3d59ad83	0.05314399
180	0x3c18f251	0.0093351165
181	0xbdf94889	-0.12172038
182	0x3d93c06f	0.07214438
183	0xbe0a2d4f	-0.13493846
184	0xbd017292	-0.031603403
185	0xbd29c60c	-0.041448638
186	0xbe1ad668	-0.15120852
187	0x3de55a6c	0.11198887
188	0x3d05ca9c	0.032663926
189	0x3e19bb3e	0.15012833
190	0x3cf87c6a	0.030332763
191	0x3d20abda	0.03922639
192	0xbd4c2efc	-0.049849495
193	0xbde3412a	-0.110964134
194	0x3d055be1	0.032558326
195	0x3d0d87ab	0.03455321
196	0xbc1ffedd	-0.009765354
197	0xbdb94f33	-0.09048309
198	0x3cf1974f	0.029491095
199	0x3da2a133	0.079409026
200	0xbdd879b2	-0.105700865
201	0x3def443d	0.11682937
202	0xbe3dd20b	-0.18537156
203	0x3dc0eeba	0.094205335
204	0x3e28d1ae	0.16486236
205	0xbdd6a1cf	-0.10480081
206	0x3dfa76bb	0.12229677
207	0xbdc4d901	-0.09611703
208	0xbc1de42f	-0.009636923
209	0x3bd6286f	0.006535582
210	0xbd855c71	-0.065117724
211	0x3c5a5d9b	0.013327981
212	0xbb6fa677	-0.0036567727
213	0x3d2c086d	0.042000223
214	0xbc26c383	-0.01017845
215	0x3b9c8c97	0.004777502
216	0xbe290ad5	-0.16508038
217	0xbd9501a4	-0.072757035
218	0xbda5e2fc	-0.080999345
219	0xbe68beb0	-0.22728992
220	0xbe23a390	-0.15980363
221	0xbdb5206d	-0.08844075
222	0x3d8aadcb	0.0677143
223	0xbd86dd4f	-0.0658518
224	0xbc307724	-0.010770593
225	0x3e0b9536	0.13631138
226	0x3d0bc93d	0.034127463
227	0xbe0413ab	-0.12898128
228	0xbc21178c	-0.009832274
229	0xbe185e87	-0.1487981
230	0x3e2447e6	0.16043052
231	0xbe060a53	-0.13089876
232	0xbe268e0f	-0.16265129
233	0x3d4408f4	0.0478601
234	0x3b7f0939	0.003891541
235	0xbe192383	-0.14954953
236	0x3d95e01c	0.07318136
237	0x3df816d4	0.12113729
238	0x3c58082c	0.013185542
239	0x3d5e3aa9	0.05425516
240	0x3e80039b	0.2500275
241	0x3deaddc5	0.114680804
242	0xbdc29905	-0.095018424
243	0xbe2defb9	-0.16985978
244	0x3e9645e5	0.293502
245	0x3dd5742b	0.10422548
246	0xbdaea42a	-0.085274056
247	0x3c8c0f90	0.017097265
248	0x3e3a857a	0.1821498
249	0xbd810a90	-0.06300843
250	0xbdd7335d	-0.10507844
251	0x3d9d2684	0.07673362
252	0x3d973293	0.07382693
253	0xbda5fa77	-0.08104413
254	0xbc5c16f0	-0.013433203
255	0xbd95aa97	-0.07307928

decoder.decoder.bias_ih_l0 f4 [128]
0	0xbdf4dc1b	-0.11956044
1	0x3def7220	0.116916895
2	0xbe0cdaeb	-0.13755386
3	0xbb731fcb	-0.0037097808
4	0x3e1bf8ff	0.15231703
5	0x3c86291a	0.01637702
6	0xbd867564	-0.06565359
7	0xbd9c1ed3	-0.07623067
8	0xbe003aad	-0.12522383
9	0x3e2e2466	0.17006072
10	0x3e365d6a	0.17809072
11	0xbd9b39f5	-0.07579414
12	0x3e418de5	0.18901785
13	0x3e0eecab	0.13957469
14	0xbdee808f	-0.11645614
15	0x3c198d70	0.0093721
16	0xbda1e0a5	-0.07904176
17	0x3e0438f2	0.12912348
18	0x3dfc6557	0.123240165
19	0xbba6e323	-0.005092995
20	0xbda44651	-0.08021224
21	0xbdb2961a	-0.08720036
22	0xbb9d5a7a	-0.0048020454
23	0xbe19eaaf	-0.15030931
24	0xbe1408f1	-0.14456536
25	0x3de850f6	0.11343567
26	0x3e0b6d18	0.13615835
27	0xbc67d28c	-0.014149319
28	0xbded42a5	-0.11584977
29	0xbddb518e	-0.10708915
30	0x3d88857b	0.066660844
31	0xbdef8d75	-0.11696903
32	0xbd4000ba	-0.046875693
33	0xbe07d562	-0.13264993
34	0x3db96791	0.09052957
35	0xbcefa307	-0.029252542
36	0xbd8ee42d	-0.06977115
37	0xbe2a5466	-0.16633758
38	0xbc3ecad9	-0.011645042
39	0x3d156dbc	0.036481604
40	0x3d64bcaa	0.055843987
41	0x3d0666c8	0.032812864
42	0x3c5cba94	0.013472218
43	0xbbfd69eb	-0.0077335737
44	0xbe22dbf5	-0.1590422
45	0x3df0b1d3	0.11752667
46	0xbb4a6610	-0.0030883588
47	0x3df8a560	0.12140918
48	0x3dc3b1ce	0.09555398
49	0xbd7362c3	-0.05942036
50	0x3c51c6a1	0.0128037045
51	0x3e483609	0.19551863
52	0x3e5f463e	0.21804139
53	0x3d48bc36	0.049007617
54	0xbc222f25	-0.009898935
55	0x3e25cace	0.16190645
56	0xbe214945	-0.15750606
57	0xbe2ca903	-0.16861348
58	0x3da48470	0.08033073
59	0x3e0925fc	0.13393396
60	0x3d8c226e	0.068425044
61	0x3d884202	0.06653215
62	0xbde39b42	-0.111135975
63	0xbe0ed909	-0.1394998
64	0x3d26cd65	0.040723223
65	0xbdbd5436	-0.092445776
66	0x3e21357a	0.15743056
67	0xbd9e0adf	-0.07716917
68	0xbcbdf6d7	-0.023188991
69	0x3d2ee9e6	0.04270353
70	0x3e161f95	0.14660485
71	0xbe40204c	-0.1876232
72	0xbcef789e	-0.02923232
73	0xbdfaa9ba	-0.12239404
74	0xbdac991a	-0.08427639
75	0xbe0b5c11	-0.1360934
76	0xbd235f89	-0.03988603
77	0xbe25292e	-0.1612899
78	0x3de33dd5	0.11095778
79	0xbc0da63e	-0.008645592
80	0xbdcdfc6f	-0.100579135
81	0x3da20b1a	0.07912274
82	0xbde9b8dc	-0.11412212
83	0x3e0b28a5	0.13589723
84	0xbe011549	-0.12605776
85	0x3dcc93c9	0.09989125
86	0x3dde3f17	0.10851877
87	0x3dbd695a	0.0924861
88	0x3e111c0a	0.14170852
89	0x3d9a1aff	0.0752468
90	0xbd231501	-0.039814953
91	0x3c57260e	0.013131632
92	0x3e2bc6ca	0.16775051
93	0x3da24103	0.07922556
94	0x3d9f9239	0.07791562
95	0xbc426050	-0.011863783
96	0x3dc8d0b7	0.09805434
97	0xbe0d4631	-0.13796307
98	0x3df2a877	0.11848538
99	0x3e3844fa	0.17995062
100	0xbda21da0	-0.07915807
101	0xbe13064a	-0.14357868
102	0xbdbbbcd8	-0.091668785
103	0x3e16b68b	0.14718072
104	0x3e216dae	0.15764496
105	0xbe135759	-0.14388789
106	0x3d885aab	0.066579185
107	0xba6d8a91	-0.00090614805
108	0x3e23f592	0.16011646
109	0x3d455675	0.048178155
110	0x3e16dd52	0.14732864
111	0xbe2de006	-0.1697999
112	0xbd9611a3	-0.07327583
113	0xbd85d37d	-0.06534479
114	0xbe18a3b1	-0.14906193
115	0xbdfac498	-0.122445285
116	0x3d99e09f	0.07513546
117	0x3d6e77a4	0.058219567
118	0x3bd196b8	0.006396141
119	0x3e350f47	0.17681609
120	0xbd8340f2	-0.06408872
121	0xbe115cfb	-0.14195625
122	0xbe258bb9	-0.16166581
123	0x3e0252a0	0.12726831
124	0x3e049673	0.12948017
125	0x3d8ae2ae	0.06781517
126	0xbd9b4ff1	-0.07583607
127	0xbd807097	-0.06271475

decoder.decoder.bias_hh_l0 f4 [128]
0	0xbbdc325d	-0.006719871
1	0xbda7aa51	-0.08186782
2	0xbdc49ccd	-0.0960022
3	0xbe0dcb65	-0.1384712
4	0x3c7b64c9	0.015343853
5	0x3d97f499	0.074197
6	0x3d7e88bf	0.06214213
7	0x3d095a8d	0.03353362
8	0x3e1be3c8	0.1522361
9	0x3dbddb12	0.092703
10	0xbdab51d9	-0.083652206
11	0xbe2d10e4	-0.16900975
12	0xbdaecf28	-0.08535606
13	0x3c3e214c	0.011604618
14	0x3df22335	0.118231215
15	0x3ba49243	0.0050223186
16	0xbdc63ba0	-0.09679341
17	0x3da5e81c	0.08100912
18	0x3c5837b6	0.013196876
19	0xbd41024b	-0.047121327
20	0x3ca5bfd7	0.020233078
21	0x3e41c5c5	0.189231
22	0xbe00f943	-0.12595086
23	0xbe0acd71	-0.13554932
24	0x3e2a1dcc	0.16612929
25	0x3d84501d	0.06460593
26	0xbd1e1c5c	-0.038601264
27	0x3dd8c173	0.105837725
28	0xbdd28a37	-0.10280269
29	0x3dd23908	0.10264784
30	0xbe067f91	-0.131346
31	0xbe0535f3	-0.13008861
32	0x3d2c6a3e	0.042093508
33	0xbe166aa3	-0.14689116
34	0x3d83f98b	0.06444081
35	0xbd57f2a3	-0.05272163
36	0x3dfcf0b6	0.123505995
37	0x3dee616a	0.11639674
38	0x3e28676f	0.16445707
39	0x3e37e52d	0.17958517
40	0x3e2e4aad	0.17020674
41	0x3e61c38b	0.2204725
42	0x3e0128dc	0.12613243
43	0xbd9032d1	-0.070409425
44	0xbd491857	-0.049095478
45	0x3e14f7d1	0.1454766
46	0xbe20c16f	-0.15698789
47	0xbe2427f4	-0.16030866
48	0x3d74e3ae	0.059787445
49	0xbd5630f5	-0.052292783
50	0xbd7c35ea	-0.061574854
51	0x3db32c0c	0.08748636
52	0x3ce23abf	0.027615903
53	0x3d1de87a	0.038551785
54	0xbdeafb14	-0.114736706
55	0x3e00d78f	0.12582229
56	0x3d3ac632	0.04559917
57	0x3e164bda	0.14677373
58	0x3e12b5dd	0.14327188
59	0xbd880dfe	-0.06643294
60	0x3c8fcd98	0.01755409
61	0xbe2d7959	-0.16940822
62	0xbd82dd53	-0.063898705
63	0xbda9ea30	-0.08296621
64	0xbd4001ed	-0.046876837
65	0xbe17eab0	-0.1483562
66	0xbdb11965	-0.08647422
67	0x3d2496fc	0.040183052
68	0x3ce0afbb	0.027427545
69	0xbe1ffa7b	-0.15622894
70	0x3e0934ff	0.13399123
71	0x3dc67abb	0.09691378
72	0xbe00f28f	-0.12592529
73	0x3c9d7f0b	0.019225618
74	0xbb96b8ff	-0.00459969
75	0x3e164619	0.14675178
76	0xbbd76a9e	-0.006573989
77	0xbdac2ff5	-0.084075846
78	0xbe112024	-0.14172417
79	0xbc29c6c8	-0.010362335
80	0x3c8fd8e9	0.017559486
81	0x3e080b93	0.13285665
82	0x3cce0e92	0.025153432
83	0xbd288504	-0.04114248
84	0x3d966245	0.07342962
85	0xbd9f20f9	-0.07769961
86	0xbb948398	-0.0045322888
87	0xbe257574	-0.16158086
88	0x3d86aeab	0.06576284
89	0x3ddf9264	0.10916594
90	0x3dbf1585	0.093302764
91	0x3d5ee784	0.05442001
92	0x3e31ab06	0.17350397
93	0xbe2013e9	-0.15632595
94	0x3ddc319b	0.10751649
95	0xbd8e328f	-0.06943237
96	0x3d8c7f31	0.06860197
97	0x3e22fd0f	0.15916847
98	0x3e190854	0.14944583
99	0x3d9a8a71	0.07545937
100	0xbc4a5735	-0.012349893
101	0x3db4927e	0.08817004
102	0x3e0d9b41	0.13828756
103	0xbe174602	-0.147728
104	0xbd7e2fdb	-0.062057357
105	0x3dc2690a	0.09492691
106	0x3e342bf7	0.17594896
107	0x3d81abdc	0.06331608
108	0x3e27b96f	0.16379331
109	0x3bc10ccb	0.0058914176
110	0xbdd5c710	-0.10438359
111	0xbd3aa767	-0.045569804
112	0x3c2ccc11	0.0105467
113	0x3e13fd42	0.14452079
114	0x3ce8d508	0.028421894
115	0x3d1a39fc	0.037652954
116	0x3cf196d0	0.029490858
117	0xbd8056be	-0.06266545
118	0xbdf1c150	-0.118044496
119	0x3ce19153	0.027535116
120	0x3d959587	0.07303911
121	0xbdb7b5e5	-0.089702405
122	0xbdffb583	-0.124857925
123	0xbe14a3ee	-0.14515659
124	0x3e1e5d96	0.15465388
125	0x3cba9313	0.022775209
126	0xbd7e1011	-0.06202704
127	0xbd7eda60	-0.062219977

decoder.spatial_embedding.weight f4 [16, 2]
0	0xbf566ec3	-0.8376276
1	0xbd06140d	-0.032733966
2	0x3f3d0ca9	0.7384744
3	0xc003243e	-2.049087
4	0x3fc3d061	1.5297967
5	0xbf078bf0	-0.529479
6	0x3fb9172e	1.4460199
7	0x3f59dd45	0.85103256
8	0x3e110afc	0.14164346
9	0x3f85d891	1.0456716
10	0x3fb2b234	1.3960633
11	0x3f84f8b0	1.0388393
12	0x3f2a23b7	0.66460747
13	0xbed7136a	-0.42007
14	0x3c0c08f6	0.008547058
15	0xbf80003a	-1.0000069
16	0xc049ac3e	-3.1511378
17	0x3ec1be39	0.3784044
18	0xbec8d30f	-0.39223525
19	0xbfac36f1	-1.3454267
20	0xbebea203	-0.3723298
21	0x3f890db9	1.0707313
22	0xbf8a8558	-1.0821943
23	0x3d2b8f5b	0.04188476
24	0xbf779cef	-0.96723837
25	0x3e6a6459	0.22889842
26	0x3f105e5b	0.56393975
27	0xbf93d5e9	-1.1549655
28	0xbe40a63c	-0.18813413
29	0xbe17e483	-0.14833264
30	0x3e4ee36f	0.20203947
31	0x3e75daa2	0.24009183

decoder.spatial_embedding.bias f4 [16]
0	0x3e67b62b	0.22628085
1	0x3e1cd043	0.1531382
2	0xbf1114ba	-0.5667225
3	0xbe0207f7	-0.12698351
4	0xbeb08b4a	-0.3448127
5	0xbf349a5f	-0.7054805
6	0xbef9f51a	-0.4881981
7	0xbec3bf73	-0.38232002
8	0xbe06e670	-0.13173842
9	0xbe0a48d3	-0.13504343
10	0x3cd56af1	0.02605197
11	0x3ef22879	0.47296503
12	0xbd88f07c	-0.06686494
13	0xbed380d9	-0.4130924
14	0xbe341b76	-0.175886
15	0xbf363d90	-0.71187687

decoder.hidden2pos.weight f4 [2, 32]
0	0xbf0a9575	-0.54134303
1	0x3cdd4f91	0.02701548
2	0x3e127957	0.143041
3	0x3e6c7131	0.23090054
4	0x3e0085fc	0.12551111
5	0x3e216f11	0.15765025
6	0x3d89a822	0.06721522
7	0xbe47a2c1	-0.1949568
8	0xbd032562	-0.032018073
9	0x3e1eb204	0.15497595
10	0x3e0d0a0a	0.13773361
11	0x3e5be58f	0.21474288
12	0xbe6b3a5a	-0.22971478
13	0x3e130762	0.14358285
14	0x3e38e0cc	0.18054503
15	0xbae5210c	-0.0017481162
16	0x3db586d3	0.08863606
17	0x3e8dee60	0.27720928
18	0xbd1c0e28	-0.038099438
19	0xbeae26b5	-0.34013906
20	0x3e9278f5	0.28607908
21	0x3d1c0e3c	0.038099512
22	0x3e95b3f2	0.2923885
23	0xbe08f77e	-0.13375661
24	0x3e2d83ee	0.16944858
25	0xbe86d5e1	-0.26335052
26	0xbe0e65db	-0.13906042
27	0x3f31373d	0.6922491
28	0xbe6a7967	-0.22897874
29	0x3ec1de2f	0.37864825
30	0x3c9d4e43	0.019202357
31	0x3ee8b1f1	0.4544826
32	0x3d9e4067	0.077271275
33	0x3e7ecf58	0.24883783
34	0xbe83b461	-0.25723556
35	0x3d4cd267	0.050005343
36	0xbee23aba	-0.4418543
37	0x3e7e62e6	0.24842414
38	0xbea81c72	-0.32834202
39	0xbeab2950	-0.33429956
40	0xbcb28c68	-0.021795467
41	0x3db64342	0.08899547
42	0x3d4aec89	0.049541984
43	0xbe9df9c7	-0.30854627
44	0x3e97f1bf	0.29676625
45	0x3eb67ad2	0.3564058
46	0x3e16f3d3	0.14741449
47	0x3da26e4d	0.079311945
48	0xbd72666d	-0.059179712
49	0xbdd0e2e0	-0.10199523
50	0x3e755d5b	0.23961394
51	0xbc0dad1a	-0.008647228
52	0xbdb329f7	-0.087482385
53	0x3e163cc5	0.14671619
54	0xbe212ac1	-0.15738966
55	0x3c9f4f17	0.019446893
56	0xbec30472	-0.3808933
57	0x3cff78cd	0.031185532
58	0x3f0e92cf	0.5569276
59	0xbe6842b7	-0.226817
60	0x3e6a4761	0.22878791
61	0x3d64de04	0.055875793
62	0xbf266e3b	-0.6501195
63	0xbda8729c	-0.08224985

decoder.hidden2pos.bias f4 [2]
0	0x3d9b8fba	0.07595773
1	0xbc2c9210	-0.010532871

pool_net.spatial_embedding.weight f4 [16, 2]
0	0x3df736dc	0.120710105
1	0x4027cb26	2.6217742
2	0xbdd97026	-0.10617094
3	0xbfc1eca4	-1.5150342
4	0xbf08f3b6	-0.53496873
5	0xbf7c9341	-0.9866219
6	0x3a85f4be	0.0010220034
7	0xbf5744fb	-0.8408963
8	0x3f8a6116	1.0810878
9	0xc0334953	-2.8013504
10	0x3f15d7ca	0.5853239
11	0x3f56a151	0.838399
12	0xbfd4407b	-1.6582178
13	0x3e991fa9	0.29906967
14	0x3fb9bdce	1.4511049
15	0x3fcc4f83	1.5961765
16	0xbf685994	-0.90761685
17	0x3fd5dcd6	1.6708019
18	0x3ec4bc85	0.3842508
19	0x3f78e919	0.9723068
20	0xbfe11d2e	-1.758703
21	0xbf339ddb	-0.70162743
22	0xbf3ad9a2	-0.7298833
23	0xbee4cf3b	-0.44689354
24	0x3f4b0959	0.7931114
25	0xbf1246a8	-0.5713906
26	0x3c75048a	0.0149546955
27	0xbe761772	-0.24032381
28	0xbf8d2f5b	-1.1030077
29	0xbf9bbfcd	-1.2167908
30	0xbe0b0409	-0.13575758
31	0xbfbfe7f4	-1.4992661

pool_net.spatial_embedding.bias f4 [16]
0	0xbef42063	-0.4768096
1	0xbeea8497	-0.45804283
2	0xbf090ae9	-0.5353227
3	0xbf2d8e13	-0.67794913
4	0xbde9900d	-0.11404429
5	0x3e865bec	0.26242006
6	0x3e576e3f	0.2103815
7	0x3f32fbdf	0.69915575
8	0xbf0f0d3e	-0.5587958
9	0x3f112c99	0.56708676
10	0x3efdb6c5	0.49553505
11	0x3f225fde	0.6342753
12	0x3f3386b7	0.70127434
13	0x3db251fa	0.08707042
14	0x3f0c8444	0.5488932
15	0xbe328152	-0.17432144
