scripts/models/sgan-p-models/zara1_8_model.pt (torch_old, 190166 bytes, 24 tensors)

encoder.encoder.weight_ih_l0 f4 [128, 16]
000000 9a 4a 99 3c 5e 55 de bc 64 99 4b bd 09 1c d5 bd
       0.01871233 -0.027140316 -0.04970683 -0.10405738
000010 d5 81 e0 3b 4f 49 81 3d b2 59 08 3e 4d 58 34 3e
       0.0068514147 0.06312811 0.13315466 0.17611809
000020 b5 81 7f bd 0f 72 00 3e f5 3d c9 bd 50 ba f9 3d
       -0.062379558 0.1254351 -0.098262705 0.121937394
000030 9a 8c 10 3d 4b a2 38 be be f6 9c 3b c7 3e 4f be
       0.035290338 -0.1803066 0.004790156 -0.20238791
000040 c0 64 06 be 7c 52 80 3d 22 b6 b0 3d c1 30 f4 3d
       -0.1312437 0.06265733 0.08628489 0.119233616
000050 e7 1a ba 3d 52 c5 5c bd d1 52 de 3d 7f db d8 3d
       0.090871625 -0.053899117 0.1085564 0.105887406
000060 45 a3 59 be 4b f9 24 3e e2 1d ca bd 77 64 44 3e
       -0.21253689 0.16110723 -0.09868981 0.1917895
000070 1f b3 07 be 08 c0 d1 3d f1 74 87 bd 5a 24 b0 bd
       -0.13251923 0.10241705 -0.06614102 -0.086006835
000080 b3 96 82 3d 94 55 04 be 67 4d 2c 3c a0 0b 90 3c
       0.063764 -0.1292327 0.010516501 0.017583668
000090 7e b5 a5 bd e7 b6 84 3d 26 d5 c3 bd d7 af 87 3d
       -0.080912575 0.06480198 -0.09562139 0.06625336
0000a0 bc 8f 15 3e aa bc c5 3d 65 d7 af bd fb c5 24 3d
       0.14605612 0.096551254 -0.08586005 0.04022787
0000b0 a9 ce d7 bd 14 dc 9f bd c3 28 f5 bc d1 4d ab 3d
       -0.10537464 -0.078056484 -0.029926663 0.08364452
0000c0 8c 96 17 3e a1 24 0b bc 0b 58 e7 bd cf ef d6 3d
       0.14803523 -0.00849262 -0.1129609 0.104949586
0000d0 bd 1f c6 3d 48 61 02 bc cf 02 ba 3d 90 2c 42 b8
       0.09674022 -0.007957764 0.09082567 -4.6294706e-05
0000e0 88 88 03 3d 1d 79 7c 3e 48 6b 58 3e d4 b5 6f 3e
       0.03211263 0.24655576 0.21134675 0.23409206
0000f0 f4 62 4c bc 80 65 92 3d db 1e b1 bc 97 df 33 be
       -0.012474764 0.07148266 -0.021621158 -0.17565762
000100 12 ec 2c be 52 4c 80 3d 7e bf 9f 3d 19 3d f1 bd
       -0.16886929 0.06264557 0.07800196 -0.117792316
000110 f3 35 c5 bd 7b b8 f6 3d 08 0c 83 bc d5 1c ff 3d
       -0.096294306 0.120469056 -0.015996948 0.12456671
000120 eb c6 e7 bd 69 49 25 3e 1e 57 fb bd 57 aa f1 3d
       -0.113172375 0.16141285 -0.12272476 0.11800068
000130 35 bc 4d bc 50 d8 0c 3e 2b 5b ed bd 5b 01 19 bd
       -0.012557079 0.13754392 -0.115896545 -0.03735481
000140 5c d2 24 3c f4 b7 2c 3e c8 38 17 bd 4a 54 37 3d
       0.010059919 0.16867048 -0.036919385 0.04475812
000150 a4 b5 86 3e 95 d5 6b 3e af 3c 14 3e 4c 70 31 bd
       0.26310456 0.23030694 0.14476274 -0.043319985
000160 23 c8 6c be e3 2e 1d 3d 0b 6d b8 3c f1 92 e9 3d
       -0.23123221 0.038374793 0.022512933 0.1140498
000170 11 91 77 3d ad a7 c2 3d d3 a3 c0 bc 10 a8 be bc
       0.06044108 0.09504638 -0.023515617 -0.023273498
000180 de 2a 4a bd 7f ed 0f be bb 42 a8 bd 09 f5 09 3e
       -0.049357288 -0.14055441 -0.08215853 0.1347238
000190 cd bb 3b 3e 16 fa e4 3d c0 bc 1d 3e 42 2c b1 bd
       0.18333359 0.111805126 0.15404034 -0.0865102
0001a0 3a 02 59 3d 0b 2c c3 bd 11 27 6c 3e da 51 6c 3e
       0.05298064 -0.09529885 0.23061778 0.23078099
0001b0 5c d8 b5 3d 2c b5 e9 bd 84 09 92 bd 11 3b 9f 3d
       0.08879158 -0.11411509 -0.07130721 0.07774938
0001c0 92 e4 e5 bd 5a cb 06 bd cd 63 52 3d 25 3f 72 3d
       -0.11225237 -0.032908775 0.05136471 0.05914225
0001d0 b0 24 bd 3d b0 00 02 be ba ed 8a 3d 5f bd fc 3d
       0.09235513 -0.12695575 0.06783624 0.12340807
0001e0 df a9 66 3d 58 3e aa bd 8a 6d 44 3a 81 5e 22 3d
       0.056314345 -0.083126724 0.0007493129 0.039640907
0001f0 18 c3 82 3c c4 9c fa 3c 42 38 10 be fb c3 3e be
       0.015962169 0.03059233 -0.1408396 -0.18629448
000200 a7 07 18 be 2c fb 4e 3d ee 96 7e 3d 8d a3 2d be
       -0.14846669 0.050532505 0.062155657 -0.16956921
000210 1c 3f 0e be 11 57 bf bd b5 c3 0d 3e c0 e1 d2 3d
       -0.13891262 -0.093427785 0.13844188 0.10296965
000220 78 24 1e be 8f 50 f5 3d cc e4 64 3d a7 69 c9 3b
       -0.15443599 0.11978256 0.05588226 0.006146628
000230 09 4a d4 bd 4f 41 d9 3d 94 89 02 be aa da 2e be
       -0.103656836 0.1060816 -0.12747794 -0.17075601
000240 98 d2 5c 3e f6 94 1f be 2a 1a e2 3c 33 89 1c be
       0.2156471 -0.15584168 0.027600367 -0.15286712
000250 7e 95 9f 3c 74 99 a3 3d 73 d0 bf bc 21 bb c5 bd
       0.019480463 0.07988253 -0.023414826 -0.09654833
000260 92 e2 42 3e 48 91 02 bd 6b 71 8a bb a0 be 17 3e
       0.19031742 -0.031876832 -0.0042249463 0.14818811
000270 4b 29 03 3e 6e 6f bd 3d 5d 84 65 be b3 ff b7 bc
       0.12808721 0.09249769 -0.22413774 -0.022460794
000280 e7 d6 35 bc 0c 40 a5 3d 16 f2 31 3d af 02 df bd
       -0.0110986 0.080688566 0.04344376 -0.10889184
000290 6b f8 cb bd ef d4 d1 3d 16 bc 2b 3e ea 07 3b bd
       -0.09959491 0.10245692 0.16770968 -0.045661844
0002a0 63 e2 ad 3d 85 02 41 3e 9e 95 7c bc f9 ca 1f 3d
       0.084904455 0.18848617 -0.015416531 0.03901193
0002b0 ab 08 cd bd f6 94 a0 3d 95 d1 31 bd a3 fc 0d be
       -0.10011419 0.07840912 -0.043412764 -0.13865905
0002c0 b2 c8 aa bd 5e 51 32 3e 0c 8e 47 3e e3 1e dc 3d
       -0.08339061 0.17413852 0.1948778 0.10748079
0002d0 08 17 26 3e d2 b1 21 3e a6 8b 49 3e f3 ad 3f 3e
       0.16219723 0.1579049 0.19682178 0.187187
0002e0 ff 80 b0 3d fd 2b e3 bd 86 82 b5 bd 47 63 0c 3e
       0.08618354 -0.110923745 -0.08862786 0.13709746
0002f0 05 89 ec 3d d1 f6 16 3d c6 50 ce 3d 12 e1 de bd
       0.11549572 0.036856476 0.10074 -0.108827725
000300 4c 50 05 be 13 a6 6d 3c f0 39 1e 3e a1 f1 a5 3d
       -0.13018912 0.014504927 0.15451789 0.08102728
000310 88 4b 6a bd 92 8f 12 3d d4 59 36 bc 23 95 f6 3d
       -0.05720094 0.03578145 -0.011129815 0.12040164
000320 a3 88 04 3d 69 fc de bc c8 06 cc bd 5f 3c 9c bd
       0.03235687 -0.027219968 -0.09962231 -0.07628702
000330 46 67 13 3e 23 78 16 3e 3f 79 24 3e 3a 67 02 be
       0.14394864 0.14694266 0.16061877 -0.1273469
000340 1c 71 0e 3e 96 16 86 bd c0 1b a5 3d fd fb 0a be
       0.13910335 -0.06547277 0.080619335 -0.13572688
000350 3e 6a e4 bd d3 33 16 3e 7d 3a 42 3d eb 93 f6 bd
       -0.111530766 0.14668207 0.04741906 -0.12039932
000360 9f cc e1 3d b2 a1 ae 3c dd 35 13 3e 8a 68 b1 bd
       0.110253565 0.021317337 0.14376016 -0.08662517
000370 5d 5a c5 bd 82 12 01 3e c5 aa b1 3d 1e 3c f3 3d
       -0.09636376 0.12604716 0.0867515 0.11876701
000380 70 c9 5f bd 79 8e 79 3e b5 53 48 be 11 c7 a0 bd
       -0.054635465 0.24370755 -0.19563182 -0.07850469
000390 ee f0 c1 bd 07 6f fc 3d 1b de 0c be ca 18 85 bd
       -0.09469782 0.12325864 -0.13756602 -0.06498869
0003a0 fd 0f ac bd 23 47 90 3d 9a 22 2d 3d 99 32 03 be
       -0.08401487 0.07044818 0.042269327 -0.1281227
0003b0 95 2d a6 3d 3b d3 9a 3d 4a 79 f2 bd d9 00 d0 3d
       0.08114163 0.0755982 -0.1183954 0.10156412
0003c0 dc 40 ee 3d 93 68 cf 3d 86 d3 a5 3d d8 94 ec 3c
       0.11633465 0.10127368 0.080969855 0.028879568
0003d0 e7 1d 25 bc da 3f c9 3d e6 44 62 3e 28 84 54 3c
       -0.01007793 0.09826632 0.22096595 0.012970962
0003e0 59 33 21 be e6 eb 39 3e c4 54 83 3d e9 33 0a 3d
       -0.15742244 0.18156394 0.06412652 0.03374091
0003f0 0b 0c 09 be 5e 8c 46 be c5 19 ac 3b 4b f4 28 3c
       -0.133835 -0.19389483 0.0052520954 0.01031215

encoder.encoder.weight_hh_l0 f4 [128, 32]
000000 9d 99 a9 3d 74 3a f7 bd c8 06 09 3e 18 fd f0 3c
       0.082812525 -0.12071696 0.13381493 0.02941756
000010 1f c7 bc bd 5c 92 b7 bd 91 57 11 3d f2 c3 d7 bd
       -0.09217667 -0.08963463 0.0354839 -0.105354205
000020 5e d3 d5 3c 6a ce 48 bd 5e 52 b9 3c 9d 19 ee bc
       0.026101764 -0.049024977 0.022622284 -0.029064948
000030 fb 4e 80 3c 18 8b a1 bd 07 da 0a be a4 f1 24 3e
       0.01566266 -0.07887858 -0.13559733 0.16107804
000040 a5 79 0d 3d 79 dd 57 3c c5 2f a8 bb 4b 1c 07 be
       0.034539837 0.013175362 -0.0051326477 -0.13194387
000050 fe de 67 bd 4e 49 dc 3d 00 4e 95 3d 1a 5f 9c 3d
       -0.056609146 0.10756169 0.07290268 0.07635327
000060 38 f6 cd 3d 21 2c bb 3d ad fa af 3d 32 a8 5c be
       0.10056728 0.09139276 0.085927345 -0.21548536
000070 f8 b3 9b 3d 82 76 c8 bd a1 5c fb 3c 14 4e 99 3d
       0.07602686 -0.097882286 0.030683817 0.07485595
000080 2d 64 08 3e 26 f4 24 be 3c a2 3d 3d 2f 5e c9 3d
       0.13319464 -0.1610876 0.046297297 0.09832417
000090 0a 49 2f 3e f7 7f f7 bc 55 dd 14 3e 13 42 fc 3c
       0.17117706 -0.030212386 0.14537556 0.030793225
0000a0 12 8c af 3d 99 7f dc bd 74 8d 17 be 89 c9 2f 3b
       0.08571638 -0.10766525 -0.14800054 0.0026823005
0000b0 a7 e4 db bc 17 40 89 3c 75 37 7f 3e 49 3c f4 3d
       -0.026842428 0.016754193 0.24923499 0.11925561
0000c0 bc d4 fa 3d bf a9 f6 3d d6 8e ae bd f1 86 75 bd
       0.12247607 0.12044095 -0.085233375 -0.059943143
0000d0 00 4a 90 3b 37 5e 6f bd 07 4f 6e bd f2 81 37 be
       0.0044033527 -0.05843946 -0.058180835 -0.17920664
0000e0 d8 b7 18 3e cf 49 05 3d c3 48 1b 3e bc 83 05 be
       0.14913881 0.032541092 0.15164475 -0.13038534
0000f0 62 3f 20 3e be ef 63 3d 39 76 5a 3e 11 ed f2 3d
       0.15649179 0.055648558 0.21334161 0.11861623
000100 cf 23 46 3d eb 3d 89 bc fd 3f 56 bd b7 e0 5c 3d
       0.048373993 -0.016753158 -0.052307118 0.053925242
000110 73 56 89 3d c5 9b c6 bd 5a e1 35 3e 9a dd 07 bc
       0.06705942 -0.096976794 0.17761746 -0.00829258
000120 16 58 07 be 7a 3f 8d 3d 72 0e 0a 3e 52 63 ba bc
       -0.13217196 0.06896873 0.13482073 -0.022752438
000130 9b 8b 8c 3d ec 54 0d bd 14 82 3d bd 83 da 9f 3d
       0.06862565 -0.034504816 -0.04626663 0.0780535
000140 55 9a 2f bc d9 b1 c8 bd 6c 07 aa 3d 50 33 5e 3b
       -0.010717948 -0.09799547 0.08302197 0.0033905096
000150 1b fb 1e be c7 f8 cb bc 08 72 1e 3d 2d 02 f2 3d
       -0.15525477 -0.0248989 0.038682967 0.11816821
000160 9d ed fe bb a4 fa 0e 3e 20 c2 a7 3d 99 c4 b4 bd
       -0.0077797906 0.139628 0.08191323 -0.088265605
000170 b3 94 d7 3d d9 75 3a be 67 ae 92 bc 27 9c 05 be
       0.10526409 -0.18209018 -0.017905427 -0.13047849
000180 20 1f f4 3d 10 ac a3 bd a9 d4 9e 3d 08 09 b1 3d
       0.11919999 -0.07991803 0.077554055 0.08644301
000190 02 9b 5f 3e ca 7b 16 3d c0 b6 b3 3a d1 98 3b bd
       0.21836475 0.03673915 0.001371108 -0.045800034
0001a0 3d a1 6a bd 99 27 12 be 24 db 86 bd 74 2c e0 bd
       -0.057282675 -0.14272918 -0.065847665 -0.10945979
0001b0 53 c6 2e be ae 9a f3 bd 19 80 55 bd f5 a1 b8 bd
       -0.17067842 -0.11894737 -0.052124117 -0.09015266
0001c0 2e 97 1a 3e 81 02 de bd 52 0d ea 3b fa a7 c4 3d
       0.15096733 -0.10840321 0.007142701 0.096023515
0001d0 82 b8 f0 bc 8d 3c 60 bd b4 42 8d 3d 75 8c 86 bd
       -0.029384855 -0.054745246 0.06897488 -0.06569759
0001e0 db 90 2f be eb a3 67 3d 3a 5d e1 3d 84 25 c9 3d
       -0.17145102 0.05655281 0.1100411 0.09821609
0001f0 e4 4b 99 3c 36 8e 95 bd 82 05 e9 3d b0 fb 02 be
       0.018712945 -0.07302515 0.11378004 -0.12791324
000200 22 65 48 bc 13 b3 50 bd 33 b9 44 be f2 99 df bd
       -0.012231143 -0.05095203 -0.19211273 -0.109180346
000210 ab a3 08 be 9d 03 0c 3e 56 d1 96 3d bf 9b f7 bd
       -0.13343684 0.13673253 0.073641464 -0.12090253
000220 a3 70 17 bc 42 5b 2a 3e 92 28 d6 3d 1b dc 60 bd
       -0.009243163 0.16636375 0.10456957 -0.05489741
000230 10 c8 1d 3c b4 1e a2 3d bb d7 e7 3d 29 21 65 3c
       0.009630218 0.079160124 0.11320444 0.013984957
000240 d1 06 91 bd 8f 16 37 bc 5d cd 93 bd 8a 0f 1d be
       -0.07081378 -0.011174812 -0.07216904 -0.15337959
000250 4e 76 26 3e 4b 48 3b 3e d3 1a 1f bd 53 4f 11 be
       0.16256067 0.18289296 -0.03884394 -0.14190416
000260 97 d6 09 be a2 ff 2d 3d b9 c9 46 be 22 57 b1 3d
       -0.13460766 0.04248012 -0.19412889 0.086591974
000270 d1 5e 73 bc 1a e0 57 bd 3c 27 aa 3d 4e 6f 88 bd
       -0.014854149 -0.052703954 0.083082646 -0.06661855
000280 c2 60 5f bb cf c2 4f 3d 9f bb cf 3d 27 2c f9 3c
       -0.0034084772 0.050722893 0.10143208 0.030416561
000290 50 6c 8d bc 09 e2 37 3e 0d 8b 55 3d a4 71 a8 3d
       -0.017263561 0.1795732 0.052134562 0.082248
0002a0 ae 2a d6 bd 4d b2 c0 3d c3 75 3d be 8f b6 24 3e
       -0.10457359 0.09409008 -0.18501954 0.16085266
0002b0 24 a5 a4 bb 0b b6 ed 3d 18 9d 31 be cd 05 30 be
       -0.005024569 0.116069876 -0.17345083 -0.17189713
0002c0 66 0c a5 3d de 4d e5 bd 08 4a 02 be 07 da a1 bd
       0.080590054 -0.111964926 -0.12723553 -0.079029135
0002d0 45 98 51 bc 03 15 fd 3d f4 0c ec 3c 3b ef 89 bd
       -0.012792652 0.12357523 0.02881477 -0.06735083
0002e0 2c 69 4e bd 34 54 82 bd ac 3e be 3b b9 c0 86 3c
       -0.05039327 -0.06363717 0.005805811 0.01644932
0002f0 a0 db 0d 3e 7c d3 4f 3d f2 19 a5 3d 1e 60 68 bc
       0.13853312 0.050738797 0.08061589 -0.014183072
000300 53 68 77 3c 79 83 22 be b4 3b d9 bd cf ce 3e be
       0.015100556 -0.15870465 -0.106070906 -0.18633579
000310 15 23 39 3e 00 d8 37 bd 6a 22 ec bd 15 3e 5a 3d
       0.18079789 -0.044883728 -0.115300015 0.053281862
000320 db c2 43 be b7 d6 20 bd 9e 39 aa bd 0c ec fe bd
       -0.191173 -0.039267268 -0.08311771 -0.12447366
000330 fb e0 ec bd c7 0c 17 3e 10 df 88 3d 8b 9e e5 bb
       -0.11566349 0.14750968 0.06683171 -0.007007425
000340 58 4e 10 3e a0 54 13 be 8a 8b 1e 3e 39 21 bc 3d
       0.14092386 -0.1438775 0.15482917 0.09186024
000350 fb 62 0a be cf ae e6 bd cd 9d 61 3d 75 ff 3b bb
       -0.1351432 -0.11263811 0.05508213 -0.00286862
000360 06 39 cc 3d 2f 79 39 be 23 0d ea 3c 1b be dd bd
       0.09971814 -0.18112634 0.028570717 -0.10827275
000370 5e ff 94 3d c8 f8 a0 3c 9e 7e 99 3b 27 1d 74 3d
       0.0727527 0.019649878 0.0046842834 0.059598114
000380 1c 96 be 3d e7 93 55 3d 94 ba b8 3d 47 e4 26 be
       0.09305975 0.052143004 0.09019962 -0.16298018
000390 5d f7 0f 3e 0a 33 0b be b9 44 d3 bd 66 6b 22 be
       0.14059205 -0.13593689 -0.10315842 -0.15861282
0003a0 a9 bf 91 3d b4 10 f9 3a e3 d2 8e bd 37 0d ad 3d
       0.071166344 0.001900217 -0.06973817 0.08449786
0003b0 ef ce 1e 3e 74 55 e0 bd 12 29 28 be ee 91 bf bd
       0.15508626 -0.10953799 -0.16421917 -0.09354006
0003c0 50 8c 27 3e 47 1e d5 3d e1 cf 1f be 26 04 ad 3d
       0.16362119 0.104061656 -0.15606643 0.08448057
0003d0 89 40 ec bb 65 e6 65 bd 42 ef 85 3d 77 30 0b be
       -0.0072098416 -0.056127924 0.065397754 -0.13592707
0003e0 94 b5 05 be 32 7b cb bc 47 1c 1e bd b6 47 3e 3d
       -0.13057548 -0.024839018 -0.038601186 0.046455108
0003f0 32 11 1f bd ff a2 96 3d 02 56 e2 bd eb 8f c7 bd
       -0.038834758 0.07355308 -0.11051561 -0.09744247

encoder.encoder.bias_ih_l0 f4 [128]
000000 f3 11 67 3d 1f e3 e8 3d 77 7b 0e 3e 9e 77 90 bd
       0.056413602 0.11371445 0.13914286 -0.07054065
000010 4d cc e7 3d 04 65 e0 3b df 7b 11 3e b2 f9 0f bd
       0.11318264 0.0068479795 0.1420741 -0.035150237
000020 f5 30 35 3c a8 fb b5 bd 96 90 f4 3c f9 4e 0e 3e
       0.011059036 -0.0888589 0.0298541 0.13897313
000030 6e 5e 84 3d f5 65 5e 3e c8 3f 03 3d 26 54 2d 3d
       0.064633235 0.21718581 0.03204325 0.04231658
000040 d2 c0 a4 3d 23 91 06 3e 59 0b 16 bd c6 aa fd 3d
       0.0804459 0.13141303 -0.036631916 0.12386088
000050 54 6b 53 3e 74 2f 04 bd b3 66 60 bd 43 08 01 be
       0.20646411 -0.032271817 -0.05478544 -0.12600808
000060 d5 fa f8 3c f0 2e d9 bd 2e 23 3b 3d e0 e5 be 3c
       0.030393044 -0.10604656 0.045687847 0.023302972
000070 9a 4f 45 3e c2 9b a5 3d f4 cc 17 3e 1e 32 18 3e
       0.19268647 0.08086349 0.14824277 0.14862868
000080 68 22 dc 3d f4 02 e1 bd f3 bc b8 3d ba 7c db bd
       0.1074875 -0.109868914 0.09020414 -0.10717149
000090 cf c6 0a be 35 12 bf bd 8b 52 ba bd f6 6d b8 bd
       -0.13552402 -0.093296446 -0.09097775 -0.090053484
0000a0 ae c0 11 3d ab 5c 97 bd 04 01 f7 bc 21 64 46 bd
       0.035584144 -0.07390722 -0.030151851 -0.048435334
0000b0 a2 b1 1b 3e 75 fc 45 3e d2 47 f1 bc d0 a6 05 3e
       0.1520448 0.19334586 -0.029453192 0.13051915
0000c0 bc 54 b2 3d 7c c3 50 3e 80 f7 0d 3e ac ad 17 be
       0.08707568 0.20387071 0.13863945 -0.14812344
0000d0 6a e5 11 be 3c 48 b6 3c 20 96 d4 3d b7 77 d6 bd
       -0.14247671 0.02225124 0.103801966 -0.104720525
0000e0 ee 74 e6 bd da b4 d7 3d d5 ea 12 3e 3e 05 6d bd
       -0.11252771 0.105325416 0.14347394 -0.057866327
0000f0 3c fa 68 3e db e8 ce 3d 1b ca a3 3d 72 8a e8 3c
       0.22751707 0.101030074 0.07997533 0.028386328
000100 12 c6 eb 3d 3f 75 e2 bd 5f a0 cd bc 89 72 02 be
       0.11512388 -0.11057519 -0.025100885 -0.12739004
000110 1d c8 ce 3d 4e 0b 1d be 6a 20 50 be 85 f8 05 be
       0.10096762 -0.15336344 -0.20324865 -0.13083084
000120 ef a6 37 3d 45 51 ba bc a3 5e b6 bc 86 65 c7 bc
       0.044836935 -0.02274383 -0.022261923 -0.024340402
000130 7d 0e 0d 3e f6 87 13 3d d4 c2 88 3d e2 e2 26 be
       0.13775058 0.036018334 0.066777855 -0.16297486
000140 bc 5c 8f 3d 3b 77 05 3d 5c 37 a6 3d 6c 68 67 3d
       0.070001096 0.03258441 0.08116028 0.05649607
000150 1e d7 4b 3c 8e c2 c3 bd 23 c3 96 bd d5 f1 54 3d
       0.012441425 -0.09558593 -0.07361438 0.05198844
000160 58 a5 04 be b8 ab 51 bd b8 a8 1e 3c 99 d9 19 3d
       -0.12953699 -0.051189154 0.00968378 0.037561033
000170 76 d5 db 3d 42 e7 45 be c2 ef 2a be 69 cf 03 be
       0.10734074 -0.19326499 -0.16693023 -0.1287209
000180 f7 e8 29 3d d4 b1 14 3e f3 13 8f 3b 2e 69 1a 3e
       0.04148194 0.14520961 0.004366392 0.15079185
000190 be f6 cc ba 77 0d 60 bd 5c cb 65 3d c6 36 d0 bd
       -0.00156375 -0.05470034 0.05610214 -0.10166697
0001a0 1e e5 ab bd d0 e1 73 3e 82 78 8e bd aa 6c 2a 3e
       -0.0839331 0.2381661 -0.06956579 0.16643015
0001b0 66 e3 d8 3b 71 82 a5 bd 27 c4 85 3d 12 0d 76 bd
       0.006618905 -0.0808152 0.06531554 -0.06007106
0001c0 fa 38 2f 3e f6 40 31 3e f3 5b f6 3b 28 d1 e8 3d
       0.17111579 0.17309937 0.0075182854 0.113680184
0001d0 d2 df 9d 3d 01 af b3 3c ab bc ba bd 1b 2f 8f 3d
       0.07708706 0.021934034 -0.09118017 0.069914065
0001e0 e4 da 39 3e 41 66 81 bd 94 8d 2a bd 6c 43 53 3e
       0.18149906 -0.063183315 -0.041638926 0.20631188
0001f0 90 ca 03 3e 04 73 8a 3d e6 e4 bc bd d1 fe d5 3d
       0.1287024 0.06760219 -0.092233464 0.10448993

encoder.encoder.bias_hh_l0 f4 [128]
000000 25 e7 79 3d 6e 57 02 bd 26 b5 96 3d 7c 59 33 bd
       0.061011452 -0.03182166 0.0735877 -0.04378651
000010 61 0d ac 3d 22 c1 81 3a 4d ed 26 3e ec 4b 8e 3d
       0.08400989 0.0009899477 0.1630146 0.06948075
000020 99 e7 16 3e 79 b4 e1 bd 39 db 1f bd f2 9f 53 3e
       0.14736785 -0.110207506 -0.039027426 0.20666483
000030 8e 3b a9 3d 7c d8 e9 3d d1 5a 36 bd e7 4b 45 3e
       0.08263312 0.11418244 -0.044520203 0.19267236
000040 81 ff 8f bd 90 c0 41 bb fd 51 3e 3e 51 9e 0e bc
       -0.070311554 -0.002956424 0.18585964 -0.008704738
000050 5a bd 66 bd 2f f8 5e bd c6 ab c1 bd 52 4c 53 3c
       -0.056332923 -0.054435905 -0.09456591 0.012896614
000060 89 d6 68 3e ff 02 26 be 69 03 45 3e c2 1d 35 3d
       0.22738089 -0.1621208 0.19239582 0.044217832
000070 92 08 9a bd a4 67 43 bd 4e f0 15 3c a3 46 de bd
       -0.07521166 -0.04770626 0.009151531 -0.10853317
000080 ff b0 28 3e d9 62 15 be b5 9e ae 3b f4 f6 62 3e
       0.16473769 -0.14588489 0.005328978 0.22164518
000090 a6 92 ba bc 10 44 ba 3d d3 d9 38 be b8 74 56 bd
       -0.022775006 0.09095013 -0.18051843 -0.052357405
0000a0 22 c4 2b be 2a a1 13 be 27 b2 ed 3d ec 6a 90 bd
       -0.16774037 -0.14416948 0.116062455 -0.07051644
0000b0 9d d4 0e 3b 80 dc 18 3c ac 33 b4 bd 54 67 50 3e
       0.0021794208 0.009329915 -0.08798918 0.20351917
0000c0 0d f2 99 bd 4a 5c 08 be ba 67 c2 3d 2c d8 01 3d
       -0.07516871 -0.13316455 0.094924405 0.0317003
0000d0 e9 a2 13 3e f6 8d ac 3d 09 35 e5 3c 99 54 61 3e
       0.14417614 0.084255144 0.02797939 0.22004928
0000e0 7d 0b 63 3d db 32 e3 3d 95 c4 e8 bd 87 31 08 3e
       0.055430878 0.11093684 -0.1136562 0.13300143
0000f0 37 cc 14 3e 76 9e 2d bd 43 45 94 bc a9 41 62 3d
       0.14531027 -0.04238745 -0.018099433 0.0552384
000100 63 61 8d 3c fe f4 41 bd c8 a3 5c be 60 54 18 3c
       0.017258352 -0.047352783 -0.21546853 0.00929746
000110 fe 7f ec 3d 55 1e 82 bd 9c 02 9e 3d ba 62 0e be
       0.1154785 -0.063534416 0.077153414 -0.13904849
000120 2e 1a 20 bd 57 ac 59 3e cb 83 ec 3d 54 af b8 3c
       -0.039087467 0.21257149 0.11548575 0.02254454
000130 36 7e b3 3d fb 83 34 be 95 0c a5 3c ce 60 c9 3c
       0.08764307 -0.17628472 0.020147601 0.024582293
000140 c9 42 61 3d fe b8 13 3e b8 10 30 3e 49 5c 89 3d
       0.054995332 0.14426038 0.17193878 0.06707055
000150 68 d0 1c be 49 f6 22 be 9b e5 b5 bc 2f 5b 2f 3e
       -0.15313876 -0.15914263 -0.022204211 0.17124628
000160 9c 09 ca 3d 08 94 b2 bd fd 0b fb 3d f4 5a 55 3c
       0.09865114 -0.08719641 0.12258146 0.013022173
000170 29 83 2a be cc 08 96 bd 89 50 ef bc 7b 9a 01 be
       -0.16651596 -0.073258966 -0.029213207 -0.12656586
000180 fe 92 55 3e ad 5d 87 3d 4c c0 33 3e 26 5b 94 3d
       0.20856854 0.06609664 0.17553824 0.07243948
000190 20 4f 3f 3e 57 08 ff 3d 60 b5 d8 3d 92 be 99 bc
       0.18682528 0.124527626 0.105814695 -0.018767629
0001a0 75 d9 87 3c cc 01 00 3e 08 ff f0 3d d7 dd ec bd
       0.016583184 0.12500685 0.11767393 -0.1156575
0001b0 16 37 bd bd f7 44 89 3d 0a a6 45 3e 10 5d 25 3e
       -0.092390224 0.06702607 0.1930162 0.16148782
0001c0 b9 7e c1 bd ba 22 62 3e 09 bd f9 bd 41 52 62 3e
       -0.094479986 0.2208356 -0.12194259 0.2210169
0001d0 68 70 20 3e 31 20 8f bc 1d 54 78 bc aa 5b c4 bd
       0.1566788 -0.017471405 -0.015156773 -0.09587796
0001e0 00 cd 1e bd e7 43 22 3e c1 5c 19 be 7c 05 50 3e
       -0.038769722 0.15846215 -0.14976789 0.20314592
0001f0 ed 59 24 3d a7 ed 32 3d fe aa cd 3d a2 36 23 3d
       0.040124822 0.043683674 0.1004238 0.039847024

encoder.spatial_embedding.weight f4 [16, 2]
000000 19 da 02 40 de c3 2c 3e 0e 44 75 bf f5 4a 28 c0
       2.0445616 0.16871592 -0.9580697 -2.629575
000010 ca b2 1e 40 c4 0b d1 bf 2c 70 db 3e d1 5b 23 bf
       2.4796624 -1.6331716 0.42859018 -0.63811976
000020 f3 93 02 3e 20 e7 43 bf 8e 2d 51 3f ca aa 37 bf
       0.1275175 -0.76524544 0.81710136 -0.7174498
000030 de c2 f6 bd cf 46 26 bf 4d 79 90 3f 1c 12 22 bf
       -0.12048887 -0.64951795 1.1287018 -0.6330888
000040 f5 58 56 3e 9f ac 20 40 ab 00 25 3e b1 8b a3 bf
       0.20932372 2.510536 0.16113536 -1.2777005
000050 de 70 5e be da 52 a2 3e bc 37 9d 3e 67 6b 55 be
       -0.21722743 0.31703836 0.30706584 -0.20841752
000060 42 55 58 3f 22 06 7a bf 16 4b 5c 3f 19 91 81 bd
       0.84505093 -0.9766561 0.8605207 -0.06326503
000070 f4 2a b5 bc a3 f8 1e bf f6 bf 09 bf db db 87 3f
       -0.022115208 -0.6209814 -0.53808534 1.061397

encoder.spatial_embedding.bias f4 [16]
000000 1f 5e e8 3e 71 56 16 3e b9 0a 19 be 03 d3 b9 be
       0.4538431 0.14681412 -0.14945497 -0.36293802
000010 b0 09 8a bd 59 cc 26 be 2a 43 e9 3e 22 d7 c2 3e
       -0.06740129 -0.1628889 0.45559055 0.38054758
000020 1c 4d fc be 7d fd 35 3f 8a 2b 3c 3f 85 38 d9 3e
       -0.4927758 0.7108992 0.73503935 0.42425933
000030 e0 b6 1b be 0b da 39 bf e9 74 a5 be 9d ed 48 bd
       -0.1520648 -0.7259833 -0.32315758 -0.04905473

decoder.decoder.weight_ih_l0 f4 [128, 16]
000000 27 2d 6b bd e0 03 19 bc 52 17 0d be ae b5 86 bd
       -0.057416108 -0.009339303 -0.13778427 -0.065776214
000010 f3 ac c0 3c 18 52 82 3c 2e f7 04 3e 4d 32 db bd
       0.023519969 0.015908286 0.12984917 -0.107029535
000020 eb 8d c5 3d 12 a6 a6 3d e1 a9 d6 3d 72 80 84 bd
       0.09646209 0.08137144 0.104816206 -0.064698115
000030 d8 80 98 bd ef 59 43 3e 01 50 31 3e 42 33 6d bb
       -0.0744645 0.19077276 0.17315675 -0.0036193882
000040 40 a9 04 be 67 90 f0 bd e6 4f 41 3d 57 dd a0 bc
       -0.12955189 -0.117462926 0.047195338 -0.019636793
000050 9c a5 51 3e c4 ad f1 3d a9 80 08 be 29 81 eb bc
       0.20473331 0.11800721 -0.1333033 -0.028748112
000060 41 11 22 be 0e 29 c8 bd c1 99 06 be 40 4f 3d be
       -0.15826894 -0.097734556 -0.1314459 -0.18487263
000070 23 30 48 be d0 60 28 3e fe 9d 40 3e d8 ad af 3d
       -0.19549613 0.16443181 0.18810269 0.0857808
000080 26 5e 11 be fb d1 e0 bd 5d 9d e1 3d c6 f2 38 be
       -0.14196071 -0.109775506 0.11016343 -0.1806136
000090 1d 94 d4 3c d2 48 43 3e ca 98 81 be 3e 45 df 3c
       0.025949532 0.19070747 -0.2531188 0.027254697
0000a0 64 51 55 3e ae c9 05 bd 0b c4 8d 3d 2c 3b f1 bd
       0.2083183 -0.03266304 0.06922158 -0.11778864
0000b0 8a 49 e8 bd 83 be da 3d 3e f7 ea bd 67 20 fc bd
       -0.113421515 0.106808685 -0.11472939 -0.12310868
0000c0 a1 8d 8f bd 17 79 a2 ba 80 57 8b 3c 3f eb 68 bb
       -0.070094354 -0.0012395707 0.017009497 -0.0035540608
0000d0 9c e2 dc bd ba f8 81 bd 8d 0a 9a bb b2 52 4c 3c
       -0.1078541 -0.06346269 -0.004700965 0.012470888
0000e0 70 64 ed 3c da 32 1a 3e 0d 6d 0c 3e 00 bb 88 bd
       0.028978556 0.15058461 0.13713475 -0.066762924
0000f0 13 c8 1d 3e 2a 2b 20 bd a9 e1 11 be dd 0d 50 bd
       0.15408354 -0.039103664 -0.14246239 -0.05079447
000100 cf 44 8a 3d 54 66 80 3d 20 ef 38 3d 03 e2 27 3e
       0.067514054 0.062695175 0.045149922 0.1639481
000110 df d9 52 bd 10 83 f7 bd 15 8d 7a bd 77 7c 99 3d
       -0.05147731 -0.12085545 -0.061169703 0.07494443
000120 fa 11 80 3d b5 c8 11 3e d5 16 a7 3d 51 df 1a be
       0.06253429 0.1423672 0.08158652 -0.15124251
000130 26 a2 44 3d f5 cd f6 3d ea 43 ff bb 32 61 c5 3d
       0.0480062 0.12051002 -0.0077900784 0.09637679
000140 a3 f9 fd 3d ed 05 02 be 3f 80 8c bd 49 e9 a1 bd
       0.1240113 -0.12697573 -0.068603985 -0.07905824
000150 33 a0 93 bd 0f 80 17 bd eb bb 11 3e 7e ea d4 bd
       -0.0720829 -0.03698736 0.14231841 -0.10396288
000160 e8 66 90 bd fb 76 b7 bb df 8d 35 3e 97 4b 08 3d
       -0.07050878 -0.0055989004 0.17729901 0.033275213
000170 47 af a6 bb 0a be ec bd ed bf 3b 3d 2c 40 10 bd
       -0.0050868127 -0.115596846 0.04583733 -0.03521745
000180 39 5d 15 3e c4 16 f4 3c 65 91 e7 3d 31 c8 3b 3e
       0.14586343 0.029796012 0.11307029 0.18338086
000190 98 4e 95 bd a2 96 93 bc a6 07 be 3d 45 95 17 bc
       -0.07290381 -0.018016163 0.092788026 -0.009251897
0001a0 77 fe c7 bd 36 8e 1f be 7c b8 ea 3c e8 00 09 3e
       -0.09765332 -0.15581593 0.028652422 0.13379252
0001b0 1c 4b 77 bd 8c b6 8a 3b 76 3b 36 3e 84 a7 1a 3e
       -0.060374364 0.004233187 0.1779612 0.15102965
0001c0 b5 3f b6 3d af 4c d1 bd 7a 71 dd bc d7 dc dd bc
       0.0889887 -0.10219704 -0.027031649 -0.027082844
0001d0 42 b7 09 be 9c 53 ff bc c5 f6 d7 bd 27 7f c7 3d
       -0.13448814 -0.031167798 -0.105451144 0.09741049
0001e0 8c be 01 3e 53 3a c2 bd a8 b0 04 3e 98 df f3 bd
       0.12670344 -0.09483781 0.12958014 -0.119078815
0001f0 2a c8 11 3e 6a 44 9b 3d 77 3a 56 be 43 86 a6 bd
       0.14236513 0.07581408 -0.2092074 -0.08131077
000200 3d a2 c0 3b 1e 6e 85 bd c5 ca b1 3c f5 a3 5b 3d
       0.0058787153 -0.06515144 0.021703133 0.05362316
000210 64 d7 ba bd f4 b6 17 be 9c 47 2a 3e 08 1b ec bd
       -0.09123114 -0.14815885 0.1662888 -0.11528593
000220 cf a7 d3 bd 44 31 39 3c 3b 70 a1 bd 07 0c c0 bd
       -0.10334741 0.01130325 -0.078827344 -0.09377294
000230 84 e3 1f 3d c6 a7 e0 3b 6c b2 65 3d 26 9e 41 3c
       0.039035335 0.0068559377 0.05607836 0.011817491
000240 6c 8c 25 be 27 b2 0f be 30 14 0d be 69 2d 23 3e
       -0.16166848 -0.14032803 -0.13777232 0.15935291
000250 d6 fc da 3d e1 d2 05 3e d4 81 23 3e ec 67 91 bd
       0.10692756 0.13068725 0.15967494 -0.070999
000260 e4 a8 07 bd 29 16 39 3d 5e 12 06 be 20 eb 37 bd
       -0.03312005 0.04518715 -0.13092944 -0.044901967
000270 81 68 98 bd 05 c4 49 ba 3f 53 09 3e 6b 2c 2d 3e
       -0.074418075 -0.00076967507 0.13410662 0.16911475
000280 88 90 24 be a4 bf 19 be b2 09 24 be 73 7b 96 bd
       -0.1607076 -0.15014511 -0.16019323 -0.07347765
000290 bd fa be 3d 7e ff e3 3d 07 1a a1 3d 6b a8 1b bd
       0.09325168 0.11132716 0.078662924 -0.038002413
0002a0 cd c1 a4 3d 85 9f fb bd 1f b6 24 be 4f de fe 3d
       0.08044777 -0.12286285 -0.16085099 0.12444746
0002b0 8e b6 aa 3a 59 f6 96 bd bd b3 1a bd 2a 7f 38 be
       0.0013024376 -0.07371206 -0.037769068 -0.18017259
0002c0 e2 03 43 bd df ab 12 3e 16 7c 73 3b b5 d1 dc bd
       -0.047611125 0.14323376 0.0037152818 -0.10782186
0002d0 2f a4 29 be 8b 6e 70 3d 6c 7a a1 3c e7 40 98 3c
       -0.16566537 0.058699172 0.019711696 0.018585635
0002e0 83 04 90 bd a7 b0 5e bd b5 7b 0d 3e 32 d7 26 3d
       -0.070321105 -0.054367688 0.13816722 0.04073257
0002f0 16 19 52 3d d4 d9 e9 bd 83 61 fe bc 15 79 b8 bd
       0.051293455 -0.114185005 -0.031052357 -0.090074696
000300 01 af ad bd a6 e3 07 3e 9e aa d2 bd 57 f9 fc bc
       -0.08480645 0.13270435 -0.10286449 -0.030880613
000310 87 d9 d9 3b a5 88 b2 bd 26 92 3f be c7 22 51 bd
       0.0066482457 -0.08717469 -0.18708095 -0.051058557
000320 8d 1f 89 3d 6f 08 05 3d 72 6a 80 bd 57 86 b2 3d
       0.06695471 0.032478746 -0.06270303 0.087170295
000330 6e 48 3b bd 99 96 97 bd 92 74 5e 3e a9 30 f1 bd
       -0.04572337 -0.07401771 0.21724156 -0.11776859
000340 ff 78 06 3e c5 30 b0 3d 4e 19 7d bd 9a 18 ab 3d
       0.13132094 0.08603052 -0.06179171 0.08354302
000350 c3 7f 0d 3e 49 0d ea bb a2 81 03 3e c3 c4 15 3e
       0.13818268 -0.007142697 0.1284242 0.1462584
000360 98 ed 07 3d 8a ae f6 bd f7 a7 33 be ef dd 1c be
       0.03318557 -0.120450094 -0.17544542 -0.15319036
000370 ad e8 b5 3d e9 10 04 be a4 71 0f be fe c2 24 be
       0.0888227 -0.12897076 -0.14008194 -0.16090009
000380 17 b6 18 be 3f 94 42 be c0 a2 13 3d 30 94 7b 3d
       -0.14913212 -0.19001864 0.036043882 0.06142062
000390 c3 d3 e8 3d c1 a0 02 be a0 29 d3 bd 01 b9 4e 3d
       0.11368515 -0.12756635 -0.10310674 0.050469402
0003a0 09 4c 5c bd 26 ac a9 3c f5 36 58 bd 31 5a 04 3e
       -0.05378345 0.02071197 -0.052786786 0.1292503
0003b0 76 19 05 3e f6 52 96 bc 6f ea b5 3d 15 8c 9b 3c
       0.12997994 -0.018350106 0.08882605 0.018987695
0003c0 06 ee f8 bc 71 ac 88 bd a0 44 25 3e f7 78 d1 3b
       -0.030386936 -0.066735156 0.1613946 0.006392594
0003d0 cc 3f 26 be 89 50 05 3e fd 26 a7 bd 9d 0e 10 3d
       -0.16235274 0.13019003 -0.08161733 0.035170186
0003e0 de 25 ae 3b 13 86 c6 3b e4 d4 a4 3d b0 13 63 3d
       0.0053145727 0.0060584634 0.08048418 0.055438697
0003f0 fb 19 e0 bd 0b 86 04 3d e8 c0 2b 3e b9 9c 45 3c
       -0.109424554 0.032354396 0.16772807 0.012061291

decoder.decoder.weight_hh_l0 f4 [128, 32]
000000 35 6c e2 3d b4 82 1a 3e 2a a8 ba bd 95 70 77 bd
       0.11055795 0.15088922 -0.09114106 -0.0604101
000010 14 00 a1 bc 94 30 bd bd 4e 7b 2c be 26 46 07 be
       -0.019653358 -0.09237781 -0.16843912 -0.13210353
000020 a3 84 b9 bd 79 05 41 bd ad c7 01 be 50 81 b9 bd
       -0.090585016 -0.04712436 -0.12673827 -0.090578675
000030 e9 1c ed bd 3d 0c b1 bd f7 97 0d 3e 5e 12 27 be
       -0.1157778 -0.086449124 0.13827501 -0.163156
000040 06 54 d3 3d e6 cf 64 3c 35 78 14 3e 5c f0 16 3e
       0.103187606 0.0139655825 0.1449898 0.14740127
000050 09 fb 9c 3c cc 48 fe bc c9 42 f7 bd 06 85 79 bd
       0.019162672 -0.031040572 -0.12073285 -0.060917877
000060 36 d5 04 3e e1 69 af 3d ce a4 0a 3e 17 f6 17 be
       0.12971959 0.08565117 0.1353943 -0.1483997
000070 19 b2 5d bc 00 ed 13 3d 84 b8 aa 3d 05 ac 69 3d
       -0.013531231 0.036114693 0.08335975 0.057048816
000080 3f 43 df 3a 8a db 2e be 45 a8 ea bc 72 58 2a be
       0.0017033591 -0.17075935 -0.02864469 -0.16635302
000090 d1 44 14 be d2 c1 a0 3d 27 10 74 3d 7b 6b 0e be
       -0.14479376 0.07849468 0.059585717 -0.13908188
0000a0 0a 22 11 bd d2 b1 84 3d 3d 76 be bd c2 60 10 3e
       -0.035432853 0.06479229 -0.09299896 0.1409941
0000b0 d7 c9 10 3e 15 89 58 3d 47 f8 94 3d 87 18 d9 bd
       0.14139496 0.052865107 0.07273918 -0.10600381
0000c0 97 40 76 3d c5 8f 09 3e 52 fb cb bd 0a 76 1a be
       0.06012019 0.1343375 -0.09960045 -0.15084091
0000d0 a7 3c 9d bd 3e 68 30 3e 84 db 1d bd 5f 74 1b 3e
       -0.07677584 0.17227265 -0.038539425 0.15181111
0000e0 b9 49 25 3e da 3c c2 bd ee 14 49 3e 4b 6d d9 bc
       0.16141404 -0.09484263 0.1963689 -0.026541373
0000f0 b1 af 29 3e eb 4b 34 3e d6 17 69 bc cc 04 f6 bd
       0.16570927 0.17607085 -0.014226874 -0.12012634
000100 df 69 96 3d 2c 2e 50 3d 8b 46 9f bb de 47 e0 3b
       0.07344412 0.050825283 -0.0048607043 0.0068445047
000110 c3 cc 01 3e 5a 13 28 be 0f 24 22 3e 2a e8 2a 3e
       0.12675767 -0.16413632 0.15834068 0.16690126
000120 1f 61 71 bd 5a 49 c7 3c 2a 81 0e 3d 86 f8 83 3d
       -0.058930513 0.024326969 0.03479115 0.064438865
000130 6d aa 1e 3e 57 36 81 bd 2b 97 05 bd 98 25 16 3d
       0.154947 -0.06309193 -0.032614868 0.036656946
000140 0f 7c de 3d fc e5 d8 bd ba a7 fe bc 15 1c 9a bd
       0.10863506 -0.10590741 -0.031085838 -0.075248875
000150 b6 74 2b 3d dc dd 8e 3d 5d 5a 27 3c a4 ef 83 3d
       0.04185935 0.0697591 0.010214415 0.06442192
000160 89 6d 46 bd 8a 90 38 be 9a 64 08 bd 38 20 87 bd
       -0.048444305 -0.18023887 -0.033299066 -0.06597942
000170 a8 17 35 be e5 45 2b 3e 0e 55 86 bd 40 54 c0 3d
       -0.17684805 0.16725881 -0.06559192 0.093910694
000180 cb 1d 54 bc 0c e6 b7 bd 39 ad a8 bd 9d 7f 94 3d
       -0.012946556 -0.08979425 -0.082361646 0.07250903
000190 e0 4b 23 be d6 a7 06 3d 32 62 8a 3d d6 8a bf bd
       -0.15946913 0.032874905 0.067570105 -0.09352653
0001a0 30 21 ab 3d 49 04 3c 3d 2e b7 28 be d5 31 c7 3c
       0.083559394 0.045902524 -0.16476128 0.024315754
0001b0 01 55 1a 3e cb da c7 3d c4 bf a4 3c 35 42 1c 3e
       0.15071489 0.09758528 0.020110972 0.15259631
0001c0 d3 bc ce 3c 5f 3b 28 bd 48 06 bd 3d 43 03 ce 3d
       0.025236523 -0.041072246 0.09229714 0.10059216
0001d0 a7 0d 34 3d ca 89 a7 3d b5 f3 09 be 65 5c a6 3d
       0.043958332 0.08180578 -0.13471873 0.081230916
0001e0 f3 15 1d 3e 74 20 a8 3d ba b7 25 be 04 5b 82 3c
       0.15340404 0.08209315 -0.16183367 0.01591254
0001f0 c7 25 26 3c 55 6f 97 3d 1c 0f 8d 3d 4e b7 1b bc
       0.010140843 0.07394282 0.068876475 -0.009504152
000200 11 6d 81 3c 2f 4a e7 bd 3e 16 08 be 2e d9 09 3e
       0.015799077 -0.11293446 -0.13289735 0.13461754
000210 94 28 18 be 10 1e 27 3e 77 04 da 3d 08 9c 4a 3c
       -0.1485923 0.16320062 0.10645383 0.012366302
000220 8c b0 7a 3d f5 1f 29 3c e9 91 ae 3d 75 08 6e bd
       0.061203524 0.010322561 0.08523924 -0.058113534
000230 a4 a4 b0 bd 98 f1 15 be f9 0a 21 3e d8 13 14 be
       -0.08625153 -0.14642942 0.15726842 -0.14460695
000240 89 20 ad bc b4 d5 03 3e 15 28 b8 3d 7a 1d 5f bd
       -0.021133678 0.1287449 0.0899202 -0.05447147
000250 76 e9 e9 3d 5d 2c 04 be 2a 50 75 bc c8 1b b5 bc
       0.11421482 -0.12907548 -0.014972726 -0.022107974
000260 31 4c c7 3d fe 12 15 bc 07 4a 20 be db cc 20 be
       0.09731329 -0.009098766 -0.15653239 -0.15703146
000270 ab 67 16 bd de 3a 34 3e 3a 4f de bd 66 02 c3 3d
       -0.03671996 0.17600581 -0.10854955 0.09521942
000280 f6 17 07 be 15 26 a7 bc 47 5f 9f bd 9b af b2 3d
       -0.13192734 -0.020403901 -0.077818446 0.087249
000290 d8 c2 33 3d d1 ef a3 bc 68 23 17 3e 78 a9 a3 bd
       0.04388699 -0.020011814 0.147596 -0.07991308
0002a0 20 dd e0 bc 9b 08 82 3d 26 7f 09 bd 44 ab 3d bd
       -0.02744919 0.063492976 -0.033568524 -0.04630591
0002b0 0a 37 e3 3d fe d6 b3 ba a8 ea ba 3d eb ac f7 bc
       0.11094482 -0.0013720689 0.091267884 -0.03023382
0002c0 49 99 a9 bc 19 d6 47 bc 06 20 1e 3e 27 01 b7 bc
       -0.020702975 -0.012197041 0.15441903 -0.022339417
0002d0 bd 5a 3d 3c 6c 15 5f 3d 20 bf 44 3e 5e 84 25 3e
       0.011557278 0.05446379 0.19213533 0.16163775
0002e0 c3 a4 65 3d 98 0e b7 bc 59 75 05 be d2 90 85 3d
       0.056065332 -0.022345826 -0.13033046 0.06521763
0002f0 13 42 9e 3d 5a 93 fb bd af 9b fd 3c f1 9c cb bd
       0.077274464 -0.122839645 0.030958025 -0.099420436
000300 50 e3 40 3e 36 87 0e bd 9a 2c 1f 3b 63 60 41 3e
       0.18836713 -0.034796916 0.002428806 0.18884425
000310 22 f6 03 3e cc d8 25 bd 1e 51 15 3e ed 0f c6 3d
       0.12886861 -0.040489957 0.14581725 0.09671006
000320 46 8c 1e be fd de d9 bd 78 46 1f 3d d9 d1 64 bd
       -0.15483198 -0.10638235 0.038885564 -0.05586419
000330 e8 ab 28 be be a8 3a be 23 14 f8 bd 1f e6 f2 bd
       -0.16471827 -0.18228433 -0.12113216 -0.11860298
000340 c2 03 ee bd d8 76 0a 3d 3c bf 77 3d 51 4b 41 3e
       -0.116218105 0.033804744 0.06048511 0.18876387
000350 7a a2 51 be 87 19 2b bd eb 63 f5 3d f0 42 1c 3e
       -0.20472136 -0.04177239 0.119819485 0.1525991
000360 b0 5a 0c be af 26 d1 bd 7e f2 3a 3d 00 a2 e7 3d
       -0.1370647 -0.102124564 0.045641415 0.11310196
000370 83 12 12 be 87 f4 9c 3d 21 36 87 3c 9e 54 b1 3d
       -0.14264874 0.076638274 0.016505303 0.086587176
000380 60 2e 39 3d d3 2a 00 be 13 9f 6c 3d 9a f5 9d 3d
       0.045210242 -0.12516336 0.057768892 0.077128604
000390 89 f8 4e 3c 6b c7 3c 3e eb 60 47 3d ba ec 66 bd
       0.012632498 0.18435447 0.048676413 -0.056378104
0003a0 99 2c e5 bd 71 24 95 bd 50 33 5a bb ff f3 55 bb
       -0.11190147 -0.07282341 -0.0033294745 -0.0032646654
0003b0 f5 22 21 bb 46 0c 73 3d e0 dc 7c 3d 88 92 02 be
       -0.0024587486 0.059337877 0.06173408 -0.1275121
0003c0 71 a7 a6 bd b2 1f 18 be ae 31 1c 3d 8e ee dd 3d
       -0.08137406 -0.14855841 0.038133316 0.10836516
0003d0 cb 6e f0 bd 90 ca 22 3e 47 d2 38 3e 69 a1 4b be
       -0.11739882 0.15897584 0.18048964 -0.19885792
0003e0 dd 12 fb bb 8b 76 e7 bd dc 88 5d be 9f 32 e8 3c
       -0.007662161 -0.11301907 -0.21634239 0.02834445
0003f0 ae 2d 18 3e 1d 55 a8 bc 0f 7e e4 3d 4d 82 9b bc
       0.14861175 -0.020548398 0.11156856 -0.01898303

decoder.decoder.bias_ih_l0 f4 [128]
000000 74 30 21 3e 66 d7 43 3d 60 39 04 3e 6e c0 93 3d
       0.1574114 0.04781284 0.12912512 0.072144374
000010 3a c1 f4 bc b3 8c 93 bc 48 75 8f 3d a5 27 14 3e
       -0.029877294 -0.018011427 0.070047915 0.14468248
000020 87 07 00 3e 2c 84 05 3d 71 71 00 be 27 1e 1e 3e
       0.12502871 0.032596752 -0.12543274 0.1544119
000030 00 26 59 3d 1a e3 a5 bd 12 b1 95 bd 54 b9 16 bd
       0.053014755 -0.08099957 -0.07309164 -0.036797836
000040 48 60 33 3e 5e fa bd bd 44 fc d9 bd 25 a0 0a 3d
       0.17517197 -0.092762694 -0.10643819 0.033844132
000050 31 94 84 3d b9 e0 9f bd 4d a1 4e 3d 6c d7 b5 3d
       0.06473578 -0.07806534 0.050446797 0.08878979
000060 f2 0d d9 bc b2 e1 88 bb 1f 49 3c 3e 34 28 ba 3d
       -0.026495907 -0.0041772956 0.18387268 0.090896994
000070 0c 03 2f 3d 0a d7 c4 bd 0b 73 f0 bd 57 82 9a 3d
       0.042727515 -0.09611328 -0.11740693 0.075443916
000080 27 49 8d 3c 24 cb da 3d a9 50 4b be df c5 eb bd
       0.017246796 0.10683277 -0.19854988 -0.1151235
000090 7d 6f 4a 3d 52 e0 41 bd 1f 36 71 3b 09 c7 44 bc
       0.04942273 -0.04733307 0.003680594 -0.012010344
0000a0 16 ee 96 3d 22 76 e9 bb b5 98 c3 3c f2 c9 0e bc
       0.0736963 -0.007124678 0.023876527 -0.00871514
0000b0 11 bf f0 bd d8 46 a5 3d b2 48 e3 3b 93 eb 9a bd
       -0.11755193 0.08070153 0.006936156 -0.075644635
0000c0 97 5b f2 3d 72 1c 9b 3c 7c de 3d bd 30 3a 67 bd
       0.118338756 0.018934462 -0.046354756 -0.056451976
0000d0 d7 ed 34 3e 26 d2 22 3c 9f ee 17 be a7 be 26 bd
       0.17668854 0.009937799 -0.1483712 -0.040709164
0000e0 80 b5 3f bb 83 a8 3c bd b0 9f 06 3e 4f 2c 27 3e
       -0.002925247 -0.046059143 0.13146853 0.16325496
0000f0 59 16 cd 3d c9 c6 2a 3e 97 4a 18 be a0 27 07 be
       0.10014028 0.16677393 -0.14872204 -0.1319871
000100 55 e1 e1 3d 9d 52 37 be 56 3a 8b bc 9d 18 28 3d
       0.11029307 -0.17902608 -0.01699559 0.041039098
000110 7a 9b 53 b9 27 91 09 3e 3b af 26 3e aa 76 a5 bb
       -0.00020180448 0.13434277 0.16277783 -0.0050495462
000120 3d 77 99 3d 92 e3 c6 3c 63 9b f2 bd fd 9e dd 3d
       0.07493446 0.024278436 -0.11846044 0.1082134
000130 60 d5 19 3e c0 8d f7 bd 42 30 02 be 6d 77 f1 bc
       0.15022802 -0.120875835 -0.12713721 -0.029475892
000140 7a 57 a4 bd cd 7b 0a bc ba 8b 80 3c 86 45 ad 3d
       -0.08024497 -0.008452368 0.015691627 0.08460526
000150 99 6a 20 be e7 56 99 bd 2a ed a0 bd e1 0e 3f bd
       -0.15665664 -0.074872784 -0.078577355 -0.04664505
000160 73 b6 fb 3d ab 1c 9b 3b fa c1 04 be 92 03 d5 3d
       0.12290659 0.004733642 -0.12964621 0.104010716
000170 48 62 18 3e 63 43 33 3d 9d 39 71 bd 1e 5f ac bc
       0.14881241 0.043765437 -0.058892835 -0.02104145
000180 d1 ee d4 3d 39 01 0d 3e 35 0c c3 bd c2 40 3d 3d
       0.10397113 0.13769998 -0.09523813 0.046204336
000190 73 8b a7 bd 6f f7 81 3c 8f d7 34 3e db 34 ed bd
       -0.08180895 0.015865056 0.17660354 -0.11582347
0001a0 b1 1a bf bd 21 91 01 be da 99 58 bd d7 e7 54 bd
       -0.09331263 -0.12653019 -0.0528811 -0.051978912
0001b0 71 6e 2a be 92 9f 66 3c 09 9b 3f 3e b3 ae d2 3c
       -0.16643693 0.01407613 0.18711485 0.025718069
0001c0 bb 99 90 bd 22 fb 9a 3d c0 30 72 3d ab 86 20 be
       -0.07060572 0.07567431 0.059128523 -0.15676372
0001d0 eb f9 0a be e7 20 ec bd f2 e4 d8 3d 71 1f 59 3c
       -0.13571899 -0.11529713 0.10590543 0.013252125
0001e0 ae c3 10 3e 1e c2 09 bc 5f 60 8a bd b5 79 99 3c
       0.14137146 -0.008408098 -0.067566626 0.018734792
0001f0 3b 08 b5 3d 9d ce 0b be 0e 7b 3f be a4 4b 35 3e
       0.088394605 -0.13653035 -0.18699285 0.17704636

decoder.decoder.bias_hh_l0 f4 [128]
000000 56 4c d5 bd 27 99 f6 3d 98 e4 1f 3e b6 ad 32 be
       -0.104149505 0.1204093 0.15614545 -0.17449078
000010 36 cf 6e bd fd 74 4e bd b3 26 bc 3c e9 be bb bd
       -0.05830308 -0.050404537 0.022967672 -0.091672726
000020 aa dc c9 3d 52 8b 05 bc 6a 34 e8 3d f6 81 db bc
       0.098565415 -0.008150892 0.11338122 -0.026795369
000030 82 03 2f 3d 98 07 85 3c 01 ba 21 be 54 7c a2 bd
       0.042727955 0.016238973 -0.15793611 -0.0793387
000040 5f e6 38 bc b1 98 ba 3d 62 96 e2 3d e8 7a f5 bd
       -0.0112853935 0.09111155 0.110638395 -0.11986333
000050 c1 57 10 be bf 60 af bd 8c 1b 02 be cc 1c 17 be
       -0.14095975 -0.08563375 -0.12705821 -0.14757079
000060 27 bd 55 3d e8 67 1f 3e 5e 75 03 3e c3 17 98 3d
       0.052182343 0.15566981 0.12837741 0.07426407
000070 c0 09 d1 bb 32 3d 0b 3e 13 07 a5 3d 73 12 98 3d
       -0.006379336 0.13597563 0.0805799 0.07425394
000080 4f 00 aa bd 82 34 17 3e eb e9 d1 3b ec 04 e6 3d
       -0.0830084 0.14766124 0.006406059 0.112314075
000090 ea 3f 2e 3e 58 ec d4 3d 3b be 3b 3e 43 3c a3 bc
       0.17016569 0.103966415 0.18334286 -0.019926196
0000a0 0d c9 c6 bc f4 e8 25 be b7 92 b4 3b 81 7e 0b be
       -0.02426579 -0.16202146 0.005510654 -0.13622476
0000b0 4c cc 15 3e cf 26 c8 3c 62 46 ce bd a0 8e e8 3d
       0.14628714 0.024432568 -0.10072018 0.113553286
0000c0 e3 b3 19 3d 1d 0e 37 3d 49 f8 5c 3e 98 0f af 3c
       0.03752507 0.044691194 0.21579088 0.02136974
0000d0 c5 2e 06 3e d9 ad 2e 3e ad 66 43 3c f2 e4 39 3d
       0.13103779 0.17058505 0.011926335 0.045384355
0000e0 87 88 96 bd 2b 4d 4f 3d 0c 87 9f bc 53 75 15 be
       -0.07350259 0.050610702 -0.019473575 -0.14595537
0000f0 2c 5e 0e bd 11 9d f0 bd fb cd 7a bd 45 70 50 3e
       -0.034757778 -0.11748708 -0.061231595 0.20355327
000100 86 34 b4 3d f7 41 11 3d f3 cb 04 be 15 1e 17 3d
       0.087990806 0.0354633 -0.12968425 0.036893923
000110 dd 73 9d bd 95 4c b4 3d 8b a9 08 be a9 e0 22 be
       -0.07688115 0.08803669 -0.13345926 -0.15906014
000120 52 67 2e be 7b 97 b3 3d 7a e5 a2 3d 16 2f 36 3e
       -0.17031601 0.08769127 0.079539254 0.177914
000130 eb 7a 27 3d 80 e5 0b 3e 50 a8 04 be 82 03 fe 3d
       0.040888708 0.13661766 -0.12954831 0.12403013
000140 1a 9c 08 3e 27 7b 90 3d 47 d6 18 bd 8f 46 f4 bd
       0.13340798 0.070547394 -0.037313726 -0.119275205
000150 a4 df d1 bd cf ad f1 3d 36 22 0e be 62 6e a9 3d
       -0.10247734 0.118007295 -0.13880238 0.08273007
000160 bc 6d d4 bc 5e 40 57 bd c4 22 7e 3d 75 3d cc bd
       -0.025931232 -0.05255162 0.062044874 -0.099726595
000170 88 d0 97 3d 6a 5c f8 bc 86 ae 09 be 56 d8 d6 bc
       0.07412821 -0.030317504 -0.13445482 -0.026226204
000180 1c 1f 33 3d 7e 9d 6b bd 7b 58 4b 3d 3c 35 16 3e
       0.04373084 -0.057523243 0.04964493 0.14668745
000190 0a 16 fa bd 6f 1d ef 3d 7f 6a 76 bd 10 99 1b 3c
       -0.12211235 0.11675536 -0.060160156 0.009496942
0001a0 c3 65 8c bd 4c f5 21 be f0 93 20 3e e7 08 43 bd
       -0.06855347 -0.1581623 0.15681434 -0.04761591
0001b0 4c 59 b3 bd 65 2f 74 3d 87 de e8 bc f7 00 d2 bd
       -0.087572664 0.05961551 -0.028426422 -0.1025409
0001c0 54 94 6e bd 22 d4 e2 bc ab ad 32 bd 0f d9 e7 bd
       -0.058246925 -0.027689043 -0.043622654 -0.113206975
0001d0 aa 83 cc 3b 17 0d ce 3d e3 f9 f1 bc 10 a4 bd bd
       0.0062412815 0.100610904 -0.0295381 -0.09259808
0001e0 a4 50 c5 bc c2 f3 c8 bd 5b 0c c8 bd 8b ce 93 3d
       -0.024086304 -0.09812118 -0.097679816 0.07217129
0001f0 13 db d6 3c 8c af 0e be 0e b1 dc 3d 34 8c 38 3e
       0.02622751 -0.13934153 0.10775958 0.18022233

decoder.spatial_embedding.weight f4 [16, 2]
000000 c6 81 df bf 62 75 55 be f1 ae 37 c0 fa 84 b7 3d
       -1.7461479 -0.20845559 -2.8700526 0.0896091
000010 9c e9 10 3f b2 86 75 3f 90 69 44 3d 95 c1 f9 be
       0.5660646 0.95908654 0.047952235 -0.48780504
000020 9f 01 37 be a1 d8 49 3f 43 73 c5 3d 43 2a a0 3f
       -0.17871712 0.78846174 0.09641125 1.2512897
000030 45 85 8b 3d e6 44 4f bf b7 02 5e 3f d0 fb c5 3f
       0.068125285 -0.80964506 0.8672289 1.5467472
000040 dc 9b b9 3d 25 91 fd 3f 55 83 0e bf c9 ac 01 3f
       0.09062931 1.980992 -0.55669147 0.50654274
000050 cc f2 df 3f d6 b6 44 3f 92 fb 77 be b5 0a 33 bf
       1.7495971 0.76841486 -0.2421706 -0.6993821
000060 4b d3 32 3f 2e e8 94 3e c4 2f bf bf ef 8b 5e be
       0.6985366 0.2908339 -1.4936452 -0.21733068
000070 a6 c4 91 bf c3 0e 21 3e ad 60 df 3e 9c 12 11 3e
       -1.1388137 0.15728287 0.43628445 0.14167255

decoder.spatial_embedding.bias f4 [16]
000000 47 60 28 3f b8 1d 1a 3f 17 90 02 bf c7 bd 36 3e
       0.6577191 0.602016 -0.51001114 0.17845832
000010 e9 57 fe be 4b 91 14 bf 15 ca c7 3d 68 35 34 bf
       -0.49676445 -0.580342 0.09755341 -0.7039399
000020 4f 3d 0b 3f fe c5 f4 3e a2 9d db 3e 26 d2 89 be
       0.54390424 0.47807306 0.42893702 -0.26918143
000030 41 fc 1b 3f 99 f0 ab 3e b6 3f ab 3e 69 21 23 3f
       0.60931784 0.33582 0.33447045 0.63722855

decoder.hidden2pos.weight f4 [2, 32]
000000 24 90 91 be 1b 7a d0 bd 7d 66 bb 3d 9f f9 82 be
       -0.28430283 -0.1017954 0.091504075 -0.2558107
000010 c8 44 81 be 96 21 38 3e 44 a6 c6 bd c4 4b 74 bd
       -0.25247788 0.17981562 -0.096996814 -0.05964257
000020 71 e3 34 3c ff 24 3f be 82 af 0e be 41 98 05 3f
       0.011040554 -0.18666457 -0.13934138 0.52185446
000030 aa 24 33 be 51 a2 da 3d 0a 11 bb bd e6 82 2f be
       -0.17494455 0.10675491 -0.09134109 -0.17139778
000040 42 92 47 be e9 c5 4a be 60 17 b1 bb 75 2a 0e be
       -0.19489387 -0.19802059 -0.005404398 -0.13883384
000050 23 88 da bd d3 1f 23 be 9b 78 0d bf d1 1c 68 be
       -0.10670497 -0.15930109 -0.55262154 -0.22667243
000060 44 1c d6 be e3 a2 b1 3e ab d5 48 be d6 d1 e5 3e
       -0.4181844 0.34694585 -0.19612758 0.44886655
000070 ce 39 d5 bd bf 16 b4 be ef b8 8e 3e a6 93 e1 be
       -0.10411416 -0.35173604 0.27875468 -0.4405796
000080 1f 4a d4 bb 1b 2a 0a 3e 34 e5 40 3e 9b c2 4d 3e
       -0.0064785625 0.13492624 0.18837434 0.20093767
000090 d2 b0 87 be b9 d6 2c 3e 51 10 c4 bd 86 2c 51 be
       -0.2650209 0.16878785 -0.095734246 -0.2042714
0000a0 04 13 c4 be 6e 81 d3 3e 42 2f 4a be d5 1a a0 3e
       -0.38295758 0.41309685 -0.1974459 0.3127047
0000b0 e5 f0 3d be 46 ee 98 bd e5 f5 16 3d 77 b3 ba be
       -0.18548925 -0.07467322 0.036855597 -0.36465046
0000c0 e4 04 cc 3e d1 70 8d 3e d0 cc 61 be c5 b0 54 3c
       0.3984748 0.27625135 -0.22050786 0.012981598
0000d0 cd 65 07 bf 35 2c e8 3d 66 9e 9a bd 71 68 24 3e
       -0.5288971 0.11336557 -0.07549743 0.16055466
0000e0 c3 1e 1c 3b 8e 07 91 bd 3a 9e b5 3e e9 29 7a bd
       0.0023822046 -0.07081519 0.3547228 -0.061075125
0000f0 77 c3 77 bd 32 06 87 3e e3 a8 8b 3e 56 e9 30 3e
       -0.060489144 0.26371914 0.27277288 0.1727651

decoder.hidden2pos.bias f4 [2]
000000 c6 3d 1a be e5 82 9b bd
       -0.15062627 -0.075933255

pool_net.spatial_embedding.weight f4 [16, 2]
000000 fa 47 90 3f a1 15 e5 3f e6 a3 12 bf 38 84 6c 3e
       1.1271966 1.7897226 -0.5728134 0.23097312
000010 7f 54 35 bf d8 bf 6d bf 9f 0d 3e 3f ff c4 a4 3c
       -0.70832056 -0.92870855 0.74239534 0.020113466
000020 96 69 67 be 79 ac 66 be 9f 51 92 bf 1c a4 1b bd
       -0.22598872 -0.2252673 -1.1431159 -0.037998304
000030 5a 9a 58 3d 4d 5e a1 be 0d 51 0b bf d4 e1 93 be
       0.052881576 -0.31517258 -0.5442055 -0.2888323
000040 81 f3 c6 bf 66 58 a6 3f 29 f7 3d bf dc ff 33 bd
       -1.5543061 1.2995727 -0.7420526 -0.04394518
000050 c4 fe 14 40 85 f8 ad 3f 1f 88 f4 be 23 3b 09 3f
       2.3280497 1.3591467 -0.47760102 0.5360586
000060 c7 4b c1 3f e3 90 b3 bd ff 04 e3 be 02 15 03 bf
       1.510125 -0.08767869 -0.4433975 -0.5120393
000070 f8 82 8d bf c0 15 e0 bf 41 79 07 c0 c5 37 3a bf
       -1.1055593 -1.7506638 -2.1167758 -0.7274135

pool_net.spatial_embedding.bias f4 [16]
000000 00 a0 3e 3e 9e 45 13 3f 35 75 e5 3e 12 7c f9 3e
       0.18615723 0.575281 0.44815984 0.4872747
000010 6a 68 fa be 45 17 e8 3e 45 0a b0 3e 96 7e 27 bf
       -0.48907787 0.45330253 0.34382835 -0.6542753
000020 fc dd 16 bf 40 e4 95 3d 47 a5 50 3d 9b e5 3c bd
       -0.5893247 0.07318926 0.05093887 -0.046117406
000030 c8 69 9a 3e 40 b8 dd 3e 14 66 da 3e 9b 05 09 bf
       0.3015883 0.43304634 0.42656004 -0.5352418
