scripts/models/sgan-p-models/zara1_12_model.pt (torch_old, 190166 bytes, 24 tensors)

encoder.encoder.weight_ih_l0 f4 [128, 16]
000000 af b0 ad bd d8 63 52 3d a4 f2 f8 bd 38 65 0b bd
       -0.08480965 0.05136475 -0.12155655 -0.034032077
000010 3a 22 ad bd dd 5d 86 3d 5e 65 07 3c b1 1b 02 3e
       -0.08453794 0.06560872 0.008263914 0.12705876
000020 2d 3a 01 3d 6c 28 8a 3c 23 5d a0 3d bc 4a 06 be
       0.03154962 0.016864978 0.078302644 -0.13114446
000030 08 bb 15 be fd fc ac 3d 17 db e7 3d 03 bf 1b 3b
       -0.14622128 0.08446691 0.11321085 0.0023764975
000040 e4 64 07 3c 40 b7 3d 3e 21 b4 59 3b 3f da f6 bd
       0.0082638 0.18526936 0.0033218937 -0.12053346
000050 d7 da 28 be bd c1 9d 3c c9 2d 3b bd fe 84 9c bd
       -0.16489731 0.01925742 -0.04569796 -0.07642554
000060 68 32 58 bc 6c 8d 17 bc 4e 1a 3a 3e 8a 7e 0a bd
       -0.013195612 -0.009250026 0.18174097 -0.033812083
000070 6b 74 14 bd 01 96 95 bd cd 6e dd bc 3a c3 40 be
       -0.036243837 -0.073040016 -0.027030373 -0.18824473
000080 3c 64 f3 bb 10 58 d3 3d a8 90 a5 bd 8a a5 00 3d
       -0.0074277204 0.10319531 -0.080842316 0.03140787
000090 d1 4d 8f 3b 74 50 fc 3d c0 e4 25 3e 6d 76 c9 3d
       0.00437329 0.12320033 0.16200542 0.09837041
0000a0 98 55 27 be 6b 4c 2f 3d d7 4c 34 3e 88 4a 48 3e
       -0.16341245 0.042797487 0.17607437 0.19559681
0000b0 fd ff 5c 3d 04 7f 1d 3e b2 3f 0d 3e 42 f3 37 3b
       0.053955067 0.15380484 0.13793829 0.0028068577
0000c0 79 93 62 bd f7 97 55 bc 11 38 eb 3d b2 b5 61 bc
       -0.055316422 -0.0130367195 0.11485303 -0.01377623
0000d0 ef da 81 bd 3a 34 e1 bd 65 6c 04 3e 13 ea f7 3d
       -0.063405864 -0.109962896 0.12931974 0.12105193
0000e0 b2 a9 a0 3d 69 1e c9 bd 64 50 17 3e d8 93 01 be
       0.07844867 -0.098202534 0.1477676 -0.12654054
0000f0 a0 1d b0 bd fb fd 52 bd f4 28 e7 3b 51 6f 27 be
       -0.085994005 -0.051511746 0.0070544425 -0.16351058
000100 1c 4b 3e 3e 63 0e 11 3d 8f f0 f0 bd d3 0a 31 be
       0.1858334 0.03541411 -0.11764633 -0.17289285
000110 de 10 c7 3d a1 11 23 be 8f d9 21 3e f2 60 88 bd
       0.09720014 -0.15924694 0.15805648 -0.06659116
000120 a7 8a 22 be b8 d7 86 bd ea 04 9e bd dd a3 04 3e
       -0.15873204 -0.06584114 -0.07715781 0.12953134
000130 46 4d 9f 3e b6 75 ef 3c 34 3f c8 bd 7b 85 f2 3d
       0.31113642 0.029230934 -0.0977768 0.11841866
000140 7c 46 65 3e d8 78 54 bd 46 24 c5 bd 19 5d 35 3d
       0.22390169 -0.051873058 -0.09626059 0.044278238
000150 9d 1e 60 3e 31 78 3b bd 66 c9 6a bd ef 33 bb bd
       0.21886678 -0.04576892 -0.057320975 -0.09140765
000160 fd 19 70 be 08 fe ec 3d d1 a0 1b bc f1 cb bf bd
       -0.23447414 0.1157189 -0.009498791 -0.093650706
000170 fb a4 e1 3d e2 71 af 3c 90 c6 da 3d db fc 0d bd
       0.11017796 0.021416608 0.10682404 -0.03466497
000180 91 0a 41 be 44 ee 55 3e e9 d9 df 3d d0 1e eb bd
       -0.18851687 0.20891672 0.10930235 -0.114804864
000190 bd cb 26 be e7 aa 84 3d a1 e9 09 3e b3 0a 24 3e
       -0.16288657 0.064779095 0.13468029 0.16019706
0001a0 b0 3d 60 3e 25 bc 8a 3d 7d 3d 0c 3e d9 fe 0f be
       0.21898532 0.06774167 0.13695331 -0.1406206
0001b0 f0 c7 19 bd c5 7d 00 3d 24 f0 fb bd 24 a7 dc 3d
       -0.03754419 0.031369943 -0.123016626 0.10774067
0001c0 ae c7 ba 3c 35 b7 3e 3d 10 5d e5 bd 5f c9 94 3d
       0.022800293 0.04656144 -0.11199391 0.07264971
0001d0 29 b9 1c be b4 30 95 bc 67 81 26 3e 73 bb bd bd
       -0.15305008 -0.0182117 0.162603 -0.09264269
0001e0 48 1a d4 3d 6e f1 41 3e e4 a2 6f 3d 7b 77 b9 3b
       0.10356575 0.18939754 0.058504954 0.005659995
0001f0 de 55 23 3d e8 49 c8 3d 7a db 42 bd 32 15 c0 3d
       0.03987681 0.097797215 -0.04757259 0.09379043
000200 9e e7 6c bd 80 0d 2f 3d f7 f0 89 bd aa cd 2a 3d
       -0.057838075 0.042737484 -0.067354135 0.041700043
000210 6d a9 f8 bd 6e e0 27 3e ee dc a0 bc 35 a6 fd 3d
       -0.121416904 0.16394207 -0.019636597 0.12385217
000220 16 b5 16 be 22 c4 61 bd e9 51 20 3e 79 6b 8a 3d
       -0.14717516 -0.055118687 0.15656246 0.0675878
000230 66 74 f1 3d 09 74 5b bc 2c aa 54 3d 84 24 cc 3d
       0.11789779 -0.013394364 0.0519201 0.09967902
000240 f5 60 92 3d 9c 40 30 3e cd 5d 31 3d 92 30 c1 3c
       0.07147399 0.17212147 0.043302346 0.02358273
000250 bd 56 2f 3d c0 50 86 bd 1c be 66 bd 8f 5c 1c 3e
       0.04280733 -0.065583706 -0.056333646 0.15269683
000260 57 3a a6 bd 39 6f 13 be 20 82 50 bd 28 0f 5f 3d
       -0.08116596 -0.14397897 -0.050905347 0.054457814
000270 8d a4 36 bd 1c 14 c1 bd 80 b2 0b bb 09 49 7a 3c
       -0.04459052 -0.09427664 -0.002131611 0.015276202
000280 45 19 a2 bd 50 91 41 3e a6 e5 42 3d bf 32 62 3c
       -0.07914976 0.18903089 0.04758229 0.013806044
000290 c5 f7 a6 bd 20 02 6c 3d 3f ae dc bd 94 ec 4f 3e
       -0.08152727 0.057619214 -0.10775422 0.20305091
0002a0 8b 26 0e be c8 22 a2 bd ba d7 28 3d 13 f4 f3 bb
       -0.1388189 -0.0791679 0.041221358 -0.0074448674
0002b0 54 98 05 bc 21 af 57 3d c3 28 14 3e d2 83 5a 3c
       -0.008153994 0.05265725 0.14468674 0.0133370925
0002c0 82 d0 0d be 4b 9c 68 3e a4 66 f8 3d 3d 3a ed bd
       -0.1384907 0.22715871 0.12128952 -0.11583374
0002d0 5d ca 6f bd b8 0c 20 3b 83 78 ae bd f7 7b c0 3d
       -0.058542598 0.0024421643 -0.085190795 0.093986444
0002e0 54 f0 cc bc fd c0 c5 3d cf 99 0c 3e d8 f6 d4 bd
       -0.025016941 0.0965595 0.13730548 -0.10398644
0002f0 3c 5d 92 3d 53 5e af bd c2 51 ef 3c d1 07 02 3e
       0.07146689 -0.08562913 0.02921379 0.12698294
000300 13 d6 de bd 8d 63 ec 3c 08 d3 9d bd 37 48 78 bb
       -0.10880675 0.028856063 -0.07706267 -0.003788484
000310 34 53 5c bd a4 15 81 bd b2 4a aa bc 1a 85 5a 3d
       -0.053790286 -0.06302956 -0.02078757 0.05334959
000320 6b b9 c9 bd e1 6b 9b 3d f8 98 9a 3d 7a 2d 40 3e
       -0.09849819 0.07588936 0.07548708 0.18767348
000330 09 07 e9 3d aa b0 de bc e1 3b 11 3d 6e 01 48 be
       0.11378295 -0.02718385 0.035457496 -0.19531795
000340 8d 76 34 be 2b 14 a9 bd 99 83 58 bd 19 5d 93 bb
       -0.17623349 -0.082558 -0.052859876 -0.004497182
000350 27 d2 41 be d3 84 f6 bc 0f f0 3b 3e 77 d1 ef bd
       -0.18927823 -0.030092632 0.18353294 -0.11709874
000360 42 22 27 3e 38 22 e5 bc eb 52 7b bb f5 30 1b bd
       0.16321662 -0.027970418 -0.0038348984 -0.037888486
000370 3f 52 b5 3d ad 9d 37 bd 10 ca 0b be 7f b9 44 be
       0.08853578 -0.044828106 -0.136513 -0.19211386
000380 b7 6d 80 3d 81 20 e7 3c d6 a6 b0 bd 90 8e 4c 3c
       0.062709264 0.028213741 -0.086255714 0.012485161
000390 68 39 b4 bd 50 64 af bd 6e e4 02 be 1f 46 2d 3e
       -0.08800012 -0.08564055 -0.12782452 0.1692128
0003a0 e4 75 fa bc c9 9f 2f 3e 7c e4 e0 3d e0 fa 33 3e
       -0.030573793 0.17150797 0.1098108 0.1757617
0003b0 d1 40 cb bd 97 0d 67 3d 2e 94 90 bc a3 16 73 bd
       -0.09924472 0.056409445 -0.017648783 -0.05934776
0003c0 1d f4 c4 3d 54 de f5 3d 9c b8 4d bc 1b ac 8c 3d
       0.096168734 0.12005296 -0.012556221 0.06868764
0003d0 a1 44 64 be 8b 0c c8 3a b4 1a ef 3d a9 01 41 3d
       -0.22291805 0.0015262527 0.11675015 0.047120724
0003e0 c2 c1 e4 bd 13 69 15 be 41 c1 b1 3d bc b2 47 3e
       -0.11169769 -0.14590864 0.086794384 0.19501776
0003f0 3a f9 b5 3d 7a e9 86 3e 3b 7a 0a be 87 32 c1 3d
       0.08885427 0.26350003 -0.1352319 0.094334655

encoder.encoder.weight_hh_l0 f4 [128, 32]
000000 e5 ae 08 3e 9e 74 18 bc 76 d3 3a 3d 2e cc 11 3d
       0.13347967 -0.009305147 0.04561182 0.03559511
000010 3a 2a f2 3d b3 bb 8e bd 57 76 8b 3d 24 65 af bd
       0.1182446 -0.069693945 0.06809681 -0.08564213
000020 d7 1c 58 3e b7 ac 02 bd ec 6f e1 bd d3 39 60 bd
       0.21104752 -0.031902995 -0.110076755 -0.054742645
000030 1c f4 f5 3d 03 18 a9 3c 15 a0 1f be 40 e0 ec 3c
       0.12009451 0.020641332 -0.1558841 0.028915524
000040 41 ee 8a bd 95 cb 71 bd ce 20 c3 bd e5 92 c1 3d
       -0.067837246 -0.05903204 -0.095277414 0.09451846
000050 49 42 e9 bd fb da ed bd ae 6f 4b 3e 3a cd 04 be
       -0.11389596 -0.11614033 0.19866821 -0.12968913
000060 af 50 f2 bd 04 28 84 3c e9 9d 2a bc 11 c1 7b bd
       -0.118317954 0.016132362 -0.010413625 -0.06146342
000070 a8 c7 23 3d 5c e0 32 be b2 56 61 be 64 1d 78 3e
       0.03998533 -0.17468399 -0.22005728 0.24229962
000080 7e 80 81 3e 98 02 34 3d 40 90 55 bd ee d1 28 be
       0.25293344 0.043947786 -0.05213952 -0.16486332
000090 82 f4 e6 bd de 17 c1 3c c5 77 b6 bc 30 db 97 bc
       -0.11277105 0.023570951 -0.022273907 -0.018537134
0000a0 3e d4 3b 3e 40 91 89 3c 42 8c 3c 3d c7 97 51 3d
       0.18342683 0.016792893 0.046032198 0.051170137
0000b0 3e 05 fd bc 28 2c 3a 3e 5f 81 bd 3c 0b 1d 88 bd
       -0.030886289 0.18180907 0.023132978 -0.066461645
0000c0 52 84 8f bd bf 5a 56 3e 92 c7 13 be 42 07 59 bd
       -0.0700766 0.20933054 -0.14431599 -0.052985437
0000d0 dc 49 56 bd 09 3a a0 bd 74 e0 a8 3d d9 8b 9c bd
       -0.05231653 -0.07823569 0.08245936 -0.07643861
0000e0 aa 04 80 3d 64 77 3c be 2e 2d b9 3d af 05 04 3e
       0.062508896 -0.18404919 0.090418205 0.12892793
0000f0 1b 93 1b bd 7e 4d e8 bc b9 2a 21 3e e1 97 95 3d
       -0.037982088 -0.028357264 0.15738954 0.07304359
000100 ff cd e7 3d 16 e2 82 bd 99 4c 12 be 19 bf a0 3d
       0.113185875 -0.06390779 -0.14287032 0.07848949
000110 97 7b 99 3d b5 dd 0b 3e 2a d1 9b 3d 8d c9 f5 3c
       0.07494276 0.13658793 0.07608254 0.030003333
000120 c9 41 19 bd ac 49 f0 3d 03 15 91 3c 89 df de 3d
       -0.037416253 0.11732802 0.017710214 0.1088248
000130 f1 79 7b 3e ae 44 96 3e f2 51 1b 3e 47 a5 01 be
       0.24558236 0.29349273 0.15167978 -0.12660705
000140 9c 5a a3 3c b6 60 27 3e 30 de 8f 3d 4d 1f bf bd
       0.019940667 0.16345486 0.07024801 -0.09332142
000150 8d b1 8e 3d d2 3a ce 3c 95 3d a7 3d c1 9c 82 bd
       0.06967459 0.025174532 0.08166043 -0.06377555
000160 e9 6d 35 bd f2 1d 4b be 0b f8 00 3e 9a 0d fe 3d
       -0.04429427 -0.19835642 0.12594621 0.12404938
000170 1b d1 3f 3e c0 bc 49 be 37 6b 16 3e 20 09 73 3e
       0.18732111 -0.19700909 0.14689337 0.2373395
000180 6f 14 51 3d 6a 18 b6 bb 81 2e 19 be 98 47 32 ba
       0.051044878 -0.0055571096 -0.14959146 -0.00068008294
000190 fe 15 05 3d c8 cd 17 be 6b 79 83 3d 9c 69 ed bc
       0.032491677 -0.14824593 0.06419643 -0.028981023
0001a0 bd f3 87 bd 4c 8e 42 3e 01 f1 cc bd f9 6c 16 3d
       -0.06638286 0.18999594 -0.10006905 0.03672502
0001b0 75 d0 29 3d 4c 03 8a 3d 14 52 3e 3d 74 97 f8 3d
       0.041458566 0.0673891 0.046464995 0.121382624
0001c0 d0 e4 2a be c8 6f d1 bd 40 02 09 3e 6b 98 11 be
       -0.16688848 -0.10226399 0.13379765 -0.14218299
0001d0 b6 35 7d 3b d6 e4 c5 3d 7c 05 3c 3e bb 78 14 be
       0.003863675 0.096627876 0.18361467 -0.1449918
0001e0 01 2f e7 bc 7a 9c f1 bd da fe 09 be 52 29 4a 3e
       -0.028220655 -0.11797424 -0.13476124 0.19742325
0001f0 d5 ff 8f bd eb 16 d9 bd b7 47 c7 3d 78 94 c3 bd
       -0.07031218 -0.106000744 0.097304754 -0.095498025
000200 74 08 76 3d 75 5d cf bd 04 25 bf bd c8 09 1a be
       0.060066655 -0.101252474 -0.09333232 -0.15042794
000210 b5 1f b0 3a 5b 2c c5 3c a5 4a 8b bd f3 3c 1d 3e
       0.0013437184 0.024069002 -0.06801347 0.15355282
000220 a1 6a 06 3d 0d ad 1a 3e 4c fb 1a 3e 7c b9 22 3e
       0.032816533 0.15105076 0.15134925 0.15891069
000230 eb 59 0c 3e 2e a9 22 3e 1b a3 52 bc bf 92 a1 bd
       0.13706176 0.1588485 -0.01285627 -0.07889318
000240 0a eb d4 bc 44 60 3f 3e a9 9d c5 3b 95 a5 93 3d
       -0.025990982 0.18689066 0.0060307574 0.07209317
000250 0c d2 8f bd 86 d3 d8 bd 82 0a 0c 3c af 88 76 3d
       -0.07022485 -0.1058722 0.008547427 0.060188945
000260 9d 3e b1 bd 6f 49 fd 3d 6a 38 a4 bb 13 7a 02 3e
       -0.08654521 0.12367522 -0.005011608 0.1274188
000270 3a cb ee 3d 4f 2e 65 3d 30 92 37 3e e8 cf 00 be
       0.11659856 0.055952366 0.1792686 -0.1257931
000280 83 f8 9b bd 73 60 51 3e e0 07 5e 3d 1b 79 51 bd
       -0.07615759 0.20446949 0.05420673 -0.051140886
000290 6a 58 ca bc e4 52 85 bd 67 6d 11 3e e6 c6 8c 3d
       -0.024700362 -0.06509951 0.1420189 0.06873874
0002a0 46 24 61 3c 23 11 5a bc fe 9e aa 3d c3 5d 4f 3e
       0.013741558 -0.01330975 0.083311066 0.20250611
0002b0 7b fb 6b 3e 45 f0 84 bd ab 4e 6f be 92 3b 17 be
       0.23045151 -0.0649114 -0.23369853 -0.14768818
0002c0 c7 f4 03 bd b5 1e d9 3d ab fb 13 bd 2d 08 02 be
       -0.03221586 0.1060156 -0.03612868 -0.12698431
0002d0 73 ed 14 be ad d0 31 bd 97 19 06 3d cf 72 73 be
       -0.14543705 -0.0434119 0.032739248 -0.23774265
0002e0 7a 1f 78 3d 8b 5b 23 be 73 fb 79 3c f8 d9 1e 3e
       0.060576893 -0.1595289 0.015257704 0.15512836
0002f0 e3 64 4e 3e dd f1 33 bd 3a 54 55 3c 59 f4 b7 bd
       0.20155673 -0.04393183 0.013020569 -0.089821525
000300 0f 86 32 3e e8 a7 c2 3d e4 6b bd bc 26 62 ff bd
       0.17433952 0.09504682 -0.023122735 -0.12469892
000310 bd e5 13 be a0 65 99 bc fc 74 df ba a9 07 de bd
       -0.14443107 -0.018725216 -0.0017048414 -0.10841305
000320 a8 29 cb bc 58 fe 28 bd 03 b1 61 3e 3b d0 d3 bd
       -0.024800137 -0.041258186 0.22040181 -0.10342451
000330 2e 10 2b 3e 57 9b 27 3e ec b8 e9 3d 9f b5 ea 3d
       0.16705391 0.16367851 0.11412224 0.11460423
000340 82 ca f6 3c 7c 20 f0 3c 68 f3 02 be a4 18 04 be
       0.03012586 0.029312365 -0.12788165 -0.12900025
000350 50 da 80 3c 88 00 df 3d 65 21 e6 bd e9 1d 0a 3e
       0.0157291 0.10888773 -0.11236838 0.13487972
000360 38 cc c2 3c c0 d9 32 3d 0f 8a 00 3e 87 d2 70 3e
       0.02377902 0.043664694 0.12552665 0.2351781
000370 4b 00 f7 3d 51 a5 fb 3d cb 58 ff 3d ed 9d 57 bd
       0.12060603 0.12287391 0.12468108 -0.052640844
000380 a3 07 b5 bd a8 d8 fc bd db ac 6b 3c dc cc 6a bd
       -0.08839347 -0.123460114 0.014384474 -0.057324275
000390 a9 b5 1b 3e bb 17 97 bd 7c 94 1d bd 1a 4f 69 3d
       0.15206017 -0.07377573 -0.038471684 0.056960203
0003a0 35 12 36 3e 02 3a 1b 3d 8a 41 cb bd 3a ad 07 3d
       0.17780383 0.037897117 -0.0992461 0.033124186
0003b0 bc 62 b7 bd 0f d1 b2 3d a2 c7 82 bd a8 85 b3 bd
       -0.08954379 0.08731281 -0.06385733 -0.08765727
0003c0 86 40 01 bd b6 a1 95 3d 4c c4 f3 3d dd 5f 92 3d
       -0.031555675 0.073062345 0.11902675 0.07147191
0003d0 43 fd ec 3d f4 6d 6b be be c2 00 3e 18 46 fd bd
       0.11571743 -0.22991163 0.12574288 -0.12366885
0003e0 41 87 13 be e5 43 bf bd 30 23 ae 3c 72 2d f6 bc
       -0.14407064 -0.09339122 0.021257013 -0.030050967
0003f0 4b cd 42 3d b0 a0 8a bd de 91 9c 3c 04 99 ba bd
       0.047559064 -0.0676893 0.019112524 -0.09111217

encoder.encoder.bias_ih_l0 f4 [128]
000000 29 99 45 3e 97 d9 80 3e 06 ba 50 3d 5a 22 c9 bd
       0.19296707 0.25166008 0.050958656 -0.09821005
000010 53 ae 21 bd 08 92 9e 3c 7d 82 2b ba 49 0e af 3c
       -0.03947289 0.019356743 -0.00065425766 0.021369116
000020 ba 0a 2b 3e ab 07 36 3e 49 5d dd 3d f6 da 0c 3e
       0.1670331 0.17776363 0.10808808 0.13755402
000030 db b2 0e 3e a9 e6 d5 3d 06 be e6 bc 2f 7a a9 bd
       0.13935415 0.104443856 -0.028166782 -0.08275258
000040 d2 1f 87 3e 20 d2 19 be f5 17 17 3e 92 88 fd 3d
       0.26391464 -0.15021563 0.14755233 0.12379564
000050 a8 83 13 bd 19 d8 2e 3e 5c dc ae bd 4c e6 4f 3d
       -0.03601423 0.17074622 -0.08538124 0.050756738
000060 e4 10 9e bd 2b e8 63 3d b8 8a c6 3d f8 a0 05 bd
       -0.077180654 0.055641335 0.09694427 -0.032624215
000070 b9 36 e7 bd 3d b9 c5 3d c9 5d 25 3e 40 de 02 3e
       -0.112897344 0.09654472 0.16149057 0.12780094
000080 3e e0 9e bd d6 9e 5f 3c f8 a2 f0 bd d1 e6 3a bd
       -0.077576146 0.013648709 -0.11749834 -0.04563028
000090 0e 06 16 3e 48 ab b5 bc 26 29 92 3c 55 96 87 3d
       0.14650747 -0.0221764 0.017841887 0.066204704
0000a0 cf db 4b bc e9 4a 53 3d bc 2e 11 be 94 fe 3a 3e
       -0.012442543 0.05158511 -0.14177984 0.18261176
0000b0 b5 04 36 bd 90 ad 45 3d 74 c9 18 be 1e 00 5a 3d
       -0.044438083 0.048261225 -0.14920598 0.053222768
0000c0 03 8e 99 3c e9 61 46 3c f0 d4 89 bb 31 e2 fb 3d
       0.018744474 0.012108305 -0.0042062923 0.12299002
0000d0 da d9 11 bd 03 22 21 3e 50 01 a4 3d 12 f7 2f be
       -0.03560815 0.1573563 0.08008063 -0.17184094
0000e0 49 dd 23 3e b2 31 c5 bc 8b ac 1b 3e e4 33 3e 3e
       0.16002382 -0.024071548 0.15202539 0.18574482
0000f0 db ea d5 3d 09 29 56 bd d6 7f db bb af 1b 66 bd
       0.10445186 -0.052285228 -0.006698589 -0.056178745
000100 97 df 09 3e 1e 11 31 3d b7 69 15 bd d4 2a 86 3b
       0.13464199 0.043229215 -0.03647777 0.004094461
000110 de 40 08 be 87 0e 3e be 3e 3b 91 3d 43 95 54 3d
       -0.13305995 -0.18560229 0.07091378 0.05190016
000120 2f 70 af 3d 8e a2 14 3e 8c b2 07 bd 34 d6 b6 3d
       0.08566319 0.14515135 -0.03312926 0.08927575
000130 7b 62 2f 3e a3 65 6f 3d 79 52 06 3e 25 8f 0d 3d
       0.17127411 0.058446538 0.13117398 0.03456034
000140 61 d6 0d bd 09 d5 99 3d dd 03 34 bd f2 2c 02 3e
       -0.034628276 0.07511336 -0.043948997 0.12712458
000150 24 24 8d bd 84 43 00 be 2d f0 2d 3d b1 29 21 bc
       -0.06891659 -0.12525755 0.042465378 -0.0098366
000160 35 00 19 be 83 95 1a be fa 45 4b bd 55 b8 82 3c
       -0.14941485 -0.15096097 -0.04962728 0.015957037
000170 9d 43 3a 3e b4 41 12 3e 69 ad aa bd 0f d8 27 ba
       0.18189855 0.14282876 -0.083338566 -0.00064027397
000180 30 4b 60 3d c5 9e 99 bd 65 6d 3d 3e dc 09 c6 3d
       0.054759204 -0.07500986 0.18498762 0.09669849
000190 b6 cf 3a 3e c7 d3 90 bd ba 25 c1 bd 22 f2 af 3d
       0.18243298 -0.07071643 -0.09431024 0.08591105
0001a0 a7 8c a4 3d 26 8a 24 3e 42 d2 21 bd d8 19 e5 bc
       0.0803464 0.16068324 -0.039507158 -0.027966425
0001b0 a3 b3 72 3d 15 e0 c2 bd 61 c1 3b bd 63 f3 66 3e
       0.059253346 -0.095153965 -0.045838717 0.22553782
0001c0 e7 80 dd 3d 94 e5 54 3e ec 7b fc 39 03 b1 50 3e
       0.10815602 0.20790702 0.00048157515 0.20380025
0001d0 72 6f 5d 3e 10 ef a3 bc 5e 78 02 3e 84 6c f1 3b
       0.21624544 -0.020011455 0.12741229 0.0073676724
0001e0 d0 0a ba 3d 23 02 0f 3e e5 28 00 3c 83 a9 09 3e
       0.090840936 0.13965659 0.00782225 0.1344357
0001f0 fd 61 ad bc 49 98 4b 3e 3b 81 ee bc 52 6c 24 3e
       -0.021164889 0.19882311 -0.029114356 0.16056946

encoder.encoder.bias_hh_l0 f4 [128]
000000 e2 25 1a 3d 58 1c 78 3e 9d 79 08 bc be f5 ab 3d
       0.037633784 0.24229562 -0.008329776 0.08396481
000010 6c 52 21 3a e9 a8 6a bb 8c 79 82 bd ef a8 d4 3d
       0.00061539444 -0.0035806245 -0.063708395 0.10383784
000020 91 c7 b8 3d b2 aa 5e 3e e0 91 4e 3e 7e aa 0a bd
       0.09022439 0.21744803 0.20172834 -0.033854
000030 ca fa 65 3d 34 a6 1a bd 82 4c f6 bd f9 a3 d8 3b
       0.056147374 -0.03775616 -0.120263115 0.006611344
000040 92 e7 70 3e 26 1c 92 bb 27 5b 95 bd 99 61 b5 3d
       0.23525837 -0.004458922 -0.072927766 0.08856506
000050 82 dd c9 3d 12 99 2c 3d a7 a2 26 bc e2 c6 1d 3d
       0.098567024 0.042138167 -0.010170615 0.038519748
000060 b9 12 a9 3d dd 36 b2 3d 96 a2 87 bb 4b 32 62 3e
       0.08255524 0.087018706 -0.004139255 0.22089498
000070 db 5f 0a 3e be 69 2f bd 48 7e 44 bc 7e cd 4e bd
       0.13513128 -0.042825453 -0.011992998 -0.05048894
000080 4d 82 cc 3d 46 36 34 3d dd 91 d3 bd 7c cc 79 bd
       0.099857904 0.04399707 -0.103305556 -0.060986027
000090 72 af 40 bd 31 9d 3a bd b6 9d 47 bd 79 98 c6 bd
       -0.047042318 -0.045560066 -0.04873439 -0.096970506
0000a0 62 b2 4c 3e 1a 54 0d 3e 4a a8 de 3b f1 42 0f 3e
       0.19989923 0.13801613 0.006794964 0.1399038
0000b0 86 78 c6 3d 60 8f cc ba a8 80 1e be 64 e8 ad bd
       0.09690957 -0.0015606694 -0.15478766 -0.084915906
0000c0 c7 4c 0d be 5d 1d d4 3d 7e 64 ea 3d be 45 da bc
       -0.1379882 0.10357163 0.114449486 -0.026644584
0000d0 68 15 ed bd dd 4a e4 bd de 66 14 3e 03 b7 00 be
       -0.115763485 -0.111470915 0.14492366 -0.12569813
0000e0 aa 1d b1 3d d4 1a e7 3d f1 eb 78 3c 49 7b 97 bb
       0.08648236 0.11284414 0.015192972 -0.004622851
0000f0 9e d4 2b 3d d5 1e ab bd ab 1c 1f be d9 72 63 3d
       0.041950814 -0.0835549 -0.1553828 0.05552945
000100 f7 74 14 3e ab 97 cf 3d 0e f1 04 be c0 a4 a3 3d
       0.14497744 0.1013635 -0.1298258 0.07990408
000110 66 0f ee 3d f9 82 f9 bd 8c 04 46 3d e3 75 13 be
       0.11624031 -0.12183184 0.04834418 -0.14400439
000120 57 b8 c4 3d 40 6d e3 bd f0 d5 55 3d f4 3f a6 3c
       0.096054725 -0.11104822 0.05220598 0.020294167
000130 b7 eb 58 3e 1f 23 9a bd 58 16 96 3d e9 be 0e 3e
       0.21183668 -0.0752623 0.073284805 0.13940014
000140 62 d1 c3 3d 05 e4 6a 3d 88 ee 36 be 7b e7 28 be
       0.09561421 0.057346363 -0.1786443 -0.16494553
000150 88 1f 36 3e 1a 85 cc bd 83 eb 25 3e 08 b9 1e be
       0.17785466 -0.099863246 0.16203122 -0.15500271
000160 5e e2 54 3d fc 8f 60 bd d4 14 24 3e 21 9d 33 3d
       0.051973693 -0.054824814 0.1602357 0.04385102
000170 60 8e ae 3d 44 a9 ba bd 92 d0 02 be 6a 65 12 3e
       0.085232496 -0.09114316 -0.12774876 0.14296499
000180 d7 01 23 3e 4f e4 82 3d 6b b7 51 3d d1 88 ce 3d
       0.1591867 0.06391203 0.05120031 0.100846894
000190 19 f2 8c 3d 0e e9 0c 3e 1d 33 51 3e 56 27 41 3e
       0.06882114 0.13760778 0.20429654 0.18862662
0001a0 24 0a 33 bd b6 fc 75 bd 26 73 0b 3e 3e 33 36 3e
       -0.043710843 -0.060055457 0.13618144 0.17792985
0001b0 54 a6 41 3d 4a 38 66 bc c7 01 ad 3c ba 59 29 3e
       0.047277763 -0.014051506 0.021119012 0.16538134
0001c0 3b 2d c0 3d 48 23 8e bd 1c 8e f3 bd b9 66 d9 bd
       0.09383627 -0.06940323 -0.118923396 -0.10615296
0001d0 e1 bf 99 3d 6e 2a 15 be 46 40 14 3e d2 23 a6 3d
       0.07507301 -0.14566967 0.14477643 0.08112301
0001e0 b7 ca 3e bd d8 e2 0c 3e df 3d 31 3e b9 59 fe 3d
       -0.046580043 0.13758409 0.17308758 0.12419457
0001f0 a8 b6 74 3c e3 47 31 3e 74 96 fb 3d 57 55 2d 3d
       0.014936127 0.17312579 0.12284556 0.042317715

encoder.spatial_embedding.weight f4 [16, 2]
000000 8d d6 d3 3f e9 81 57 3f fb 90 78 bd c2 26 b0 3e
       1.6549851 0.841826 -0.06068514 0.3440457
000010 e1 9b a6 3d 25 19 d9 3d 06 4f 6e bf f2 54 45 3e
       0.081352 0.10600499 -0.9308933 0.19270685
000020 65 84 dc 3f c8 1e f4 3f 3d c4 9d bd a3 3f cf 3f
       1.7227904 1.9071894 -0.07703445 1.6191295
000030 8e 59 2a 3f b6 be 7e 3f b9 e1 6e 3c b1 9f 95 be
       0.665429 0.9950975 0.014580184 -0.29223397
000040 55 0c 00 bf 01 4f 6f 3f ca f9 00 3f e3 cc c1 3f
       -0.5001882 0.93479925 0.5038115 1.5140651
000050 67 07 34 3f eb 43 71 3f 47 f4 b6 3e 1e 15 cb bf
       0.70323795 0.9424426 0.35733244 -1.586582
000060 56 fd 46 3e d1 83 83 bf 13 7c 00 c0 fa aa 6f bf
       0.19432577 -1.0274602 -2.007573 -0.93620265
000070 b7 e1 a7 3f 10 92 2c 3e 1f 75 45 bf 0d 63 fc be
       1.3115758 0.16852593 -0.7713184 -0.4929432

encoder.spatial_embedding.bias f4 [16]
000000 37 29 f3 3e ce 71 6c 3e 87 d3 14 3f f1 9b c6 be
       0.47492382 0.23090288 0.58135265 -0.3879085
000010 2d f1 41 3e 85 9d 27 3f c1 ea 16 3f 31 c3 2a 3f
       0.18939658 0.6547473 0.58951956 0.6670409
000020 8e 51 92 bd 55 9e 3a 3f 77 89 3f 3f fc a8 02 3f
       -0.071444616 0.72897846 0.7481913 0.510391
000030 d5 43 4d 3c b4 17 5a 3d 1e f7 c2 3e e6 9c c4 be
       0.012528379 0.05324526 0.3807916 -0.38400954

decoder.decoder.weight_ih_l0 f4 [128, 16]
000000 cd 94 cd bd 7b e7 31 be 58 f0 2c 3e 13 c0 b5 3d
       -0.10038147 -0.17373459 0.16888559 0.08874526
000010 b8 11 d5 3c 19 54 8b 3d 94 c4 03 3d f9 4e a1 3d
       0.026009426 0.0680315 0.032169893 0.07876391
000020 36 5e 69 bd 91 c7 a8 bc b2 d5 69 be 7f b1 94 bd
       -0.056974612 -0.020602973 -0.22835425 -0.07260417
000030 b0 f2 cf bd 1e 6f 31 be b4 a8 7a 3d aa b9 36 be
       -0.10153711 -0.17327544 0.061196044 -0.17844263
000040 71 82 d3 bd 9f ec 84 3d 7d 3a 7e 3d b9 61 e5 3c
       -0.10327614 0.064904444 0.062067498 0.0280007
000050 fe 1a f9 3d 5e 1c fb bd f3 9b d3 3d 0c 25 6f be
       0.121633515 -0.1226127 0.10332479 -0.23353976
000060 4c 53 63 3e f0 d8 a1 bd 33 fe de 3d 7f d2 94 bd
       0.22199744 -0.07902706 0.108883284 -0.072667114
000070 7d d3 69 bd 38 b8 7f 3e 24 ad 39 3e eb bf 41 3e
       -0.057086457 0.24972618 0.18132454 0.18920867
000080 d3 f3 c8 bc 8b 84 54 bd f0 3a dd 3c 85 74 5e be
       -0.024530327 -0.051884215 0.027005643 -0.21724136
000090 94 0f 9a 3d 25 14 00 be dd 93 55 3d c5 6b f9 bd
       0.075225025 -0.12507685 0.052142967 -0.121787585
0000a0 44 dd 48 3e be e8 f6 bc 00 55 0b 3e f8 39 55 3e
       0.19615656 -0.030140277 0.13606644 0.20822895
0000b0 45 d5 e2 bd 2a 43 c4 3d 80 f2 8b 3d 25 a0 eb bd
       -0.11075834 0.09583123 0.068333626 -0.115051545
0000c0 00 80 ce bd 5c 70 cd 3d 2a 85 17 be 26 b0 b7 bd
       -0.10083008 0.100311965 -0.14796892 -0.089691445
0000d0 05 49 0b 3e f2 0b 24 3d 52 4a 39 3d 7a 0b f2 bd
       0.13602073 0.040050454 0.045236893 -0.11818595
0000e0 c8 bb 40 3e 3a 13 68 3d 90 54 5d bd 2b 1a 8a bd
       0.18821633 0.05665896 -0.054035723 -0.067432724
0000f0 20 ec 45 bd 25 98 c8 bc c4 b9 a3 bd 4e dd 09 3d
       -0.04832089 -0.02448661 -0.07994416 0.03365832
000100 2c ba f5 3d 2c 6b a1 bd 40 87 f3 3b b4 22 80 bd
       0.119984 -0.078817695 0.0074318945 -0.06256619
000110 90 0b 8b bc 39 ee b7 bc a2 61 86 3d fb 21 20 be
       -0.016973287 -0.02245246 0.06561591 -0.15637963
000120 f2 92 3f 3e 49 9c a2 bd b7 79 17 3e 34 b5 0c bd
       0.18708399 -0.07939965 0.14792524 -0.034352496
000130 42 66 bb bd 44 d3 4c 3e 3e 3e 99 3d 01 fd 24 3d
       -0.091503635 0.20002466 0.07482575 0.040280346
000140 b8 c6 bc bd c6 4c 9c 3d 29 fe 22 bd 93 cf 7e bd
       -0.0921759 0.07631831 -0.039793167 -0.062209677
000150 a5 52 d3 3c 1d 44 d3 3d 4a 8f 97 3b b4 30 87 3d
       0.025796244 0.10315726 0.0046252357 0.06601086
000160 6c b6 6b 3d 6d eb 71 bd 72 b0 ae bd 87 07 27 be
       0.057547018 -0.05906241 -0.08529748 -0.16311465
000170 c9 38 19 3e bd c1 13 be 59 a2 cf 3b 90 d8 15 3d
       0.14963068 -0.14429374 0.006336492 0.036583483
000180 06 8e fc 3d 6d cf 93 3d 47 1a 3d bd 59 79 14 be
       0.12331776 0.07217298 -0.04616764 -0.14499415
000190 e7 7c 6b bd 0f 8a dd bd cd fd 04 bd 2f cc e7 bd
       -0.057492163 -0.10817348 -0.032468606 -0.11318242
0001a0 86 fb 1f 3b 26 56 e2 3d a1 b4 c4 bd 12 8a c4 3c
       0.0024411394 0.11051588 -0.09604765 0.023991618
0001b0 20 4b 54 3d 57 17 bd 3d 42 47 55 be 0f 8f 05 be
       0.051829457 0.09232967 -0.20827964 -0.13042854
0001c0 5c 3e ab bc 58 bd 90 bc 50 71 10 3e c5 f5 c6 bd
       -0.020903759 -0.017668411 0.14105725 -0.097148456
0001d0 70 28 74 3d 23 39 58 3c d4 58 c3 bd 59 1e 0a 3e
       0.059608877 0.013197216 -0.09538427 0.13488139
0001e0 8c c5 86 3d ad 37 fd 3d 10 a2 28 be 9e 24 d9 bd
       0.06580648 0.12364135 -0.16468072 -0.10602687
0001f0 99 48 26 3e fb a8 38 3e b9 70 7e 3b e6 13 05 be
       0.16238631 0.18033211 0.0038824512 -0.12995872
000200 85 8e 92 3c c9 28 13 bd 5b ba a4 b9 c7 ae 8a bd
       0.017890224 -0.035927568 -0.00031419363 -0.067716174
000210 3d 7a f7 bd a0 b8 87 3d 84 95 9f bd d3 c2 f8 3d
       -0.12083862 0.06627011 -0.0779219 0.12146535
000220 06 ae 0d 3e 24 0c d0 3d 28 e2 f2 bd 99 58 5a bc
       0.13835916 0.10158566 -0.11859542 -0.013326787
000230 5f 5e ac 3d d7 72 1c be 13 b9 22 be 8a 3d af bd
       0.08416437 -0.15278183 -0.15890913 -0.085566595
000240 2f 8e 77 bc fe 95 f0 bb 47 ae 06 3e 03 17 7b bd
       -0.015109583 -0.007342099 0.13152419 -0.061301243
000250 3c f3 d0 3b c2 e9 bf bc 42 92 44 bc 29 a6 a9 bd
       0.006376652 -0.023426894 -0.011997761 -0.08283646
000260 c7 bf 9b bd ac 6c 75 bd 0e e4 a4 bc d7 20 2f bd
       -0.07604938 -0.05991809 -0.020128276 -0.042755928
000270 be 42 f2 3d 11 4f be 3d d7 a1 57 3d 27 cd ed bd
       0.11829136 0.092924245 0.052644577 -0.11611395
000280 61 b0 7a 3d 82 47 2d be f6 a2 f3 bc 47 a3 24 be
       0.061203364 -0.1692181 -0.029740792 -0.1607791
000290 00 85 56 3d 5b f1 25 3d 64 99 a9 3c 76 a7 ca bd
       0.052372932 0.040513378 0.020703025 -0.09895222
0002a0 6d 2a f8 3c 3e dc 54 3e d3 a4 52 be 1b 7c f0 bd
       0.030293668 0.2078714 -0.20570688 -0.11742421
0002b0 56 ab ae 3d 15 97 d6 3b 18 ec 1e be 9a 8e df bd
       0.085287735 0.006548772 -0.1551975 -0.10915871
0002c0 9b 34 c2 3d e2 58 e1 bc dd a5 40 be 5a 94 2c be
       0.0948269 -0.027508203 -0.18813272 -0.16853467
0002d0 01 fe a8 bd b1 52 cf bc 0c ac ff 3c 2b f8 14 be
       -0.082515724 -0.025307985 0.031209968 -0.14547794
0002e0 c8 d8 e4 3c 33 97 65 3c fc f7 ef 3d dd ff b2 bc
       0.0279354 0.0140130995 0.11717221 -0.02185052
0002f0 2e 80 dc bd f4 39 20 3e 43 ff 36 be 8a 0a 15 3e
       -0.10766636 0.15647107 -0.17870812 0.14554802
000300 31 e4 a9 bd 8d 78 8b 3d 39 cc 26 3c 63 e1 1f 3e
       -0.08295477 0.068101026 0.010180526 0.15613322
000310 a9 7c 8c bd e8 80 4a bd 8b 1a 2d be 3e ea e3 3d
       -0.068597145 -0.04943934 -0.16904657 0.111286625
000320 df 90 fa 3d cd a2 bd 3d e0 86 00 bd 95 cd fc bd
       0.12234663 0.092595674 -0.031378627 -0.12343899
000330 23 a1 4d bc 14 b8 4e 3d a3 a1 7e 3d 13 35 09 3e
       -0.012550625 0.05046852 0.062165868 0.13399152
000340 b9 40 d3 3d c4 d8 7e 3d e5 fa 90 3d 49 9b 2c be
       0.10315079 0.062218443 0.07079104 -0.16856112
000350 08 aa 5b 3d 71 24 ec bd aa 53 0e be 7b 55 69 3d
       0.05362895 -0.11530388 -0.13899103 0.056966286
000360 3c 21 db bd e6 d5 14 3e d7 9d bf 3d d3 c1 c4 3d
       -0.10699698 0.14534721 0.093562774 0.096072815
000370 e4 f8 2c 3e 5d 5f 11 be 06 73 0a bd 21 f5 00 bd
       0.16891819 -0.14196534 -0.0338011 -0.031483773
000380 01 33 cc bd 1d 2b 2d 3e e5 be 15 be 2b f8 17 be
       -0.09970666 0.16910978 -0.14623602 -0.14840762
000390 b3 b2 32 be 2b ca d1 bd d2 cc 9f bd 6f 66 7d 3d
       -0.17450981 -0.102436386 -0.07802738 0.061865266
0003a0 3f 78 fc 3d 6a b7 d5 bc 9f 40 5f 3c ea df 37 3e
       0.123276226 -0.026088435 0.013626247 0.1795651
0003b0 ee ea d5 3d f1 dc 30 be 40 46 43 be 90 79 14 be
       0.104452 -0.17271782 -0.19069767 -0.14499497
0003c0 e4 0d 08 be 5d 05 8b bd b9 36 16 bd 76 5e 10 3e
       -0.13286549 -0.06788132 -0.03667328 0.14098534
0003d0 3f fd 95 3d cb 5d cc 3d 68 c3 55 bd 9a ce 1b 3e
       0.073236935 0.09978827 -0.052188307 0.15215531
0003e0 1f d8 b8 bd 3d c0 20 3e 93 ab 28 3d 0f d8 da bd
       -0.09025597 0.15698333 0.04117925 -0.10685741
0003f0 18 1a 1b be c8 80 00 3d 56 58 28 bd 13 12 c4 3d
       -0.15146673 0.031372815 -0.04109987 0.0957376

decoder.decoder.weight_hh_l0 f4 [128, 32]
000000 80 39 00 3e a4 0b b5 3d 70 25 00 be ea 82 71 bd
       0.12521935 0.08840111 -0.12514281 -0.05896274
000010 51 b5 85 3d 44 1b d4 bd 39 38 f0 bd 67 07 16 3e
       0.06528724 -0.10356763 -0.117294736 0.14651261
000020 37 a1 37 3d 12 a2 75 3d 47 50 08 be c2 a9 e0 3d
       0.04483148 0.059969015 -0.13311873 0.10969879
000030 4b b5 a9 3d ba 23 b1 bc 3f 26 37 be 2c 6f 19 3d
       0.08286532 -0.021623481 -0.17885683 0.037459537
000040 ad a2 26 bc fd 59 26 be 00 c0 1d 3e 67 57 d3 bd
       -0.010170621 -0.16245265 0.15405273 -0.10319405
000050 da 5f 5b 3e ba ee 4c 3e 2d b2 89 3b 52 a6 ce bb
       0.21423283 0.20012942 0.0042021484 -0.006306448
000060 e5 1e 17 be df 3b 0f be a0 2f a7 3d f0 6f 1a bc
       -0.14757879 -0.13987683 0.081633806 -0.009426102
000070 62 84 e4 bc 8f 6a 53 bd c4 c4 ff 3d ab b6 5e bc
       -0.027895156 -0.051615294 0.12488702 -0.013593356
000080 96 79 d8 bd 87 eb f8 3d 5b a4 3a 3e 16 bf 12 be
       -0.10570066 0.12154298 0.18226759 -0.14330706
000090 39 7a 31 be 18 18 0a 3e 5b a7 b9 3d 74 52 47 3d
       -0.1733178 0.13485754 0.09065124 0.048662618
0000a0 1d cc a7 bd 8c cb ec 3c a8 98 4b be 1e a0 06 be
       -0.081932284 0.028905652 -0.19882452 -0.13147017
0000b0 fe f0 11 be 7f aa bf bc bd 61 46 be f6 6c e8 ba
       -0.14252087 -0.023396729 -0.19373222 -0.0017732668
0000c0 53 4d 70 3e 1c 13 96 bd 76 c8 04 be 46 71 ce 3c
       0.23466997 -0.073278636 -0.12967095 0.025200497
0000d0 d8 2a 99 bc ab 39 ff bd 5d df 8b 3d 7d 08 2a be
       -0.018697187 -0.12462171 0.068297125 -0.166048
0000e0 ce bc c6 3c a6 5b 9c bd ff 95 d8 bd 9c 30 43 bd
       0.024259951 -0.07634668 -0.105754845 -0.04765378
0000f0 1c b2 4b 3c f3 fd 2c 3e ef b5 46 3d 8f 6c 5b bd
       0.012432601 0.16893749 0.04851335 -0.053570326
000100 11 62 ea bd ca 49 e1 bd a7 65 f7 3d 6b 5e 62 3d
       -0.11444486 -0.11000402 0.120799355 0.055265825
000110 d9 05 29 3e b5 24 65 bd 9a 54 dd 3c 26 49 cc bd
       0.16506137 -0.05594321 0.02701788 -0.099748895
000120 0e 20 44 be cb e8 15 be 54 3d cb 3d 4d cf 03 3e
       -0.19152853 -0.14639585 0.09923807 0.12872048
000130 58 a5 14 be 81 4a 73 bc 71 16 49 bd f3 6f ba bd
       -0.14516199 -0.014849306 -0.049093667 -0.09103384
000140 3a bb ba bd c8 cb 19 3e ed d9 91 3c 2f 18 e5 bd
       -0.09117742 0.15019143 0.01780411 -0.11186253
000150 ac 45 1f 3e ed ac ff 3d a7 8f ee 3c ac cc 7c 3d
       0.15553921 0.12484155 0.029121233 0.061718628
000160 ef 28 16 be ca ec d5 bd 79 4e 27 be f0 5f 6f be
       -0.14664052 -0.104455546 -0.16338529 -0.23376441
000170 9e 54 79 be 5a 22 b4 3c 3b 08 6c 3d bb f4 bb bd
       -0.24348685 0.021989036 0.057625037 -0.09177538
000180 21 2c 05 be aa e7 a3 bd 98 a7 ad 3d bd 16 c4 bd
       -0.13005115 -0.08003171 0.084792316 -0.095746495
000190 1f a3 8c 3d d4 6d 0a 3e 53 c2 0b 3e 84 8a c6 bd
       0.068670504 0.13518459 0.13648348 -0.096943885
0001a0 d6 d4 b1 3d ab c8 23 bd 27 c3 3b be 6f 24 31 3d
       0.08683173 -0.039986294 -0.18336163 0.043247636
0001b0 77 04 08 be 54 1b 6b be 3b ef 06 be 10 35 27 be
       -0.13282953 -0.22959644 -0.13177197 -0.16328835
0001c0 91 7b 5e be 97 04 9f bd c7 ab 83 be 91 9d 9c 3d
       -0.21726824 -0.07764547 -0.25716993 0.07647241
0001d0 5c d1 1e be 6d fe 47 be 54 e9 71 bd 5d 7d 08 3e
       -0.15509552 -0.1953065 -0.05906041 0.13329072
0001e0 2c 6d c6 bc 40 bf 10 3e 0a 01 4c 3d 86 0d 65 bc
       -0.02422198 0.14135456 0.04980568 -0.013980275
0001f0 fe 5f aa bd 0d c9 ea bd 06 1b fc bd 91 ef 8b 3b
       -0.0831909 -0.11464129 -0.12309842 0.004270502
000200 be cb 2f 3d e5 86 bf bd b3 01 f6 bd c5 ad 8a bd
       0.042918913 -0.09351901 -0.12012043 -0.06771425
000210 56 a1 a5 3d c7 f5 b2 bd 94 aa ea bd e6 9f 2a 3e
       0.08087413 -0.087382846 -0.114583164 0.16662559
000220 74 0d d4 3d 0a fb 6c bd b4 0a 74 bd ca 9a 26 bd
       0.103541285 -0.057856597 -0.05958052 -0.040674962
000230 e7 88 57 3d 76 c4 1b be d8 12 ae 3d 14 ed 8c bd
       0.052620795 -0.15211663 0.08499688 -0.068811566
000240 be dc f7 bd b3 f2 d5 bd 4a 5d 3f bd 36 5d c1 3d
       -0.1210265 -0.10446682 -0.046719827 0.09441607
000250 62 1a ea 3d 76 03 16 3e 36 10 0d be 3d c4 8a bd
       0.11430813 0.14649758 -0.13775715 -0.06775711
000260 32 9c a2 3c 2b 79 20 be 15 ec 2e be e6 48 c9 bc
       0.01984987 -0.15671222 -0.17082246 -0.024570893
000270 2c f4 f8 bd 62 ae 70 bd 5e 5a 93 3d 8d 15 4b bc
       -0.12155947 -0.058760054 0.071949705 -0.012395275
000280 e9 2d 0f 3d 8d 8b 0c 3e bd f3 82 bd d5 f5 16 3e
       0.034955893 0.1372511 -0.06394146 0.14742215
000290 29 04 49 3e d2 ac 01 bc 99 01 cd bc ef 88 3f bc
       0.19630493 -0.007914739 -0.025025176 -0.011690362
0002a0 5b 82 94 3d 17 07 6e bd 8e 77 8b 3d 1e a9 36 be
       0.07251426 -0.05811223 0.068099126 -0.1783795
0002b0 37 41 9b 3d 01 60 86 3c 3a e5 e4 3d 18 86 47 3e
       0.07580798 0.0164032 0.11176534 0.19484746
0002c0 c5 5b 38 3d bc 7f d8 bd 30 10 35 3e 1c 9a 66 bd
       0.045009393 -0.105712384 0.17681956 -0.056299314
0002d0 4a 22 21 be 25 fe 98 3c 12 16 03 bd a5 f4 92 3d
       -0.15735736 0.018675873 -0.03200347 0.071755685
0002e0 ec 70 c4 3d 9d c0 81 bd a8 ce b9 bd 04 dd a9 bd
       0.09591851 -0.06335566 -0.0907262 -0.082941085
0002f0 c7 48 a4 bd 20 65 32 3d ae 79 9d 3d b5 7f ae bd
       -0.08021694 0.04355347 0.07689224 -0.08520452
000300 d1 5a 01 3e a6 d6 10 3d 24 a9 83 3d e6 13 dd bd
       0.126323 0.035360955 0.064287454 -0.10794811
000310 93 74 83 bd b9 d8 ea 3d 4e 77 a6 bd 89 c6 33 3e
       -0.06418719 0.11467118 -0.08128224 0.17556204
000320 68 4c b8 bd c4 4f 79 3e 73 83 80 bd 73 ad de bd
       -0.08998948 0.24346834 -0.06275072 -0.108729266
000330 b6 3a 02 bd 49 6d 4e bd e1 9c 5b bd 8c ca 36 3e
       -0.031794272 -0.05039719 -0.05361641 0.17850703
000340 b2 f2 06 3e d8 d9 14 bd 07 7a 92 3c 54 5a 82 bc
       0.13178518 -0.036340564 0.017880453 -0.015912212
000350 3f 5f a8 3d 4d 0b 1d 3e fa 98 87 bd 34 39 1c bc
       0.08221292 0.15336342 -0.06620975 -0.009535123
000360 05 9d db bd d4 c2 69 3d 65 15 2f be e6 8e f6 bd
       -0.107233085 0.05707057 -0.17098005 -0.120389745
000370 e3 18 a8 bb 55 81 15 3e 5c 70 d2 3b 94 b0 ae 3d
       -0.00512992 0.14600118 0.0064220857 0.08529773
000380 4d 3c 06 be aa 3f 0a bd 6c 1e a2 bc 6e 6e c0 bd
       -0.1310894 -0.03375212 -0.019789897 -0.09396063
000390 2b c7 26 bc cb d9 9e bd 21 2f 19 3d d7 76 35 3d
       -0.010179321 -0.077563845 0.03739846 0.044302788
0003a0 a3 03 af 3d b8 12 8b 3d 49 c3 46 be 45 5b 70 3c
       0.085456155 0.0679068 -0.19410433 0.014670198
0003b0 a9 65 d0 3d f9 cc f8 3d a3 ff 92 3c 97 fe ce bd
       0.1017564 0.121484704 0.017944163 -0.10107153
0003c0 cc 49 90 3b dc d1 3b be 75 c8 58 bd 4e 7a f5 3d
       0.0044033285 -0.18341774 -0.052925546 0.119862184
0003d0 e4 de 76 3c 7f c6 4e be ce 65 91 3a 5c 69 11 be
       0.01506779 -0.20192908 0.0011092962 -0.14200348
0003e0 df 8d 0b 3e 74 c2 c1 bd e2 6d e9 bd f9 e0 d8 3d
       0.13628338 -0.09460917 -0.113979116 0.10589785
0003f0 39 b7 e0 bd f3 74 0d be 82 15 11 3e 86 78 f9 bc
       -0.10972447 -0.13814144 0.14168361 -0.030452978

decoder.decoder.bias_ih_l0 f4 [128]
000000 3e ee 32 3e 41 97 91 bd 14 2d 81 bd 34 4b 2f be
       0.17473695 -0.071089275 -0.06307426 -0.17118531
000010 84 15 31 be be bf 63 3d 18 e3 2c bd c7 53 d4 bd
       -0.17293364 0.05560278 -0.04220876 -0.10367542
000020 c5 0f af 3d f3 c9 22 3e b3 2e 27 3d c0 5f 3f 3d
       0.0854793 0.1589735 0.04081602 0.046722174
000030 23 09 47 bd 5d b8 59 3c 76 2e 18 3e be cf 7b bd
       -0.048592698 0.013288585 0.14861473 -0.061477415
000040 4f 09 5b bd f3 0a 85 bd 82 5d 63 bc 0e 2f fe 3d
       -0.053475674 -0.06496229 -0.0138772745 0.12411319
000050 f5 53 0d be 6f 69 6a bd a5 41 1e be 9b c5 a4 3d
       -0.13801558 -0.057229456 -0.15454729 0.08045503
000060 3b fe 1c b9 0f b3 e0 bd a2 2d dc 3d 82 81 ea 3c
       -0.00014972028 -0.10971653 0.10750891 0.028626207
000070 50 79 96 3d 6e 6a 58 bd 47 ac 07 3e 57 0b f2 3d
       0.07347357 -0.052835874 0.13249312 0.11818569
000080 8b 09 45 3d 5b ea 3a 3e 9c 59 97 3d 85 91 2e be
       0.048104804 0.18253462 0.073901385 -0.17047699
000090 40 63 0a bd 7a 97 6c bd e7 6d f8 3d 46 a8 57 3d
       -0.03378606 -0.057761647 0.12130337 0.052650712
0000a0 3e b5 50 3b 38 93 32 3e f9 81 44 3d d4 42 e2 bc
       0.003184631 0.17438972 0.047975514 -0.027619757
0000b0 e4 68 ac 3c bf 1d e3 bc ad 32 1f 3e a2 50 12 3e
       0.02104611 -0.027724145 0.15546675 0.14288571
0000c0 26 34 cc bd 3f 8d be 3d e9 a5 2a 3e 70 cc e6 3c
       -0.09970884 0.09304284 0.16664852 0.028173655
0000d0 81 c7 8c bd 57 f1 b7 3c fd a0 0d 3e 84 ac 93 bd
       -0.0687399 0.022453947 0.13830943 -0.07210639
0000e0 b9 59 bc 3d 5a b6 50 bd fc 86 44 3e e2 2e 3d 3e
       0.09196801 -0.050955154 0.19192117 0.18474916
0000f0 94 9f 05 3e 1d 30 05 3e e9 dd 3f 3c ad 4e ad bd
       0.13049155 0.13006635 0.011710622 -0.08462272
000100 90 c4 08 be 4a f1 c5 bc d7 31 f9 3d 78 48 8e bd
       -0.13356233 -0.024162907 0.12167709 -0.06947416
000110 bf 84 1d 3d eb 69 10 3e be 38 f7 bd 91 02 1c 3e
       0.038456675 0.14102904 -0.120713696 0.15235354
000120 ff 32 0a be 8e 03 00 bc 74 28 9d bc 6f c8 bb 3d
       -0.13496016 -0.0078133475 -0.019184329 0.09169089
000130 36 eb 5e bd 47 d9 e7 bd a1 ea 98 bd 14 a3 cd 3d
       -0.054423533 -0.11320739 -0.07466627 0.1004087
000140 05 05 2c bb 79 25 f0 3c 2c a5 ba bd 01 fc b9 bd
       -0.002624811 0.029314743 -0.09113535 -0.09081269
000150 51 f9 7f 3d 51 34 0b 3e 54 f1 a1 3c 9b ec b8 3d
       0.062493626 0.13594176 0.019768395 0.09029504
000160 09 ff bd 3d e9 59 62 3c 36 ad 7f 3d 8d 48 29 3e
       0.0927716 0.013815382 0.062421046 0.16531582
000170 db 04 2f be fa f1 97 bd 7d fc 36 be 3a 96 08 be
       -0.17091696 -0.074192 -0.17869754 -0.13338557
000180 fe 98 5b 3d 4d 8c da bd 70 f3 0e 3e f2 4b fd bb
       0.0536127 -0.106712915 0.13960052 -0.0077300007
000190 0b 4a 1d 3e 59 f3 17 be f9 b9 7e 3c ff 4b 9f 3d
       0.15360276 -0.14838924 0.015547269 0.07778167
0001a0 6a cc de 3d ef 83 12 3d c2 7f 8c bd 8e 07 dd bc
       0.10878833 0.035770353 -0.06860305 -0.026981141
0001b0 aa 92 84 bd 96 c1 10 be 7d fb fd bd f5 12 94 3d
       -0.064732864 -0.14136347 -0.12401483 0.07230178
0001c0 62 6b 83 3e 16 97 ab 3b 2b 87 bc 3c db 5f 0a bd
       0.25667864 0.0052365167 0.023013672 -0.03378282
0001d0 8c 38 1d bd 67 49 09 3e 68 bb e8 bd f1 0a 1c 3e
       -0.038384005 0.13406907 -0.1136387 0.15238549
0001e0 df 37 16 bc 59 0d 01 3b 98 f1 58 3d 61 57 2b 3d
       -0.009168594 0.0019691794 0.052964777 0.041831378
0001f0 b7 57 d5 3d 02 2d c0 3c ff 10 aa bc b2 5c 2c 3e
       0.10417121 0.023458961 -0.020760057 0.16832235

decoder.decoder.bias_hh_l0 f4 [128]
000000 47 86 00 3c 71 b8 bd bd 5d a9 f1 3d dc 59 92 bd
       0.007844514 -0.09263695 0.117998816 -0.071460456
000010 2a 75 08 3d bf f4 33 bd f1 d8 b5 bd ac 4c 3d 3e
       0.03331486 -0.04393458 -0.08879269 0.18486279
000020 1b e0 a7 bd 00 8b e0 bd ec 7f 3f 3e 62 4e 0b be
       -0.081970416 -0.10964012 0.18701142 -0.1360412
000030 74 e5 b9 3c d0 83 07 be 50 fd b7 bd 56 b2 02 bd
       0.02269242 -0.13233876 -0.089838624 -0.031908356
000040 58 d5 62 3d 1e 65 a6 bc 18 6f ee 3d 6d 63 e0 3d
       0.05537924 -0.020311888 0.11642283 0.10956464
000050 fe c3 13 be 0d c2 92 bd 31 9b d6 bd 7d e3 08 be
       -0.14430234 -0.071659185 -0.10478819 -0.1336803
000060 39 9b 42 bc 9e 1d c8 3c 61 f0 8d 3c 4c 8c c9 3d
       -0.011877828 0.024428185 0.017326536 0.09841213
000070 7e d3 f5 bd 48 a0 dd bd 38 16 22 be 01 e9 a2 bd
       -0.120032296 -0.10821587 -0.15828788 -0.07954598
000080 d2 dc 43 3e e2 35 ac 3d 29 a5 bd bc d8 8f 16 bd
       0.19127205 0.08408715 -0.023150044 -0.036758274
000090 45 6a 7f 3d 9c 81 25 bd be 71 d1 3d 2d 3f 31 3e
       0.062357206 -0.04040681 0.10226773 0.17309256
0000a0 0d d8 d0 bd 72 f2 6e bc a9 0a 0e be ba 61 97 3c
       -0.101974584 -0.014584171 -0.13871254 0.018479217
0000b0 5d 9f 08 3e ec 4c da bd 13 f5 ef 3d b6 d9 7b 3c
       0.13342042 -0.10659203 0.11716666 0.015371731
0000c0 03 8f 44 3d 2f b9 2e 3e c0 22 18 be 7e 9f 0d bd
       0.04798795 0.1706283 -0.14857006 -0.03457593
0000d0 e5 9c 11 be 5b 6b fd bd 79 ff 31 3e 8a 9d b7 bd
       -0.14220007 -0.12373992 0.17382611 -0.08965595
0000e0 f7 42 10 bd 6c e8 8b 3d cb 8c be bd 58 20 16 ba
       -0.035220113 0.0683144 -0.09304198 -0.00057268655
0000f0 bb 96 11 be 6a b6 fe 3d 8b a0 00 be a5 f2 23 3d
       -0.14217655 0.124371365 -0.12561242 0.040026326
000100 ee b7 1a 3b 06 22 6c 3c 45 89 86 3c a4 84 e9 bd
       0.0023608166 0.014412409 0.016422877 -0.11402252
000110 cf 7b f2 3d 2d 9e 27 be 8b 71 30 3e 31 ec 9a bc
       0.11840021 -0.16368933 0.17230813 -0.018911453
000120 2b 8f f6 bd 31 d2 a0 bd bf fc 18 be 9e 62 6b bd
       -0.12039026 -0.07852591 -0.14940165 -0.057467096
000130 78 46 03 3e 08 2b 9f bd a6 e2 66 bc 71 9e 88 bd
       0.1281985 -0.077718794 -0.014092123 -0.06670845
000140 9d c3 42 3c f8 62 d1 bd 0d 41 ff bd 5c 11 9f 3c
       0.011887458 -0.10223955 -0.12463579 0.019417457
000150 96 58 2d 3d 6b c2 14 be 1a 8a 9a 3d 3e c9 f9 3d
       0.04232081 -0.1452729 0.07545872 0.12196587
000160 a5 d2 c3 3d 0a 80 2b be 6c aa 2f be 69 42 02 be
       0.09561662 -0.16748062 -0.17154855 -0.12720646
000170 5a 7e 18 3e ee eb 09 3e f5 ec db bd 2b cb fa 3d
       0.1489195 0.13468906 -0.10738555 0.122457825
000180 44 21 a0 bd 3f cb a8 bd 01 15 dc 3d 6a de 2b 3d
       -0.07818845 -0.08241891 0.10746194 0.041960157
000190 8d bd bb bd 70 53 d4 3d 71 2f 22 3e ac bb 1c 3d
       -0.09167013 0.10367477 0.1583841 0.038264915
0001a0 9a ef 38 3e f3 28 6a 3c 61 53 d5 bd 71 54 48 3e
       0.1806015 0.01429199 -0.10416294 0.19563462
0001b0 b8 aa b2 3d 2c 1a a1 bc d2 43 9e 3d 70 ae 68 3d
       0.08723968 -0.0196658 0.077277794 0.05680698
0001c0 72 0e 22 3e 06 a7 04 3e 57 c2 6c bd 79 f6 08 3e
       0.15825823 0.1295434 -0.057802524 0.13375272
0001d0 91 be c3 bd 17 e3 21 3d c5 98 22 3e ec 1b ef 3d
       -0.09557832 0.03952321 0.1587859 0.116752476
0001e0 75 21 a7 bd 0d 0d 96 3d d0 0b 78 3c 45 e5 90 3d
       -0.08160678 0.07326708 0.015139535 0.0707498
0001f0 9d bb 2c 3e f5 a1 ef 3d 97 a6 76 3d 08 22 bf 3c
       0.16868444 0.11700813 0.060217466 0.023331657

decoder.spatial_embedding.weight f4 [16, 2]
000000 64 b0 2b 3f 14 94 81 bf d5 36 7a bf 07 a7 01 40
       0.67066026 -1.0123315 -0.9773992 2.0258195
000010 8d f8 e0 bf ee 0c 6f 3e cb c9 f9 3d ab a1 5a bf
       -1.7575852 0.23344776 0.12196692 -0.85402936
000020 d8 3b 08 bf 1b 76 80 bf 36 c9 a7 3f c8 2d bc be
       -0.53216314 -1.0036043 1.310828 -0.36753678
000030 c1 b3 36 bf 7a ce 9d 3f c6 b0 7e bf 95 71 bd bf
       -0.7136803 1.2328637 -0.99488485 -1.4800287
000040 dd b6 2e 3f a8 e4 4c 3f 09 4b 0e 3f a0 41 38 bf
       0.6824778 0.800364 0.55583245 -0.71975136
000050 93 6c 6a 3f 95 8f a8 3f ca 00 12 3f 0f 80 92 bf
       0.9157192 1.3168818 0.57032454 -1.144533
000060 e5 67 d9 be 8c 60 94 3f 15 26 74 3e cb 1c 01 3f
       -0.42462078 1.1591964 0.23842652 0.5043456
000070 93 20 08 be 02 ed 16 3f cd 6a f3 be 4e 30 12 40
       -0.13293676 0.58955395 -0.4754242 2.2841983

decoder.spatial_embedding.bias f4 [16]
000000 16 05 02 3f e3 53 3b 3e 0d 14 97 be 1c 3b 07 bf
       0.5078901 0.18293719 -0.29507485 -0.5282457
000010 df d8 01 bf 5a e4 36 bf 36 8e 06 be d9 88 a6 be
       -0.50721544 -0.71442187 -0.13140187 -0.3252628
000020 7b ad 8b be 0d 03 9d 3d c4 60 23 bd 3a e9 22 3f
       -0.27280793 0.076665975 -0.039887205 0.63637125
000030 eb ba a2 3e 68 35 80 3d c7 26 9a be 72 74 af be
       0.31783232 0.062601864 -0.3010771 -0.34268528

decoder.hidden2pos.weight f4 [2, 32]
000000 a2 3b e8 bd 32 f1 69 3e 1b 72 d9 3d 3a 0a 63 3e
       -0.11339499 0.22845915 0.10617467 0.2217187
000010 28 c4 69 3e 56 1c 64 3e 09 c1 a9 be 58 ae f6 be
       0.22828734 0.22276434 -0.33155087 -0.4817989
000020 36 fe 63 3e e9 8c 16 3e 3d d5 f2 3d 23 b1 b9 3e
       0.22264943 0.1470219 0.11857078 0.36267957
000030 88 1f 9b be 86 9f f9 3e b7 de 4e 3d cd 53 3a 3e
       -0.30297494 0.4875452 0.050505366 0.1819603
000040 87 51 01 be e0 c9 97 be a4 00 56 3e 59 c4 ca be
       -0.12628756 -0.29646206 0.20898682 -0.39602926
000050 ac 4e 7c be 00 fe 79 3d 43 01 8d bd 04 90 2e bd
       -0.24639386 0.06103325 -0.06885006 -0.042617813
000060 28 87 51 bd 69 59 ed be eb 9c 92 bd 94 7a 8c be
       -0.051154286 -0.46357277 -0.07158836 -0.2743727
000070 1e e1 9b bd ba d3 01 bf 25 9a 92 3e a0 02 27 3c
       -0.07611297 -0.50713694 0.28633228 0.010193497
000080 b1 e9 26 bd 24 1a 74 3e bc 85 31 bd 9d 89 06 3f
       -0.04075021 0.23838097 -0.04334043 0.5255373
000090 72 c9 97 3e c5 df d4 3e 54 a4 b5 3e 43 c8 0c be
       0.29645878 0.41576973 0.35476935 -0.13748269
0000a0 2b f9 97 3c 13 10 44 3d 9b a7 39 3e c8 fc 9c be
       0.01855143 0.047866892 0.18130343 -0.30661607
0000b0 f7 37 ce 3e 91 6a 5b 3e 22 52 44 3e 27 ec 05 3d
       0.40277073 0.2142737 0.19171956 0.032695916
0000c0 fb 87 9f 3d bd 37 ad bd 38 93 02 be c5 51 af be
       0.07789608 -0.08457897 -0.12751472 -0.34242073
0000d0 5c 2b 83 be d9 14 8e be 7a 62 3d be 3e 47 af be
       -0.25619018 -0.2775028 -0.18494597 -0.3423404
0000e0 38 66 1f 3d 1f d9 40 3e 6d 41 65 be 04 7b 0a 3c
       0.038915843 0.18832825 -0.22388239 0.008452181
0000f0 cf 86 2c be 8c c3 21 be f9 7c 96 be 7c e4 74 be
       -0.168483 -0.15797251 -0.29392222 -0.23915285

decoder.hidden2pos.bias f4 [2]
000000 32 02 eb 3c 62 80 96 3d
       0.02868757 0.07348706

pool_net.spatial_embedding.weight f4 [16, 2]
000000 e7 10 08 3c 14 28 04 bf 5f 9e 37 3f bf 58 90 3e
       0.008304811 -0.51623654 0.7172603 0.28192708
000010 3d 57 ec 3f 70 59 d2 bf 39 d2 6a bf 69 27 9a be
       1.8464123 -1.6433544 -0.91727024 -0.30108193
000020 6d cf ad be 4c 58 95 bf c2 99 c3 3e ab 56 87 3f
       -0.33947316 -1.1667571 0.38203245 1.0573324
000030 df c3 53 3f b6 18 18 bf 4e 27 cb bd 66 2b 62 bf
       0.8272075 -0.59412706 -0.09919606 -0.8834747
000040 53 ff ca bf f9 a9 23 3f 8c 5f 21 bf ed 5a 23 3e
       -1.5859169 0.6393123 -0.6303642 0.15952654
000050 52 48 d2 3f b4 b7 4f 3f 5d 0e 7f 3f a1 62 05 3f
       1.642832 0.81139684 0.9963129 0.5210362
000060 1e ff 9b 3f 43 54 2d bf 4d 73 24 c0 51 ef 1a 3f
       1.218723 -0.677067 -2.5695374 0.6052142
000070 fd f3 a1 3f 8f 14 07 be 39 f0 6b 3e d2 8d 72 bf
       1.2652584 -0.13191436 0.23040856 -0.9474765

pool_net.spatial_embedding.bias f4 [16]
000000 29 45 52 be 95 6a a0 be 77 03 80 3e a2 aa cb 3e
       -0.20534195 -0.31331316 0.25002643 0.3977862
000010 b3 17 45 be ac 73 ae be 29 f5 b9 3e af 3d 33 3d
       -0.19247322 -0.34072626 0.36319855 0.043759998
000020 97 8b 8f 3d 4e fc df be 53 44 0b 3f 97 46 fd be
       0.070090465 -0.4374718 0.5440113 -0.49467918
000030 fc db 02 bd 71 a2 8b 3e 9f ec 83 bc 56 00 41 be
       -0.031948075 0.2727237 -0.01610404 -0.18847784
