scripts/models/sgan-p-models/zara2_8_model.pt (torch_old, 190152 bytes, 24 tensors)

encoder.encoder.weight_ih_l0 f4 [128, 16]
0	0x3dda8718	0.10670298
1	0xbda62ca6	-0.08113985
2	0x3bb39bfe	0.005481242
3	0xbd476da2	-0.04868854
4	0xbd614f90	-0.055007517
5	0xbdaa5045	-0.083160914
6	0x3bd00522	0.006348268
7	0xbd642eb3	-0.0557086
8	0x3c8b94ea	0.017038781
9	0x3c2ee775	0.010675301
10	0x3e22a71e	0.15884063
11	0x3c995582	0.018717531
12	0xbe3494ce	-0.1763489
13	0xbddc1b25	-0.10747365
14	0x3d144d8f	0.03620678
15	0x3e10bd9f	0.14134835
16	0x3dfd7a27	0.12376814
17	0x3e175c14	0.14781219
18	0xbd80176e	-0.06254469
19	0x3d1996f8	0.03749749
20	0x3d475eac	0.04867427
21	0x3e3177db	0.17330877
22	0xbd6f75b3	-0.058461856
23	0xbdf445b1	-0.11927355
24	0xbb463eed	-0.003024991
25	0x3bb16261	0.005413339
26	0xbe20466d	-0.15651865
27	0xbd506110	-0.050873816
28	0xbd8c5d09	-0.068536825
29	0xbdd22be8	-0.10262281
30	0x3c5256b6	0.012838056
31	0x3d829bd2	0.063773766
32	0xbdc10ae4	-0.09425905
33	0x3de67120	0.11252046
34	0xbe3ca78e	-0.18423292
35	0x3c2584ee	0.010102494
36	0xbd920597	-0.071299724
37	0x3e25c97c	0.16190141
38	0x3c2361b9	0.009972029
39	0xbd89747c	-0.06711671
40	0xbdf82d2c	-0.12117991
41	0x3db81d87	0.08990007
42	0x3d8267f7	0.06367486
43	0x3d678c95	0.056530554
44	0xbca919f4	-0.020642258
45	0xbe0c0554	-0.13673908
46	0xbdbe09b9	-0.09279198
47	0x3e147da4	0.14501053
48	0x3d41c730	0.0473091
49	0x3e659b0f	0.22422431
50	0x3e28649d	0.16444631
51	0xbd1eb0e0	-0.0387429
52	0xbdc03e31	-0.09386862
53	0xbdfa46c6	-0.1222053
54	0xbcdf79f0	-0.027279824
55	0xbcb22425	-0.02174575
56	0x3e4a33d2	0.1974633
57	0x3cbbf089	0.022941845
58	0xbe215337	-0.157544
59	0xbe28c503	-0.16481404
60	0xbdc80833	-0.09767189
61	0xbdb7c57d	-0.08973215
62	0x3e06fd7e	0.13182637
63	0xbdd02f37	-0.101652555
64	0x3dafd298	0.085850894
65	0x3aa2c16c	0.0012417263
66	0x3db2b00e	0.08724986
67	0xbe0d02c8	-0.13770592
68	0x3d4039d0	0.046930134
69	0xbbce362f	-0.0062930803
70	0x3c3c4288	0.011490472
71	0xbd868ea9	-0.06570179
72	0x3d38b870	0.04509777
73	0x3d21d451	0.03950912
74	0x3d4731b0	0.04863137
75	0x3d895cea	0.06707175
76	0x3e665de6	0.22496757
77	0xbd70fccd	-0.05883484
78	0xbdebbf62	-0.11511113
79	0xbe1af13b	-0.15131085
80	0xbd7d2055	-0.061798412
81	0xbe284920	-0.16434145
82	0xbd8d7ff2	-0.06909169
83	0xbb333d30	-0.0027349703
84	0xbd662aaa	-0.05619303
85	0xbd101ab4	-0.035181716
86	0xbe19a429	-0.15004028
87	0xbad0d581	-0.001593277
88	0x3d3e7116	0.046494566
89	0xbe12a467	-0.14320527
90	0x3dd1e232	0.102482215
91	0x3db7c904	0.089738876
92	0xbdd40bcb	-0.10353812
93	0x3e02941a	0.12751809
94	0xbd371072	-0.044693418
95	0x3c1953cb	0.009358357
96	0xbd851ae3	-0.06499269
97	0xbd497575	-0.04918428
98	0xbe122fe7	-0.14276086
99	0xbe2be261	-0.16785575
100	0x3d4de030	0.05026263
101	0x3dfcfc06	0.12352757
102	0x3e396640	0.18105412
103	0x3ca2a4ca	0.019853968
104	0xbd3452ee	-0.0440244
105	0xbe1e4b19	-0.15458335
106	0xbd2a0235	-0.04150601
107	0xbdf064b6	-0.11737959
108	0xbe4afcb0	-0.19822955
109	0xbbd385c8	-0.006455157
110	0x3d0f4c47	0.034984853
111	0xbe016c51	-0.12638976
112	0x3e168592	0.1469939
113	0xbdaae392	-0.08344187
114	0xbe17b018	-0.14813268
115	0x3c5e75f8	0.013577931
116	0xbd8b91c3	-0.06814911
117	0x3da47300	0.08029747
118	0xbe265ae8	-0.16245615
119	0xbd97ca82	-0.07411672
120	0x3d3a6e2a	0.045515217
121	0x3defb104	0.11703685
122	0x3e5ce8cf	0.21573184
123	0x3d58c870	0.052925527
124	0x3e41566d	0.18880625
125	0xbde1cd58	-0.11025494
126	0xbd615137	-0.055009093
127	0xbd042c34	-0.032268718
128	0xbde0163a	-0.109417394
129	0xbde5bd37	-0.112177305
130	0x3d82520f	0.06363308
131	0xbdf0270d	-0.11726198
132	0x3d54f2f9	0.05198953
133	0x3e62760d	0.22115345
134	0x3dc73443	0.09726765
135	0xbe031ad3	-0.12803201
136	0x3cab6396	0.02092151
137	0x3ce2b165	0.027672479
138	0x3d9f6ead	0.077847816
139	0x3dc05cb6	0.09392683
140	0x3b40cf95	0.0029420604
141	0x3b072c90	0.0020625927
142	0xbd9de491	-0.07709611
143	0xbdbb97ce	-0.09159814
144	0x3dc326d3	0.095288895
145	0xbdeff520	-0.11716676
146	0xbd672430	-0.056430995
147	0x3de9aab1	0.1140951
148	0x3d88cea9	0.06680042
149	0xbcc095e8	-0.02350898
150	0xbd9c1c5f	-0.07622599
151	0xbdb05280	-0.086094856
152	0x3db67591	0.08909143
153	0x3d7326bc	0.05936311
154	0x3e2e65d4	0.17031032
155	0x3df8c6d0	0.121472955
156	0xbe44a7ec	-0.19204682
157	0xbe2f512c	-0.17120808
158	0xbe0bc920	-0.13650942
159	0xbc30e581	-0.0107969055
160	0x3d6cdad5	0.057825882
161	0x3dc4a5c7	0.09601932
162	0x3b354454	0.0027659135
163	0x3d67e273	0.056612443
164	0x3dd0db53	0.10198083
165	0x3e6918bf	0.22763346
166	0xbc4ff2db	-0.012692179
167	0x3de4559a	0.1114914
168	0xbdc8a31f	-0.09796738
169	0xbcb2692c	-0.021778665
170	0xbac7595b	-0.0015209125
171	0xbbe3b1a7	-0.006948668
172	0x3d5b7dc7	0.053586747
173	0x3e0971fa	0.13422385
174	0x3d354172	0.044251867
175	0x3e1cdc50	0.15318418
176	0x3bee228e	0.007267303
177	0x3c8ef25e	0.017449554
178	0x3d08dee7	0.0334157
179	0xbcb22c0d	-0.02174952
180	0xbd150837	-0.036384787
181	0x3c5682a2	0.013092669
182	0x3dd45679	0.10368056
183	0xbda05d1a	-0.07830258
184	0xbe5812ff	-0.21100996
185	0x3d7c9ec2	0.06167484
186	0x3e37554a	0.17903629
187	0x3d7f3e97	0.06231555
188	0x3c30140d	0.010746968
189	0xbe2368f1	-0.15958
190	0xbe23abe3	-0.15983538
191	0xbda7b968	-0.0818966
192	0xbdf5ec2a	-0.12007935
193	0xbcfeacaf	-0.031088201
194	0x3c0a1cc9	0.0084297145
195	0x3d86d1fb	0.06583019
196	0x3d1b83d9	0.037967537
197	0xbd9ed344	-0.077551395
198	0x3d54e466	0.05197563
199	0x3e59950e	0.21248266
200	0x3d083d7a	0.033261754
201	0x3cbcf18b	0.023064395
202	0x3e29c2aa	0.16578165
203	0x3d50fb94	0.051021174
204	0x3da35197	0.079745464
205	0x3e2ff555	0.1718343
206	0xbd239453	-0.039936375
207	0xbdbbec39	-0.09175915
208	0xbdc85bcc	-0.09783134
209	0x3d057e59	0.032591198
210	0x3d8b7244	0.06808904
211	0xbdc90a2e	-0.09816395
212	0x3cc4247f	0.023943184
213	0x3d2a254b	0.04153947
214	0xbe31e49f	-0.17372368
215	0x3e2b4ed4	0.1672929
216	0xbe404fa6	-0.18780383
217	0xbd291161	-0.04127634
218	0xbdf25013	-0.11831679
219	0xbd6810cc	-0.056656644
220	0xbdd51719	-0.10404796
221	0x3e248cae	0.1606929
222	0x3d891fdb	0.06695529
223	0xbdc1c7b3	-0.09461918
224	0x3c8aad1e	0.016928252
225	0xbe23bf72	-0.15991
226	0x3aff20dd	0.001946475
227	0x3d94f9b6	0.07274191
228	0xbe125e44	-0.14293772
229	0x3e1fd7fc	0.15609735
230	0xbdc833cc	-0.097755045
231	0x3daa11ea	0.08304198
232	0x3d97c64c	0.07410869
233	0x3c59b11e	0.013286857
234	0xbcbe2269	-0.023209767
235	0x3dbd9af7	0.09258073
236	0xbdfb58f2	-0.12272824
237	0xbd3a7bf4	-0.045528367
238	0xbd5e058b	-0.054204505
239	0x3e513747	0.20431243
240	0xbda26ba8	-0.0793069
241	0x3cd6bf4f	0.02621427
242	0x3d74bd51	0.05975086
243	0xbc316f11	-0.010829703
244	0x3d8ec137	0.069704466
245	0xbd037920	-0.032097936
246	0xbd9ebb9a	-0.07750626
247	0x3d91108d	0.07083235
248	0x3d2373e4	0.039905444
249	0x3d65be93	0.05608995
250	0xbc7fa8a5	-0.015604173
251	0xbdc6587a	-0.09684844
252	0xbd59c5f1	-0.053167287
253	0xbd6ef9ca	-0.058343686
254	0xbe3479dc	-0.1762461
255	0x3e0e0bdb	0.1387171

encoder.encoder.weight_hh_l0 f4 [128, 32]
0	0xbd34a7da	-0.04410539
1	0x3d7abe7c	0.061216816
2	0x3d3b164c	0.04567556
3	0x3e0f4e32	0.13994673
4	0x3ddf2f69	0.10897715
5	0x3d7e13a7	0.06203046
6	0x3d2e2583	0.042516243
7	0xbd96c5c9	-0.07361943
8	0xbcb786a7	-0.022403074
9	0xbd756343	-0.059909116
10	0x3e1197c4	0.1421805
11	0xbe54b3b3	-0.20771675
12	0x3c44bb5c	0.012007561
13	0x3c8556aa	0.016276676
14	0x3e0d384a	0.13791004
15	0x3e247dae	0.16063568
16	0x3d71b98d	0.059014846
17	0x3d8fd386	0.07022767
18	0x3db2b506	0.08725934
19	0xbe31c8b2	-0.17361715
20	0xbcfb26e6	-0.030658197
21	0x3da2da31	0.07951773
22	0x3e3891a7	0.18024312
23	0x3ca402e5	0.020020911
24	0x3da9cd8a	0.082911566
25	0x3bd09ab6	0.006366099
26	0x3c90290b	0.017597696
27	0xbe34fc8f	-0.17674468
28	0xbe40871e	-0.18801543
29	0xbdff5ec3	-0.12469246
30	0x3c956b24	0.018239565
31	0x3e3a5333	0.181958
32	0x3e0d280e	0.13784811
33	0xbe21f7b6	-0.1581715
34	0x3e0b3817	0.13595615
35	0xbdb25bc2	-0.08708908
36	0xbde5727c	-0.11203477
37	0x3e0ed2b9	0.13947572
38	0xbc9fd81f	-0.019512234
39	0x3d53918c	0.051652476
40	0xbe3455bf	-0.17610835
41	0x3dadbf36	0.08483736
42	0x3bfef4af	0.0077806334
43	0xbe2da72c	-0.16958302
44	0xbe41ddc6	-0.18932256
45	0x3e1d33b3	0.15351753
46	0xbd3155c7	-0.043294694
47	0xbe06a7e4	-0.13149983
48	0xbde7003a	-0.1127934
49	0xbd92ab17	-0.07161539
50	0x3d4c956e	0.049947195
51	0xbd705cb7	-0.05868217
52	0x3de0a5b1	0.10969103
53	0x3e10cdb0	0.14140964
54	0xbe678f95	-0.22613366
55	0x3e46b6b5	0.19405635
56	0x3e03b5b9	0.1286229
57	0x3dbc2f0d	0.09188662
58	0x3d205028	0.039138943
59	0xbe131325	-0.14362772
60	0xbd967874	-0.07347193
61	0xbbea19f4	-0.007144207
62	0xbc8a3e75	-0.016875485
63	0x3cb4b6f6	0.022059899
64	0xbd7f21b4	-0.062288
65	0x3dc40c92	0.0957271
66	0x3df99384	0.121863395
67	0x3db23a88	0.0870257
68	0xbd06060e	-0.032720618
69	0x3d603d2e	0.054745845
70	0x3ddbd91e	0.10734771
71	0xbb160169	-0.0022889024
72	0x3d70b348	0.058764726
73	0x3e151469	0.14558567
74	0x3da9c17f	0.082888596
75	0x3daa8922	0.08326937
76	0xbdddad69	-0.10824091
77	0x3db20fc0	0.0869441
78	0x3de3ce82	0.111233726
79	0xbd0e4f2a	-0.034743465
80	0xbe358b97	-0.1772903
81	0xbdce3f03	-0.10070612
82	0x3cbd44b3	0.023104047
83	0xbe1ed925	-0.15512522
84	0x3d9e7fbd	0.07739208
85	0xbbaa83f9	-0.0052037206
86	0xbdec34da	-0.11533518
87	0xbe206150	-0.15662122
88	0xbdc75868	-0.09733659
89	0x3cd97004	0.026542671
90	0x3ddbe307	0.107366614
91	0xbe081fe8	-0.13293421
92	0xbd88b00f	-0.066742055
93	0xbe0986f7	-0.13430391
94	0x3e1470b9	0.14496125
95	0x3d27718f	0.040879782
96	0xbda85a99	-0.08220405
97	0xbe365fb8	-0.17809951
98	0xbe26b3b2	-0.16279486
99	0x3c117126	0.008877074
100	0x3c497d20	0.0122978985
101	0x3b1163bf	0.0022184697
102	0x3d925c48	0.071465075
103	0x3e32adb0	0.17449069
104	0x3bbbb247	0.0057280394
105	0xbe1fd72d	-0.15609427
106	0x3d8410f8	0.06448549
107	0xbe2d535a	-0.16926327
108	0xbcb7f781	-0.022456886
109	0xbda96008	-0.0827027
110	0xbc2f2457	-0.010689816
111	0x3e44b977	0.19211374
112	0x3de7e79d	0.113234736
113	0xbe063963	-0.13107829
114	0x3de61e76	0.11236279
115	0xbc787fea	-0.015167216
116	0xbd274ad2	-0.04084284
117	0xbd3ab867	-0.045586016
118	0x3d9ec855	0.07753054
119	0x3d425a1a	0.04744921
120	0xbe31adff	-0.1735153
121	0x3e463037	0.1935433
122	0xbe09f6c2	-0.13473037
123	0xbcd977a7	-0.026546312
124	0x3dcfc94c	0.10145816
125	0xbde9abfc	-0.114097565
126	0xbe2eb126	-0.17059764
127	0xbdd2e1c0	-0.10296965
128	0x3cd928e1	0.02650875
129	0x3dc64b21	0.096822985
130	0xbe083d27	-0.13304578
131	0xbcc06007	-0.02348329
132	0xbdb20e6e	-0.086941585
133	0x3dd0760a	0.10178764
134	0xbce87da8	-0.02838023
135	0xbdabe1dd	-0.083926894
136	0x3dd8ae0c	0.10580072
137	0xbdb75e42	-0.08953525
138	0xbe37f1f3	-0.1796339
139	0x3d7e4d7b	0.06208561
140	0xbcadc937	-0.02121411
141	0xbdafca68	-0.08583528
142	0xbcb488a5	-0.022037813
143	0xbdd28a12	-0.10280241
144	0x3df8ba26	0.1214488
145	0x3dd75421	0.10514093
146	0xbdc799d7	-0.097461395
147	0x3db32d56	0.087488815
148	0x3d2d7831	0.04235095
149	0x3d22bcb4	0.039730743
150	0xbd634430	-0.05548495
151	0x3db79257	0.08963459
152	0xbd173dec	-0.036924288
153	0x3e1dfb49	0.15427889
154	0xbe1056f8	-0.14095676
155	0xbd35ad7c	-0.0443549
156	0x3e64115d	0.22272249
157	0xb867b862	-5.524641e-05
158	0xbe788a30	-0.24271464
159	0x3d368a70	0.044565618
160	0x3dc3af7a	0.09554954
161	0xbe437216	-0.19086489
162	0x3e03f87b	0.12887757
163	0x3ca0485f	0.01956576
164	0x3e058ad3	0.13041238
165	0x3d128233	0.0357687
166	0xbd8dfb8e	-0.06932746
167	0xbc4678f3	-0.0121137975
168	0xbd05e1dc	-0.0326861
169	0x3de40c87	0.11135202
170	0x3b85318b	0.004064744
171	0xbd821a49	-0.0635267
172	0xbd05b06b	-0.03263895
173	0x3b9d0ca5	0.004792767
174	0x3dbb10dd	0.09134076
175	0x3e0c27f7	0.1368712
176	0x3dde6e7c	0.10860917
177	0x3d4e5605	0.050375003
178	0xbd18633c	-0.037204012
179	0x3dd238b8	0.102647245
180	0xbd81ee68	-0.063443005
181	0x3e266db8	0.16252792
182	0xbd4165ac	-0.047216102
183	0xbd315f54	-0.043303803
184	0x3d29b240	0.041429758
185	0xbe1b674c	-0.15176123
186	0x3ca2d07e	0.019874807
187	0xbcb103c8	-0.021608248
188	0x3e09b507	0.13447963
189	0x3d37d1a5	0.044877667
190	0xbe05c9de	-0.13065287
191	0xbd319a20	-0.043359876
192	0x3d8f56ba	0.06998964
193	0x3dd733ef	0.105079524
194	0xbdfa2d18	-0.12215632
195	0x3e14994e	0.14511606
196	0xbd07eb5f	-0.03318345
197	0x3e0e4bcb	0.138961
198	0xbe4fbff8	-0.20288074
199	0x3d3aa01b	0.045562845
200	0xbdf238a1	-0.11827207
201	0xbd8a01ea	-0.06738646
202	0x3d947364	0.072485715
203	0xbdfbfd4b	-0.12304171
204	0xbd2b6a5c	-0.04184948
205	0x3d159c7d	0.036526192
206	0xbd17353b	-0.036916
207	0x3d9b0d81	0.07570935
208	0xbdb68995	-0.089129604
209	0xbd8a23af	-0.06745087
210	0x3dc9ac1d	0.09847281
211	0xbe1d221f	-0.15345047
212	0xbd9e3440	-0.0772481
213	0x3cf8ff55	0.03039519
214	0xbd67eba5	-0.056621213
215	0x3da1b9cf	0.07896768
216	0xbcaa54bd	-0.02079236
217	0xbe1e8ded	-0.15483828
218	0x3c99cf6c	0.018775664
219	0xbdce4127	-0.100710206
220	0xbc46279c	-0.012094405
221	0xbd4897c8	-0.048972875
222	0xbd1aea14	-0.03782089
223	0xbd1a86ad	-0.037726093
224	0xbdcb8627	-0.09937697
225	0xbe2af015	-0.16693147
226	0x3cf6ec43	0.030141955
227	0x3dd5d49c	0.10440943
228	0xbddd54cc	-0.10807189
229	0xbc8555bd	-0.016276235
230	0xbe4720e8	-0.19446146
231	0x3dc078bb	0.093980275
232	0xbdc24c7d	-0.09487245
233	0x3e2a6de2	0.1664348
234	0xbc5e0b55	-0.013552506
235	0xbe4172d1	-0.18891455
236	0x3d989917	0.074510746
237	0xbcd89f03	-0.02644301
238	0xbdc9259e	-0.09821628
239	0x3e2b6a24	0.16739708
240	0xbe19730e	-0.14985296
241	0x3e19fa2e	0.15036842
242	0x3e170e3b	0.14751522
243	0x3c9a353f	0.018824218
244	0x3e562b3b	0.20914929
245	0xbdd41963	-0.10356405
246	0xbdbdde99	-0.09270973
247	0x3ddfeb46	0.10933547
248	0x3c0f639a	0.008751774
249	0x3e2bde88	0.16784108
250	0x3e0b90cb	0.13629453
251	0x3d484553	0.048894238
252	0x3badf5b7	0.0053088325
253	0x3d64e2ba	0.055880286
254	0x3dd36e29	0.10323746
255	0xbda47b00	-0.08031273

encoder.encoder.bias_ih_l0 f4 [128]
0	0xbd3c3cab	-0.045956295
1	0x3da18669	0.07886965
2	0xbd11e1fd	-0.03561591
3	0x3e228beb	0.15873687
4	0x3d833375	0.06406299
5	0x3e027aaf	0.12742113
6	0x3dc24ab0	0.09486902
7	0xbde4b69b	-0.11167642
8	0x3e25e922	0.16202214
9	0xbe087173	-0.13324527
10	0x3e2a2122	0.16614202
11	0xbde2264e	-0.11042462
12	0xbcb26020	-0.021774352
13	0xbd6ba3e8	-0.05752936
14	0x3e0f0ca7	0.1396967
15	0x3da28400	0.07935333
16	0x3de79fd6	0.11309783
17	0x3e5a5cf4	0.21324521
18	0xbc1517e8	-0.009099938
19	0x3e017d26	0.12645397
20	0x3dfde86b	0.12397846
21	0x3e1a711e	0.15082213
22	0xbd7ffc30	-0.062496364
23	0x3e5c255f	0.21498631
24	0xbdb85f4e	-0.09002553
25	0xbd8ab6c7	-0.06773143
26	0x3c4d9735	0.012548258
27	0xbcd8d9aa	-0.026470978
28	0x3d36ecd8	0.044659466
29	0x3d8c2ee2	0.0684488
30	0x3c85d8cb	0.016338727
31	0xbd95966e	-0.07304083
32	0x3cb9c3d7	0.022676392
33	0x3e0260e9	0.12732281
34	0xbcfdf8cd	-0.031002427
35	0xbcaa78b9	-0.020809518
36	0xbd390692	-0.04517228
37	0x3d59bfc3	0.053161394
38	0xbe291c72	-0.16514757
39	0xbe0b533b	-0.13605969
40	0x3e0cc401	0.13746645
41	0x3db5a4b4	0.08869305
42	0xbcdac04f	-0.026703028
43	0x3e05bc40	0.13060093
44	0xbd605367	-0.05476704
45	0x3ce5eb1b	0.028066209
46	0x3e3eb7ae	0.18624756
47	0x3dbf9d02	0.09356119
48	0xbd38a85d	-0.04508244
49	0xbe18c5dd	-0.14919229
50	0x3c63750d	0.013882888
51	0xbe0220b4	-0.12707788
52	0xbdc32edf	-0.09530424
53	0x3e147794	0.1449874
54	0x3d200413	0.039066385
55	0x3d258ce9	0.040417586
56	0xbcfa5649	-0.030558722
57	0x3e23bf4e	0.15990946
58	0xbd7a64e5	-0.061131377
59	0xbdb2dc33	-0.08733406
60	0x3e1a7ae7	0.15085946
61	0xbdb43105	-0.08798412
62	0x3d321c53	0.043484043
63	0xbdaa33b9	-0.083106466
64	0x3e304aff	0.17216109
65	0xbe1d2953	-0.15347795
66	0xbe044039	-0.12915124
67	0x3db214c9	0.08695371
68	0x3d22b6bf	0.03972506
69	0x3e322685	0.17397507
70	0xbd9d32db	-0.076757155
71	0xbe3e8aca	-0.18607631
72	0xbe237736	-0.15963444
73	0x3e4a960c	0.19783801
74	0x3d2c5192	0.04206998
75	0x3d60fa21	0.05492604
76	0xbdf5ee9a	-0.120084
77	0x3dadb709	0.08482177
78	0xbd62aaa3	-0.055338513
79	0x3ddcad12	0.10775198
80	0xbd815b88	-0.06316286
81	0x3d7259ad	0.059167553
82	0xbe1c06fd	-0.15237041
83	0xbd87ffe4	-0.06640604
84	0xbdba77d9	-0.091048904
85	0x3daf1264	0.085484296
86	0xbdd853fa	-0.10562892
87	0x3e4055f0	0.18782783
88	0xbde06a72	-0.10957803
89	0x3b4ac197	0.0030938142
90	0x3c8c9072	0.01715872
91	0xbdcb07cb	-0.09913596
92	0xbd989071	-0.07449425
93	0xbc941d58	-0.018080398
94	0xbd81adc2	-0.0633197
95	0x3e055577	0.13020884
96	0xbc9a2ba2	-0.018819634
97	0xbd3765a9	-0.044774685
98	0x3e39b069	0.18133701
99	0xbdda0641	-0.10645724
100	0x3dec18f0	0.11528194
101	0xbdba9295	-0.091099896
102	0xbca65986	-0.02030636
103	0xbdc54960	-0.09633136
104	0xbd3a9940	-0.045556307
105	0x3e5156c0	0.20443249
106	0x3e3ce28e	0.18445799
107	0x3e567788	0.20944035
108	0x3e03c4ad	0.12867995
109	0x3e58dd31	0.21178128
110	0x3e3c5ae3	0.18394046
111	0x3ddac00f	0.106811635
112	0x3e002383	0.12513547
113	0x3e04c77d	0.12966724
114	0x3e0aba3e	0.13547608
115	0xbc8173eb	-0.015802344
116	0x3d7238ae	0.059136085
117	0xbd6a633b	-0.05722354
118	0xbcf40422	-0.029787127
119	0xbd9527bb	-0.072829686
120	0x3de94b02	0.1139126
121	0x3de14268	0.10998994
122	0xbda3954a	-0.07987459
123	0xbcb5e8e1	-0.022205772
124	0x3ca46259	0.020066427
125	0x3e22f283	0.15912823
126	0x3dd21be3	0.10259225
127	0x3db62ac7	0.08894878

encoder.encoder.bias_hh_l0 f4 [128]
0	0x3d481644	0.04884936
1	0x3d82d81b	0.06388875
2	0xbc837936	-0.016049009
3	0xbda91fb0	-0.08257997
4	0xbd72b69a	-0.059256174
5	0x3dda7700	0.10667229
6	0xbe098055	-0.13427861
7	0x3e57cb59	0.21073665
8	0xbda09a23	-0.07841899
9	0xbe0a0e63	-0.1348205
10	0x3da314ad	0.07962928
11	0xbc97f3cb	-0.018548867
12	0xbdae77e0	-0.08518958
13	0x3e46a0fd	0.1939735
14	0x3e13649f	0.14393853
15	0x3e37b07f	0.17938422
16	0xbcf23dbf	-0.029570458
17	0x3d54bd86	0.051938556
18	0xbd7c64b7	-0.061619487
19	0x3cccb394	0.024987973
20	0x3db37cfd	0.08764074
21	0xbdf2af02	-0.11849786
22	0x3d09817d	0.033570755
23	0xbdd3c03c	-0.103394
24	0x3d48878a	0.048957385
25	0x3d87196a	0.06596644
26	0xbe26f363	-0.16303782
27	0xbb92abe3	-0.004476057
28	0x3db5d434	0.08878365
29	0x3ac1303d	0.0014739108
30	0x3d442554	0.04788716
31	0x3d0ef383	0.0349002
32	0x3d12b391	0.03581578
33	0xbd7ae7f8	-0.06125638
34	0x3e369538	0.1783036
35	0xbc0e5caa	-0.008689085
36	0x3ca4bcbd	0.020109529
37	0x3d43e849	0.047828946
38	0xbe0f5390	-0.1399672
39	0x3d585149	0.052811895
40	0xbda53210	-0.08066189
41	0xbd89bffa	-0.0672607
42	0xbdce04f3	-0.10059538
43	0x3e0310f9	0.12799443
44	0x3d9d5d76	0.07683842
45	0x3bd6995f	0.006549045
46	0x3deb2289	0.114811964
47	0xbe034165	-0.12817915
48	0xbdf89fdc	-0.12139866
49	0xbe2c2bf7	-0.16813646
50	0xbd36ec22	-0.044658788
51	0xbdd3bc3e	-0.10338639
52	0x3d7f2eef	0.06230062
53	0xbde40027	-0.111328416
54	0x3c5db093	0.013530868
55	0x3e48fd5c	0.19627899
56	0xbe1e63d0	-0.15467763
57	0x3d1dc5b9	0.03851864
58	0x3cbe97e9	0.023265796
59	0x3d15be67	0.036558535
60	0x3cc2c1ce	0.023774054
61	0x3daa873c	0.08326575
62	0xbe1e8565	-0.15480573
63	0xbd528aab	-0.051401775
64	0xbe2c2c99	-0.16813888
65	0x3d382af9	0.044962857
66	0x3e0554ce	0.13020632
67	0x3cca97f2	0.024730656
68	0xbdcd07c9	-0.100112505
69	0x3d602094	0.05471857
70	0x3d3c83b6	0.046024047
71	0x3c404f90	0.011737719
72	0xbd15feb3	-0.036619853
73	0x3e4e5b21	0.2015195
74	0xbe189894	-0.14901954
75	0x3cd57015	0.026054421
76	0xbd08e51b	-0.033421617
77	0x3c24ce46	0.010058945
78	0x3c415e59	0.011802279
79	0xbe0bdc44	-0.13658243
80	0xbe206143	-0.15662102
81	0xbd8245cf	-0.06360971
82	0x3ccfd871	0.025371762
83	0xbe348086	-0.17627153
84	0xbd93ffe6	-0.07226543
85	0x3dd8f9c3	0.10594513
86	0x3c136c39	0.00899797
87	0x3e590fce	0.21197435
88	0xbde08576	-0.10962956
89	0x3ba4ae9e	0.005025699
90	0x3c4c7117	0.012478135
91	0x3e15ed78	0.14641368
92	0xbde35ba8	-0.111014664
93	0xbd9e71ba	-0.07736535
94	0xbc649720	-0.013952047
95	0x3d33c493	0.04388864
96	0xbd370e18	-0.044691175
97	0x3d8baea5	0.0682042
98	0x3d54c10e	0.051941924
99	0xbd217c55	-0.039425213
100	0xbdae3c36	-0.08507578
101	0x3e1c0438	0.15235984
102	0xbdae3236	-0.08505671
103	0xbd0a653b	-0.033787947
104	0x3e44226c	0.19153756
105	0x3db68372	0.0891179
106	0x3e3e506c	0.18585366
107	0x3e075c9e	0.13218924
108	0x3e53d163	0.20685343
109	0xbda02544	-0.07819608
110	0x3dacb8b4	0.08433667
111	0x3e04a0e8	0.12952006
112	0x3e39f4da	0.1815981
113	0x3e158afc	0.146038
114	0x3e14ac3e	0.1451883
115	0x3cb5beb6	0.022185665
116	0x3e476837	0.19473349
117	0x3e04fc35	0.12986834
118	0x3e3ec4f8	0.18629825
119	0x3e1e2bde	0.15446422
120	0xbdea413f	-0.11438226
121	0x3e32807a	0.17431822
122	0x3cc5a236	0.0241252
123	0xbccd8883	-0.025089508
124	0xbd79fe8b	-0.061033767
125	0x3dc2d45b	0.0951316
126	0xbdad5ff2	-0.08465566
127	0xbcfbcbe5	-0.030736873

encoder.spatial_embedding.weight f4 [16, 2]
0	0x40199d88	2.40024
1	0xbf4ddc56	-0.8041433
2	0x3f389dcf	0.72115797
3	0xc0000494	-2.0002794
4	0xbf9042c2	-1.1270373
5	0xbfb8be5d	-1.4433094
6	0xbff5b352	-1.9195349
7	0xbf865ac8	-1.0496454
8	0xbf3657dc	-0.7122781
9	0xbf7c6711	-0.98594767
10	0x3f304518	0.6885543
11	0x3d769158	0.060197204
12	0x3e245979	0.16049756
13	0x400125f7	2.0179422
14	0xbf456b7b	-0.7711713
15	0x3e8833c5	0.26601997
16	0x3f6af0a1	0.9177342
17	0xbed6a7f4	-0.41925013
18	0x3f1e9dfe	0.61959827
19	0xbfb032b3	-1.3765472
20	0xbf6cc5af	-0.9248914
21	0xbdad3409	-0.084571905
22	0xbeacd035	-0.337526
23	0x3ec23f2e	0.37938827
24	0xbf181808	-0.5941167
25	0xbfdbda21	-1.7175943
26	0x3f24d07d	0.6438063
27	0xbf977b28	-1.1834459
28	0xbef96b83	-0.48714837
29	0xbdaf247f	-0.08551883
30	0x3f8671eb	1.0503515
31	0x3f6279af	0.88466924

encoder.spatial_embedding.bias f4 [16]
0	0x3eec27db	0.46124157
1	0xbeba3d62	-0.36374956
2	0xbf1395d5	-0.576505
3	0xbbcc21f9	-0.006229636
4	0xbe854f7f	-0.26037213
5	0x3eb1a529	0.3469632
6	0xbee7a037	-0.45239422
7	0x3dbdd654	0.092693955
8	0xbe2ef4e1	-0.17085601
9	0x3d013568	0.031545073
10	0x3f1dc879	0.6163402
11	0x3e34f55d	0.17671724
12	0xbe4374fb	-0.19087593
13	0x3efe3e06	0.49656695
14	0xbed9a2ae	-0.42506927
15	0xbd7517a0	-0.059836984

decoder.decoder.weight_ih_l0 f4 [128, 16]
0	0x3dd57543	0.104227565
1	0xbcb87dc0	-0.0225209
2	0xbd8a0bbf	-0.06740522
3	0xbe01261b	-0.12612192
4	0x3d5f48a0	0.05451262
5	0x3c283d68	0.010268547
6	0xbe0933eb	-0.13398711
7	0xbe20f451	-0.157182
8	0x3e00b9b4	0.1257084
9	0x3e1d9b53	0.15391283
10	0xbdecec66	-0.11568527
11	0xbdd8c1f4	-0.105838686
12	0x3d0b04ba	0.033940054
13	0x3d797214	0.06089981
14	0xbe2419d6	-0.1602548
15	0x3ce4dcea	0.027937371
16	0xbdd1c54d	-0.1024271
17	0x3e2c9a79	0.16855802
18	0x3e1ba77d	0.1520061
19	0xbdc97a61	-0.09837795
20	0x3ca2b935	0.019863704
21	0x3c0a9aae	0.00845973
22	0xbe0e75e6	-0.13912162
23	0xbd0eaea6	-0.034834526
24	0xbe2bcb19	-0.16776694
25	0xbe233b12	-0.15940502
26	0x3cf4c118	0.02987723
27	0xbe21ddd8	-0.15807283
28	0xbdde0504	-0.108408004
29	0xbd59e13e	-0.053193323
30	0xbe132848	-0.14370835
31	0x3c2b4ec3	0.01045579
32	0x3d9ae0b8	0.07562393
33	0x3d251c7a	0.04031036
34	0x3e27797a	0.16354933
35	0x3dc011c8	0.093783915
36	0xbd4aec54	-0.049541786
37	0x3e2823c5	0.16419895
38	0x3de9038e	0.11377631
39	0x3d1ac2e6	0.037783526
40	0xbe344857	-0.1760572
41	0x3e3f5f95	0.18688805
42	0xbc1dc011	-0.009628312
43	0x3d11db77	0.03560969
44	0xbd1de484	-0.038548008
45	0x3dad5470	0.08463371
46	0xbdd0a20e	-0.101871595
47	0x3dc9cb3a	0.098532155
48	0xbcebc782	-0.028781656
49	0xbd8d4911	-0.06898702
50	0x3e76a540	0.24086475
51	0xbe0f804f	-0.1401379
52	0x3d6986c8	0.057013303
53	0x3e2cba62	0.16867974
54	0xbda88580	-0.08228588
55	0x3dbd9dc2	0.092586055
56	0x3dab03bf	0.08350324
57	0x3da2b175	0.079440035
58	0xbe07956b	-0.13240592
59	0x3dc4ced5	0.096097626
60	0xbc97449a	-0.018465329
61	0xbe735fb8	-0.23766983
62	0xbd670d0b	-0.056408923
63	0x3d5b39cf	0.053521927
64	0xbab6e950	-0.0013955031
65	0x3d63820a	0.055543937
66	0x3d78439d	0.060611356
67	0x3c0eb82e	0.008710904
68	0xbcd7dc1b	-0.026350072
69	0x3e1bfd77	0.15233408
70	0xbdc1ea02	-0.094684616
71	0x3bedc794	0.0072564576
72	0x3e54c40c	0.20777911
73	0xbd522270	-0.051302373
74	0x3cdd78e7	0.02703519
75	0x3e0e672e	0.13906547
76	0x3d07643b	0.03305457
77	0xbe35c53a	-0.17751017
78	0xbdb679d8	-0.089099586
79	0xbbe481de	-0.006973489
80	0x3e0c6291	0.13709475
81	0x3e0687f7	0.13137804
82	0xbd83d540	-0.064371586
83	0xbd8596af	-0.06522881
84	0x3db2f92d	0.08738933
85	0x3c1cbd07	0.009566552
86	0x3e07a754	0.13247424
87	0xbdd17634	-0.102276236
88	0xbd010aee	-0.031504564
89	0xbd83b93c	-0.06431815
90	0xbe0ade5f	-0.1356139
91	0xbe1abc4e	-0.15110895
92	0xbe00d24f	-0.12580226
93	0xbd94e782	-0.07270719
94	0x3e172883	0.14761548
95	0x3dda7a29	0.106678315
96	0x3c9fedb2	0.019522522
97	0xbc25261d	-0.010079888
98	0xbb4c1d7b	-0.0031145501
99	0xbdc9bcb8	-0.09850448
100	0x3c395afb	0.011313195
101	0x3c304c5f	0.010760396
102	0x3e3976fa	0.18111792
103	0xbd12b98c	-0.035821483
104	0x3d9aeca7	0.07564669
105	0x3c421e31	0.0118480185
106	0x3cee7f0b	0.029113313
107	0x3dd9dda8	0.10637981
108	0x3ce9c02a	0.028534014
109	0xbc05ce3a	-0.008166844
110	0x3e35d9b7	0.17758833
111	0x3df02db5	0.11727468
112	0x3df41ce3	0.11919572
113	0xbcaf69d4	-0.021412767
114	0xbd697a13	-0.057001185
115	0x3dc803f6	0.097663805
116	0xbe393bb2	-0.18089178
117	0xbe23ad8f	-0.15984176
118	0xbe051376	-0.12995705
119	0x3d60e98e	0.054910235
120	0x3c94b007	0.018150343
121	0xbc04d102	-0.008106472
122	0xbe30d9e1	-0.17270614
123	0xbd9cdc64	-0.07659224
124	0xbd5eb872	-0.05437512
125	0x3dbba781	0.09162808
126	0xbccec7e4	-0.0252418
127	0xbe2350e3	-0.15948825
128	0xbd74e848	-0.059791833
129	0xbe078a24	-0.1323629
130	0x3de305e3	0.11085107
131	0xbbc19da0	-0.005908683
132	0xbe2f5b72	-0.17124727
133	0xbddde6a8	-0.1083501
134	0xbe1f8b66	-0.1558052
135	0xbd1b7975	-0.037957627
136	0xbd7ee4fe	-0.062230103
137	0x3e0f61ac	0.14002103
138	0xbd8a42d6	-0.06751029
139	0xbd8d57a5	-0.069014825
140	0xbe427a87	-0.18992053
141	0x3e040cc4	0.12895495
142	0x3d0ddc09	0.03463367
143	0xbd617909	-0.05504707
144	0x3c057104	0.008144621
145	0x3e286c60	0.16447592
146	0xbe48e8e2	-0.19620088
147	0x3c073c97	0.008254192
148	0xbdd51088	-0.10403544
149	0xbe16e619	-0.14736213
150	0x3db8938e	0.09012519
151	0x3db91b5e	0.09038423
152	0x3d89a84a	0.06721552
153	0x3e2cbf50	0.16869855
154	0x3da3ce8c	0.0799838
155	0xbe4f2fd1	-0.20233084
156	0x3db7a967	0.08967858
157	0xbde0942b	-0.10965761
158	0xbd79b06e	-0.060959272
159	0xbbe9d0a4	-0.0071354676
160	0xbe10b467	-0.14131318
161	0xbdd1320b	-0.10214623
162	0x3e0efe50	0.139642
163	0xbe2fc0eb	-0.17163436
164	0xbd4f46e9	-0.050604735
165	0xbdd10b0b	-0.102071844
166	0x3e436074	0.19079763
167	0xbdcda9e6	-0.10042171
168	0xbdfde2ed	-0.12396798
169	0x3d955f14	0.07293525
170	0xbe48fc28	-0.1962744
171	0x3e3856ef	0.18001913
172	0xbdab9114	-0.08377281
173	0x3db41dab	0.08794721
174	0x3e08286e	0.13296673
175	0xbbaa3f78	-0.0051955543
176	0x3d870d98	0.0659439
177	0x3b023473	0.0019867688
178	0x3e2ce8bd	0.16885658
179	0x3e20d2f7	0.15705477
180	0xbe2c3200	-0.16815948
181	0xbdf5d826	-0.12004118
182	0xbdcb8194	-0.099368244
183	0xbe53c223	-0.20679526
184	0x3daa3062	0.083100095
185	0x3d870e4d	0.065945245
186	0xbd906593	-0.07050624
187	0x3dec93e7	0.11551648
188	0xbd95e9ae	-0.073199615
189	0x3d3e035e	0.04638993
190	0xbe02a3c6	-0.12757787
191	0xbe075ba4	-0.13218552
192	0xbdd9542b	-0.10611757
193	0x3e19c3cc	0.15016097
194	0xbe5d9c7f	-0.2164173
195	0xbdc930ef	-0.098237865
196	0x3da633ee	0.081153736
197	0x3e180b55	0.14848073
198	0xbbf4526a	-0.0074561136
199	0xbe156e25	-0.14592798
200	0x3d90509e	0.070466265
201	0x3ddf0341	0.108892925
202	0x3bcba0ba	0.0062142285
203	0xbd540153	-0.051759075
204	0xbe54306f	-0.20721601
205	0xbd87c541	-0.0662942
206	0x3dfa536d	0.122229435
207	0x3d53a634	0.051672176
208	0xbdb60f22	-0.08889605
209	0x3e03e94e	0.12881967
210	0x3e007ab2	0.12546805
211	0x3dd3cc99	0.10341758
212	0x3dc419ac	0.09575209
213	0xbe062611	-0.13100459
214	0xbd82479a	-0.06361313
215	0xbd198441	-0.037479643
216	0xbd09e992	-0.033670016
217	0xbdc36e4c	-0.09542522
218	0xbdf4e90b	-0.11958512
219	0xbd17eef1	-0.037093107
220	0x3ddaa994	0.10676876
221	0xbdbccff5	-0.09219352
222	0xbc581340	-0.013188183
223	0xbd6dad74	-0.058026746
224	0x3e1f5469	0.15559544
225	0xbbb0f605	-0.0054004216
226	0x3d4b0b81	0.049571518
227	0xbe1e9301	-0.15485765
228	0x3e0f5be9	0.13999905
229	0x3d21a313	0.03946216
230	0xbc9c5c29	-0.019086914
231	0x3df91dce	0.12163888
232	0x3dd55909	0.10417373
233	0xbd41b9f6	-0.047296487
234	0xbdd778b8	-0.10521072
235	0x3de9bca1	0.11412931
236	0xbe18ee20	-0.14934587
237	0x3dd4e74c	0.10395679
238	0x3af454b6	0.0018640968
239	0xbe0d995b	-0.13828032
240	0x3dbb72a8	0.09152728
241	0x3e1c5fb1	0.15270878
242	0xbde125e5	-0.10993556
243	0x3e44e760	0.19228888
244	0x3cc4f5ec	0.024043046
245	0x3d7cb92b	0.061700027
246	0xbcb58973	-0.022160267
247	0x3e0667ab	0.13125484
248	0xbd466397	-0.04843482
249	0x3d049c65	0.032375712
250	0x3e543d9b	0.20726626
251	0xbdb3de69	-0.08782656
252	0x3c291f18	0.010322355
253	0xbd60c67c	-0.05487679
254	0xbe035121	-0.12823917
255	0x3e307a9d	0.17234273

decoder.decoder.weight_hh_l0 f4 [128, 32]
0	0x3d2b7644	0.041860834
1	0xbbab514c	-0.005228197
2	0x3d6cc324	0.057803288
3	0xbde33a1d	-0.110950686
4	0x3d635108	0.0554972
5	0xbdae87e3	-0.08522012
6	0xbddd2155	-0.10797373
7	0x3da76854	0.08174196
8	0xbce47e94	-0.027892388
9	0xbcd41402	-0.025888447
10	0x3d03e910	0.032204688
11	0xbd9ec45c	-0.07752296
12	0xbd9bd7fa	-0.07609554
13	0x3dcc9515	0.09989373
14	0xbe340138	-0.1757859
15	0xbe2b04b2	-0.1670101
16	0xbd299e6e	-0.041410856
17	0xbd0ada5e	-0.033899657
18	0xbe12a615	-0.14321168
19	0x3dd69dea	0.104793385
20	0x3d21c1ee	0.039491586
21	0x3dc56487	0.09638315
22	0xbcb7aa59	-0.022420095
23	0x3d8c1f85	0.068419494
24	0xbdb41776	-0.08793537
25	0x3d7a5897	0.061119642
26	0x3d26ec92	0.040752955
27	0x3b49daae	0.003080051
28	0x3da1e94b	0.07905825
29	0x3df61a7e	0.12016772
30	0x3debf91a	0.11522122
31	0x3cfe3cb2	0.031034801
32	0xbdc8c890	-0.09803879
33	0xbd8f5baf	-0.06999909
34	0xbd113ad4	-0.035456493
35	0x3dde219a	0.10846253
36	0x3e0c19e5	0.13681753
37	0xbe263ce9	-0.16234173
38	0x3d9be7e1	0.07612587
39	0xba98f569	-0.0011669818
40	0x3d3cc375	0.04608484
41	0xbd658904	-0.05603887
42	0xbe157b3f	-0.14597796
43	0x3baabe35	0.0052106627
44	0xbd11ddf2	-0.035612054
45	0x3df7daf4	0.12102309
46	0x3d6c6285	0.057711143
47	0x3d1f15fd	0.03883933
48	0x3de5d0f4	0.11221495
49	0x3dd9cf77	0.10635274
50	0x3da1d430	0.079018
51	0x3d771642	0.06032396
52	0xbd853b32	-0.06505431
53	0xbe3c5667	-0.18392335
54	0xbd0473ef	-0.032337125
55	0x3c4efd91	0.012633697
56	0x3e495ae1	0.19663574
57	0x3d8ce6f5	0.06879989
58	0xbdcd923e	-0.10037659
59	0xbd6335e3	-0.055471312
60	0xbda0dc14	-0.078544766
61	0x3d3763aa	0.04477278
62	0x3bdcff55	0.006744305
63	0x3df2993b	0.11845633
64	0xbc8a10f1	-0.016853781
65	0x3de3b2ff	0.11118125
66	0xbc34ccd7	-0.011035166
67	0x3dee4dbd	0.11635921
68	0xbdc4ce3f	-0.09609651
69	0x3d8e2fad	0.06942687
70	0xbde27cfb	-0.110589944
71	0x3c7561b2	0.014976906
72	0xbdf7a09f	-0.12091183
73	0xbd9391bc	-0.07205531
74	0xbd3b053e	-0.045659296
75	0xbdf313ba	-0.11868997
76	0x3dfb305c	0.12265083
77	0x3d399d39	0.045315955
78	0xbe1d5ae9	-0.1536671
79	0x3e0938a1	0.13400508
80	0xbe366b5f	-0.17814396
81	0x3e54d38c	0.20783824
82	0xbdc04f48	-0.09390122
83	0x3e00e1bf	0.12586115
84	0xbb8be4bb	-0.00426921
85	0x3dd4d5e3	0.10392358
86	0x3e045b36	0.12925419
87	0x3d46a1da	0.048494197
88	0x3d0d3d8c	0.034482524
89	0xbdaeb601	-0.08530808
90	0xbde3a2b7	-0.1111502
91	0x3d761c6f	0.06008571
92	0xbd844bef	-0.06459796
93	0xbd6b2b84	-0.057414547
94	0xbd4b209b	-0.049591642
95	0x3db84cdb	0.08999034
96	0xbd60e744	-0.054908052
97	0x3aee79f7	0.0018194307
98	0xbc901022	-0.017585818
99	0x3de34d94	0.11098781
100	0x3d1440a8	0.036194474
101	0xbdee20df	-0.116273634
102	0x3d69d961	0.057092074
103	0xbd54c429	-0.051944885
104	0xbdb40aca	-0.0879112
105	0x3e201507	0.15633021
106	0xbe205b60	-0.15659857
107	0xbe021c90	-0.12706208
108	0x3c836ccd	0.016043091
109	0x3e4e4523	0.20143561
110	0x3daff247	0.085911326
111	0xbe144e62	-0.14483026
112	0xbe2180cd	-0.1577179
113	0x3e4a0306	0.19727716
114	0xbe1ae7a3	-0.15127425
115	0xbdd8d3aa	-0.10587247
116	0x3e0d896f	0.13821958
117	0x3d8a2b19	0.067465015
118	0x3e178dc7	0.14800178
119	0xbe06c261	-0.13160087
120	0xbdfc8141	-0.12329341
121	0xbd836d3e	-0.06417321
122	0xbd54da81	-0.051966194
123	0xbdc2cf66	-0.09512214
124	0x3e1da8c9	0.15396418
125	0xbc6fe748	-0.014642544
126	0x3dcb42fd	0.099248864
127	0xbdaf475a	-0.08558531
128	0xbde3b053	-0.111176156
129	0xbd983dab	-0.07433637
130	0xbd822ba7	-0.06355982
131	0x3e3023b0	0.17201114
132	0xbe101ee0	-0.14074278
133	0xbd0cd3c8	-0.034381658
134	0xbde03bae	-0.10948883
135	0x3d7612d4	0.06007655
136	0x3de501d1	0.11181987
137	0xbda78528	-0.081796944
138	0xbd164010	-0.03668219
139	0xbd0b81ee	-0.034059457
140	0xbd5f219c	-0.05447541
141	0xbe70979d	-0.23495336
142	0x3dc54a2a	0.09633286
143	0x3ce35902	0.027752403
144	0xbd9edb74	-0.07756701
145	0xbe4d8772	-0.200712
146	0xbdb9e601	-0.09077073
147	0xbe32c1f2	-0.17456797
148	0x3e112a3c	0.14176267
149	0x3db751ca	0.08951147
150	0xbdbebb2e	-0.093130454
151	0xbc3b8447	-0.011445112
152	0xbe00eccf	-0.12590335
153	0x3d80772d	0.06272731
154	0xbdd37d8b	-0.1032668
155	0x3e707526	0.23482189
156	0xbd973d13	-0.07384696
157	0xbd985055	-0.07437197
158	0xbe00a2a0	-0.12562037
159	0xbe20a359	-0.15687312
160	0xbe01ead7	-0.1268724
161	0xbe0816f3	-0.13290004
162	0x3dc50039	0.09619183
163	0x3e0d1069	0.13775791
164	0xbd9e9374	-0.07742968
165	0x3dcbd89f	0.099534266
166	0x3c2c8140	0.0105288625
167	0x3da8c93c	0.082415074
168	0x3dad794e	0.08470403
169	0xbdbf2db3	-0.09334888
170	0xbe4678d9	-0.19382037
171	0x3ba17d1b	0.004928244
172	0xbe294ab6	-0.16532406
173	0x3cf5b3ac	0.0299929
174	0x3dd76e52	0.10519089
175	0xbdcf817e	-0.101321205
176	0xbb8d57d2	-0.0043134475
177	0xbceb42a3	-0.028718298
178	0x3cc9a871	0.024616452
179	0x3de82acc	0.11336288
180	0x3d452618	0.048132032
181	0xbe43230d	-0.1905634
182	0xbcb34c9b	-0.021887114
183	0x3e2896bf	0.16463755
184	0x3e71afdb	0.2360224
185	0xbda61c8f	-0.08110916
186	0x3c06122d	0.008183044
187	0xbd9c1a08	-0.076221526
188	0x3d8d0964	0.06886557
189	0xbe37d5aa	-0.179526
190	0xbd28a503	-0.041172992
191	0x3e0c2d82	0.13689235
192	0xbdb6fd70	-0.08935058
193	0x3e41e3af	0.1893451
194	0x3cb00da9	0.021490889
195	0xbdcd7271	-0.100315936
196	0xb8cb531e	-9.695276e-05
197	0x3d0c15d2	0.034200497
198	0x3e38d9a6	0.18051776
199	0xbd96ed26	-0.07369451
200	0x3a566c64	0.00081796036
201	0x3cecd42b	0.028909763
202	0x3da57fec	0.0808104
203	0xbdecb667	-0.11558228
204	0xbd5f78d7	-0.0545586
205	0x3d419bb0	0.047267616
206	0xbe298cd4	-0.16557628
207	0x3de0cfc5	0.10977129
208	0xbe0efcbc	-0.13963598
209	0x3dd95b86	0.1061316
210	0x3d852df2	0.06502904
211	0x3b1eff8d	0.0024261207
212	0xbd00a6c0	-0.031409025
213	0x3cf7b8ae	0.03023943
214	0xbdff10b2	-0.12454356
215	0xbd055622	-0.032552846
216	0xbd0ddc17	-0.034633722
217	0x3d6a8ea5	0.057264943
218	0x3e23f811	0.16012599
219	0x3dee0c2c	0.11623415
220	0x3dcc8000	0.099853516
221	0x3d2bb787	0.041923072
222	0xbd631cc6	-0.055447362
223	0xbdbdfef7	-0.09277146
224	0x3dea887d	0.11451814
225	0xbdd846de	-0.10560392
226	0xbb30884d	-0.002693671
227	0x3e23dce0	0.16002226
228	0x3e39b102	0.1813393
229	0x3dce9988	0.100878775
230	0x3e4adb3c	0.19810194
231	0xbaffa91b	-0.0019505353
232	0x3d9f5532	0.077799216
233	0x3e186b1c	0.14884609
234	0x3e37f8f5	0.17966063
235	0x3e02e902	0.12784198
236	0x3d01d0f9	0.031693432
237	0x3e18628d	0.14881344
238	0x3e006ae3	0.12540774
239	0x3c167708	0.009183653
240	0xbdcc710f	-0.09982502
241	0x3e57c93e	0.21072862
242	0x3dd69900	0.10478401
243	0xbd2c8f2d	-0.04212873
244	0x3d27712e	0.04087942
245	0x3e1303ec	0.14356965
246	0xbe03be77	-0.12865625
247	0xbbbe3046	-0.0058040945
248	0x3dc47a1a	0.095936015
249	0x3db6b1e4	0.08920649
250	0xbcaee2d6	-0.021348398
251	0x3d65575a	0.055991508
252	0xbd11886f	-0.035530504
253	0xbd3eb761	-0.046561603
254	0xbdd44fe1	-0.10366798
255	0xbdf7d271	-0.121006854

decoder.decoder.bias_ih_l0 f4 [128]
0	0x3b58f3c1	0.0033104273
1	0x3db1b3cb	0.08676871
2	0x3df10982	0.117693916
3	0x3e36ae7a	0.17839995
4	0x3e180d0a	0.14848724
5	0x3e27041d	0.16310163
6	0x3d047226	0.032335423
7	0xbd30a074	-0.04312177
8	0xbd13d7b0	-0.036094368
9	0x3c943030	0.018089384
10	0x3c0fa9d6	0.008768519
11	0xbd30d441	-0.04317117
12	0x3c85943c	0.016306035
13	0x3c9ff630	0.019526571
14	0x3e2cd7f9	0.16879262
15	0xbe0d1249	-0.13776506
16	0x3e41e271	0.18934037
17	0xbe291262	-0.16510919
18	0x3e13603b	0.14392178
19	0x3e0f41dd	0.13989969
20	0x3e26aceb	0.162769
21	0xbdf98845	-0.121841945
22	0xbcd01b47	-0.025403632
23	0x3e06dfcd	0.1317131
24	0xbe06e509	-0.13173307
25	0x3d2d4a5c	0.042307243
26	0x3beede6f	0.0072896997
27	0x3e1d0490	0.15333772
28	0xbe1b9178	-0.1519221
29	0x3d0132cb	0.03154258
30	0x3d7e7b5f	0.062129375
31	0x3d6d4099	0.057922933
32	0xbe190e49	-0.14946856
33	0x3defb3de	0.11704229
34	0x3bca8ad7	0.006181102
35	0xbd2c2729	-0.042029534
36	0xbe027990	-0.12741685
37	0xbda5b226	-0.0809062
38	0x3e0da7ae	0.13833496
39	0xbe0ae15c	-0.1356253
40	0x3ce4cf91	0.027931007
41	0x3d9d1d0c	0.07671556
42	0x3d98295f	0.07429766
43	0xbe0319df	-0.12802838
44	0xbe2110d1	-0.15729071
45	0x3e4af5ea	0.19820371
46	0xbd0d119b	-0.034440618
47	0x3ca25078	0.019813761
48	0x3dd59cca	0.10430296
49	0x3c9b4a9b	0.018956473
50	0xbddc8e6a	-0.10769351
51	0xbd4ddbfc	-0.05025862
52	0xbb6231eb	-0.0034514617
53	0x3cd83058	0.02639024
54	0xbd86166c	-0.065472454
55	0x3e2cace7	0.16862832
56	0x3cdf26f5	0.027240256
57	0x3df945d9	0.121715255
58	0x3e1cd248	0.15314591
59	0x3db86c80	0.0900507
60	0xbe2edf19	-0.17077293
61	0x3e3eef14	0.18645889
62	0x3d0851f5	0.033281285
63	0x3d797ed9	0.060911987
64	0x3d8884c3	0.06665947
65	0x3cdd0ec0	0.026984572
66	0xbe0bf032	-0.13665846
67	0x3e165a54	0.14682895
68	0xbe0ce574	-0.13759404
69	0x3d8ebe30	0.06969869
70	0xbd588f6e	-0.05287116
71	0xbd4042cb	-0.0469387
72	0xbd5ae0d2	-0.05343706
73	0x3d9f2b03	0.07771876
74	0xbdac98cd	-0.08427582
75	0x3dd47ec9	0.10375745
76	0xbe11f880	-0.14254951
77	0x3d80e61c	0.0629389
78	0xbe0ac8ec	-0.13553208
79	0x3d05f3ba	0.03270314
80	0xbdbb9ab2	-0.09160365
81	0xbda29770	-0.07939041
82	0x3aef1fb2	0.0018243699
83	0xbd5bb65f	-0.05364072
84	0xbe2822be	-0.16419503
85	0x3d9d409e	0.076783404
86	0xbe2aa4fc	-0.16664499
87	0x3e1be177	0.15222727
88	0x3d77f487	0.060535934
89	0xbe188d6d	-0.148977
90	0xbcacebf3	-0.021108603
91	0xbcb87102	-0.022514824
92	0xbc3c0fdb	-0.01147839
93	0x3dc692c9	0.09695966
94	0xbd6bdbc4	-0.05758263
95	0x3d1c9ca2	0.038235314
96	0xbdc09c8d	-0.0940486
97	0xbdeced12	-0.11568655
98	0x3d1a6270	0.037691534
99	0xbb0cf0ca	-0.0021505826
100	0x3e1b8380	0.15186882
101	0x3d9053d8	0.07047242
102	0xbd566edb	-0.052351814
103	0xbcad2545	-0.021135936
104	0x3d5b5c35	0.053554732
105	0x3ba53dde	0.0050427755
106	0xbdb1707b	-0.08664032
107	0x3d713a56	0.058893524
108	0xbe0f72c8	-0.1400863
109	0xbddc315f	-0.10751604
110	0x3e361b92	0.17783955
111	0x3e0f77cf	0.14010547
112	0x3e29c74a	0.16579929
113	0xbe33405b	-0.17505018
114	0x3e440a46	0.19144544
115	0xbd522f24	-0.051314488
116	0xbdddcf67	-0.108305745
117	0xbdc899bc	-0.097949475
118	0xbd817504	-0.06321147
119	0x3da7d34f	0.08194601
120	0x3cf1a32a	0.029496748
121	0xbc80179e	-0.015636262
122	0xbd14899b	-0.036264043
123	0x3d9b49a5	0.07582406
124	0x3dbe31e5	0.092868604
125	0xbdb8113f	-0.089876644
126	0xbd6b0b33	-0.057383727
127	0xbe0eb1d2	-0.1393502

decoder.decoder.bias_hh_l0 f4 [128]
0	0xbded9726	-0.11601095
1	0xbd01e94f	-0.03171664
2	0xbdcb59ef	-0.09929263
3	0x3defa62f	0.11701619
4	0xbc96eded	-0.018423999
5	0xbe30b915	-0.17258103
6	0x3dcbe823	0.09956386
7	0x3d0c3bc9	0.034236703
8	0x3de9058c	0.11378011
9	0x3e28eb36	0.16495976
10	0xbde8e3d7	-0.11371582
11	0x3c5585ee	0.01303242
12	0xbdc41080	-0.095734596
13	0x3d9fc15f	0.078005545
14	0x3d5124c0	0.05106044
15	0x3e37fad0	0.17966771
16	0x3d41fa4d	0.047357846
17	0xbd8f2ea1	-0.06991316
18	0x3dc7c020	0.09753442
19	0xbd81b060	-0.06332469
20	0x3e46dcdc	0.19420189
21	0x3da25001	0.07925416
22	0x3e0ebf5b	0.13940184
23	0x3e42ff9f	0.19042824
24	0x3bef6d1f	0.0073067094
25	0x3e0a584a	0.13510242
26	0xbe27742f	-0.16352914
27	0x3e11e4e0	0.14247465
28	0x3bf8e255	0.0075953403
29	0x3e0b0413	0.13575773
30	0x3da931ef	0.08261477
31	0xbd92cb99	-0.071677394
32	0x3d4037e1	0.04692829
33	0xbd1b0f03	-0.037856113
34	0xbd96619c	-0.07342836
35	0xbdc8096b	-0.09767421
36	0xbd6defe5	-0.05809011
37	0x3e2da466	0.16957244
38	0x3ddec9ca	0.10878332
39	0xbda8e82a	-0.08247407
40	0x3ce6a623	0.028155392
41	0x3df0bfc4	0.117553264
42	0xbdf78217	-0.120853595
43	0xbd11e4a0	-0.035618424
44	0x3dfd5496	0.12369649
45	0x3e2829d2	0.16422203
46	0xbd408a57	-0.04700693
47	0xbd982130	-0.07428205
48	0x3e25aaac	0.16178387
49	0xbddf5120	-0.10904145
50	0xbde8bdd8	-0.11364335
51	0x3df784d4	0.12085882
52	0xbcd1ca3b	-0.025609126
53	0x3cd52132	0.026016805
54	0x3d7d5aac	0.06185405
55	0xbd996b75	-0.07491199
56	0xbd5c1147	-0.053727414
57	0x3d0411ba	0.032243468
58	0xbde2b1bc	-0.110690564
59	0xbd285265	-0.041094203
60	0xbe217fe5	-0.15771444
61	0x3d80c5d3	0.06287732
62	0xbdb0e4fb	-0.086374246
63	0xbdb0c0af	-0.086305015
64	0x3df65165	0.120272435
65	0x3e1c672b	0.1527373
66	0xbe16ffec	-0.14746064
67	0x3c056aad	0.008143109
68	0x3e379dfd	0.17931361
69	0x3c06dede	0.008231847
70	0x3d1f7e26	0.038938664
71	0xbdff74bd	-0.12473438
72	0xbd9f9b33	-0.07793274
73	0xbd9daeb0	-0.076993346
74	0x3d4bd8af	0.049767192
75	0xbe189c64	-0.14903408
76	0x3e2f0bf9	0.17094411
77	0xbdf02f05	-0.11727718
78	0x3cab4338	0.020906076
79	0xbd8a44a2	-0.06751372
80	0xbd4373ab	-0.04771773
81	0xbde50c47	-0.11183982
82	0x3e1e84e9	0.15480389
83	0xbd957b3c	-0.07298896
84	0x3e2e3335	0.17011721
85	0x3d46a478	0.048496693
86	0x3e04320f	0.12909721
87	0x3e461875	0.19345267
88	0xbdb387cb	-0.08766135
89	0x3da1a911	0.07893575
90	0x3e078a6b	0.13236396
91	0x3dd634f9	0.104593225
92	0xbdd919f9	-0.10600657
93	0xbdd808e7	-0.10548573
94	0x3e131cd0	0.1436646
95	0xbdde6bf5	-0.10860435
96	0xbe405958	-0.18784082
97	0xbd4863bd	-0.048923243
98	0xbdba9a9a	-0.09111519
99	0x3c78bf6c	0.015182357
100	0xbcd853b5	-0.026407102
101	0xbda1880c	-0.07887277
102	0xbdf8d535	-0.12150041
103	0x3dbb19db	0.09135791
104	0x3c90b005	0.017662058
105	0xbcad9e5c	-0.021193676
106	0xbdd4ea85	-0.103962936
107	0x3de010c9	0.109407015
108	0x3e2ef1b7	0.17084394
109	0x3d6843c3	0.056705248
110	0x3c89f36b	0.016839704
111	0x3de2e9b3	0.11079731
112	0x3d1a4fae	0.037673645
113	0xbd8959d2	-0.06706585
114	0x3e06754c	0.13130683
115	0xbda931b6	-0.08261435
116	0xbdc06ccb	-0.093957506
117	0x3d891ccb	0.06694945
118	0xbd24cb5f	-0.040233012
119	0x3e09643e	0.13417146
120	0xbdfb6d59	-0.12276716
121	0x3d6c20c1	0.057648424
122	0x3d2057ff	0.03914642
123	0x3d73a7b5	0.05948611
124	0xbd92d3f2	-0.071693316
125	0x3d1b915f	0.037980434
126	0xbc41e5e6	-0.011834597
127	0xbd22baaa	-0.039728798

decoder.spatial_embedding.weight f4 [16, 2]
0	0xbec740f8	-0.38916755
1	0x3f591b8f	0.84807676
2	0x3da5e9ed	0.081012584
3	0x3f1e3737	0.61803
4	0xbebc80bf	-0.36816975
5	0xbf9653e2	-1.1744349
6	0x403cd684	2.950593
7	0xbf62423e	-0.8838233
8	0x3fd675bd	1.6754681
9	0xbef0387c	-0.46918094
10	0xbf51a6ef	-0.81895345
11	0xbf27ae5c	-0.65500426
12	0xbedc7f96	-0.4306609
13	0x3f0c230e	0.5474099
14	0x3fc868c4	1.5656972
15	0x3f9e26dd	1.235561
16	0xbf3efa5d	-0.74600774
17	0x3e394eaa	0.18096414
18	0x3f1f9d6d	0.6234959
19	0xbe4283bc	-0.18995565
20	0x3faaa1cb	1.3330625
21	0x3d2c0069	0.04199258
22	0xbe2348c4	-0.15945727
23	0xbe3fd288	-0.18732655
24	0x3cad7183	0.02117229
25	0xbf22a42c	-0.63531756
26	0x3fa8850e	1.3165605
27	0x3f8f7012	1.1206076
28	0xbf33c677	-0.7022471
29	0x3f705600	0.93881226
30	0x3d83835b	0.064215384
31	0x3f79400e	0.97363365

decoder.spatial_embedding.bias f4 [16]
0	0x3f0e0f89	0.55492455
1	0xbe909225	-0.282365
2	0xbe9a5c31	-0.3014846
3	0x3b1c1966	0.002381885
4	0xbf1481dd	-0.58010656
5	0xbf2c5d4d	-0.67329866
6	0x3f2d5ec6	0.6772274
7	0x3f11fede	0.5702952
8	0xbeeac89c	-0.45856178
9	0x3f03ebde	0.5153178
10	0xbf24fd5c	-0.64449096
11	0x3e94207a	0.28931028
12	0x3bcf0e5b	0.00631885
13	0xbee9f518	-0.45694804
14	0xbe0edc6c	-0.13951272
15	0xbd37e0cd	-0.04489212

decoder.hidden2pos.weight f4 [2, 32]
0	0xbd4ae819	-0.04953775
1	0x3eabfbdc	0.3359059
2	0x3e12b73e	0.14327714
3	0xbe1daadc	-0.15397209
4	0xbe9b62fb	-0.30348954
5	0xbe2fd645	-0.17171581
6	0x3ea24246	0.31691188
7	0x3e777d3a	0.24168864
8	0x3df0d760	0.117598295
9	0x3e882082	0.26587301
10	0x3ec1ab32	0.37825924
11	0x3d84b649	0.06480081
12	0xbe81d3ce	-0.25356907
13	0xbe448eb5	-0.19195063
14	0x3f302646	0.688084
15	0x3b210a11	0.002457265
16	0xbcf9b4de	-0.030481752
17	0xbd38d203	-0.045122158
18	0xbe884616	-0.2661597
19	0xbef3c160	-0.4760847
20	0x3e074453	0.13209657
21	0xbe58ae43	-0.21160226
22	0xbe705625	-0.23470362
23	0xbc7e1ef4	-0.0155103095
24	0xbdd57c52	-0.10424103
25	0x3e27cbdc	0.1638636
26	0x3e38a7bf	0.1803274
27	0x3d85aae1	0.06526733
28	0xbea7599d	-0.32685557
29	0xbedab7b5	-0.42718282
30	0xbe875734	-0.26433718
31	0xbf20050a	-0.6250769
32	0xbdab0eb1	-0.083524115
33	0xbc0651d1	-0.0081982175
34	0x3ecfe43c	0.40603817
35	0xbe646300	-0.2230339
36	0xbecb4762	-0.39702898
37	0xbda31c49	-0.07964379
38	0x3d95c96b	0.07313808
39	0x3c295e0c	0.010337364
40	0xbb65e5f5	-0.0035079692
41	0x3e3c4a8a	0.1838781
42	0xbe5fa44f	-0.21840023
43	0x3d3cfee3	0.046141516
44	0x3e04bd25	0.12962778
45	0xbe4c4060	-0.19946432
46	0xbb8c32ed	-0.0042785318
47	0x3d3d3664	0.04619445
48	0xbe8ebf1e	-0.27880186
49	0x3da16dd3	0.078822754
50	0x3da84355	0.082159676
51	0x3d828e78	0.0637483
52	0xbe6f2613	-0.23354368
53	0xbebebd2a	-0.37253696
54	0xbd5b0dec	-0.053480074
55	0xbd8077cb	-0.06272849
56	0x3ec97de2	0.39353853
57	0xb98060d3	-0.00024486202
58	0xbd93afbb	-0.07211252
59	0x3ce61c7a	0.02808975
60	0x3d68f921	0.056878213
61	0xbe8245fc	-0.2544402
62	0xbda4512a	-0.08023293
63	0x3ef485f6	0.47758454

decoder.hidden2pos.bias f4 [2]
0	0x3e064df4	0.13115674
1	0x3db45f57	0.08807247

pool_net.spatial_embedding.weight f4 [16, 2]
0	0x3e15db31	0.14634396
1	0x3eee7149	0.46570805
2	0x3def1e74	0.1167573
3	0xbfb62475	-1.4229876
4	0xbf9d1b92	-1.2274039
5	0x3f8a97c1	1.0827562
6	0x3f98dae1	1.1941797
7	0x3f4ed6ae	0.80796325
8	0x3fb3b5a6	1.403981
9	0xbf513995	-0.8172849
10	0xbfa18ac4	-1.2620473
11	0x3f988a0e	1.1917131
12	0xbe41175f	-0.18856572
13	0x3f002858	0.5006156
14	0x3e38909a	0.18023911
15	0x3f3e6ddf	0.743864
16	0x3fadcf01	1.3578798
17	0xbfee7176	-1.8628376
18	0xbdf0a210	-0.11749661
19	0x3f554bf1	0.83319
20	0xbe260c4d	-0.1621563
21	0xbf3839dd	-0.7196329
22	0x3f1c50c5	0.61060745
23	0xbcc269f6	-0.023732167
24	0x3eca3585	0.39493957
25	0xbf656d35	-0.8961976
26	0xbf1a90d5	-0.60377246
27	0x3e086486	0.13319597
28	0xbf601659	-0.875341
29	0x3f9626a5	1.1730543
30	0x3df9e163	0.12201192
31	0x3dc4fe11	0.09618772

pool_net.spatial_embedding.bias f4 [16]
0	0x3eb968bb	0.36212716
1	0x3efb52ca	0.490866
2	0x3ecee535	0.40409246
3	0xbe18b310	-0.14912057
4	0x3e5b9615	0.2144397
5	0x3e6f9a16	0.23398623
6	0x3f2afd92	0.6679317
7	0xbec5c265	-0.38624874
8	0xbf19256e	-0.5982274
9	0xbe4d3f56	-0.20043692
10	0xbe9435f3	-0.2894741
11	0x3efd709d	0.4949998
12	0x3efa15b7	0.48844692
13	0xbe716f66	-0.23577651
14	0x3e7388c8	0.23782647
15	0xbdb07a78	-0.08617109
